models/mountaincar_2D/checkpoint_att.12.pth.tar (torch_old, 105542 bytes, 8 tensors)

weight f4 [128, 5]
000000 b8 f8 28 bf 11 67 97 be 7a 9c 12 3b 4f 78 84 3e
       -0.66004515 -0.2957082 0.00223711 0.25873038
000010 eb 87 4a be b5 b9 01 bc 35 b5 9a 3e f1 70 83 3e
       -0.19778411 -0.007917811 0.30216375 0.25672105
000020 63 c2 cd 3e 4e 85 66 bd d5 0a 77 be bc ce 75 3e
       0.40187368 -0.056279473 -0.24125226 0.24004644
000030 ae 5c 88 3e 0c d9 a9 be 68 ec 74 3e 55 17 23 bf
       0.2663321 -0.33173406 0.23918307 -0.63707477
000040 af 62 cf be e2 08 50 3e 1a d2 50 3e 4e 69 78 be
       -0.40504977 0.20315889 0.20392647 -0.2425892
000050 d6 f0 a7 be 80 e4 68 bd d8 45 db be 76 8a 81 be
       -0.3280093 -0.05685854 -0.42826724 -0.2530095
000060 ee 66 48 be 1a 7c f7 3e b3 57 a7 3e 99 4e b3 be
       -0.19570515 0.4833687 0.32684097 -0.35020903
000070 94 d2 45 bd 15 64 01 3e 91 db a6 3d 26 68 cf 3e
       -0.048296526 0.12635835 0.08147348 0.40509146
000080 e2 b6 89 3d ae 50 e8 be 6c 21 22 be 75 e3 7a 3d
       0.06724335 -0.45374054 -0.15833062 0.061252076
000090 08 31 41 3d 30 e1 ed 3d f6 37 0e be c0 d4 ef 3d
       0.0471659 0.11615217 -0.13888535 0.11710501
0000a0 23 e9 ab 3e 33 f1 3f be 2e 50 ac 3e 40 c7 6b bc
       0.33576307 -0.18744354 0.33654922 -0.014390767
0000b0 78 f0 b8 bd 6a 01 00 3f 82 b9 99 3d 55 90 63 be
       -0.09030241 0.5000216 0.07506086 -0.22223027
0000c0 bd 07 b6 3e 77 a2 dc bd 4d 9a 10 3c bc 28 23 bf
       0.3555278 -0.10773175 0.008825851 -0.6373403
0000d0 a7 4c e2 3b c0 f2 07 3e 5e 45 73 bd d5 d3 0b be
       0.0069061103 0.13276196 -0.059392326 -0.13655026
0000e0 15 2f 05 3e e8 cd 24 bd 41 3e d1 3e 10 dc f2 bc
       0.13006242 -0.04023543 0.40867808 -0.02964595
0000f0 a3 a7 ff bc 9d 12 ae be 7f f6 d0 be 04 1c b1 be
       -0.031207865 -0.33998576 -0.40813062 -0.34591687
000100 34 1c a9 3e b8 c0 1a 3e e4 59 e8 3e a8 54 d2 be
       0.3302933 0.15112579 0.4538108 -0.41080213
000110 87 c3 01 be 2d 65 48 be d1 3f db bd fa 7a 7a bd
       -0.12672244 -0.19569845 -0.107055314 -0.061152436
000120 6a 6b 8e be 90 5d 8c 3e 03 2e 15 3e b4 95 eb be
       -0.27816325 0.27415133 0.14568333 -0.46012652
000130 eb f9 ee 3e c8 9c a1 3d 19 eb e1 bd 4a c4 cc 3d
       0.46675047 0.07891232 -0.110311694 0.09998377
000140 2a fa cc be 7d cb 8f 3e 49 df ae be d6 79 01 be
       -0.4003461 0.28084937 -0.34154728 -0.12644133
000150 a0 2c 53 3e 85 be 78 3e 3d d4 0e be 92 44 0c 3d
       0.20622492 0.24291427 -0.1394815 0.03424508
000160 1b e6 de be b4 12 4a 3d 9a 8a 3d be 1a 42 e0 be
       -0.43534932 0.049334243 -0.18509904 -0.4380043
000170 b2 c6 71 be 1a 36 c0 be 94 6b 4b be 08 26 58 3e
       -0.23610952 -0.37541276 -0.19865257 0.21108258
000180 f9 69 88 3e 68 9c e0 3d 6c 52 d0 3d 06 61 28 3e
       0.2664335 0.10967332 0.10171971 0.16443262
000190 31 8d 50 be 6a 9e 0f 3e 3c b0 5e 3e d4 c6 a1 bd
       -0.2036636 0.14025274 0.21746916 -0.078992516
0001a0 2a 91 89 be 23 7c 7f be 32 73 88 be 80 52 b3 bb
       -0.26868564 -0.24949698 -0.26650387 -0.0054724813
0001b0 8a 8b 26 be 24 f1 37 3e d7 53 53 3d f8 c5 65 be
       -0.16264167 0.17963082 0.051593628 -0.224388
0001c0 1e d9 63 3d e5 31 0f 3e f8 38 b7 be 7a 6a f4 3d
       0.05562698 0.13983877 -0.3578565 0.11934371
0001d0 ac 71 d9 3e df c8 1c 3d 74 80 d0 bd 5f cd ed bd
       0.42469537 0.038277503 -0.101807505 -0.11611437
0001e0 7f f5 c1 3d f9 b5 b0 be 87 48 e4 3e 95 cd ec 3e
       0.09470653 -0.34513834 0.44586584 0.46250597
0001f0 00 54 13 3c b8 a4 90 3d fa f7 82 3e 2c 49 64 be
       0.008992195 0.070626676 0.25579816 -0.22293538
000200 b7 cd b1 be 3d 51 4e be 7e d1 c4 be 3b e8 41 3e
       -0.3472726 -0.20148177 -0.3844108 0.18936245
000210 a2 76 b8 3d b9 b0 ec 3d 1e 7b 11 be b5 07 00 3f
       0.090070024 0.11557145 -0.14207122 0.5001176
000220 24 5e 1e 3e 5a cf 34 3e 1d 0b bf bc f4 c5 2b be
       0.154656 0.17657223 -0.023320729 -0.16774732
000230 1f 21 8c be a6 f0 f3 3e b6 ae b3 3e 04 ba 6a 3d
       -0.2736902 0.47644538 0.3509423 0.057306305
000240 4c d7 df bd 86 57 c2 3d 3c 62 60 be 89 e4 1e be
       -0.109297365 0.0948935 -0.21912473 -0.15516867
000250 4e 6f 56 be 54 90 2f be 5f 51 54 be 40 a3 61 3e
       -0.20940897 -0.171449 -0.20734166 0.22034931
000260 e1 bc c1 bd 7b 05 81 3c 4d b9 8f 3d f3 6c ac 3d
       -0.09459854 0.015749684 0.07017765 0.08419218
000270 3b c6 a6 3e 70 0c ea bc 3f 2b a7 be cb c8 de bd
       0.32573113 -0.028570384 -0.32650182 -0.10878142
000280 7a 99 c4 3e 6d 5a bb bd 2f 11 06 3e 25 8a a9 be
       0.38398343 -0.09148107 0.13092493 -0.33113208
000290 55 a1 9a 3d 4c 97 7a be 4d cf fc 3e b1 33 9a 3e
       0.07550303 -0.24471778 0.49376908 0.30117562
0002a0 e8 a4 a8 3e 7b 2b 7f 3e 20 0a eb bc 6f ea 83 be
       0.32938313 0.2491893 -0.028691351 -0.25764796
0002b0 12 1c b1 be 6a 85 6f be 7a aa 30 be 05 ca ef 3e
       -0.34591728 -0.23390737 -0.17252532 0.46833816
0002c0 26 5a 52 be 85 34 56 3d db c9 b3 3e d0 c5 8a bd
       -0.20542201 0.05229618 0.3511494 -0.06776011
0002d0 4e 85 09 3e 25 c1 dd be 75 02 ba be 8f 0e 46 3e
       0.13429758 -0.4331142 -0.3633 0.19341491
0002e0 cb 79 a2 3e 04 db 97 be 7f 9c 98 be 38 f2 fd 3d
       0.31733546 -0.29659283 -0.29806897 0.12399715
0002f0 43 a9 d9 be e4 55 12 3e 9b c0 a8 3e e8 7c 47 3d
       -0.4251195 0.14290577 0.32959446 0.048703104
000300 9e 34 5e be 30 75 16 be b9 8a 00 3e 44 4c 36 be
       -0.2169976 -0.14693141 0.12552918 -0.1780253
000310 7b fa 02 bf 01 92 e7 3c 5e 72 44 3e d3 bd 14 3e
       -0.5116345 0.028267862 0.19184253 0.14525537
000320 53 0d af bd 39 d1 a5 3e bd 75 50 be 40 86 f6 bd
       -0.08547463 0.32386187 -0.20357414 -0.12037325
000330 66 f4 db 3d df d5 a4 3d 36 07 f7 be 5b 5a 21 3e
       0.10739975 0.08048605 -0.4824769 0.15757124
000340 e5 27 af be 5d 1c 82 3e eb f4 61 be ab b7 f0 bb
       -0.34210125 0.25412264 -0.22066085 -0.0073461137
000350 33 99 d7 3d 8b dd a7 3e b0 ac 25 be e0 02 29 3e
       0.10527267 0.3278621 -0.16179156 0.16505003
000360 c8 1b a4 3e 49 c2 ab bd 26 96 c7 be 81 de 90 be
       0.32052445 -0.08386666 -0.38981742 -0.28294757
000370 9c b5 5f 3e 69 ae 8f be cc 09 c3 bd a9 dc 55 3e
       0.21846622 -0.28062752 -0.09523353 0.20884956
000380 a6 08 e1 be e7 92 b5 be d3 c9 cb 3e 3d 83 ef bd
       -0.4395191 -0.3546364 0.39802417 -0.116949536
000390 70 e7 62 bc 02 7c 61 3e 0b 16 cb 3d fe d6 02 3f
       -0.013849124 0.22019961 0.09916314 0.511093
0003a0 20 b8 7c be 9a 7f 1c 3e 69 6b 9a bc d4 d2 a8 be
       -0.24679613 0.15283051 -0.018850045 -0.3297335
0003b0 84 1b 57 3e 30 3b b1 3d d4 8b 97 bd a1 4e 93 be
       0.2100659 0.08653867 -0.07399717 -0.28770927
0003c0 02 4a 3c 3d 05 5f 1d bf 2f f4 2b 3e 39 02 97 bd
       0.045969017 -0.61473113 0.16792367 -0.07373471
0003d0 44 9d f7 3d 2d d3 c4 3d b8 bf d9 be 22 2d 91 3e
       0.12090543 0.09610591 -0.42529082 0.28354746
0003e0 fd af 95 bd 2d 23 c9 be d9 57 10 be 4f 05 91 bc
       -0.07308958 -0.3928465 -0.14096011 -0.017702727
0003f0 49 84 66 be 3e 11 86 3e 80 c4 76 3c 87 6e 51 3e
       -0.225114 0.2618503 0.015061498 0.20452319

bias f4 [128]
000000 74 49 48 3e fc 0d b3 bd e4 b8 51 be e4 19 3d 3e
       0.1955927 -0.08742902 -0.20480686 0.18466908
000010 e4 c0 04 be f8 3c 89 be eb d3 c3 bc c6 6e 1f be
       -0.12964207 -0.26804328 -0.023904761 -0.155696
000020 ab c9 a1 be c3 71 00 3e 27 6d cd 3e 0e a3 75 be
       -0.31599173 0.12543397 0.4012234 -0.23987982
000030 ed d9 86 bd 5d c2 54 be 64 18 89 bd c3 8e 89 3d
       -0.06584535 -0.20777269 -0.06694105 0.06716683
000040 f3 3c b3 3e 22 ea e4 3c ea 28 26 be 52 08 89 be
       0.35007438 0.027943674 -0.16226545 -0.2676416
000050 5e 9c 75 be 68 4e 6e be 30 d5 82 3d bf 91 b2 bd
       -0.2398543 -0.23272097 0.063883185 -0.08719205
000060 7b 62 8b be 96 6b b8 be 37 b1 7c bd cb f4 9f be
       -0.27223572 -0.36019582 -0.061692443 -0.3124145
000070 d7 d6 d4 be ea 5a 7a 3e fa 2a 46 3d e0 24 2d bd
       -0.4157016 0.24448743 0.04838083 -0.042271495
000080 50 bf cd 3c ac cd 1a be d0 15 c5 3d 79 cd 9f be
       0.025115639 -0.1511752 0.09623301 -0.3121145
000090 a0 1f 0a bd 58 4d 27 3e b3 01 11 3e ff 3f b9 3e
       -0.033721566 0.16338098 0.14160804 0.36181638
0000a0 b0 41 a4 3d 06 a2 85 3e 4d 58 b4 bd 4e b5 44 bd
       0.080203414 0.26100177 -0.088059045 -0.048024468
0000b0 ab 0e 1e be d0 e9 00 3e bc ea b9 be 19 64 59 be
       -0.15435283 0.12589192 -0.363119 -0.2122959
0000c0 93 fb 9d 3e 59 4a 88 3e 52 52 be 3d 12 cf 81 be
       0.30855998 0.26619223 0.09293045 -0.25353295
0000d0 95 5b 7e 3e 36 41 e2 be 61 b8 6a 3e d1 87 72 3c
       0.24839623 -0.44190377 0.22921897 0.014802889
0000e0 36 b0 50 be b0 b9 8b bd 60 8c dd 3d cd 1f 99 be
       -0.20379719 -0.068225265 0.1081779 -0.29907075
0000f0 34 93 26 be dd 8b 52 3e 0e 5d e9 bd 8c 88 7d 3e
       -0.16267091 0.20561166 -0.11394702 0.2475912
000100 96 ad bc 3e 09 99 cb 3c d2 f2 55 3e 27 0e 62 3e
       0.36851186 0.024853246 0.2089341 0.22075711
000110 9f 6c 88 be f7 72 17 be 38 cb 34 3d 28 98 50 bc
       -0.2664537 -0.1478995 0.044139117 -0.012731589
000120 52 ee 9a 3e 7d 7a 46 3e 25 3a 49 be fe 41 8b 3e
       0.3025995 0.19382663 -0.19651087 0.27198786
000130 89 4b af be 5b 75 3c 3d 39 5d 32 3e 1f a6 b2 be
       -0.34237316 0.046010356 0.17418374 -0.34892365
000140 0a aa be be a0 bc 62 bd e6 80 55 be 18 81 1c 3d
       -0.37239105 -0.055355668 -0.20849952 0.03820905
000150 61 57 ca 3e 46 31 bd be 3e 13 af be af 15 b5 3e
       0.3951979 -0.36951655 -0.34194368 0.35368106
000160 32 24 40 be bc 23 a4 3d c0 47 5d 3e 74 d7 a1 3d
       -0.18763807 0.08014628 0.21609402 0.079024225
000170 9f 6d e4 be b4 eb db 3c fd 84 bc 3e 95 4d da 3e
       -0.44614884 0.02684579 0.36820212 0.42637315
000180 ef 42 43 be 26 23 70 3e f9 db 74 3e 43 61 d9 be
       -0.19068502 0.23450908 0.23912038 -0.42457017
000190 16 6b 75 be e3 f6 52 3e 38 b4 34 3e 02 ca d5 be
       -0.23966631 0.20601992 0.17646873 -0.41755682
0001a0 7c 56 0f be fa 1d 38 be 4c 36 be bd 48 da 77 3e
       -0.13997835 -0.17980185 -0.092877 0.24204361
0001b0 1e 29 d2 be e4 4c a8 be 5e 51 a4 3d b5 07 81 3e
       -0.41046995 -0.32871163 0.08023332 0.25201192
0001c0 54 a7 0a 3e 3d cd 5e 3d 19 f6 1d 3e 08 34 03 3d
       0.13540393 0.05439495 0.1542591 0.032032043
0001d0 96 85 09 be 84 28 55 be 9a ed 9c be 34 8d 8c 3e
       -0.13429865 -0.20816237 -0.30650026 0.2745148
0001e0 4f 52 ca bd d2 85 0e bd f0 b8 e9 3e ea 9c 7e be
       -0.0987898 -0.03479559 0.4564891 -0.24864545
0001f0 b2 29 94 3e c8 c1 60 be 85 c8 bb 3e 62 52 9c bd
       0.2893806 -0.21948922 0.36676422 -0.07632901

weight f4 [128, 128]
000000 c5 80 c5 3a 15 4d 60 be 6e c2 8b 3c f7 3c 07 be
       0.0015068284 -0.21904404 0.017060485 -0.1320685
000010 28 fb c6 3c 47 de e1 bc 96 bb 08 bd ea c6 b7 3c
       0.024289683 -0.02757181 -0.03338202 0.022433717
000020 71 f5 13 3c 90 f9 1b bd 0f 61 45 be 92 d5 33 be
       0.009030686 -0.0380798 -0.19275306 -0.1756194
000030 90 d9 9a 3d 88 ac 28 be a2 a0 61 3c 4b de c0 3d
       0.07561028 -0.16472065 0.013771208 0.09417399
000040 aa 8b e4 3b f5 4c 81 3d 79 e6 8c 3d 41 a9 b1 3d
       0.006974657 0.063135065 0.06879897 0.08674861
000050 46 c3 7b 3c d8 4c 34 bc 48 b4 00 bd 5d ef ce bc
       0.015366381 -0.011004649 -0.03142193 -0.025260622
000060 92 a6 8c be 3b fd 51 bd 30 9a d8 bd 8d ca 3a be
       -0.27470833 -0.05126689 -0.10576284 -0.1824133
000070 aa 36 c6 bb 1c bb 50 3d 40 83 51 3d 83 5e 5c bc
       -0.006048997 0.05095969 0.05115056 -0.013450268
000080 53 8c a5 3d d4 e8 9f 3b e6 c7 61 3d e9 eb a7 bc
       0.08083405 0.00488005 0.05512228 -0.020498233
000090 7d a4 78 bc c3 eb 97 be 4f ed 90 3d b4 de 9f bd
       -0.015175936 -0.2967206 0.07076513 -0.07806149
0000a0 02 62 02 3d e2 b1 16 3c 78 d1 ed bd e2 54 3e be
       0.03183175 0.009197684 -0.116122186 -0.18587068
0000b0 20 22 9f bc a9 f6 21 3e b8 d6 89 be fa 88 73 bd
       -0.019425452 0.1581675 -0.2692163 -0.059456803
0000c0 be 41 3f bd 4d 0e df 3b 77 50 85 3b b1 7a 8a 3d
       -0.046693556 0.0068071247 0.00406843 0.06761683
0000d0 57 54 29 bd 9a db 28 bd 71 0e 81 3d d8 eb 9e bd
       -0.0413402 -0.041225053 0.063015826 -0.077598274
0000e0 7e ee fb 3d e5 4c 73 3d 00 74 5c 3d 0a 78 30 3d
       0.12301348 0.059399504 0.053821564 0.04308323
0000f0 e0 65 68 bd 84 1f 62 3d 55 e6 98 bc f9 53 8b bc
       -0.05673778 0.055205837 -0.018664518 -0.017007815
000100 13 d9 8f 3d 00 dc 87 bb f4 09 10 bc e0 aa 5e bf
       0.070238255 -0.004146099 -0.0087914355 -0.86979485
000110 d6 97 b4 bd 1a 25 fb bd 10 5f 68 bd 4f 9d 1d 3c
       -0.08818023 -0.12262936 -0.056731284 0.009620025
000120 df b9 a0 3d 7a d8 57 3d c9 9f 3c bd 0d 99 ba 3d
       0.07847952 0.052696683 -0.04605082 0.09111223
000130 7e d9 61 bd fa 5a c2 bc a7 1b f5 bc 4d e8 f9 bd
       -0.055139057 -0.023725022 -0.029920412 -0.12202511
000140 30 82 96 3d 1f 74 c9 3c 59 97 eb be 1b dc 9e 3d
       0.0734905 0.024591504 -0.46013907 0.077568255
000150 b1 dd 90 3d 5b c1 2a bf 98 ea 07 3d 4a 14 bd bd
       0.07073534 -0.6670129 0.03318271 -0.092323855
000160 0e 0a 51 3d 31 2e 70 be 02 0f f5 3d ed 51 fb 3c
       0.05103498 -0.2345512 0.11965753 0.030678714
000170 54 54 7e bd 28 fe 04 bf 0e 60 f6 bb 9a 10 74 3d
       -0.06209214 -0.5195031 -0.007518775 0.059586145
000180 97 28 73 be 03 4d 62 be 83 00 da bc 32 98 80 bd
       -0.23745953 -0.2209969 -0.026611572 -0.06279029
000190 05 31 1f 3e 0b 00 7f 3d 43 63 15 be c4 4d fb bc
       0.15546043 0.0622559 -0.14588647 -0.03067673
0001a0 8d 77 3b 3d 3e 6a bd bd 40 07 bc bb cf 4f 9c 3c
       0.04576831 -0.0924878 -0.005738169 0.019081024
0001b0 74 d3 23 bd e3 99 91 3d 02 41 1d bd ba be 85 be
       -0.03999658 0.0710943 -0.038392074 -0.26122075
0001c0 b1 4a 3b bd e8 18 a4 3a aa d5 7c bd 67 bd 1d 3d
       -0.04572553 0.001251963 -0.061727203 0.038510706
0001d0 26 8c a2 3c 51 a1 a4 3d ce e9 45 3a 9c 44 75 be
       0.019842219 0.08038581 0.0007549793 -0.23951954
0001e0 da 0a a6 3d 5a 9f 88 3d 71 42 91 3d 88 72 4a be
       0.081075385 0.06671019 0.07092751 -0.19770253
0001f0 78 10 81 3d 67 b8 15 bf bc 80 98 be 8e 3a 15 3d
       0.06301969 -0.584845 -0.29785717 0.036432795
000200 90 dd ed 3c 6d 73 32 be e6 2c 41 3d 09 d6 6b bd
       0.029036313 -0.17426844 0.04716196 -0.057577167
000210 70 3a de bb bd f8 97 3d 1f f7 d5 3d 32 8f 0f 3c
       -0.0067818686 0.0742049 0.10447525 0.008762168
000220 15 23 97 bd 97 17 84 bc d4 9c 40 be 46 63 2e be
       -0.07379738 -0.01612453 -0.18809825 -0.17030057
000230 05 cc f4 3a b9 54 08 3e f0 fc 89 3d c3 ab 53 3e
       0.0018676525 0.13313569 0.06737697 0.2067099
000240 e9 50 be 3c dd 40 7d 3d 64 e5 eb bc 4b 68 1b 3e
       0.02323194 0.061829437 -0.028795905 0.15176503
000250 ce 0a 42 be 64 8f 87 bd 2e c0 0f be 15 30 70 3e
       -0.18949434 -0.066191465 -0.14038154 0.23455842
000260 3b 2a 19 be 6c 45 e0 bc 52 d3 8e be 53 b5 81 be
       -0.14957516 -0.027376853 -0.278956 -0.25333652
000270 33 2e 2f be ee f2 99 bd 6e eb f0 3d 6e cc 13 3e
       -0.17107467 -0.07517038 0.11763655 0.14433452
000280 36 dd bc 3d fd 52 7b 3d 5a 7a 1b 3d f6 16 ae bd
       0.0922188 0.06135844 0.03795848 -0.08500473
000290 2a c2 02 be af 11 f4 bd 77 7b 82 3d b3 f7 21 be
       -0.1276938 -0.119174354 0.06371205 -0.15817146
0002a0 79 69 57 3d 28 21 a7 3d b0 0b b8 bd a7 25 41 be
       0.05259082 0.08160621 -0.08986604 -0.1886202
0002b0 96 46 56 bd da a3 7d 3d 3a d2 83 3d c4 4d 5c bd
       -0.05231341 0.06192384 0.06436582 -0.0537851
0002c0 5d 98 87 bd 5d 4b 8f be fc ce d1 3d 7b 62 6c 3b
       -0.06620858 -0.27987185 0.10244557 0.003606944
0002d0 f4 2f ca bd 18 d2 64 3c d7 4f 4a 3d e1 85 4a bd
       -0.098724276 0.013966106 0.049392547 -0.049444083
0002e0 77 f0 86 3d d9 1c 2b 3e 68 22 94 3c bc 66 a4 3c
       0.06588834 0.16710223 0.018082812 0.020068519
0002f0 58 1a 22 bc 8f ad 9d 3d 9f 90 21 3e c4 47 97 bc
       -0.009893976 0.07699119 0.15777825 -0.018466838
000300 90 51 b7 3d 23 ea dc bd dd da 54 3d 77 08 91 bd
       0.08951104 -0.107868455 0.051966537 -0.07081693
000310 31 fb 23 be b9 04 11 be 00 67 21 be 5e 5e f4 bd
       -0.1601379 -0.14161958 -0.15761948 -0.119320616
000320 6c 91 b2 bc 2d 0b 42 3d 68 27 11 be a9 34 c4 3d
       -0.021797858 0.04737394 -0.14175189 0.09580357
000330 d0 34 33 3c cc 75 f3 bd 5d 01 29 be 19 87 08 be
       0.010937884 -0.11887702 -0.16504426 -0.13332786
000340 26 51 e5 bd c9 0e c2 bd 90 23 16 bf 86 14 f5 bc
       -0.111971185 -0.09475476 -0.58648014 -0.029917013
000350 11 88 13 3b 89 cc 13 bf ce a7 8b 3d 92 e4 a6 3d
       0.0022511522 -0.5773397 0.068191156 0.08149065
000360 5b c2 9c 3d 10 c4 93 bd e4 4e 16 bc 1d d7 fe bd
       0.07654258 -0.0721513 -0.009174082 -0.12443373
000370 44 e3 2b bd e4 48 3d be ba 20 36 bd b3 e3 f1 bd
       -0.041964784 -0.18484837 -0.044464804 -0.11811008
000380 aa 87 96 be 16 63 32 3b 12 11 78 be 72 17 b2 bd
       -0.29400378 0.0027219704 -0.24225262 -0.08695878
000390 ae ff 4d 3e a1 41 91 3c 47 13 c8 bc 66 d8 71 be
       0.20117065 0.01773149 -0.024423255 -0.23617706
0003a0 40 b5 f0 3b ec 97 29 be cf bc 8c bd 60 15 16 bc
       0.0073458254 -0.1656186 -0.0687195 -0.00916037
0003b0 98 7e 3f bc d0 03 a9 bc 8b 79 1d be e2 83 12 be
       -0.011687897 -0.0206317 -0.15378396 -0.14308122
0003c0 32 e3 01 bd 9f f6 0c bd 37 4f b2 3d 78 f4 44 3c
       -0.03171081 -0.034414884 0.08706515 0.0120211765
0003d0 1e b1 d0 3b d8 d4 fe bd f4 dd 29 3c 97 1f 5d be
       0.0063687703 -0.124429405 0.010367859 -0.21594082
0003e0 6b 52 c5 3d 2f d4 b4 3d a2 52 ac 3c 1b 4f fe bd
       0.096348606 0.08829533 0.021035496 -0.12417432
0003f0 f8 7a b5 3d 79 0d 9c be d2 10 19 be e1 a8 57 be
       0.08861345 -0.3047903 -0.14947823 -0.21060516

bias f4 [128]
000000 f9 77 08 bc 07 98 73 bd 30 6a 86 bd 66 f4 46 bd
       -0.008329385 -0.059471156 -0.065632224 -0.04857292
000010 a1 d0 5b 3c ca 73 81 bc 06 0b 9b bb 08 94 c3 bc
       0.01341644 -0.015802283 -0.0047315387 -0.023874298
000020 7b 20 e0 3c f2 25 0e 3d 4e 15 e7 bc 0f 5c 58 bc
       0.027359238 0.034704156 -0.028208401 -0.013205542
000030 f8 72 d3 3d 5e 33 3a 3d 54 c4 09 3d a9 21 36 3d
       0.10324663 0.045459144 0.0336345 0.044465695
000040 06 b0 69 3c 09 3c 83 bd 94 93 07 3d b7 b6 15 bc
       0.014263159 -0.06407935 0.033099726 -0.009137801
000050 b7 e4 59 3d 2e 97 0e bd 25 50 43 bb 4a c8 1d 3c
       0.053196635 -0.034812145 -0.0029802409 0.009630272
000060 38 64 a1 bd 9c 98 0f bd 50 e5 b3 bd d6 e4 5b 3d
       -0.07880443 -0.03505765 -0.08783972 0.05368503
000070 07 36 65 bd b9 a8 86 bc ec 69 5c bd f8 d3 b1 bd
       -0.055959728 -0.016437875 -0.053811952 -0.08683008
000080 8b 08 ce bc 34 45 8a bd d2 2c c1 bd 87 52 33 bc
       -0.025150558 -0.06751481 -0.09432377 -0.010944969
000090 a0 56 f4 3c 84 5b 0b bd 81 2f 8b bd a9 53 9b bd
       0.029826462 -0.034022823 -0.0679617 -0.07584316
0000a0 59 a9 99 bd 24 0c ed 3c 90 0e 85 bc 63 ae 6b 3d
       -0.075030036 0.028936453 -0.016242296 0.057539355
0000b0 d7 c2 9a bd e5 b2 ba 3d eb 2e e0 bd dc 5c 28 bd
       -0.07556694 0.09116153 -0.10946449 -0.041104183
0000c0 b5 df 76 bc 4e 09 32 bd c0 ca 68 3d a7 21 72 3d
       -0.015067984 -0.043465905 0.056833982 0.059114125
0000d0 41 e5 e4 bc 5a 2c 25 3d 46 b4 49 3d 33 d5 06 bd
       -0.027941348 0.0403255 0.049244188 -0.032918166
0000e0 b5 3d a2 bc 21 c6 fd 3c 81 2a 16 bd ba cc d8 bb
       -0.019804815 0.030978264 -0.03666163 -0.006616202
0000f0 49 96 96 3c 41 5e c0 bd 75 6b 2a bd e9 c0 74 3c
       0.018382208 -0.093929775 -0.041606385 0.0149385715
000100 6a 18 bd bd d3 16 da bc 4f 18 80 bd 02 26 ae 3d
       -0.09233172 -0.026622212 -0.062546365 0.08503343
000110 f6 36 c0 3d e2 c4 fe 3c 90 86 d1 bd d2 64 d3 bc
       0.09385483 0.03109974 -0.10230744 -0.02580491
000120 88 7b c4 3c f1 e0 70 3a e0 ae dc bc 27 bf 76 bd
       0.023984686 0.00091887923 -0.026938856 -0.06024089
000130 be 36 46 3c 72 ae ca bb 58 85 12 3c 38 17 8b bd
       0.0120980125 -0.0061853463 0.008942924 -0.06791538
000140 d2 29 43 bd b3 05 3d 3c ae d2 d4 bb 0b 4c 5a 3d
       -0.047647305 0.011537003 -0.0064948415 0.053295176
000150 a1 66 8d bc 36 fa 9c 3c c8 bd 98 bc 66 cb b8 3b
       -0.017260851 0.019162279 -0.018645182 0.0056394814
000160 46 4e 20 bc 48 60 6e bc 67 14 6e bd 4f 88 89 3d
       -0.009784287 -0.014549322 -0.058124926 0.06715452
000170 bb 1f 9d 3d b4 0d 24 3d 21 84 ad 3c 5a 18 50 3d
       0.07672068 0.04005213 0.021181168 0.050804473
000180 45 62 a5 bb ad 42 c2 bd 58 db 08 bd c9 94 0f bd
       -0.005047115 -0.09485374 -0.033412308 -0.035054002
000190 c2 05 6e 3d ee c1 61 3d 55 b1 b3 bc 90 c0 d2 bc
       0.05811096 0.055116586 -0.021935144 -0.025726587
0001a0 0a 78 71 3c 85 8b a0 bd 15 20 6a bc 17 a4 d2 bb
       0.014738092 -0.07839111 -0.0142898755 -0.0064282524
0001b0 91 c4 b2 bd bd 73 05 3d 33 c3 63 bd 68 d1 a8 bd
       -0.08728898 0.03258108 -0.05560608 -0.08243066
0001c0 a3 21 fe bc 94 5a e3 3c c2 fd 90 bd cc 2d 7b bb
       -0.031021899 0.027753152 -0.070796505 -0.0038326858
0001d0 cf 41 94 3d 2e e1 9b 3c be d2 12 bd d8 5d 3d 3d
       0.072391145 0.019028272 -0.03584551 0.046232074
0001e0 59 d0 8c bd f3 3c 9f 3d e4 f9 c1 3d 73 0d c2 3b
       -0.06875677 0.07775297 0.09471491 0.0059220134
0001f0 37 bf 6c bd 83 01 07 3d 34 30 d9 bc f8 94 a1 3b
       -0.057799544 0.032960426 -0.026512243 0.0049310885

weight f4 [64, 128]
000000 6c fb d4 bd b0 94 d1 3c 10 9d 9c bd ec 16 59 bd
       -0.103995174 0.025583595 -0.07647145 -0.053000376
000010 7a 1f 3d be 87 2a 9e 3d 55 5e 05 3c d0 bc 92 3e
       -0.18469039 0.07722955 0.008140166 0.28659678
000020 fa fe 03 3b 5c 3d 9e 3c cc 7b 3e be 08 f2 bf 3e
       0.0020140992 0.019316368 -0.18601912 0.37489343
000030 f9 3c 82 bb f7 12 a8 bc 8e 78 85 be d8 c5 79 3c
       -0.0039745537 -0.020516856 -0.26068538 0.0152449235
000040 f1 42 10 be da 74 95 bd 10 4c 9d bd 76 1e c1 bd
       -0.14088036 -0.07297678 -0.076805234 -0.09429638
000050 10 2f bf bd 59 20 5a 3d 36 a6 68 3e 26 ff 2a bd
       -0.09335148 0.053253505 0.22719654 -0.041747235
000060 50 1c 1d bc 05 b3 bb bc 6a c6 41 3d 7c 71 4b 3d
       -0.00958927 -0.022912512 0.047308363 0.049668774
000070 a6 08 07 bd 2d e6 e9 bd 0c 02 e3 bb 27 d9 90 3d
       -0.032967232 -0.11420856 -0.0069277342 0.070726685
000080 ea e1 c0 bd 6a bc e6 3d 33 31 3c bd b5 03 9c 3e
       -0.0941809 0.11266406 -0.045945358 0.30471578
000090 0f 79 70 bd 00 88 45 bd a8 22 5d 3b e7 27 63 3c
       -0.0587092 -0.048225403 0.003374258 0.013864494
0000a0 c9 41 e9 bd c0 74 b9 3d a8 13 db bd 44 05 9d 3d
       -0.11389501 0.090554714 -0.106971085 0.0766702
0000b0 20 80 95 bc fa ea 46 3c 75 76 c0 bb e2 bd 47 bd
       -0.018249571 0.012140984 -0.005873496 -0.04876507
0000c0 f5 4c 24 bd 6f 03 e9 3c 83 b9 4d 3d 40 af 4a bc
       -0.040112454 0.02844402 0.050225746 -0.012370884
0000d0 4e b3 87 bd 3f 2e 8f 3d 30 a8 56 bd ed 48 e3 3d
       -0.066259965 0.069912426 -0.05240649 0.11097894
0000e0 b2 9d 5d 3d 1d b9 b4 3c a5 45 00 be 9e b6 9d bd
       0.054105468 0.022060925 -0.12526567 -0.07700847
0000f0 32 6c e0 bd b5 5c 9c 3d 5f f6 79 3d 52 65 89 bd
       -0.109581366 0.0763487 0.061025973 -0.067087784
000100 76 1d 02 3d c0 b9 9b bc 05 b6 8b 3e ea 5c c6 3c
       0.031766377 -0.019009471 0.27287307 0.024214227
000110 8e cb 87 bd e8 cf 11 bd 20 08 c9 bd f6 ce ef bd
       -0.06630622 -0.035598665 -0.09816003 -0.117093965
000120 40 c2 c8 3d b6 0d df bd 9d b9 63 3c 52 45 af bd
       0.09802675 -0.10891287 0.013899234 -0.08558144
000130 7c 62 8d 3d 5f a9 0f 3d cd 3b 71 bd 8a 32 1e 3d
       0.0690355 0.035073634 -0.05889492 0.038622417
000140 2f 4e d5 3e 1d b8 4f be fa 5d 91 3d a1 2b 2b be
       0.41661212 -0.20285077 0.07098003 -0.16715862
000150 83 bf 40 3e a3 e2 88 bd 43 d8 86 3d 68 b7 a4 3b
       0.18823056 -0.066838525 0.065842174 0.0050267465
000160 1b 04 7c be a2 88 c9 3c 7a 07 16 bb 42 df 88 be
       -0.24610941 0.024601284 -0.002289264 -0.26732832
000170 e0 88 d5 bb 53 12 60 bc c5 f4 be 3d 22 60 28 be
       -0.006516561 -0.013676244 0.0932403 -0.16442922
000180 83 5a 6b 3d 71 ac 08 be 2d 02 97 3d 13 1e 88 3e
       0.057459366 -0.13347031 0.07373462 0.26585445
000190 de ca 95 3d 4c 80 10 3d 03 b1 8a 3c 00 91 0b 3d
       0.073140845 0.035278603 0.016930109 0.03407383
0001a0 02 08 f3 bc 6f 10 82 3d c5 dc 80 bd 13 8c 10 3e
       -0.029666904 0.06350791 -0.062921084 0.14115934
0001b0 88 bc 22 bc a8 9d 7b bc cc 62 6d bd 8e 72 2e bd
       -0.009932645 -0.015357412 -0.05795555 -0.042589717
0001c0 34 08 03 3e 68 b3 94 3c 07 81 a6 3c b7 a3 a0 3e
       0.12796098 0.018151954 0.020325197 0.31374905
0001d0 06 f7 3c 3d af 3f b3 bd 4f 42 98 3e cd bf 30 bc
       0.046134017 -0.08752381 0.2973809 -0.010787916
0001e0 40 31 cd 3d 97 7c 8b be 3a 07 f6 3d 02 df 71 3d
       0.10019159 -0.27243492 0.12013097 0.059050567
0001f0 5b 9c a3 bd 5c 77 9c 3c fa 82 56 3d 5c 17 96 bb
       -0.07988807 0.019099884 0.052371003 -0.0045804214
000200 9c 6b d5 3b 13 fc 74 bd f2 72 29 3d d1 ef 08 be
       0.006513072 -0.05981071 0.041369386 -0.13372733
000210 22 37 3c bf 0b f6 15 3d 66 64 11 3d ca 9e 2b 3d
       -0.73521626 0.036611598 0.035496138 0.04189948
000220 60 5b 46 bb 3a 2e 61 3d 88 2d 23 3d 0f 15 88 3e
       -0.0030266866 0.054975726 0.039838344 0.26578566
000230 76 c4 b7 bd 25 f3 89 bd ef f4 10 3d 7b 54 b2 bc
       -0.08973019 -0.06735829 0.035389837 -0.021768799
000240 b4 51 0c 3e cb bb 5d 3d b4 3e fd 3c 76 74 e4 bd
       0.13703042 0.05413417 0.030913688 -0.11155026
000250 d1 71 4c 3d e7 1a 62 be c3 db 0f 3e 2b 37 3a bd
       0.04991323 -0.22080575 0.14048676 -0.04546277
000260 4c 12 06 3d 36 19 6f 3c ee f2 73 bd a7 98 d1 3d
       0.032732293 0.014593413 -0.059557848 0.10234194
000270 c4 8f 2e bd c2 76 1c 3d 03 31 8b bc b9 8a 3d 3e
       -0.042617574 0.038199194 -0.016991144 0.1850995
000280 a3 f5 29 3d 87 49 22 bf 45 0b c2 3d 70 f7 73 be
       0.041494023 -0.63393444 0.09474806 -0.23824859
000290 ab 22 07 bd 6c 08 5d bf 7e a2 2f bd e3 46 af bd
       -0.032992046 -0.86340976 -0.042879574 -0.085584424
0002a0 03 60 5e 3e 23 b3 d4 3d 3b ca 8e 3d 45 ea 58 be
       0.21716313 0.1038573 0.06972166 -0.21183117
0002b0 a2 e2 62 bd ca 03 40 be 64 82 9d 3d da 92 b6 3d
       -0.055391915 -0.18751445 0.07690886 0.089147285
0002c0 47 21 b8 3d ae 4c 10 3d 4d 20 f5 3c 7f ea 7e 3c
       0.08990722 0.035229377 0.029922629 0.015558838
0002d0 9a df ac 3d 82 54 87 bc b6 73 48 3e 0b fc f7 bd
       0.08441086 -0.016519789 0.1957539 -0.1210862
0002e0 5f 3b 3c bd 59 e5 80 bd 77 9f 39 bd a2 37 ab 3a
       -0.04595506 -0.062937446 -0.045318093 0.0013062845
0002f0 54 20 37 3e 6c e0 ab bd 46 23 dc 3c fc cd cd bd
       0.17883426 -0.083924145 0.026872288 -0.10049054
000300 de d8 fc 3c 4c 14 f4 bc 94 f2 e6 3e ea fc d7 bc
       0.03086513 -0.029794835 0.45106947 -0.026365716
000310 e3 af 3d bd 54 a6 a7 3d 9e 52 7f 3c cd 2e 44 bd
       -0.046310317 0.081860214 0.015583662 -0.047896195
000320 c3 5b 60 be c3 87 bf 3c a6 a7 33 be 70 16 63 bc
       -0.21910004 0.023380166 -0.17544422 -0.01386033
000330 e4 6d 22 bd f1 8c bc 3d 84 5b a7 39 23 58 83 bd
       -0.03965558 0.0920657 0.00031920907 -0.06413295
000340 e5 bb 0f 3f a5 1d 67 3e ef 60 53 bd e8 27 6c bd
       0.5614608 0.22569902 -0.051606115 -0.057655245
000350 64 e1 86 be 6d 9c 04 bf 84 42 db 3b 2c 41 1f be
       -0.26343834 -0.51801187 0.006691279 -0.15552205
000360 07 c8 da 3d c6 af 6e bd 13 76 aa bc cc 6a 7a 3d
       0.106826834 -0.0582731 -0.020808255 0.061137006
000370 d8 13 96 3c cb 91 41 3e 24 a9 3e bc ce 57 ff 3d
       0.01832001 0.18903272 -0.011637006 0.12467919
000380 a9 67 a2 3d e4 44 00 bd 1c a3 8d be 1b b1 99 bd
       0.07929928 -0.0313157 -0.27663505 -0.07504483
000390 78 04 ad 3c 36 a2 27 be 8f e4 16 3b 60 0a 02 bc
       0.021120295 -0.16370472 0.0023024415 -0.007937044
0003a0 2a a4 e9 bc 89 52 80 3d e3 35 8a 3d 89 9f d1 bd
       -0.028520662 0.06265742 0.06748559 -0.10235507
0003b0 f6 8f 88 bd 1a 5f 73 bc 34 95 30 3b 70 81 35 bc
       -0.06668083 -0.014854217 0.00269444 -0.011078224
0003c0 32 f1 11 be 55 e3 c0 bc 0c 3b 04 bd ae 14 c6 3e
       -0.14252165 -0.0235459 -0.032282874 0.38687652
0003d0 31 90 31 bd 30 48 b1 be 9e db 54 3e 82 a1 33 be
       -0.043350402 -0.34625387 0.20786902 -0.17542079
0003e0 72 60 fa 3d 6e c5 3b be 2f 98 80 be fe 7b 6c 3d
       0.12225427 -0.18337032 -0.25116107 0.057735436
0003f0 e2 d6 f9 3c 8d f3 49 3d f1 dc 8d 3d 41 cd 55 3c
       0.030497972 0.049304534 0.06926907 0.013049425

bias f4 [64]
000000 17 4b 05 be 71 31 03 3c 81 e8 88 3d 62 c4 be bc
       -0.13016926 0.008007393 0.066849716 -0.023287002
000010 0f 5d 25 be 68 77 a3 bc d4 5b 3b bd 3f 94 25 bc
       -0.1614878 -0.019954398 -0.04574187 -0.010106145
000020 3f c7 b9 bd 3e b3 bc bc b9 19 0d be 6b 0f e2 bc
       -0.09071206 -0.023034688 -0.13779344 -0.027595242
000030 c1 2e 11 be 34 bd fa 3c 26 30 ad bd 6c 91 13 bd
       -0.14177991 0.030607797 -0.08456449 -0.036027357
000040 76 18 31 3c cd 78 ad bd 44 d2 56 bd b1 fb a8 3d
       0.010809055 -0.084703065 -0.05244662 0.08251131
000050 22 30 3e bb 95 31 54 bd fb 6a ee 3b 72 4a 0f 3c
       -0.0029020389 -0.051805098 0.0072759367 0.0087457765
000060 9c 18 37 bc 31 e6 05 3e 13 aa aa 3c 1d e5 9b bd
       -0.011175301 0.13076092 0.02083305 -0.07612059
000070 d8 28 f9 bd 82 bd 42 3b f6 b1 03 bc 45 40 69 3c
       -0.121659935 0.0029715006 -0.008038035 0.014236514
000080 89 dc 05 be df 55 82 bd 42 56 9a bc d3 fd a2 bd
       -0.13072409 -0.06364035 -0.018839959 -0.079585694
000090 4d 99 57 bc 52 7b fb bd cf 3d c2 bd 5d d2 7c 3d
       -0.013159108 -0.12279381 -0.09484445 0.061724056
0000a0 ea be 6e 3d f9 eb 43 bc eb 00 95 bd 45 ee e6 bd
       0.05828754 -0.011958116 -0.07275566 -0.11275915
0000b0 8b 82 40 bd b1 b4 5c bd f6 ef 4b 3c 76 f8 ac 3d
       -0.046999495 -0.05388326 0.012447348 0.08445828
0000c0 87 80 c1 3d f3 c6 a8 bc 5f 38 cc 3d 90 9f 03 bd
       0.09448343 -0.020602679 0.099716894 -0.032134593
0000d0 51 d8 92 3b 23 97 8f 3d c3 f0 38 3d 4e d4 07 be
       0.0044813533 0.07011249 0.045151483 -0.13264582
0000e0 da 85 cb 3c fc 96 a5 3d ab 42 5a 3c c2 30 84 bc
       0.024844099 0.080854386 0.013321559 -0.01613653
0000f0 43 26 7b 3d 84 10 a5 bc 60 cf 98 3d e2 76 1c bd
       0.061315786 -0.020149477 0.07461429 -0.038199313

weight f4 [2, 64]
000000 bc b6 b2 3e 72 84 0a 3e 2d 50 65 be 37 cb 94 be
       0.3490504 0.13527086 -0.22393866 -0.2906129
000010 f7 96 e1 bd b5 af 63 3d 85 82 72 3e 43 9f 7c bd
       -0.110151224 0.05558749 0.23682602 -0.06167532
000020 a4 1b 16 be 4c 4a d5 3e 26 01 09 3f e2 29 60 3e
       -0.14658982 0.41658247 0.5351738 0.21890977
000030 34 1d 3e 3f f5 ed 77 3d aa 38 50 3d c7 91 de 3d
       0.7426331 0.060529668 0.05083529 0.108676486
000040 87 dd 46 be 71 dd 83 3c 52 af 56 bd 9c 79 6a 3d
       -0.19420443 0.016096802 -0.052413292 0.057244882
000050 bf fe a4 bd 0f 9b 48 3b 57 92 0d 3e 98 34 08 3e
       -0.080564015 0.003061 0.13825355 0.13301313
000060 be bb cd bd 8b 23 82 3e c4 8e 76 bc f3 d0 a7 be
       -0.100455746 0.25417742 -0.015048686 -0.32776603
000070 81 6e e0 bd 92 16 ff bd 56 18 c7 bd 6f bf 32 3e
       -0.10958577 -0.12455477 -0.097214386 0.17455839
000080 0d 4f fe bd 1f c1 d5 3d 55 c1 13 3d 2c 82 18 3d
       -0.124174215 0.104372256 0.036073048 0.037233517
000090 91 89 d3 bd a9 67 8e bd ab 1b ac 3d ff 79 cf 3d
       -0.10328973 -0.06953365 0.08403715 0.10130691
0000a0 2d d4 36 be b6 5f 44 bd 06 30 da 3d 45 35 15 be
       -0.17854376 -0.04794284 0.10653691 -0.14571102
0000b0 8d d6 b7 3d 29 8b f1 bc c4 5a 75 bd 5d ca b9 3d
       0.08976469 -0.029485302 -0.059901014 0.09071801
0000c0 de 09 ba 3e f9 e9 9a bc ac f9 9f be fe a1 88 3c
       0.36335653 -0.018910395 -0.31245172 0.016678806
0000d0 ec d5 2d bd 8b 42 8f be bc 68 3c 3e a8 01 ef be
       -0.04244034 -0.27980456 0.18399328 -0.4668095
0000e0 02 34 fe 3d 01 7b 4b 3d 80 09 c7 3e 93 ac 8b bd
       0.124122635 0.049677853 0.38874435 -0.06820025
0000f0 39 ed 99 3e ae 27 0e 3e 4e 30 f5 3e 6a 97 4f bd
       0.300638 0.13882324 0.47888416 -0.05068151
000100 58 d9 bb be 11 da 32 be 6a d8 2c 3e 9b 70 4e 3e
       -0.36689258 -0.17465998 0.1687943 0.20160143
000110 b4 8d 92 3e 24 20 ed bd 9d d9 8a bd 31 98 cf 3d
       0.28623736 -0.11578396 -0.06779788 0.1013645
000120 bf 75 61 3d 17 db 1b bf 60 ad c8 be 3b ad 82 bd
       0.055043932 -0.6088118 -0.39194775 -0.06380697
000130 bf 11 56 bf 7f bc 86 be 04 99 7d bb a3 c4 ff bd
       -0.8362083 -0.26315686 -0.003869594 -0.12488677
000140 b5 2a 73 3d 0f 0a 22 be 7b bc 99 bd 74 8e 7f bd
       0.0593669 -0.1582415 -0.07506653 -0.062391713
000150 f5 05 36 3d 37 46 84 bd c2 11 f2 bd cc 83 a1 be
       0.044439275 -0.06458705 -0.11819793 -0.31545866
000160 a8 61 0f 3e 21 40 b0 bd 6a f7 03 3d 6e 2f 78 3e
       0.14002097 -0.086059816 0.032218374 0.24236843
000170 be 4f 24 3e 55 8d b1 bd 3d ea 7a 3d 69 da 30 be
       0.16046044 -0.08669535 0.061258543 -0.17270817
000180 67 81 70 3e c7 df 10 bd 45 33 c4 bd a4 d9 da 3d
       0.23486863 -0.03536966 -0.095800914 0.10686043
000190 7a 3b 0a bd c2 0e 97 3d 54 ad 7a bd 7d 3a 16 bd
       -0.033748128 0.07375862 -0.061200455 -0.036676873
0001a0 76 88 d2 3c 6e 7b 48 bc d5 b8 bb bd f9 59 d3 3d
       0.025699835 -0.012236459 -0.09166113 0.10319895
0001b0 9a cb 07 be 7a 49 1a be 0f 5f 93 3c 3f 78 58 be
       -0.13261262 -0.15067092 0.017989663 -0.2113962
0001c0 5a 85 27 be 4a 7e 28 be 7f 6f 95 3e ae a6 79 3c
       -0.16359463 -0.16454425 0.29186627 0.015237493
0001d0 e0 c4 b8 3a c6 e1 2f 3e 42 59 93 bd 3c a4 e7 3e
       0.0014096759 0.1717597 -0.07194759 0.45242488
0001e0 4e 8b 73 bd d7 df 82 be 74 20 6d be a0 b7 3f 3d
       -0.059459023 -0.255614 -0.23156911 0.046805978
0001f0 18 a1 25 be 33 b1 22 be ff e6 e2 be 1c 1f de bd
       -0.16174734 -0.15887909 -0.4431686 -0.108457774

bias f4 [2]
000000 c7 f0 90 3a f6 3a d3 3d
       0.0011058085 0.1031398
