models/mountaincar_2D/checkpoint_cl.9.pth.tar (torch_old, 215509 bytes, 18 tensors)

weight f4 [128, 5]
0	0xbebceda9	-0.3690007
1	0xbead3eb6	-0.33836907
2	0x3ec2ed08	0.38071465
3	0x3ed5a720	0.4172907
4	0x39f73800	0.00047153234
5	0xbeeda71a	-0.4641655
6	0x3a9410fa	0.0011296563
7	0x3ec4b343	0.38418016
8	0xbde6c470	-0.11267936
9	0xbb622a00	-0.0034509897
10	0xbd712388	-0.058871776
11	0x3dc6b878	0.09703153
12	0x3e2ff054	0.17181522
13	0xbe176c16	-0.14787325
14	0x3e6ec9b4	0.23319131
15	0xbdddd8da	-0.10832377
16	0xbeaa5201	-0.3326569
17	0x3db28921	0.087175615
18	0xbe7259e4	-0.23667103
19	0x3d0e25de	0.03470408
20	0xbe59dce9	-0.21275677
21	0xbee70b8b	-0.45125994
22	0xbebd371f	-0.36956117
23	0x3e4026ba	0.18764773
24	0x3e95b0cc	0.29236448
25	0x3f04a83e	0.5181922
26	0xbe4431f0	-0.19159675
27	0xbe2becfc	-0.16789621
28	0xbe5058fc	-0.20346445
29	0x3e907877	0.28216907
30	0xbf0b0629	-0.54306275
31	0xbed623b8	-0.41824126
32	0x3e852361	0.26003554
33	0x3d59c344	0.053164735
34	0xbec35879	-0.38153437
35	0x3ef2ec60	0.47445965
36	0x3de48b23	0.11159351
37	0xbd96ffa0	-0.07372975
38	0x3e195cfb	0.14976875
39	0x3ea23047	0.31677458
40	0x3eb1ca93	0.34724864
41	0xbeecc947	-0.46247312
42	0x3eb11529	0.34586456
43	0x3ec5507e	0.38537973
44	0xbecfaf4f	-0.40563437
45	0x3d09fa08	0.033685714
46	0x3e688a45	0.22708996
47	0x3ea71c12	0.32638603
48	0xbe692c36	-0.22770771
49	0xbe279e51	-0.16368987
50	0xbeaedc1e	-0.3415231
51	0xbe6f559a	-0.23372498
52	0xbecebfd4	-0.40380728
53	0x3c2cbf20	0.010543615
54	0xbd4d2110	-0.05008036
55	0x3e953f5f	0.2914991
56	0x3ed7af83	0.42126092
57	0x3e0f4955	0.13992818
58	0x3ecf4043	0.40478715
59	0x3ead8fc8	0.3389876
60	0x3ec6c579	0.38822535
61	0x3cdf4154	0.02725283
62	0xbd0e2257	-0.034700718
63	0xbbe0ca34	-0.006860042
64	0xbdd30437	-0.10303538
65	0xbe099614	-0.13436157
66	0x3e8f4ce8	0.27988362
67	0xbe26bf52	-0.1628392
68	0xbe9b9994	-0.30390608
69	0x3e05c868	0.1306473
70	0x3d7b6b98	0.061381906
71	0xbee44fca	-0.44592124
72	0x3e434b84	0.19071776
73	0x3df8efde	0.12155126
74	0x3e36cd32	0.17851713
75	0xbdfe885c	-0.12428352
76	0xbeb5f88a	-0.35541183
77	0xbe2d1b06	-0.1690484
78	0xbeba7bf1	-0.36422685
79	0x3e70d860	0.2352004
80	0xbf27f4e4	-0.6560805
81	0x3e5b7f96	0.21435389
82	0x3ea8ff23	0.33007154
83	0x3df0d8ca	0.11760099
84	0xbe85a6b1	-0.26103738
85	0x3f072516	0.52790964
86	0xbe83fe57	-0.25779983
87	0x3e107c90	0.14110017
88	0x3c67f6f9	0.014158004
89	0x3eab4e01	0.3345795
90	0xbf14b2ed	-0.5808552
91	0x3eadb2d6	0.33925503
92	0x3dcb0c42	0.09914447
93	0xbe110504	-0.1416207
94	0x3eb6d358	0.35708117
95	0xbdd3e065	-0.10345534
96	0xbaf148d3	-0.0018408544
97	0x3e79bced	0.24388476
98	0xbe79bcb1	-0.24388386
99	0x3d19abcb	0.03751735
100	0xbdc921c4	-0.098208934
101	0xbecda8df	-0.401679
102	0x3da359e8	0.07976133
103	0xbe6ba50c	-0.23012179
104	0x3baee700	0.005337596
105	0x3e527310	0.20551705
106	0x3e6a1659	0.22860087
107	0xbd36d288	-0.044634372
108	0xbe44dd6c	-0.1922509
109	0x3e8a0a37	0.26960918
110	0xbf14b69f	-0.5809116
111	0xbea77d82	-0.32712942
112	0xbed6f6e4	-0.41985238
113	0x3ed0c20e	0.40773052
114	0xbd97c4d4	-0.07410589
115	0xbeda07d5	-0.425841
116	0x3e8e5318	0.2779777
117	0xbdcb9654	-0.09940782
118	0xbe820236	-0.25392312
119	0xbebd8c4a	-0.37021095
120	0xbe5324a0	-0.2061944
121	0x3c158140	0.009125054
122	0xbeb0a66c	-0.3450197
123	0x3d124478	0.03570983
124	0xbdc7aeac	-0.09750113
125	0x3ec7c26f	0.3901553
126	0x3eb85d8c	0.3600887
127	0x3e1588dc	0.14602989
128	0x3e010e37	0.12603079
129	0xbc3e6f61	-0.0116232345
130	0x3ef1091f	0.4707727
131	0x3c0fe703	0.008783105
132	0xbe15d53f	-0.14632128
133	0x3ed53e46	0.41649073
134	0x3e83119c	0.25599372
135	0xbed52787	-0.4163172
136	0xbec55684	-0.3854257
137	0x3df21c69	0.11821825
138	0x3eaf4af5	0.34236875
139	0xbeb974f1	-0.36222032
140	0x3e961611	0.2931371
141	0x3e1886dd	0.14895196
142	0xbe752c26	-0.23942623
143	0x3d8885ce	0.06666146
144	0xbe51ffec	-0.20507783
145	0x3e1d7428	0.15376341
146	0x3e7aedb4	0.24504739
147	0xbe72d5b5	-0.23714335
148	0xbdd0fa08	-0.1020394
149	0xbd659790	-0.056052744
150	0x3ea0aa02	0.31379706
151	0x3eccf244	0.40028584
152	0xbdb6954e	-0.08915196
153	0x3e4914d2	0.19636849
154	0xbe0a67cd	-0.1351616
155	0x3d165e7a	0.036711194
156	0x3eb3fcdc	0.35153854
157	0x3db165ea	0.08662017
158	0xbe919d25	-0.28440204
159	0x3e85dccd	0.2614502
160	0xbf4919e6	-0.7855514
161	0xbe8a04ae	-0.26956695
162	0x3ef4cc58	0.47812152
163	0xbcd80110	-0.026367694
164	0x3da0a9f8	0.07844919
165	0xbea4c3eb	-0.32180724
166	0x3d2ebe89	0.042662177
167	0xbe403ab7	-0.18772398
168	0xbd96cd33	-0.073633574
169	0x3e85da6c	0.26143205
170	0x3b0ad980	0.002118677
171	0xbe16a9de	-0.14713237
172	0xbe5a6fc1	-0.21331693
173	0x3e453cf0	0.19261527
174	0xbe357e18	-0.17723882
175	0xbecc2f50	-0.39879847
176	0x3df46d48	0.11934906
177	0xbe7e2237	-0.2481774
178	0xbe408767	-0.18801652
179	0xbd0122f1	-0.031527463
180	0xbe16acea	-0.14714399
181	0x3b0a1200	0.0021067858
182	0x3e7260dc	0.23669761
183	0xbe8d3640	-0.27580452
184	0x3d91e5e8	0.07123929
185	0x3e3b4a09	0.18289961
186	0x3df12db0	0.11776292
187	0xbc3aeb37	-0.011408619
188	0x3e53109d	0.20611806
189	0x3e942273	0.28932533
190	0x3eb16064	0.34643853
191	0xbd3030dc	-0.043015346
192	0x3ead0535	0.33793035
193	0xbdf11e22	-0.117733255
194	0xbee68579	-0.45023707
195	0x3c868d7e	0.01642489
196	0xbe331469	-0.17488255
197	0x3e39571e	0.18099639
198	0xbe201742	-0.15633872
199	0xbea79ca2	-0.3273669
200	0xbe8e351f	-0.27774903
201	0xbedfc7c5	-0.437071
202	0x3ecf8aab	0.40535483
203	0xbd80deea	-0.062925175
204	0xbd9c0633	-0.0761837
205	0x3ece2e11	0.4026952
206	0x3ec5b85b	0.38617215
207	0x3e4144c8	0.18873894
208	0xbed6b822	-0.41937357
209	0x3ed2924f	0.4112725
210	0x3e931711	0.28728536
211	0x3df8f821	0.12156702
212	0xbd6a7903	-0.057244312
213	0xbec48ac0	-0.38387108
214	0x3e47ab30	0.19498897
215	0xbf729674	-0.94760823
216	0xbe952868	-0.2913239
217	0xbe8fd02c	-0.2808851
218	0x3e9d3360	0.3070326
219	0x3e665cb9	0.22496308
220	0x3eb8016d	0.35938588
221	0xbc4b2f76	-0.012401452
222	0xbe725f95	-0.23669274
223	0xbe2165c2	-0.15761474
224	0x3ec2690f	0.37970778
225	0xbedcb80d	-0.4310917
226	0xbda70592	-0.08155359
227	0x3e673b37	0.22581182
228	0x3e47a337	0.19495855
229	0x3e3aa3a4	0.18226486
230	0xbcf1545a	-0.029459167
231	0x3d6d301b	0.057907205
232	0xbe80a620	-0.25126743
233	0xbe591966	-0.21201095
234	0x3e36dcc9	0.1785766
235	0x3e384ea0	0.17998743
236	0xbeb3cb48	-0.3511603
237	0xbebb61d2	-0.36598068
238	0xbec80df1	-0.39073136
239	0x3e718a40	0.23587894
240	0xbe8e8752	-0.27837616
241	0x3ecad821	0.39618018
242	0x3e45fb98	0.19334257
243	0x3da8b599	0.08237762
244	0xbe0852e6	-0.13312873
245	0x3ea5d3d3	0.32388172
246	0x3e641b36	0.22276005
247	0xbeb72f7f	-0.35778424
248	0x3ee0caa5	0.43904606
249	0x3e2bd5ab	0.16780727
250	0xbf3d6b93	-0.7399227
251	0xbe7b1caa	-0.24522653
252	0xbea0786e	-0.3134188
253	0x3ece7176	0.4032094
254	0xbeb7486f	-0.3579745
255	0xbdcc539c	-0.09976885

bias f4 [128]
0	0xbee0d66c	-0.4391359
1	0xbe073bdc	-0.13206428
2	0xbee23d45	-0.4418737
3	0x3ed12717	0.40850136
4	0x3e1f5051	0.15557982
5	0xbed8bb9c	-0.42330635
6	0x3ea5be46	0.3237173
7	0x3b8ce269	0.004299451
8	0xbeb14aa5	-0.34627262
9	0x3e1153f6	0.14192185
10	0xbebbda92	-0.36690193
11	0xbe403d88	-0.18773472
12	0x3e570243	0.20996957
13	0xbeba65e3	-0.36405858
14	0x3e6d5b1d	0.23179288
15	0x3ebde4df	0.37088677
16	0xbe25672c	-0.16152638
17	0xbd7bf7a6	-0.061515473
18	0xbe5cfdb7	-0.2158116
19	0x3d4c43e2	0.049869426
20	0xbea49342	-0.321436
21	0xbefb0ad5	-0.49031702
22	0xbe426784	-0.189848
23	0xbe18c9d2	-0.14920738
24	0xbe9e44c1	-0.3091183
25	0x3eb004bd	0.34378615
26	0x3e0eed53	0.1395772
27	0x3e8fa617	0.28056404
28	0x3baea0a3	0.005329208
29	0xbebbf775	-0.36712232
30	0xbcc3b3dc	-0.023889475
31	0x3ea7cc30	0.3277297
32	0xbeb405c9	-0.35160664
33	0x3eab9be3	0.3351737
34	0xbe4f1061	-0.20221092
35	0x3e1880cc	0.14892882
36	0xbecacda8	-0.39610028
37	0x3c834155	0.016022364
38	0x3cab8e5c	0.020941906
39	0xbdcfb346	-0.101416156
40	0x3da8d9fd	0.08244703
41	0xbead50a1	-0.33850577
42	0x3b5066d8	0.003179958
43	0xbdca7160	-0.09884906
44	0x3ecf5f27	0.40502283
45	0x3d96ed53	0.07369485
46	0xbe41c6f7	-0.18923555
47	0xbd68b371	-0.056811754
48	0xbec1bbd4	-0.37838614
49	0x3ea0ee9e	0.3143205
50	0xbe5d0b18	-0.21586263
51	0x3eada231	0.33912805
52	0x3bad532d	0.0052894563
53	0x3ea11322	0.3145991
54	0xbea9616d	-0.33082142
55	0xbe47d7ab	-0.19515865
56	0x3dccc35b	0.099981986
57	0x3ec567b9	0.38555697
58	0xbe43fc76	-0.19139275
59	0xbd963e6e	-0.07336126
60	0xbe581256	-0.21100745
61	0x3ed3813d	0.41309538
62	0x3e9c8577	0.30570576
63	0x3e54c497	0.20778118
64	0xbe3320c6	-0.17492971
65	0xbeab99b9	-0.3351572
66	0x3e07943a	0.13240138
67	0xbe06da12	-0.13169125
68	0xbe2d5ca2	-0.16929868
69	0x3e435d4f	0.19078563
70	0xbd5bfb91	-0.05370671
71	0xbc508dc7	-0.012729115
72	0x3e5abfc6	0.21362218
73	0x3eee9644	0.4659902
74	0xbebee25f	-0.37282082
75	0x3ecdb495	0.40176836
76	0x3df32b06	0.118734404
77	0x3eab0434	0.33401644
78	0x3ccda0ef	0.025101153
79	0x3eb75a3d	0.35811034
80	0x3e98f987	0.29877874
81	0x3dc0fdfa	0.09423442
82	0x3e977f29	0.29589203
83	0xbdcd1c22	-0.100151315
84	0x3d44908c	0.047989413
85	0xbebdff79	-0.37108973
86	0xbe9371b6	-0.28797692
87	0xbe91be35	-0.2846543
88	0x3eb4c426	0.353059
89	0x3e39f04f	0.18158077
90	0xbedb9d84	-0.42893612
91	0x3eb29b97	0.3488433
92	0xbe396cd2	-0.18107918
93	0x3e9a749f	0.301671
94	0xbe187d5b	-0.1489157
95	0x3ea67586	0.32511538
96	0x3e80bef5	0.2514569
97	0xbedfdc41	-0.43722728
98	0x3ec99e8b	0.3937877
99	0x3e8d3e4c	0.2758659
100	0xbe2b57f5	-0.16732772
101	0x3d8f4dc3	0.06997254
102	0xbea15094	-0.3150679
103	0x3e13278b	0.14370553
104	0xbe1ac752	-0.15115097
105	0xbd39012d	-0.045167137
106	0xbec50e77	-0.38487598
107	0xbed20b05	-0.41024032
108	0x3e3a0ab8	0.18168151
109	0xbe909f8a	-0.2824672
110	0x3ccee1b7	0.025254114
111	0x3e91e4eb	0.28494963
112	0xbec590be	-0.38586992
113	0xbed5ee71	-0.4178348
114	0xbe6796c8	-0.22616112
115	0xbebf676b	-0.3738359
116	0xbe988ade	-0.29793447
117	0xbe44f48c	-0.19233912
118	0xbe774982	-0.24149135
119	0xbea64943	-0.3247777
120	0xbe281cc6	-0.16417226
121	0x3eb7fd63	0.35935506
122	0x3cb01695	0.021495143
123	0xbe896fae	-0.26843017
124	0x3e6dc7f9	0.23220815
125	0x3e24775e	0.1606116
126	0x3d186ae5	0.037211318
127	0x3c7b76b1	0.015348122

weight f4 [128, 128]
0	0x3cca6270	0.024705142
1	0x3c94b4e2	0.018152658
2	0x3d304a5a	0.043039657
3	0x3d9086a2	0.07056929
4	0x3dada899	0.08479423
5	0xbf0f82f1	-0.56059176
6	0x3d94910c	0.07254228
7	0x3ce48884	0.027897127
8	0x3e9dae9c	0.3079728
9	0xbd0c3017	-0.03422555
10	0xbd8e6b1c	-0.06954023
11	0xbd9edf48	-0.07757431
12	0xbcc8ea4f	-0.02452579
13	0xbd17070a	-0.036871947
14	0xbd8127d6	-0.06306426
15	0x3d30698e	0.043069415
16	0xbcdf4280	-0.02725339
17	0x3b3eb8d6	0.002910187
18	0x3e02f6e4	0.12789494
19	0x3d8c946d	0.068642475
20	0xbd1b6c26	-0.037944935
21	0xbf0ca6d3	-0.54942054
22	0x3e0b465e	0.13601062
23	0xbd93b7cb	-0.0721279
24	0x3d3906de	0.045172565
25	0xbc971ba7	-0.018445803
26	0xbd9333fe	-0.07187651
27	0x3d1a0ec7	0.03761175
28	0xbeabcc9e	-0.33554548
29	0x3c009d68	0.007850029
30	0x3cbb399a	0.022854615
31	0x3d3a19a2	0.0454346
32	0x3f265cb5	0.6498521
33	0x3c95ee3f	0.018302081
34	0x3d2bb89a	0.041924097
35	0x3e104fe1	0.14092971
36	0xbc892794	-0.016742505
37	0xbd71eb65	-0.05906238
38	0x3d09150a	0.03346733
39	0xbc1b7928	-0.009489335
40	0x3ddf9282	0.10916616
41	0x3cd1fe12	0.025633845
42	0x3b4df9e0	0.0031429455
43	0x3f15aae2	0.5846387
44	0x3be16987	0.006879035
45	0x3e5b9223	0.21442465
46	0xbd9ef75d	-0.077620246
47	0x3cd77d11	0.026304753
48	0x3ddeb91b	0.1087515
49	0xbdb042fe	-0.08606528
50	0x3e1c9e73	0.15294819
51	0x3d8d494a	0.068987444
52	0xbd268586	-0.04065468
53	0x3d3aad06	0.045575164
54	0xbdc720a7	-0.09723025
55	0x3d817965	0.06321982
56	0xbd6b7870	-0.057487905
57	0xbd0adfcf	-0.033904847
58	0x3d93b69d	0.07212565
59	0xbdd073e2	-0.10178353
60	0x3d8c7b09	0.068594046
61	0x3dbd1d95	0.09234158
62	0x3cad137c	0.021127455
63	0x3d89d112	0.0672933
64	0xbc5306a0	-0.0128799975
65	0x3e58a412	0.21156338
66	0x3cea9f62	0.028640453
67	0x3e1b0cf1	0.15141656
68	0xbdb2b4ed	-0.08725915
69	0xbd1cf5fe	-0.038320534
70	0x3d68be35	0.05682202
71	0xbd2f2657	-0.042761173
72	0xbd68df03	-0.056853306
73	0x3d2251e0	0.039628863
74	0xbd060681	-0.032721046
75	0x3d47b1b0	0.04875344
76	0xbdcc03ec	-0.099616855
77	0x3d9d183a	0.076706365
78	0x3d3f4215	0.04669388
79	0xbdb4a009	-0.08819587
80	0x3d96553f	0.07340478
81	0xbe6504d9	-0.2236513
82	0x3dbf0586	0.093272254
83	0xbb88ab7a	-0.004170832
84	0xbd046e67	-0.03233185
85	0x3d9c9ca7	0.076470666
86	0x3d14768c	0.036245868
87	0xbd3cc4f8	-0.04608628
88	0xbcc15160	-0.023598373
89	0xbd98a2bb	-0.074529134
90	0xbc2e2c51	-0.010630683
91	0x3de181a4	0.11011055
92	0x3c57978d	0.013158691
93	0x3dab4d1c	0.08364317
94	0x3cef1da5	0.02918894
95	0x3d92ec9b	0.07174035
96	0x3d3df795	0.04637869
97	0x3d7cbe96	0.061705194
98	0xbcf41544	-0.029795296
99	0x3e4c1ad7	0.19932114
100	0xbd14fc36	-0.03637334
101	0xbd7f3822	-0.06230939
102	0xbc6ee0d0	-0.014579967
103	0xbeba0256	-0.36329907
104	0xbdc269a4	-0.094928056
105	0x3c570784	0.01312435
106	0xbd8f337a	-0.0699224
107	0x3dab6a29	0.08369858
108	0x3dccbf89	0.0999747
109	0x3d0ebf7c	0.034850582
110	0x3d952756	0.07282893
111	0x3c42e58a	0.011895547
112	0x3d8efa43	0.069813274
113	0x3daf1457	0.085488014
114	0xbd504614	-0.05084808
115	0xbf770aa9	-0.9650064
116	0x3cab2cdc	0.020895414
117	0x3e06f81b	0.13180582
118	0xbc7fc3aa	-0.015610615
119	0x3daf49ab	0.08558973
120	0x3c249e02	0.010047438
121	0xbd734fb1	-0.05940217
122	0x3d1e07b6	0.038581572
123	0xbd51f955	-0.051263172
124	0x3e199aac	0.15000409
125	0xbd702082	-0.058624752
126	0x3d9d34bc	0.07676074
127	0x3cbfb4a9	0.023401575
128	0x3da64d63	0.08120229
129	0xbd9d360c	-0.07676324
130	0x3da5b429	0.080910034
131	0x3d47b396	0.04875525
132	0xbca89e9c	-0.020583443
133	0xbd1640d4	-0.03668292
134	0xbda67178	-0.08127111
135	0x3da4a609	0.08039481
136	0xbbb1a4e0	-0.005421266
137	0x3d9fa5ef	0.07795321
138	0x3c284528	0.010270394
139	0xbd9e85fd	-0.077404
140	0x3d817191	0.06320489
141	0x3d8ad681	0.067791946
142	0xbca553d0	-0.020181566
143	0x3d9c4c6f	0.07631766
144	0xbc072c28	-0.008250274
145	0x3da2f65f	0.07957148
146	0x3d51acfe	0.05119037
147	0x3cfc6474	0.030809619
148	0x3d61143a	0.05495093
149	0x3b49bda0	0.0030783191
150	0x3d6981d6	0.057008587
151	0xbd571c34	-0.05251713
152	0xbd16b7f7	-0.036796536
153	0xbd970524	-0.07374027
154	0x3d866c07	0.06563573
155	0xbd89324b	-0.06699046
156	0xbd006a03	-0.0313511
157	0x3d605db2	0.054776855
158	0x3db0350d	0.08603869
159	0x3d882249	0.066471644
160	0x3b8ba160	0.0042611808
161	0xbd88119e	-0.06643985
162	0xbc76f478	-0.015072934
163	0x3c5217e0	0.012823075
164	0xbc9dfc68	-0.019285396
165	0xbd81b138	-0.0633263
166	0xbd95c064	-0.07312086
167	0xbd748388	-0.05969575
168	0x3d946549	0.07245881
169	0xbdb1da4d	-0.08684216
170	0xbd5fa689	-0.05460218
171	0xbd473aa4	-0.04863991
172	0x3d586a46	0.052835725
173	0xbd56d6a5	-0.052450795
174	0x3c049ef8	0.008094542
175	0xbd1b0792	-0.037849016
176	0x3cf59e34	0.029982664
177	0xbcd5d758	-0.02610366
178	0x3d745e92	0.0596605
179	0x3d705c26	0.05868163
180	0x3d53d80e	0.051719718
181	0x3da626ef	0.08112895
182	0x3bd02d80	0.0063530803
183	0x3da6d6cb	0.08146437
184	0xbd198b1d	-0.037486184
185	0x3d1f8616	0.038946234
186	0xbd5ae7c5	-0.05344369
187	0xbbf8a7f0	-0.007588379
188	0xbce6b5e4	-0.028162904
189	0x3d9ee2ef	0.07758128
190	0xbd683587	-0.056691673
191	0xbb8a03f0	-0.004211895
192	0xbd8f8b73	-0.0700902
193	0x3d17bc62	0.03704489
194	0xbd87d31a	-0.06632061
195	0xbd2e3e81	-0.042540077
196	0x3db165b7	0.08661979
197	0x3da7602d	0.08172641
198	0x3c9c6fac	0.019096218
199	0xbd526792	-0.051368304
200	0x3c5acbd0	0.013354257
201	0x3d3b2aea	0.045695223
202	0xbcc223f8	-0.023698792
203	0x3c941d0c	0.018080257
204	0xbd65ac83	-0.056072723
205	0xbda1f343	-0.079077266
206	0xbd9fabc1	-0.07796431
207	0xbd3ce158	-0.046113342
208	0xbc81fb90	-0.015867025
209	0x3d802ccf	0.062585466
210	0xbd8e5c54	-0.06951204
211	0x3c40e108	0.011772402
212	0x3d5ebfba	0.054382063
213	0x3d5883ee	0.052860193
214	0x3da21dbd	0.079158284
215	0xb982b100	-0.00024927408
216	0x3d44466e	0.04791873
217	0xbd7a582e	-0.06111925
218	0xbd6324f5	-0.055455167
219	0xbd83823e	-0.06421326
220	0xbd13a51f	-0.036046144
221	0xbdb4fea0	-0.08837628
222	0xbc3842e8	-0.01124642
223	0x3d84d323	0.06485584
224	0xbc8ca044	-0.017166264
225	0x3da10e9b	0.07864114
226	0xbd41a9da	-0.047281124
227	0xbd660008	-0.056152374
228	0xbd47475b	-0.048652034
229	0x3c164fa8	0.009174265
230	0xbb2f3280	-0.0026732981
231	0x3cd66950	0.026173264
232	0xbc137320	-0.008999616
233	0xbd37dcac	-0.044888183
234	0xbd11dc41	-0.03561044
235	0x3d18bac6	0.037287496
236	0xbda6e1b2	-0.08148517
237	0xbc91f9d0	-0.017819315
238	0xbcf7ed76	-0.030264597
239	0xbcfcdda8	-0.030867413
240	0x3d274aae	0.040842704
241	0x3d7ac9f2	0.061227746
242	0x3d9b1827	0.07572966
243	0x3dabe3e7	0.08393078
244	0xbc00a430	-0.007851645
245	0x3d1fa5a2	0.03897632
246	0xbdb1989d	-0.08671687
247	0x3d51059e	0.051030748
248	0xbcedb826	-0.029018473
249	0xbda284cb	-0.079354845
250	0xbd404422	-0.046939977
251	0x3d5fb4de	0.054615848
252	0x3d804a21	0.06264139
253	0xbc68ab38	-0.014200978
254	0x3d3a654a	0.045506753
255	0xbd2b50b5	-0.041825015

bias f4 [128]
0	0xbd8c9cd0	-0.06865847
1	0xbd8f673a	-0.07002111
2	0x3d3ba513	0.045811724
3	0xbb0c00a0	-0.0021362677
4	0xbd0a8956	-0.03382238
5	0xbdc0a14e	-0.094057664
6	0x3c40baf1	0.01176332
7	0xbc6dfd0f	-0.014525666
8	0xbb3cdb61	-0.0028817283
9	0xbd5ff8f5	-0.054680783
10	0x3c892ee3	0.01674599
11	0x3d92fb92	0.071768895
12	0xbcc7d7d5	-0.024394909
13	0xbd598bf7	-0.053111997
14	0xbd54e23f	-0.051973578
15	0x3cf9f168	0.03051062
16	0xbd9a9ca2	-0.075494066
17	0xbc4ccfe3	-0.012500736
18	0x3cb93fff	0.022613524
19	0x3ceefbd0	0.029172808
20	0xbd8d5260	-0.069004774
21	0x3d1f6671	0.038916055
22	0xbcf67d7b	-0.03008913
23	0x3d80b52f	0.06284558
24	0x3d58e7cf	0.052955445
25	0x3dbb8d0d	0.09157763
26	0xbd22ae9c	-0.0397173
27	0x3dc0c007	0.09411626
28	0x3daea4a0	0.085274935
29	0xbce6ce10	-0.02817443
30	0xbd549dba	-0.051908232
31	0xbca856a2	-0.020549122
32	0x3cfbd8fe	0.030743118
33	0xbd94bb6f	-0.072623126
34	0x3d3cfcaf	0.046139415
35	0xbda1f4f3	-0.079080485
36	0x3d76358d	0.060109664
37	0x3d91aa18	0.07112521
38	0xbd931c15	-0.071830906
39	0x3c20732b	0.009793083
40	0xbd23d837	-0.04000112
41	0x3d075f09	0.033049617
42	0xbbc05cdd	-0.005870445
43	0x3ca1afa7	0.019737078
44	0x3c2b7248	0.0104642585
45	0xbcac50dc	-0.02103465
46	0xba99cd00	-0.0011734068
47	0xbd42ec6b	-0.047588747
48	0x3d10c87c	0.035347447
49	0x3d4fa3f7	0.05069348
50	0xbb9acbb0	-0.0047239885
51	0x3c907e65	0.017638395
52	0x3ccfc5ea	0.025362927
53	0xbdaf2e47	-0.085537486
54	0x3d73c56a	0.05951444
55	0xbd3b07da	-0.045661785
56	0x3da01858	0.07817143
57	0x3c7ac7b7	0.015306405
58	0xbca3154f	-0.019907622
59	0xbcdb8351	-0.026796015
60	0x3d89b871	0.067246325
61	0xbd580dad	-0.052747417
62	0x3d6ba059	0.057525966
63	0x3d0e7df0	0.034788072
64	0x3c53955d	0.012914029
65	0x3d3d03cd	0.046146203
66	0xbd983802	-0.07432558
67	0x3cc4bd5e	0.024016079
68	0x3d9ac436	0.075569555
69	0x3da64cb5	0.081200995
70	0x3c82d944	0.015972741
71	0x3cf05dc8	0.029341593
72	0x3d26010f	0.040528353
73	0xbd9fdab4	-0.07805386
74	0xbd2c5df4	-0.04208179
75	0xbb3f1406	-0.0029156222
76	0x3d978a8c	0.073994726
77	0xbd3192ea	-0.043353
78	0xbda9c645	-0.0828977
79	0xbb781ba5	-0.0037858274
80	0xbd987c45	-0.074455775
81	0xbdaa6727	-0.08320456
82	0xbd067341	-0.03282476
83	0x3cdb2447	0.026750697
84	0x3d0ec069	0.034851465
85	0xbcbf01f6	-0.023316365
86	0x3ceb71df	0.028740821
87	0xbbf25ad0	-0.0073960796
88	0x3d07e143	0.03317381
89	0xbb461d02	-0.0030229692
90	0x3d7ec616	0.06220063
91	0x3db01a3d	0.085987546
92	0xbd2f78b3	-0.042839717
93	0xba992138	-0.0011682874
94	0x3d8d36c6	0.06895213
95	0x3d84a2d8	0.064763725
96	0xbcb4775a	-0.022029568
97	0x3db2ef44	0.087370425
98	0xbdb07e61	-0.08617855
99	0xbca626ef	-0.020282237
100	0x3d85b026	0.06527738
101	0x3b1e1b04	0.002412499
102	0xbd40596a	-0.046960272
103	0xbd0e3655	-0.034719784
104	0x3d65d702	0.05611325
105	0xbccdcef8	-0.025123104
106	0xbce098d2	-0.02741662
107	0xbd0c88ae	-0.034310035
108	0xbd44d5d1	-0.048055474
109	0x3d8323a7	0.064032845
110	0x3c918d04	0.017767437
111	0x3c939a00	0.018017769
112	0xbc86ddc0	-0.01646316
113	0xbd9f807c	-0.07788178
114	0xbd983462	-0.07431866
115	0x3db1ce77	0.08681958
116	0x3d82aa8e	0.06380187
117	0xbced819c	-0.028992467
118	0x3d86bb32	0.065786734
119	0xbda20f4e	-0.079130754
120	0xbd2b16ec	-0.041769907
121	0xbd2017a5	-0.03908505
122	0xbc86517c	-0.016396277
123	0x3daacc51	0.083397515
124	0x3d44e782	0.048072346
125	0xbc4cee21	-0.012507946
126	0xbaeba191	-0.0017977228
127	0x3d3c8f2e	0.046034984

weight f4 [2, 128]
0	0xbdef1c28	-0.11675292
1	0x3d8474bf	0.0646758
2	0x3b4ca6d2	0.0031227362
3	0xbd6b4056	-0.057434402
4	0x3d08bb04	0.033381477
5	0xbd4a883f	-0.04944634
6	0x3b01177a	0.001969783
7	0xbda9afaf	-0.08285462
8	0xbd83e00a	-0.064392164
9	0x3d9aa26a	0.07550509
10	0xbcde464a	-0.027133126
11	0x3c9b512f	0.01895961
12	0x3b95f18b	0.0045759133
13	0xbc8c591b	-0.017132333
14	0x3c8f0a39	0.01746093
15	0xbc824bb9	-0.015905248
16	0x3cac9154	0.021065392
17	0xbc59206e	-0.013252361
18	0x3d51f6be	0.051260702
19	0xbd3cd9c6	-0.046106122
20	0x3c758e3a	0.014987523
21	0xbd5b977e	-0.05361127
22	0xbc563c85	-0.013075952
23	0x3b86f9a7	0.0041191163
24	0x3ba862e2	0.005138741
25	0x3c808af5	0.01569126
26	0xbc621818	-0.01379969
27	0x3d267516	0.040639006
28	0x3d25aa0b	0.04044537
29	0x3d306e46	0.043073915
30	0x3cbc3382	0.02297378
31	0x3db5431b	0.0885069
32	0x3cf2855e	0.02960461
33	0xbd51115a	-0.05104194
34	0x3d6f4a1f	0.058420297
35	0xbd4c6065	-0.049896616
36	0x3da20d66	0.07912712
37	0x3dbaafa8	0.09115535
38	0xbc125918	-0.008932374
39	0x3c3b725c	0.01144084
40	0x3d066f48	0.03282097
41	0x3d648174	0.05578752
42	0xbca4b87e	-0.020107504
43	0xbdd42c16	-0.10359971
44	0xbd99c8ae	-0.0750898
45	0x3cfa987c	0.030590288
46	0x3c28abe0	0.010294884
47	0x3da25b49	0.079275675
48	0xbd1e0350	-0.038577378
49	0xbdae1847	-0.08500724
50	0xbd1ab1d6	-0.037767254
51	0xbdaa8cf2	-0.083276644
52	0x3c4439a4	0.011976633
53	0x3c923678	0.017848238
54	0xbd2c5a14	-0.042078093
55	0x3c6077bd	0.013700423
56	0x3d5e8149	0.054322515
57	0x3d6c7742	0.05773092
58	0xbce60661	-0.028079214
59	0x3c6a8614	0.014314193
60	0x3bae6f28	0.0053233095
61	0x3dbf19fd	0.09331129
62	0xbd7a6e17	-0.061140146
63	0xbd8e40ae	-0.069459304
64	0xba2b1dfe	-0.00065276015
65	0xbd298824	-0.0413896
66	0x3d4039b6	0.046930037
67	0xbceb8275	-0.02874873
68	0x3db1d9cf	0.08684122
69	0x3d05c8a2	0.03266204
70	0xbdc61753	-0.096724175
71	0x3d10c7da	0.035346843
72	0x3c6f5ef4	0.014610041
73	0xbc6e500d	-0.014545453
74	0x3d7177c8	0.058952123
75	0x3d9e4312	0.077276364
76	0xbdfec2aa	-0.12439473
77	0xbd8f1087	-0.06985574
78	0x3d9fd9a3	0.07805183
79	0x3d979d9d	0.07403109
80	0xbd8865d1	-0.06660045
81	0x3d9e150b	0.077188574
82	0xb9bd50f1	-0.00036109195
83	0xbd6c7f1c	-0.05773841
84	0x3dae4d11	0.08510793
85	0x3acd26f5	0.0015651869
86	0x3d8a7f0d	0.06762514
87	0xbb4ff4a0	-0.0031731501
88	0x3d1a1574	0.037618116
89	0x3c99e4a2	0.018785778
90	0x3d8fcc5d	0.07021401
91	0xbc34e975	-0.011041989
92	0xbaf32aac	-0.0018552146
93	0xbd809072	-0.06277551
94	0xbd866e37	-0.065639906
95	0xbcad5caf	-0.021162359
96	0xbea88206	-0.329117
97	0xbc87588f	-0.01652172
98	0xbd41cf49	-0.047316823
99	0xbd38098c	-0.04493098
100	0xbc86fb0e	-0.016477134
101	0x3d6b17a1	0.05739558
102	0xbc80126b	-0.015633782
103	0xbd55ebae	-0.052226715
104	0x3c84614f	0.016159682
105	0xbd03ffc7	-0.03222635
106	0x3d2f08ab	0.042732876
107	0x3ce21031	0.027595611
108	0x3d472624	0.048620358
109	0x3cb1b2a0	0.02169162
110	0xbd739bdb	-0.059474807
111	0xbbbeba57	-0.0058205533
112	0xbc718f30	-0.014743611
113	0x3c835399	0.016031073
114	0x3d87bd71	0.0662793
115	0x3d9e6ef1	0.07736004
116	0x3d2ccb54	0.042186096
117	0xbe0145a8	-0.12624228
118	0xbcdd6300	-0.027024746
119	0xbc8b6b6b	-0.017018994
120	0x3d460514	0.048344687
121	0xbd6e65cf	-0.05820256
122	0x38db015b	0.00010442986
123	0xb8a15857	-7.693533e-05
124	0x3c826dd4	0.01592151
125	0x3d2158df	0.039391395
126	0xbdc715ed	-0.09720979
127	0x3db1aed2	0.086759225
128	0x3e1b368f	0.15157531
129	0xbd53a1b7	-0.051667895
130	0xbd08f727	-0.033438828
131	0x3d8cc965	0.068743505
132	0xbcd0b709	-0.025477903
133	0x3d947b0e	0.07250033
134	0x3da139ab	0.078723274
135	0xbe3131eb	-0.17304198
136	0x3c58f78f	0.013242616
137	0xbd93cc70	-0.07216728
138	0xbd0454d2	-0.032307453
139	0x3d08fe1b	0.03344546
140	0xbd791317	-0.06080922
141	0xbd71a3c2	-0.058994062
142	0xbd357c1a	-0.044307806
143	0x3dbccc3d	0.09218643
144	0xbdaeffd6	-0.085448906
145	0xbdd4241e	-0.10358451
146	0x3ce8239a	0.028337289
147	0xbd014266	-0.031557463
148	0xbbec33fa	-0.0072083445
149	0x3d5e5232	0.054277606
150	0xbd000572	-0.031255193
151	0xbd48b5f9	-0.049001668
152	0xbbd234c5	-0.006414982
153	0x3da8cef4	0.08242598
154	0x3d324b66	0.043528937
155	0x3dea021e	0.11426185
156	0x3caa6272	0.020798896
157	0xbd5c6ce9	-0.053814802
158	0x3d756453	0.05991013
159	0xbd26bbef	-0.04070657
160	0xbda75834	-0.0817112
161	0xbc94d2cf	-0.018166928
162	0xbdc5f1d6	-0.09665267
163	0x3def9231	0.11697806
164	0xbdbd41ac	-0.092410415
165	0x3d99ae34	0.0750393
166	0xbd13b4b3	-0.036061
167	0xbdda3760	-0.10655093
168	0xbd83911d	-0.064241625
169	0xbdabb53b	-0.08384176
170	0xbdc529a0	-0.0962708
171	0xbd5c02aa	-0.05371348
172	0xbbeb5a40	-0.0071823895
173	0xbda20d42	-0.07912685
174	0xbd0d0989	-0.03443292
175	0xbcb74576	-0.022371989
176	0xbda5ec09	-0.08101661
177	0xbdac9ce3	-0.08428361
178	0x3bc58d50	0.0060288087
179	0xbcbd72a5	-0.023125956
180	0x3ceda74e	0.029010441
181	0xbd487fac	-0.048949882
182	0x3cbfaddc	0.023398332
183	0x3dd70102	0.10498239
184	0x3da7ff47	0.08202987
185	0x3d6fab07	0.058512714
186	0x3cc9cef4	0.024634816
187	0x3d91a767	0.071120076
188	0x3d826fd4	0.06368986
189	0x3e2f6a72	0.1713045
190	0xbd0ffc7a	-0.03515289
191	0xbd6379de	-0.055536143
192	0x3db16770	0.08662307
193	0xbd732752	-0.05936367
194	0xbd37f249	-0.044908796
195	0xbe0f337a	-0.1398448
196	0x3cc1c431	0.023653122
197	0x3d214f9e	0.03938257
198	0x3d938a85	0.07204155
199	0xbc2965cd	-0.010339213
200	0xbdbd16ea	-0.09232886
201	0x3dab7dda	0.08373614
202	0x3d38ac5a	0.045086242
203	0x3d8b25f8	0.06794351
204	0x3ddc09c4	0.1074405
205	0xbe3dc85f	-0.18533467
206	0xbd8920f8	-0.066957414
207	0x3d959355	0.07303492
208	0x3d74089a	0.059578516
209	0x3da67049	0.081268854
210	0x3d4bcaf5	0.0497541
211	0xbd8c020e	-0.068363294
212	0xbcc0248d	-0.023454929
213	0x3d060d8e	0.03272777
214	0xbb97c4fd	-0.004631637
215	0x3bcb9bc0	0.006213635
216	0x3c25f2f2	0.010128723
217	0xbdc2dd7b	-0.095149
218	0xbc7187a9	-0.014741817
219	0x3dc0211f	0.09381317
220	0xbdc4cfe0	-0.096099615
221	0xbcfcd2f0	-0.030862302
222	0xbcd27ed0	-0.025695235
223	0x3da49325	0.08035878
224	0x3d4319db	0.04763208
225	0x3daf7a9f	0.0856831
226	0xbcf95565	-0.030436227
227	0x3da9fda1	0.08300329
228	0xbe09e53a	-0.13466349
229	0x3c17cf5b	0.009265746
230	0x3d21994b	0.039452832
231	0x3dade8c1	0.0849166
232	0xbd1b6052	-0.037933655
233	0xbd82425a	-0.06360312
234	0xbdfa52f1	-0.12222851
235	0x3c7fd676	0.015615096
236	0xbd77bbb2	-0.060481735
237	0x3d4edb8a	0.050502338
238	0xbd1b8fd5	-0.037978966
239	0x3d53a57a	0.051671483
240	0xbd87eb1a	-0.06636639
241	0x3d27e285	0.04098751
242	0xbbce7960	-0.00630109
243	0xbc8bfeb8	-0.017089233
244	0x3d57777e	0.05260419
245	0xbe1e4ed8	-0.15459764
246	0x3db4729e	0.08810924
247	0x3da8d1e4	0.082431585
248	0x3be4b11e	0.006979122
249	0xbc04a09a	-0.008094931
250	0xbd65653e	-0.056004755
251	0x3d735cf6	0.059414826
252	0x3d1ffdfe	0.039060585
253	0x3c8242f3	0.015901065
254	0xbebbcc98	-0.3667953
255	0xbe4c1e79	-0.199335

bias f4 [2]
0	0x3d3a9f19	0.045561884
1	0x3d6b8ab6	0.057505332

weight f4 [128, 5]
0	0xbd627cc0	-0.055294752
1	0xbe3dfa04	-0.18552405
2	0x3b075680	0.0020650923
3	0x3dad6650	0.0846678
4	0xbebb3832	-0.3656631
5	0xbd3fc871	-0.046822015
6	0xbda022c8	-0.07819134
7	0xbdb00be4	-0.08596018
8	0xbca14330	-0.019685358
9	0x3eba9dd1	0.3644853
10	0x3ef068f4	0.46955073
11	0x3ebf3f6b	0.37353072
12	0x3ed39fa5	0.41332737
13	0x3e0e34ff	0.13887404
14	0xbe678771	-0.2261026
15	0xbee117aa	-0.43963367
16	0x3dfaf767	0.122542195
17	0xbc085024	-0.008319888
18	0x3ebceb7f	0.3689842
19	0xbe9791d1	-0.29603437
20	0xbe2c8d2a	-0.16850725
21	0x3e8aba1b	0.27095112
22	0xbe853bd9	-0.26022223
23	0x3dd86190	0.105654836
24	0x3e59268e	0.21206114
25	0xbea9c3cc	-0.33157194
26	0x3ef9740e	0.48721355
27	0xbe35dfe8	-0.17761195
28	0x3e7f6c2d	0.2494361
29	0xbe5882d4	-0.21143657
30	0xbe4f0e62	-0.2022033
31	0x3ede7beb	0.43453917
32	0x3ea69702	0.32537085
33	0xbd58a08b	-0.05288748
34	0xbe1b5a3c	-0.1517114
35	0x3d194383	0.0374179
36	0xbe925527	-0.2858059
37	0x3e772922	0.24136785
38	0xbc57923e	-0.013157425
39	0xbd9b81e9	-0.07593138
40	0x3e5aeb53	0.21378832
41	0xbec69166	-0.38782805
42	0xbe35a0d4	-0.17737132
43	0xbe51d83c	-0.20492643
44	0xbe0d6f58	-0.13812006
45	0xbe3779a4	-0.17917496
46	0xbeac5427	-0.33657953
47	0x3c5c7620	0.013455898
48	0xbe695edf	-0.22790097
49	0x3e2b1680	0.16707802
50	0x3d9de418	0.07709521
51	0x3de376e0	0.11106658
52	0x3ec87ff3	0.39160118
53	0x3ccdab42	0.025106076
54	0xbe9aa4f4	-0.30203974
55	0xbeef0e81	-0.46690753
56	0xbece5445	-0.40298668
57	0x3e79b8c6	0.24386892
58	0xbdd609a4	-0.104510576
59	0xbd875018	-0.066070735
60	0xbec3ea3e	-0.3826465
61	0x3e0e906c	0.1392228
62	0xbe1d15fe	-0.1534042
63	0xbe21a4cc	-0.15785521
64	0xbecad80a	-0.3961795
65	0x3ea4d00a	0.3218997
66	0xbeab62ea	-0.33473903
67	0xbe4a6bd4	-0.19767696
68	0x3e503641	0.20333196
69	0x3ed6047c	0.41800296
70	0xbe0aad6c	-0.13542718
71	0x3df15d50	0.11785376
72	0xbebea021	-0.37231544
73	0x3e6b4e44	0.22979075
74	0xbec1f69d	-0.37883464
75	0x3e875eb6	0.26439446
76	0x3d7c92ac	0.061663315
77	0x3e6f53a3	0.23371749
78	0x3e1051be	0.14093682
79	0xbe92cd00	-0.28672028
80	0xbd0c5266	-0.03425827
81	0xbedf14f4	-0.43570673
82	0x3d9a4f08	0.07534605
83	0xbec87fbb	-0.3915995
84	0x3e71d9f3	0.23618297
85	0xbed93756	-0.4242503
86	0xbd648fae	-0.055801086
87	0xbe935096	-0.2877242
88	0x3dc63cc3	0.09679558
89	0xbe9a4d4d	-0.301371
90	0xbdc7bde6	-0.09753017
91	0x3c5ad72e	0.013356967
92	0xbe50c891	-0.2038901
93	0xbe92a55a	-0.28641778
94	0x3e9fe1e8	0.3122704
95	0x3e907fff	0.28222653
96	0xbd2e21e6	-0.042512797
97	0xbdcab33d	-0.09897468
98	0x3d8002aa	0.06250508
99	0xbeb5905d	-0.35461703
100	0xbee04357	-0.43801376
101	0x3eb0a5a4	0.34501374
102	0xbede7a82	-0.4345284
103	0x3e2d13d0	0.16902089
104	0x3d50d5b0	0.05098504
105	0x3ee8a70c	0.45439947
106	0x3ea74c22	0.32675272
107	0xbdd730e2	-0.105073705
108	0xbec39d34	-0.38205874
109	0x3e29ebdd	0.16593881
110	0x3cecbc98	0.028898522
111	0x3ef81ac4	0.4845792
112	0x3e12faee	0.14353535
113	0x3e9fd406	0.3121645
114	0xbd86d300	-0.06583214
115	0xbd025ff0	-0.031829774
116	0x3f0368f6	0.5133203
117	0xbe24d02a	-0.16095033
118	0x3e04ecf3	0.12981014
119	0xbd83aa65	-0.064289846
120	0x3ea065cb	0.31327662
121	0x3d64e25c	0.055879936
122	0xbcb15a08	-0.021649376
123	0x3ec49984	0.38398373
124	0x3ad20942	0.0016024488
125	0x3ebe0430	0.3711257
126	0xbebffde6	-0.37498397
127	0x3ed89457	0.42300674
128	0x3d5f2628	0.054479748
129	0x3d88cffb	0.06680294
130	0x3e18b5ba	0.14913073
131	0x3e385645	0.18001659
132	0x3ed8b5b8	0.4232614
133	0x3e94e81a	0.2908333
134	0x3eb6baad	0.35689297
135	0x3ee27354	0.44228613
136	0x3e9c778a	0.3055995
137	0xbea5a6b4	-0.32353747
138	0x3eceade6	0.4036705
139	0x3ecabf0e	0.39598888
140	0x3eb36ef1	0.3504558
141	0x3e6233b5	0.22090037
142	0xbdebb4a0	-0.11509061
143	0x3e0c54ce	0.13704225
144	0xbedc4079	-0.4301794
145	0x3db38d51	0.08767188
146	0xbde58394	-0.11206737
147	0xbe281bb0	-0.16416812
148	0x3e9bfaf2	0.30464894
149	0xbdc4fc34	-0.096184164
150	0xbe8cea8c	-0.27522695
151	0x3ed53d8d	0.41648522
152	0xbe6a6159	-0.22888698
153	0xbea6b1ae	-0.32557434
154	0x3ed3b536	0.4134919
155	0x3d68958e	0.05678325
156	0x3ba43325	0.0050109797
157	0xbddaaea4	-0.10677841
158	0x3d31adf6	0.043378793
159	0x3db96fbf	0.09054517
160	0x3ed20636	0.41020364
161	0xbe8f83ed	-0.2803034
162	0xbe0b4188	-0.13599217
163	0xbecd7fda	-0.40136606
164	0x3ee4b861	0.4467192
165	0x3e46d17a	0.19415846
166	0xbe3d28a3	-0.18472533
167	0xbe02d504	-0.12776572
168	0x3e5fd33f	0.21857928
169	0x3e28d232	0.16486433
170	0x3ecdd504	0.4020158
171	0xbea4e604	-0.32206738
172	0xbdad18e4	-0.08452013
173	0xbd713eb0	-0.058897674
174	0xbe2f0cb0	-0.17094684
175	0x3dbf48eb	0.0934008
176	0x3e432fb4	0.19061166
177	0xbd3fbd42	-0.04681135
178	0x3e4a96ef	0.19784139
179	0x3dbaaf07	0.09115415
180	0xbea671a3	-0.32508573
181	0xbea38318	-0.31935954
182	0xbeb5316f	-0.35389277
183	0x3d819258	0.06326741
184	0x3e92c994	0.28669417
185	0x3ed8639a	0.4226349
186	0xbd852d38	-0.065027654
187	0xbe6e3f85	-0.23266418
188	0x3ea012d4	0.31264365
189	0xbe6bc696	-0.23024973
190	0xbe28161c	-0.16414684
191	0xbddfb2f6	-0.10922806
192	0x3ebf556b	0.37369856
193	0x3e49055c	0.1963095
194	0x3eba5adb	0.36397442
195	0xbd677a4f	-0.056513127
196	0x3d1eea6a	0.038797773
197	0x3e8bdcae	0.27316803
198	0xbc65c2e0	-0.014023513
199	0x3e6d6295	0.23182137
200	0x3e26217d	0.16223712
201	0x3e573c69	0.21019138
202	0x3cc082d3	0.023499882
203	0xbe325a8e	-0.17417356
204	0x3e2d0387	0.16895877
205	0x3d96c8ba	0.07362504
206	0xbea71c0c	-0.32638586
207	0xbca4bc90	-0.020109445
208	0xbdb32768	-0.087477505
209	0x3ed5e423	0.41775617
210	0x3a31aca9	0.00067777425
211	0x3ee0e0a3	0.43921384
212	0xbeb1ccf2	-0.34726673
213	0x3e233299	0.1593727
214	0x3e538406	0.20655832
215	0xbd98788c	-0.074448675
216	0x3da7b868	0.081894696
217	0xbde65854	-0.11247316
218	0x3c8835f0	0.016627282
219	0x3e1bc144	0.15210444
220	0x3eedf0ba	0.46472722
221	0xbed2778e	-0.41106838
222	0xbe85e2a5	-0.2614948
223	0x3dc419f2	0.09575261
224	0x3de4e074	0.111756235
225	0x3c11709b	0.008876945
226	0xbed361b4	-0.4128548
227	0x3e1473cd	0.144973
228	0x3ec21dbd	0.37913314
229	0x3dfbbcdb	0.12291881
230	0xbea237c4	-0.3168317
231	0x3d856918	0.06514186
232	0x3ec2ef2b	0.38073096
233	0x3e4679c8	0.19382393
234	0x3e82be2e	0.2553572
235	0xbe8750fc	-0.26428974
236	0xbe127664	-0.14302975
237	0x3e121af8	0.142681
238	0xbb9be140	-0.0047570765
239	0x3e978a80	0.29597855
240	0xbe4f4269	-0.20240177
241	0xbe9ef0b2	-0.3104301
242	0xbedbad13	-0.42905483
243	0xbdf7a047	-0.12091117
244	0xbc222220	-0.009895831
245	0xbe99c276	-0.30031174
246	0xbe1ac7b6	-0.15115246
247	0xbec2bb60	-0.3803358
248	0x3e2572a1	0.16157009
249	0x3ec5ebaf	0.38656375
250	0xba4f3102	-0.0007903726
251	0xbe5c4391	-0.2151015
252	0xbd5a22f1	-0.05325598
253	0xbe572c1f	-0.21012925
254	0x3e185a58	0.14878213
255	0x3e9be0b2	0.30444866

bias f4 [128]
0	0xbea2d3c2	-0.31802183
1	0xbdb7bc04	-0.08971408
2	0x3e916a42	0.2840138
3	0x3e6745fd	0.22585292
4	0x3e4f2ab5	0.20231135
5	0xbebe8d52	-0.37217194
6	0x3e2073ae	0.15669128
7	0x3ec5bdf0	0.38621473
8	0x3ed0524d	0.4068779
9	0xbedf09b2	-0.43562084
10	0xbe17ed90	-0.14836717
11	0x3e981206	0.2970125
12	0xbe629b26	-0.22129497
13	0x3e7f17a4	0.24911362
14	0xbe9d4e8b	-0.30723986
15	0xbe78e01b	-0.2430424
16	0x3e2d7d1a	0.16942254
17	0x3d1f1dbe	0.038846724
18	0xbe939227	-0.28822443
19	0xbe52aacf	-0.20572971
20	0xbec2d7ce	-0.3805527
21	0x3edb493a	0.42829305
22	0xbeb0b52a	-0.34513217
23	0xbcfbb5af	-0.030726282
24	0x3ebb5b3a	0.36593038
25	0x3ec5a238	0.38600326
26	0xbe5aaa0e	-0.21353933
27	0xbd278d89	-0.040906463
28	0xbe6c9935	-0.23105319
29	0xbead8cf3	-0.33896598
30	0xbe8ba5af	-0.27274844
31	0xbd5a7738	-0.053336352
32	0xbec490d2	-0.3839174
33	0xbdd89bfa	-0.10576625
34	0xbe8c8d46	-0.27451533
35	0x3dab5869	0.08366472
36	0xbe9f6b1b	-0.31136402
37	0xbebf475c	-0.3735913
38	0x3dd02a56	0.10164325
39	0xbe63e701	-0.2225609
40	0x3e99d253	0.30043277
41	0xbe431dc2	-0.1905432
42	0xbe94cde1	-0.29063323
43	0xbe9686e2	-0.29399782
44	0x3e9ca153	0.3059183
45	0x3e8aff1f	0.27147767
46	0xbed5f35a	-0.41787225
47	0xbeaf283e	-0.3421039
48	0x3ee0e139	0.4392183
49	0x3e30cfd4	0.1726678
50	0xbb339f4c	-0.002740818
51	0x3df3386a	0.118759945
52	0x3e17e563	0.14833598
53	0x3ebdf9af	0.37104556
54	0x3d255270	0.04036182
55	0xbe2881b8	-0.16455734
56	0x3beca305	0.007221582
57	0x3e87389b	0.26410374
58	0xbe2a50cb	-0.16632383
59	0x3d9056d2	0.0704781
60	0xbe1899c6	-0.1490241
61	0x3d6c796e	0.057732992
62	0x3e4d9e90	0.20080018
63	0x3dd1b8cf	0.102403276
64	0x3e97e9c3	0.29670534
65	0xbecd2f60	-0.40075207
66	0xbec5356c	-0.3851732
67	0x3df5310b	0.11972245
68	0xbd968b04	-0.07350734
69	0xbe105581	-0.14095117
70	0x3e9f8b8a	0.31161147
71	0x3d8df7f5	0.0693206
72	0xbe02d504	-0.12776572
73	0x3e80c0c9	0.25147083
74	0x3d413012	0.047164984
75	0xbe91c6a7	-0.28471872
76	0x3eaf9dbe	0.34300035
77	0xbec8afed	-0.3919672
78	0x3e2e6c2c	0.17033452
79	0x3e17ab85	0.14811523
80	0x3e162fd9	0.1466669
81	0xbac3af00	-0.0014929473
82	0x3d1683ad	0.03674667
83	0x3d6d85a3	0.057988774
84	0xbeb7c463	-0.3589202
85	0xbdd9ed50	-0.10640967
86	0x3e904fab	0.28185782
87	0x3d1c303f	0.03813195
88	0xbed70aa7	-0.42000315
89	0xbe1e8e38	-0.1548394
90	0xbe87e472	-0.26541477
91	0xbe0c6adc	-0.13712639
92	0x3e3a937d	0.18220325
93	0x3e96999a	0.29414064
94	0x3e316aa4	0.17325836
95	0xbe860565	-0.2617599
96	0x3e6da470	0.23207259
97	0xbec0efca	-0.37682945
98	0xbc90dd84	-0.017683752
99	0xbd918fd4	-0.07107511
100	0x3e967be8	0.29391408
101	0xbe27460e	-0.16335317
102	0x3eacec9d	0.33774272
103	0x3e9beed8	0.3045566
104	0x3e2b727d	0.16742893
105	0x3e53761d	0.20650525
106	0xbee25794	-0.44207442
107	0x3ea2f750	0.3182931
108	0x3e354e71	0.17705704
109	0x3c94cb8b	0.018163463
110	0xbe9df9ed	-0.3085474
111	0x3eacf6d6	0.3378207
112	0x3db843cd	0.08997307
113	0xbc777b15	-0.015105029
114	0xbec07611	-0.37590078
115	0x3e980b2a	0.29696018
116	0x3e96593f	0.29364964
117	0x3e274f3d	0.16338821
118	0x3e040950	0.12894177
119	0x3e1d3434	0.15351945
120	0xbe39b234	-0.18134385
121	0x3e865048	0.26233125
122	0xbe92ccd9	-0.2867191
123	0x3ed32164	0.41236413
124	0xbe43e950	-0.1913197
125	0xbed26b35	-0.41097417
126	0x3e534d89	0.20635046
127	0xbe815652	-0.2526117

weight f4 [128, 128]
0	0x3daae55b	0.08344527
1	0xbd6bb703	-0.05754758
2	0x3d425b94	0.047450617
3	0x3d9acda8	0.07558757
4	0xbb81e49f	-0.0039640213
5	0xbd442bbd	-0.047893275
6	0x3d5404db	0.051762443
7	0xbd34b19e	-0.0441147
8	0x3da806ca	0.0820442
9	0x3a296c80	0.0006463006
10	0x3daa3abe	0.083119854
11	0xbc998e0a	-0.018744487
12	0xbceebe4a	-0.029143471
13	0xbcc4cf59	-0.024024652
14	0x3d558eda	0.052138187
15	0x3da7d3e9	0.081947155
16	0xbd7be992	-0.061502047
17	0xbca935f2	-0.020655606
18	0xbcae5898	-0.02128248
19	0xbdc70580	-0.09717846
20	0xbcf0d1d0	-0.029396921
21	0x3d8981d7	0.06714218
22	0xbdf9688b	-0.12178143
23	0xbd54e9e0	-0.051980853
24	0xbd6daf5c	-0.058028564
25	0xbd3f1e5d	-0.046659816
26	0x3ca840c6	0.020538699
27	0x3d0a5c53	0.033779453
28	0xbd3a2845	-0.04544856
29	0x3c8cc309	0.017182844
30	0xbdbe9c6a	-0.09307177
31	0xbdd9e0b2	-0.1063856
32	0xbd8fa277	-0.070134096
33	0xbb9efeee	-0.0048521673
34	0x3c2a1240	0.010380328
35	0xbce0a795	-0.02742366
36	0x3db250cb	0.08706816
37	0x3cb14554	0.021639504
38	0xbd81a4de	-0.06330274
39	0xbd9bf39a	-0.07614823
40	0x3d1e822c	0.03869836
41	0x3e0b2648	0.13588822
42	0xbd882df7	-0.06649392
43	0xbd614807	-0.05500033
44	0x3d91178e	0.07084571
45	0xbd9e71df	-0.07736563
46	0x3da48a31	0.080341704
47	0xbd2c012f	-0.041993316
48	0x3d7f2a1f	0.06229603
49	0xbd5b8274	-0.053591207
50	0xbd653c76	-0.055965863
51	0x3d84190e	0.06450091
52	0x3c3487f1	0.011018739
53	0xbdb32bde	-0.087486014
54	0xbd582e46	-0.052778505
55	0x3e002c5c	0.12516922
56	0x3d373e41	0.044737104
57	0x3d82ca9b	0.063863
58	0x3d626d55	0.05528005
59	0xbe74f43b	-0.23921292
60	0xbd2cdc73	-0.042202424
61	0x3d6e847a	0.05823181
62	0xbd881acc	-0.06645736
63	0xbc81a2a2	-0.01582462
64	0xbcf7fe6a	-0.030272681
65	0xbd1f6c29	-0.03892151
66	0x3da26079	0.07928557
67	0x3d9ab502	0.07554056
68	0x3c0c9720	0.008580953
69	0x3d28a963	0.041177165
70	0x3ca68b5c	0.020330124
71	0xb9d1a297	-0.00039984725
72	0xbda5c830	-0.08094823
73	0x3d01df9e	0.0317074
74	0x3d2bde5d	0.04196011
75	0xbdfe0388	-0.12403017
76	0xbdbe69bc	-0.09297511
77	0xbc98aa70	-0.018635958
78	0xbd0d82dd	-0.03454863
79	0xbc767c47	-0.015044278
80	0x3d538e34	0.051649287
81	0xbda32fb0	-0.0796808
82	0xbb387822	-0.0028147777
83	0xbc839f0d	-0.016067052
84	0xbc70166a	-0.014653781
85	0x3d247d49	0.040158544
86	0x3b93a4a9	0.004505713
87	0xbccfadee	-0.02535149
88	0xbd9888fd	-0.074480034
89	0x3db5a341	0.08869029
90	0xbc96e584	-0.018419988
91	0x3d1dd5f7	0.03853413
92	0x3ca1926a	0.019723136
93	0x3d8421f9	0.06451792
94	0xbd39ba36	-0.0453436
95	0x3b08ef80	0.0020894706
96	0x3d579bd5	0.052638847
97	0xbdc197a4	-0.09452751
98	0x3d90ea9c	0.07075998
99	0xbd9391df	-0.07205557
100	0xbdc7588d	-0.097336866
101	0x3e22e7c8	0.1590873
102	0xbdab9a71	-0.08379067
103	0xbd8d5e03	-0.06902697
104	0xbcd295a5	-0.025706122
105	0x3c0d3fa2	0.008621128
106	0xbce44b04	-0.027867801
107	0x3d72d73d	0.0592873
108	0x3d14c9ee	0.036325388
109	0x3dafd0b4	0.08584729
110	0xbce439f6	-0.02785967
111	0xbcadea48	-0.021229878
112	0xbccd2ae2	-0.025044862
113	0xbc1d5535	-0.0096028345
114	0x3d4afcba	0.049557425
115	0xbd53cc3b	-0.05170844
116	0x3d95b43b	0.07309767
117	0x3d5801e5	0.05273618
118	0x3cc4ae99	0.024009036
119	0x3d41c7f3	0.047309827
120	0x3c95edac	0.018301807
121	0xbd783933	-0.060601424
122	0xbda3d386	-0.07999329
123	0xbc025a22	-0.00795606
124	0x3d15210c	0.03640847
125	0xbd24c970	-0.04023117
126	0x3d67368b	0.0564485
127	0x3b4e6440	0.003149286
128	0x3ce6b834	0.028164007
129	0x3da18278	0.07886213
130	0x3c6a4a68	0.014299966
131	0x3c380a8b	0.011232982
132	0xbcea7289	-0.028619068
133	0xbd0570a1	-0.032578114
134	0x3cae8c2f	0.02130708
135	0x3ad3f19a	0.0016170025
136	0xbd9644eb	-0.07337364
137	0x3d122d52	0.035687752
138	0x3db1d50d	0.08683214
139	0xbd49818a	-0.049195804
140	0x3c1b8c00	0.009493828
141	0xbc114d0f	-0.00886847
142	0x3d5dbb62	0.05413378
143	0x3d342b67	0.043986704
144	0x3d3bace4	0.04581918
145	0x3d588505	0.052861232
146	0x3d33f7d6	0.043937527
147	0xbd8bd216	-0.0682718
148	0x3d68494e	0.056710534
149	0xbc190f66	-0.00934205
150	0x3d3d3a64	0.046198264
151	0xbc8ffe37	-0.017577274
152	0xbdb61ca0	-0.088921785
153	0x3caeff7e	0.021362063
154	0xbd866b4b	-0.06563433
155	0x3d6ba5a3	0.05753101
156	0xbcaa4721	-0.02078587
157	0x3d2ad238	0.041704386
158	0x3d836456	0.06415622
159	0x3d8dc89a	0.06923027
160	0xbd9f5c6b	-0.07781299
161	0x3d487f90	0.048949778
162	0xbd6263c1	-0.055270914
163	0x3cefb00f	0.029258756
164	0x3c5629c8	0.013071485
165	0xbd38868c	-0.04505019
166	0xbd37cf9e	-0.044875734
167	0x3d3ce55f	0.046117183
168	0xbd5cf219	-0.05394182
169	0x3db3eb97	0.087851696
170	0x3d1bb1e1	0.038011435
171	0xbcf7cb96	-0.030248445
172	0xbd4b8152	-0.049683876
173	0x3d5a1848	0.053245813
174	0x3db42215	0.08795563
175	0xbd1bee4a	-0.038069047
176	0xbcbc839d	-0.023011977
177	0x3d8bd368	0.06827432
178	0xbdb33f41	-0.08752299
179	0xbaac80b7	-0.0013160919
180	0xbd336cee	-0.043805055
181	0xbdaf9b2f	-0.08574521
182	0x3d77899a	0.06043396
183	0xbd80f7aa	-0.06297238
184	0xbd174b8f	-0.036937293
185	0xbc0c8e4f	-0.008578851
186	0xbdb7c782	-0.089736
187	0x3bf4dd4e	0.0074726706
188	0xbd34bb11	-0.044123713
189	0xbc4eefb5	-0.012630393
190	0x3cdeabac	0.027181469
191	0x3d457911	0.04821116
192	0x3d9e4ed6	0.077298805
193	0x3c800f88	0.015632406
194	0x3d2e5f2e	0.04257124
195	0x3d6f256d	0.0583853
196	0x3d7731b2	0.060350128
197	0xbd7ec096	-0.062195383
198	0x3da38f83	0.07986357
199	0x3d85d32c	0.065344185
200	0x3c0a5441	0.008442939
201	0xbca353c6	-0.019937407
202	0xbd23380f	-0.039848384
203	0xbda67c59	-0.08129186
204	0xbdb25b7b	-0.08708855
205	0x3d78969e	0.060690515
206	0x3cd76676	0.026293974
207	0x3d98da4e	0.07463513
208	0xbd023ae7	-0.031794455
209	0xbd1790ba	-0.037003256
210	0x3d76a1a0	0.06021273
211	0x3a98e846	0.0011665903
212	0xbcea5612	-0.028605495
213	0xbd7ce5ac	-0.06174247
214	0xbd1ca0c3	-0.03823925
215	0xbc109e23	-0.008826765
216	0x3d45c396	0.04828223
217	0x3ae93aee	0.0017794052
218	0xbd44ff65	-0.048095126
219	0x3d4f97c1	0.050681833
220	0xbd2c9b2c	-0.04214017
221	0xbbf1c0bd	-0.0073777125
222	0x3b9ffa54	0.0048821364
223	0x3d46ae16	0.048505865
224	0xbcf9f48c	-0.030512117
225	0x3d696048	0.056976587
226	0x3ca3a93f	0.019978164
227	0xbd33d2ed	-0.043902326
228	0xbd0dc192	-0.03460843
229	0xbd71414a	-0.058900155
230	0xbd3ad1c0	-0.04561019
231	0x3c3003f6	0.010743132
232	0x384bb8b8	4.8571004e-05
233	0xbcba5474	-0.022745349
234	0xbbcce130	-0.0062524304
235	0xbd6a89cc	-0.05726032
236	0xbd204497	-0.039127912
237	0xbda2da85	-0.079518355
238	0xbd5594ef	-0.052143987
239	0x3d7c5b52	0.061610527
240	0xbd25a7e8	-0.04044333
241	0x3d50c2f5	0.050967176
242	0x3d899bbb	0.06719156
243	0x3b1b9bf7	0.0023744085
244	0x3cea0bd4	0.028570093
245	0x3d91228a	0.07086666
246	0xbc06dda3	-0.008231553
247	0xbc06f64a	-0.008237431
248	0x3d3dd77f	0.04634809
249	0x3d65bca2	0.056088097
250	0xbbd341d0	-0.0064470544
251	0x3c8478fc	0.016170971
252	0x3d25dade	0.04049193
253	0xbd36b3da	-0.044605114
254	0xbc86a604	-0.016436584
255	0xbd470815	-0.048591692

bias f4 [128]
0	0x3d1c00e6	0.038086794
1	0xbc7a7a86	-0.015288001
2	0xbd20c88d	-0.03925376
3	0x3ac62d71	0.0015119744
4	0x3cd2cf49	0.025733607
5	0xbc9cc754	-0.019138016
6	0xbc0585e6	-0.0081496
7	0xbd18a8a9	-0.03727022
8	0x3d5928f2	0.053017564
9	0x3d4da207	0.05020335
10	0x3d80a063	0.06280591
11	0x3da2d90e	0.07951556
12	0xbda86a55	-0.08223406
13	0xbcdedfb0	-0.027206272
14	0x3d1a08e2	0.037606128
15	0x3db5d87a	0.0887918
16	0x3d4cdf34	0.05001755
17	0xbc1953ef	-0.00935839
18	0x3db33912	0.0875112
19	0x3d56eafb	0.05247019
20	0xbd67e1f7	-0.05661198
21	0x3d449982	0.04799796
22	0xbc82c293	-0.01596192
23	0xbc9efdd8	-0.019408152
24	0x3d4ef815	0.05052956
25	0x3c9ee6e8	0.019397214
26	0x3d5756c8	0.052572995
27	0x3ced89e4	0.028996415
28	0x3b42ecd3	0.002974321
29	0x3d0f6433	0.035007667
30	0xbb0758f7	-0.0020652392
31	0xbbeaddd2	-0.0071675563
32	0x3da0c1d8	0.07849473
33	0xbd6efb11	-0.058344904
34	0x3d72ade0	0.05924785
35	0xba71d0bb	-0.00092245237
36	0xbd25ad38	-0.040448397
37	0x3d8643ff	0.06555938
38	0xbd86570e	-0.06559573
39	0xbd8b317b	-0.06796547
40	0xbd7b0010	-0.061279356
41	0xbc5484a8	-0.012971081
42	0xbd911a3f	-0.07085084
43	0xbd13323e	-0.035936587
44	0x3d908f95	0.07058636
45	0xbcc0210e	-0.023453262
46	0x3d4fadbf	0.050702807
47	0x3d61fe66	0.055174254
48	0x3d59d35d	0.053180087
49	0x3da665e9	0.081249066
50	0xbcdfde81	-0.027327778
51	0xbbeb1510	-0.0071741417
52	0x3ce72b7a	0.028218973
53	0xbd88abae	-0.0667337
54	0x3d96ae12	0.0735742
55	0x3dbd9a0c	0.09257898
56	0xbd9f1f21	-0.07769609
57	0xbc7f67d1	-0.015588717
58	0xbd395a89	-0.045252357
59	0xbd18cd8d	-0.037305404
60	0xbd61ff28	-0.055174977
61	0xbcfc45c1	-0.03079498
62	0xbd7e607f	-0.062103745
63	0x3d5e0287	0.05420163
64	0xbaa5c8a8	-0.0012648301
65	0xbc81f160	-0.015862167
66	0xbda33989	-0.07969958
67	0x3cdec3bb	0.027192941
68	0x3bcba13a	0.006214288
69	0x3ca5e268	0.02024956
70	0x3ccd9268	0.025094226
71	0xb9e67536	-0.00043956348
72	0x3da4aa6c	0.08040318
73	0xbd9897ce	-0.074508294
74	0x3d2f2996	0.04276427
75	0xbcc91b27	-0.02454908
76	0xbd5bb3b5	-0.05363818
77	0x3bb9f359	0.0056747613
78	0x3d31e79d	0.043433774
79	0xbd2b38dc	-0.041802272
80	0x3d911e0b	0.07085808
81	0x3d8f02ec	0.06982979
82	0xbd30e35f	-0.043185588
83	0x3cf323b3	0.029680109
84	0x3cd4c0d0	0.025970846
85	0x3dc456cb	0.09586867
86	0xbd70c86f	-0.0587849
87	0xbd1ff96d	-0.03905623
88	0xbd0681e1	-0.032838706
89	0xbc5963c8	-0.013268419
90	0x3d7a66a4	0.061133042
91	0x3cc58af9	0.024114119
92	0x3d186e4d	0.037214566
93	0x3d585ab2	0.05282087
94	0xbd2c9415	-0.04213341
95	0x3d3c7d65	0.046018023
96	0xbd3c6598	-0.045995325
97	0x3d8f7191	0.07004083
98	0x3b8e4e63	0.0043428405
99	0xbcff1474	-0.031137682
100	0xbdb05c86	-0.086113974
101	0x3daa1383	0.08304503
102	0xbd72a15e	-0.059235923
103	0x3d997127	0.07492285
104	0xba610af9	-0.0008584704
105	0xbd3ba439	-0.04581091
106	0xbd7ec0db	-0.06219564
107	0x3d220cbb	0.039562922
108	0x3db4458a	0.08802326
109	0x3c9229d4	0.01784221
110	0x3db4042d	0.08789859
111	0x3cfd3bb3	0.030912256
112	0xbd6a905e	-0.057266586
113	0x3d154288	0.036440402
114	0xbd5619d2	-0.052270718
115	0xbd29f8d2	-0.04149706
116	0x3d003914	0.031304434
117	0xbd67ffe3	-0.056640517
118	0xbd0c67b2	-0.03427858
119	0xbc51d55d	-0.012807217
120	0xbd28601d	-0.041107286
121	0x3d8ae3aa	0.06781705
122	0x3c9f047e	0.019411322
123	0x3cffea88	0.031239763
124	0x3d7c14f3	0.061543416
125	0xbd06a203	-0.03286935
126	0x3dad4e63	0.08462217
127	0x3d6228d8	0.055214733
