models/mountaincar_2D/checkpoint_cl.12.pth.tar (torch_old, 143897 bytes, 12 tensors)

weight f4 [128, 5]
0.1771378 0.070516095 -0.10740021 0.23995811 -0.3846269 -0.24972904 0.12785059 -0.08722523
-0.2530495 -0.26947176 -1.4366376 -0.25278452 -0.07456387 -0.07395008 -0.22741072 -0.017168574
-0.11946163 -0.044459254 0.16580057 0.2931516 0.082886904 -0.30494922 0.351299 0.025095344
0.36635032 0.425504 0.23317929 0.1868392 -0.15397048 -0.26889732 0.15193897 -0.35952187
-0.18456118 0.27793995 0.25932184 -0.3865538 -0.10383166 0.36799562 -0.32978067 0.26961976
-0.414157 0.04651726 -0.2853034 -0.13605776 0.3094152 0.08990212 -0.1327328 -0.07148364
-0.3017818 -0.22410162 -0.44999477 0.21480289 -0.25704172 0.34843096 0.2248568 0.54915917
0.22875354 0.18155871 0.37864816 -0.18868813 0.11123721 -0.14253879 0.2979477 0.1935396
0.20222297 -0.08594424 0.31440562 -0.40190327 0.03699106 0.094958894 -0.43054897 -0.19716467
0.34427145 0.20863445 -0.41217026 -0.32019123 0.241144 0.34808385 -0.21710886 -0.19260415
0.2547919 0.4014534 -0.48609418 -0.29605034 0.31424436 -0.3652583 -0.15598975 0.40516242
0.4049691 0.04486017 -0.022071868 -0.39967787 0.024291664 -0.28474545 -0.015775174 -0.37415856
0.16292824 0.10240306 0.14095552 -0.39633608 0.17546955 0.03138541 -0.31818706 0.14135125
-0.3634957 0.40837663 0.14827728 0.07470726 0.25214875 -0.33074528 0.13813199 0.4430547
0.0566416 -0.07277062 0.34229165 -0.13484232 0.08066335 0.23937084 -0.11435869 0.16701669
-0.23735112 0.35181296 0.2853265 0.40672022 -0.22183172 -0.27277702 -0.4070301 0.32416508
0.1816439 -0.24674405 -0.38897765 0.36627877 0.1852823 0.19233441 0.019912576 -0.14431718
0.36367083 0.39903167 0.42285618 0.051575966 0.41328654 -0.0027210158 -0.3765924 0.34413645
0.2509491 0.33893666 -0.44388202 0.32947716 -0.014897823 0.047518916 0.4179853 0.24306874
-0.41964436 -0.045776643 0.37160367 0.12332013 0.16604063 0.066101305 0.27369323 -0.18415894
0.2810391 0.32626185 0.20696919 0.12812905 0.36572132 -0.43758532 -0.3630748 0.17811531
-0.14844298 0.3374067 -0.39384347 -0.3317259 0.07219708 0.032645673 -0.10070747 0.18038997
-0.16383255 0.34625676 -0.12361666 0.39946207 -0.1409486 0.18120408 -0.20279762 -0.30140972
0.0062967837 0.41116127 0.06132236 -0.2736646 -0.026391497 -0.34357786 0.26572818 -0.29368016
-0.045336366 -0.27535307 -0.14490104 -0.35939208 -0.3874872 -0.14957257 0.3301145 -0.41158473
0.0005068087 -0.06874784 -0.18975335 -0.03598597 0.26196083 0.40469083 -0.22119479 -0.288023
-0.1047799 0.027119944 -0.13274516 0.24746381 -0.17241646 -0.3301131 0.2673398 -0.12224239
0.2012001 -0.2491724 0.36412928 -0.13720235 -0.14823535 0.31702504 -0.04158907 -0.0044143084
-0.09554141 0.3715539 0.009714714 -0.30259883 -0.31837597 0.12788941 0.3987822 -0.32812625
-0.39021355 0.40128535 -0.19845608 -0.41835088 0.21624526 0.09681859 -0.088681385 -0.051988225
-0.36633036 0.17517483 0.3462091 -0.3033769 0.3938793 0.31627214 0.30436316 0.23221193
0.2768688 0.277609 0.25995794 0.07784353 0.05045241 0.2452752 -0.2907954 -0.10959592
00000000: 9d63 353e be6a 903d a4f4 dbbd 94b7 753e
00000010: d1ed c4be f8b8 7fbe 44eb 023e 24a3 b2bd
00000020: b48f 81be 34f8 89be bee3 b7bf f96c 81be
00000030: f1b4 98bd 2473 97bd 5bde 68be 1ca5 8cbc
00000040: 4da8 f4bd e81a 36bd a0c7 293e f717 963e
00000050: 9cc0 a93d 4e22 9cbe 76dd b33e c094 cd3c
00000060: 4592 bb3e a9db d93e 8dc6 6e3e c652 3f3e
00000070: 70aa 1dbe e9ac 89be e495 1b3e 4013 b8be
00000080: 9bfd 3cbe 254e 8e3e d5c5 843e 61ea c5be
00000090: b1a5 d4bd ec69 bc3e 03d9 a8be 9a0b 8a3e
000000a0: 630c d4be e288 3e3d 4a13 92be ba52 0bbe
000000b0: ab6b 9e3e 9a1e b83d 1beb 07be 0466 92bd
000000c0: 2583 9abe e57a 65be b765 e6be 4af5 5b3e
000000d0: f99a 83be 8b65 b23e dc40 663e b295 0c3f
000000e0: 5e3e 6a3e 87ea 393e 2cde c13e 7637 41be
000000f0: 56d0 e33d b0f5 11be 9a8c 983e 3f2f 463e
00000100: 8a13 4f3e 8903 b0bd c6f9 a03e 44c6 cdbe
00000110: f083 173d cf79 c23d ea70 dcbe 89e5 49be
00000120: 5944 b03e 45a4 553e fb07 d3be 1bf0 a3be
00000130: 74ee 763e 0c38 b23e c951 5ebe 063a 45be
00000140: 1574 823e 4d8b cd3e 56e1 f8be e993 97be
00000150: a3e4 a03e 2303 bbbe c7bb 1fbe 7371 cf3e
00000160: 1c58 cf3e 4cbf 373d 10d0 b4bc 94a2 ccbe
00000170: 50ff c63c 28ca 91be f03a 81bc b691 bfbe
00000180: a9d6 263e b2b8 d13d a556 103e 90ec cabe
00000190: 4aae 333e fd8d 003d 6ae9 a2be 62be 103e
000001a0: 1c1c babe be16 d13e 00d6 173e 1f00 993d
000001b0: a419 813e 7257 a9be 7972 0d3e 11d8 e23e
000001c0: 0601 683d c308 95bd da40 af3e 1b14 0abe
000001d0: d432 a53d a11d 753e e434 eabd 6c06 2b3e
000001e0: 2c0c 73be d420 b43e 5116 923e a23d d03e
000001f0: db27 63be 6ea9 8bbe 4066 d0be f7f8 a53e
00000200: dc00 3a3e 79aa 7cbe 1428 c7be e488 bb3e
00000210: a5ba 3d3e 50f3 443e b31f a33c e2c7 13be
00000220: 1033 ba3e e14d cc3e 9b80 d83e 5241 533d
00000230: 4b9a d33e 1253 32bb b8d0 c0be a732 b03e
00000240: 677c 803e 1b89 ad3e 8144 e3be 3bb1 a83e
00000250: 0016 74bc 32a3 423d 2b02 d63e 03e7 783e
00000260: a0db d6be 4a80 3bbd d642 be3e 448f fc3d
00000270: 8e06 2a3e 1f60 873d 8521 8c3e 2994 3cbe
00000280: 5be4 8f3e cb0b a73e bbef 533e 4334 033e
00000290: d33f bb3e 2f0b e0be f1e4 b9be dc63 363e
000002a0: 7001 18be 92c0 ac3e daa5 c9be fad7 a9be
000002b0: 10dc 933d 78b7 053d b83f cebd 26b8 383e
000002c0: b8c3 27be 9148 b13e bb2a fdbd 4b86 cc3e
000002d0: d454 10be 908d 393e 2eaa 4fbe 6052 9abe
000002e0: 4055 ce3b bb83 d23e 282d 7b3d c41d 8cbe
000002f0: fb32 d8bc 70e9 afbe 860d 883e 3f5d 96be
00000300: a0b2 39bd 14fb 8cbe f060 14be 3d02 b8be
00000310: b964 c6be 8d29 19be c504 a93e 3cbb d2be
00000320: 5bdb 043a abcb 8cbd b44e 42be 0666 13bd
00000330: bb1f 863e a333 cf3e e380 62be c077 93be
00000340: d896 d6bd a52a de3c 59ee 07be 2767 7d3e
00000350: f18d 30be 9604 a9be c3e0 883e 385a fabd
00000360: 6607 4e3e 0d27 7fbe 276f ba3e c67e 0cbe
00000370: 02cb 17be 1b51 a23e 4d59 2abd e7a5 90bb
00000380: 37ab c3bd 503c be3e 772a 1f3c 3cee 9abe
00000390: 2d02 a3be 71f5 023e 2e2d cc3e 2a00 a8be
000003a0: 12ca c7be 4675 cd3e 1238 4bbe 1632 d6be
000003b0: 666f 5d3e d348 c63d 969e b5bd 9bf1 54bd
000003c0: a78f bbbe 0861 333e 5242 b13e 3854 9bbe
000003d0: 8caa c93e 6cee a13e 7dd5 9b3e f7c8 6d3e
000003e0: bfc1 8d3e c422 8e3e 3519 853e 6e6c 9f3d
000003f0: 30a7 4e3d 6c29 7b3e 22e3 94be d373 e0bd

bias f4 [128]
-0.40911064 -0.21667133 0.20011829 0.12585503 -0.12592535 -0.12015921 0.14803322 0.1599956
0.062312946 0.2784789 0.32443318 -0.45940962 -0.10494932 -0.36240408 0.37440532 -0.187057
0.30734548 0.46575278 -0.3633429 0.12538126 -0.25424138 -0.4189008 -0.27453455 0.19849005
-0.37097108 -0.2962331 -0.025373371 0.015210638 -0.095418766 0.32318288 0.15044412 0.121309996
-0.07562657 -0.317222 -0.16115245 0.19578767 -0.31509006 0.24306904 -0.34735844 0.308289
-0.10865482 -0.19445607 0.41593647 -0.36365446 0.09033713 0.3744251 0.39395663 0.36943504
-0.13761814 -0.3688457 -0.46040896 -0.1954396 0.27600777 0.23419362 0.42315018 -0.0035637757
-0.38490948 -0.28910595 -0.13316874 -0.41775405 0.18393058 -0.0054414147 0.14853914 -0.14485216
0.15446681 -0.23581427 0.080454 -0.18207225 -0.19789942 -0.35433954 0.20223936 -0.0052404697
0.13742474 0.008861057 0.11060606 0.04286736 -0.40785834 0.4721928 -0.2522933 -0.16097912
-0.17584825 -0.29571635 -0.05961579 -0.23776227 0.1770796 -0.22025518 0.4138253 0.25498307
-0.1423565 -0.06332144 0.2208406 -0.082859084 0.2250777 0.2026315 -0.4711722 0.4174545
-0.16277975 0.29705667 0.42046618 0.15524608 0.39736685 0.40791467 -0.10951675 -0.3088128
-0.22245866 -0.11415558 -0.077725925 -0.38490218 -0.34458098 -0.09230603 0.14008187 -0.12720652
-0.197446 -0.16210738 0.22598712 -0.25537294 -0.25913748 -0.15422852 -0.36946228 0.3998322
-0.34330449 0.37872392 -0.1924021 -0.18904258 0.3444722 0.43848726 -0.10989073 -0.29560974
00000000: f376 d1be 17df 5dbe cfeb 4c3e 24e0 003e
00000010: 93f2 00be 0816 f6bd 0596 173e e3d5 233e
00000020: dc3b 7f3d c994 8e3e 1b1c a63e bd37 ebbe
00000030: abef d6bd 078d b9be 0eb2 bf3e df8b 3fbe
00000040: 635c 9d3e 2677 ee3e 1508 babe f263 003e
00000050: ed2b 82be 2a7a d6be cb8f 8cbe fa40 4b3e
00000060: ecef bdbe ddab 97be d1db cfbc 0a36 793c
00000070: ea6a c3bd 3a78 a53e 060e 1a3e 6071 f83d
00000080: 1ae2 9abd ec6a a2be 2605 25be 907c 483e
00000090: 7c53 a1be 17e7 783e f7d8 b1be 0ed8 9d3e
000000a0: 6b86 debd 7e1f 47be a0f5 d43e eb30 babe
000000b0: ac02 b93d a6b4 bf3e afb4 c93e 9726 bd3e
000000c0: c5eb 0cbe 58d9 bcbe b9ba ebbe 5221 48be
000000d0: e450 8d3e 74d0 6f3e 24a7 d83e 3c8e 69bb
000000e0: db12 c5be b205 94be 635d 08be dce3 d5be
000000f0: 4c58 3c3e e54d b2bb a51a 183e 2054 14be
00000100: 8c2c 1e3e 4c79 71be 11c5 a43d 2671 3abe
00000110: 25a6 4abe fe6b b5be d617 4f3e 3fb8 abbb
00000120: 12b9 0c3e f82d 113c 6e85 e23d af95 2f3d
00000130: cfd2 d0be 41c3 f13e 962c 81be b6d7 24be
00000140: 9011 34be 2268 97be b02f 74bd f477 73be
00000150: 5b54 353e 938a 61be e9e0 d33e 248d 823e
00000160: e7c5 11be acae 81bd 0a24 623e 06b2 a9bd
00000170: c57a 663e a27e 4f3e 7c3d f1be 99bc d53e
00000180: bcaf 26be d017 983e 5847 d73e d4f8 1e3e
00000190: ab73 cb3e 31da d03e 514a e0bd b61c 9ebe
000001a0: 34cc 63be 67ca e9bd c52e 9fbd e611 c5be
000001b0: eb6c b0be f20a bdbd 9f71 0f3e 6d42 02be
000001c0: 492f 4abe 7aff 25be 2b69 673e 3ec0 82be
000001d0: abad 84be 15ee 1dbe 292a bdbe ceb6 cc3e
000001e0: 9bc5 afbe 1ae8 c13e 0e05 45be 6194 41be
000001f0: a95e b03e 6781 e03e 640e e1bd 295a 97be

weight f4 [128, 128]
-0.10304249 -0.017387472 -1.1850444 -0.023709645 0.02529853 -0.0075250524 0.10531658 0.041998524
0.01387735 0.0636864 0.05391302 -0.12422062 -0.05140388 -0.04020604 -0.014353572 -0.015262987
0.03490264 -0.014963164 -0.064131506 -0.09467539 0.008058154 0.006929374 -0.080172144 0.07899751
-0.033714697 0.07500442 -0.08817082 0.077207305 0.02425308 0.016792458 0.05617799 0.08884854
0.009790778 0.011132382 0.06115531 0.07520859 -0.070903905 0.10159467 -0.056722756 -0.014201843
0.052485634 -0.00077489676 0.06911727 -0.037218384 -4.2752916e-05 -0.011620352 0.04909359 0.039450422
0.04935186 0.05144633 -0.09335846 0.05404071 0.09636109 0.028082425 0.06637445 0.0052618114
0.034510568 -0.028323028 0.03988301 0.05074867 0.06824466 0.09839968 0.07596123 0.030115116
-0.097166784 0.00061602244 -0.038260944 0.05637764 -0.05675312 0.00015252084 0.037277646 0.062638156
0.09348106 -0.012267774 0.06336285 0.012831933 0.042667232 -0.18722112 -0.04663903 -0.038717646
-0.013512088 -0.016655056 0.024564855 0.09186931 -0.07484641 0.015044872 -0.03116077 -0.07042274
0.0005806859 0.038004883 0.022204489 -0.048210066 0.06785545 0.03135744 -0.17306793 0.040497437
0.049174022 -0.031005828 0.02283482 0.0021426284 -0.035556033 0.08066144 0.059146125 -0.074191086
0.03167799 0.0296601 -0.057329338 0.032464318 0.07345978 0.08885103 -0.05870389 -0.042019773
-0.045225922 -0.06540175 -0.022676805 -0.15397072 0.01094707 0.10982071 0.02858671 -0.078923196
0.09676633 -0.043477926 0.08707857 -0.015890554 0.027129374 0.08068416 -0.3563942 0.0120869875
0.0011970832 0.007941127 0.08369259 0.026266262 0.024481738 -0.07939907 -0.043231264 0.05006787
0.053899057 -0.08194405 -0.052260403 -0.08515515 0.00206542 0.031532027 -0.057177287 -0.078752846
0.033002943 -0.03227398 -0.019669436 0.016148202 0.038161155 -0.047529705 0.04421951 0.02570227
-0.035764296 -0.020371981 -0.047253616 -0.093121335 0.026230156 -0.051675353 0.07013714 0.011927206
0.05147032 0.021958284 -0.08117223 -0.058440965 0.07485054 -0.061925918 0.014344037 -0.04758889
0.057713866 0.08298037 0.014725082 0.044612236 0.045724045 -0.04639577 -0.019753344 -0.08152886
-0.07123079 -0.09042658 -0.064715445 -0.041957933 0.04429159 0.022375114 0.06962048 -0.032810017
0.015642792 0.06885756 -0.015649835 -0.02347134 -0.038854167 0.06864901 0.031286977 0.08521557
0.041923318 -0.047009353 -0.030763807 -0.056824014 -0.067479484 -0.013491161 0.012046536 0.07981049
-0.018656036 0.06812357 -0.05023933 0.018611154 -0.07305313 -0.011456342 -0.054931525 0.042705715
0.017951488 0.010621861 0.03337744 0.024595343 -0.030244466 0.0099428 0.012169693 -0.030054074
-0.003889971 0.010676585 -0.061620835 -0.0063947313 0.059910934 -0.07857976 0.038878284 -0.023850188
0.045952875 -0.018924402 0.04718437 -0.06444619 0.038714018 0.037518114 -0.0718715 0.03401602
-0.03141922 0.030093005 0.053260565 0.03157416 0.047682308 -0.054073185 0.0075682392 -0.0040407213
0.016682832 -0.049301688 0.07397597 0.025195 -0.013589882 0.064682 0.021289987 0.029543256
-0.07252406 -0.01636497 -0.080727674 0.04530273 -0.029961754 -0.00039883418 -0.0045234114 0.0067432076
00000000: f107 d3bd 2c70 8ebc 89af 97bf bb3a c2bc
00000010: dd3e cf3c b794 f6bb 38b0 d73d a506 2c3d
00000020: d35d 633c 046e 823d e6d3 5c3d 6167 febd
00000030: e08c 52bd 17af 24bd 3f2b 6bbc 9c11 7abc
00000040: 12f6 0e3d 0f28 75bc 6157 83bd 2ce5 c1bd
00000050: 5906 043c cd0f e33b 4b31 a4bd 72c9 a13d
00000060: 6c18 0abd eb9b 993d e792 b4bd dd1e 9e3d
00000070: 65ae c63c 5690 893c e41a 663d 39f6 b53d
00000080: 8069 203c 9864 363c fe7d 7a3d f606 9a3d
00000090: 1136 91bd de10 d03d 1f56 68bd d9ae 68bc
000000a0: 2dfb 563d 7122 4bba 5b8d 8d3d 4e72 18bd
000000b0: 9851 33b8 4a63 3ebc 5c16 493d c496 213d
000000c0: 2d25 4a3d 63b9 523d b832 bfbd cb59 5d3d
000000d0: f758 c53d 1d0d e63c 54ef 873d 466b ac3b
000000e0: f45a 0d3d b205 e8bc 5e5c 233d d6dd 4f3d
000000f0: dbc3 8b3d c585 c93d 9091 9b3d fab3 f63c
00000100: 61ff c6bd 917c 213a 82b7 1cbd 3eec 663d
00000110: f675 68bd 00ee 1f39 72b0 183d 6f48 803d
00000120: ff72 bf3d c6fe 48bc 62c4 813d 073d 523c
00000130: d6c3 2e3d e5b6 3fbe 9108 3fbd 6596 1ebd
00000140: ce61 5dbc 2f70 88bc 3c3c c93c fa25 bc3d
00000150: 1349 99bd c47e 763c df44 ffbc cc39 90bd
00000160: 2c39 183a 02ab 1b3d 30e6 b53c eb77 45bd
00000170: ccf7 8a3d a970 003d b838 31be a4e0 253d
00000180: b36a 493d efff fdbc 1710 bb3c 576b 0c3b
00000190: 34a3 11bd d331 a53d 3543 723d 7ff1 97bd
000001a0: c8c0 013d bdf9 f23c 2bd2 6abd 4ef9 043d
000001b0: 1572 963d 87f7 b53d 7d73 70bd ed1c 2cbd
000001c0: d13e 39bd 5af1 85bd b5c4 b9bc 80aa 1dbe
000001d0: 575b 333c aee9 e03d ad2e ea3c 7ca2 a1bd
000001e0: 6d2d c63d e915 32bd 4056 b23d e82c 82bc
000001f0: 6c3e de3c bd3d a53d 4d79 b6be 8008 463c
00000200: 72e7 9c3a 801b 023c 0567 ab3d 582c d73c
00000210: ed8d c83c fb9b a2bd 4413 31bd f813 4d3d
00000220: 42c5 5c3d 48d2 a7bd 010f 56bd d365 aebd
00000230: ff5b 073b ba27 013d bb32 6abd 2c49 a1bd
00000240: 182e 073d b931 04bd cc21 a1bc 3c49 843c
00000250: df4e 1c3d 82ae 42bd 841f 353d 918d d23c
00000260: 957d 12bd 24e3 a6bc 028d 41bd 66b6 bebd
00000270: a0e0 d63c 89a9 53bd 10a4 8f3d 546a 433c
00000280: 8bd2 523d dce1 b33c a03d a6bd cb5f 6fbd
00000290: 3d4b 993d 08a6 7dbd 4003 6b3c 91ec 42bd
000002a0: 6065 6c3d 9df1 a93d 7841 713c 52bb 363d
000002b0: 2349 3b3d 7e09 3ebd c4d1 a1bc 9af8 a6bd
000002c0: 73e1 91bd 9231 b9bd 8889 84bd 15dc 2bbd
000002d0: 196b 353d 044c b73c 2f95 8e3d cc63 06bd
000002e0: 5025 803c 3105 8d3d 1534 80bc f846 c0bc
000002f0: 8c25 1fbd da97 8c3d c626 003d 8085 ae3d
00000300: c9b7 2b3d e18c 40bd 6104 fcbc 4cc0 68bd
00000310: af32 8abd 080a 5dbc d65e 453c af73 a33d
00000320: 8bd4 98bc 5f84 8b3d c1c7 4dbd 6b76 983c
00000330: e19c 95bd 62b3 3bbc e1ff 60bd 30ec 2e3d
00000340: 000f 933c 5007 2e3c c8b6 083d 2c7c c93c
00000350: 3ec3 f7bc 20e7 223c 6463 473c f633 f6bc
00000360: e2ee 7ebb d8ec 2e3c 2166 7cbd e58a d1bb
00000370: 2b65 753d 6dee a0bd d63e 1f3d 7861 c3bc
00000380: 1539 3c3d 5907 9bbc 6644 413d 5dfc 83bd
00000390: 9792 1e3d 98ac 193d 5d31 93bd 6254 0b3d
000003a0: 71b1 00bd 9b85 f63c c027 5a3d e853 013d
000003b0: 864e 433d d87b 5dbd fefe f73b 0768 84bb
000003c0: 6faa 883c 91f0 49bd b780 973d bf65 ce3c
000003d0: 19a8 5ebc ff77 843d 5768 ae3c b304 f23c
000003e0: 7f87 94bd d40f 86bc 8d54 a5bd 5b8f 393d
000003f0: 5a72 f5bc 9e1a d1b9 2039 94bb 20f6 dc3b

bias f4 [128]
0.032550905 -0.08453173 -0.01811051 -0.051020805 0.049258437 0.06687754 0.06873714 -0.0012497515
-0.056090638 0.06937577 -0.025853591 -0.0015186757 0.067871004 0.045888856 0.07420668 -0.06631714
0.031805586 -0.042381052 0.032791268 0.08624974 0.10656976 0.04459215 -0.020125428 0.01365047
0.03436954 -0.042885568 0.07099128 0.022735206 0.08022992 0.024685167 -0.06495592 0.09475981
0.044956308 -0.022158816 0.11388642 -0.001538287 0.053001318 -0.042730276 -0.038706172 0.06049184
-0.02419055 -0.020197771 0.0908657 -0.029584136 -0.0005388562 0.05713854 0.06659142 0.029224997
0.0826127 0.109154336 -0.08411818 -0.0542973 -0.06298122 0.07528165 -0.055423606 -0.03382863
-0.019086214 -0.08762159 -0.07532123 0.017202064 -0.062214244 0.05995779 0.024653956 -0.0104166195
0.025498915 -0.008035869 0.076099925 0.077386 0.03795757 -0.050642446 -0.08370565 0.012483992
-0.01702917 0.09199455 0.06527261 -0.039805315 0.105929196 -0.06298514 0.020455547 0.087006494
-0.088198066 -0.04760539 0.05543528 0.013585676 0.06512657 -0.022603052 -0.06888905 -0.028321777
0.054863993 0.062164832 -0.011654346 0.00076989667 -0.0571846 0.06628815 0.035770606 0.0811567
-0.06905232 -0.056990903 -0.106282435 -0.044994574 -0.014544127 -0.065759555 -0.11426377 0.011883883
-0.019188825 -0.07016666 -0.016887188 -0.035462383 -0.06873845 0.03840956 0.021742597 0.003235714
0.035506938 0.02851959 0.00011730328 -0.04174776 -0.02338806 -0.074968494 -0.06482641 0.06805005
0.043886237 -0.0758246 -0.010737715 -0.042476684 -0.042322528 -0.06374954 0.039832797 0.05555081
00000000: 1954 053d f91e adbd 7e5c 94bc 31fb 50bd
00000010: 37c3 493d 17f7 883d 0fc6 8c3d b4ce a3ba
00000020: 4cbf 65bd e214 8e3d e9ca d3bc 4d0e c7ba
00000030: f4ff 8a3d f4f5 3b3d acf9 973d 48d1 87bd
00000040: 9346 023d c197 2dbd 2350 063d b4a3 b03d
00000050: 3f41 da3d 42a6 363d 15de a4bc 39a6 5f3c
00000060: 13c7 0c3d c7a8 2fbd e063 913d 2f3f ba3c
00000070: 964f a43d 8c38 ca3c 9c07 85bd 6e11 c23d
00000080: 1b24 383d 6886 b5bc 493d e93d 59a0 c9ba
00000090: e917 593d f105 2fbd 5d8a 1ebd 4bc6 773d
000000a0: 432b c6bc cc75 a5bc cc17 ba3d 6e5a f2bc
000000b0: 0742 0dba 1a0a 6a3d 1561 883d 4369 ef3c
000000c0: d930 a93d 4f8c df3d 2746 acbd d866 5ebd
000000d0: 4cfc 80bd 442d 9a3d dd03 63bd e48f 0abd
000000e0: b15a 9cbc f372 b3bd 0442 9abd 58eb 8c3c
000000f0: 5dd4 7ebd 4d96 753d 18f7 c93c 78aa 2abc
00000100: 1ae3 d03c e1a8 03bc 47da 9b3d 8d7c 9e3d
00000110: 6679 1b3d 746e 4fbd de6d abbd a889 4c3c
00000120: c280 8bbc a367 bc3d a5ad 853d e60a 23bd
00000130: 68f1 d83d 5afe 80bd 6492 a73c 7630 b23d
00000140: 30a1 b4bd dffd 42bd 1b10 633d 7596 5e3c
00000150: 1461 853d 092a b9bc b415 8dbd 1203 e8bc
00000160: 11b9 603d 8da0 7e3d dff1 3ebc e4d2 493a
00000170: 663a 6abd 15c2 873d 3384 123d 7c35 a63d
00000180: 4e6b 8dbd 4b6f 69bd 9baa d9bd 3b4c 38bd
00000190: 7d4a 6ebc f2ac 86bd 2003 eabd 9eb4 423c
000001a0: e231 9dbc 8ab3 8fbd 0057 8abc 0141 11bd
000001b0: bfc6 8cbd 5853 1d3d 881d b23c 460e 543b
000001c0: b96f 113d eaa1 e93c b800 f638 b3ff 2abd
000001d0: 5198 bfbc 1589 99bd b5c3 84bd d35d 8b3d
000001e0: 0ec2 333d ee49 9bbd 3eed 2fbc 08fc 2dbd
000001f0: 635a 2dbd 1e8f 82bd b727 233d 3f89 633d

weight f4 [2, 128]
0.092121154 -0.012566868 -0.08563426 -0.0728062 0.008393157 0.007623449 -0.06494806 0.04827363
0.022776976 -0.015110253 0.035321128 -0.08756785 0.010973071 -0.03967325 0.01964143 0.12007453
0.0071135717 -0.0544491 -0.0025612023 -0.187608 0.09707627 0.08025239 -0.04788222 0.057184428
-0.07736738 0.073852405 -0.05389665 -1.6686157 0.05879885 -0.007164426 0.0006256061 -0.08774971
0.0557512 0.0367186 0.066818945 0.09021999 -0.07851404 -0.062463615 0.08287439 0.049815092
0.003400846 0.094789684 -0.015415685 0.0023376867 0.059688035 -0.07837272 -0.0054482054 -0.020339835
0.0770348 0.098893866 -0.016762365 -0.051671572 -0.026500182 0.034270726 0.38230434 0.007347986
-0.0172691 -0.027341072 -0.00020808396 -0.14863244 -0.07544547 -0.04518396 -0.11349048 0.014122071
0.00016756312 0.031766705 0.07526086 -0.011809607 0.068837576 0.012113084 -0.07401705 -0.058753587
0.107806444 0.08984048 -0.025736142 0.10782919 0.034470793 0.053456925 -0.024011308 -0.11620471
-0.009709284 -0.06714991 -0.45681787 -0.083144926 0.09980296 -1.3595685 0.08640698 -0.08343846
0.056824088 0.013000618 0.023910105 0.03272401 0.08809256 0.0041173524 0.016685212 0.016265975
0.04003923 -0.052438814 0.0026112827 0.039387234 -0.04103054 -0.01238873 -1.7267193 -0.04590709
0.10668531 -0.084742226 -0.03928377 -0.21030457 0.040858917 0.104311936 -0.02635468 0.09967848
-0.036773402 0.045843 -0.13365789 -0.086402796 -0.045430947 -0.044267654 -0.04858034 -0.02701432
-0.13906735 0.104543805 0.049659893 -1.2853122 -0.17932323 0.07109841 -0.00020512463 -0.009120239
-0.04529413 -0.0031964758 -0.02473849 -0.0037191818 0.04906302 -0.025464885 -0.058915295 -0.032542504
-0.017724074 -0.009163865 -0.20010798 -0.07185082 0.079187244 0.086730234 0.060284182 -0.04023391
0.013604697 0.025411986 -0.0072793006 -0.100389466 0.004737609 -0.03993356 0.066404626 -0.00621099
-0.059597254 -0.015382902 0.06846996 -0.9293472 0.08328152 0.013140544 0.013928678 0.07312986
-0.0846277 0.09358652 0.020147804 0.020684903 0.060019564 0.093055256 0.084031284 -0.035646744
0.04972989 0.076006435 0.07801788 0.030695878 0.04199173 0.0745398 0.044346716 0.05586317
0.0164875 -0.00037511034 -0.053753853 -0.084843755 0.076114185 0.03591044 -0.058407653 0.053954087
0.060266238 -0.021665633 0.08272798 0.04633194 -0.037190456 -0.10383383 -0.031082217 0.0407228
0.0069842977 -0.04932798 -0.06304154 0.03213398 0.11388858 0.014779625 0.05660097 -0.048289753
0.11632641 -0.0019161043 -0.029594012 -0.042182893 0.03456084 0.046923093 -0.02375539 -0.050148405
0.055221952 -0.044273827 0.64499956 0.08839206 0.06772294 0.097550206 0.06489403 -0.08363218
0.011936915 0.0916136 0.02249638 0.046157215 -0.013751368 -0.08982713 0.10045112 0.028202284
0.018434536 0.022463381 0.0032167688 -0.057695165 0.09903255 0.050828006 -0.8150452 -0.036686793
-0.010533544 0.019565314 -0.051742222 -0.037814394 -0.042658616 -0.03282458 0.07689772 0.026531722
-0.13592198 0.027262442 0.048328076 -0.0022952333 -0.18190709 0.08485959 -0.020466141 0.080235
-0.032907147 -0.15076265 0.08093576 -0.046490766 0.029804587 -0.0602181 -0.003276322 0.036797512
00000000: 04aa bc3d 44e5 4dbc 0461 afbd 6b1b 95bd
00000010: 7483 093c 20ce f93b 7d03 85bd 92ba 453d
00000020: c896 ba3c ff90 77bc e3ac 103d c656 b3bd
00000030: 65c8 333c 6b80 22bd 10e7 a03c a3e9 f53d
00000040: f718 e93b 0506 5fbd d8d9 27bb 501c 40be
00000050: eccf c63d 5d5b a43d 2620 44bd 383a 6a3d
00000060: ca72 9ebd ee3f 973d bcc2 5cbd 3395 d5bf
00000070: 10d7 703d 90c3 eabb b7ff 233a 1fb6 b3bd
00000080: 5f5b 643d 3e66 163d 5fd8 883d 42c5 b83d
00000090: f8cb a0bd d9d9 7fbd 0cba a93d e90a 4c3d
000000a0: bae0 5e3b 1821 c23d 1292 7cbc e033 193b
000000b0: 717b 743d e081 a0bd dc86 b2bb ba9f a6bc
000000c0: 6cc4 9d3d de88 ca3d 3a51 89bc 92a5 53bd
000000d0: e916 d9bc 765f 0c3d 65bd c33e 60c7 f03b
000000e0: ed77 8dbc 62fa dfbc 1d31 5ab9 1a33 18be
000000f0: 2883 9abd d112 39bd b26d e8bd 4260 673c
00000100: e2b3 2f39 ce1d 023d 5e22 9a3d 157d 41bc
00000110: b7fa 8c3d f575 463c 4096 97bd 9aa7 70bd
00000120: a0c9 dc3d 49fe b73d 9ad4 d2bc 8dd5 dc3d
00000130: 3f31 0d3d a6f5 5a3d 5db3 c4bc bcfc edbd
00000140: b013 1fbc e485 89bd 08e4 e9be e347 aabd
00000150: 7f65 cc3d 5706 aebf 25f6 b03d c9e1 aabd
00000160: 60c0 683d 8b00 553c 20df c33c 9d09 063d
00000170: df69 b43d dbea 863b 6daf 883c 3940 853c
00000180: 2d00 243d 15ca 56bd 0e22 2b3b 8254 213d
00000190: a40f 28bd 1afa 4abc 2305 ddbf 1309 3cbd
000001a0: d47d da3d 558d adbd 05e8 20bd 155a 57be
000001b0: ae5b 273d 7fa1 d53d c5e5 d7bc 3b24 cc3d
000001c0: b59f 16bd dfc5 3b3d 9ddd 08be f3f3 b0bd
000001d0: cd15 3abd 0052 35bd 2efc 46bd 234d ddbc
000001e0: ac67 0ebe 101b d63d 2c68 4b3d 1c85 a4bf
000001f0: 82a0 37be 0b9c 913d b916 57b9 0e6d 15bc
00000200: 5686 39bd f77b 51bb 60a8 cabc 84bd 73bb
00000210: 4ef6 483d bc9b d0bc 2a51 71bd 4a4b 05bd
00000220: 1432 91bc 0924 16bc 1be9 4cbe 8626 93bd
00000230: ec2c a23d 9f9f b13d 8cec 763d 50cc 24bd
00000240: 3ce6 5e3c cc2c d03c 3387 eebb fe98 cdbd
00000250: f23d 9b3b 5f91 23bd 26ff 873d 8f85 cbbb
00000260: 401c 74bd 9108 7cbc fa39 8c3d b3e9 6dbf
00000270: 808f aa3d 704b 573c 1c35 643c 1cc5 953d
00000280: 4a51 adbd 4aaa bf3d 020d a53c 6373 a93c
00000290: 13d7 753d c193 be3d 9818 ac3d 5202 12bd
000002a0: 92b1 4b3d 43a9 9b3d d7c7 9f3d ec75 fb3c
000002b0: 85ff 2b3d 53a8 983d e7a4 353d c8d0 643d
000002c0: cb10 873c 75aa c4b9 002d 5cbd 90c2 adbd
000002d0: c1e1 9b3d d316 133d dd3c 6fbd f6fe 5c3d
000002e0: bbd9 763d 207c b1bc 4a6d a93d 8fc6 3d3d
000002f0: 0555 18bd d5a6 d4bd 22a0 febc f3cc 263d
00000300: 89dc e43b 230c 4abd ec1b 81bd ec9e 033d
00000310: 6a3e e93d 3e26 723c 6bd6 673d 7acb 45bd
00000320: 8a3c ee3d cb25 fbba 246f f2bc f8c7 2cbd
00000330: ab8f 0d3d 6e32 403d aa9a c2bc 6a68 4dbd
00000340: 6a30 623d 7958 35bd b11e 253f e506 b53d
00000350: 53b2 8a3d 67c8 c73d 29e7 843d 5947 abbd
00000360: 0d93 433c e99f bb3d 544a b83c 590f 3d3d
00000370: 6b4d 61bc 49f7 b7bd 51b9 cd3d 7a08 e73c
00000380: 0604 973c 2005 b83c 6dd0 523b c451 6cbd
00000390: 94d1 ca3d 0731 503d cda6 50bf e444 16bd
000003a0: e394 2cbc 7047 a03c a7ef 53bd 44e3 1abd
000003b0: cdba 2ebd 1173 06bd 8d7c 9d3d 0e59 d93c
000003c0: 222f 0bbe 7c55 df3c a9f3 453d a06b 16bb
000003d0: da45 3abe ddca ad3d 9ca8 a7bc 3f52 a43d
000003e0: a5c9 06bd 8661 1abe a6c1 a53d 1a6d 3ebd
000003f0: c028 f43c 41a7 76bd 90b7 56bb fdb8 163d

bias f4 [2]
0.07847717 -0.021951923
00000000: a3b8 a03d 85d4 b3bc

weight f4 [128, 5]
0.24896404 0.40189016 -0.055558402 0.1271311 -0.14967017 -0.10315256 -0.013140091 -0.44645777
0.012875077 -0.31280327 -0.38426042 -0.19172284 -0.010234207 -0.117571324 0.20989388 0.38832256
0.029525835 -0.08833295 -0.44964603 -0.45327973 -0.44026324 -0.2920908 0.39844707 -0.40215924
-0.14127818 -0.21374156 -0.18222348 -0.4128691 0.18653022 0.29920757 0.21750335 0.12186947
-0.08812487 0.31731698 0.2799231 -0.35790446 0.35343504 0.31328303 0.28360426 0.40156087
-0.21649168 0.012106877 0.34630197 -0.2077725 0.060969353 0.46043184 -0.25092378 -0.07634114
0.20597237 -0.29341745 0.005283786 0.14755867 0.31854627 -0.07116798 0.2714152 -0.042684667
0.26794446 -0.1408354 0.13582359 0.10635943 0.42979294 0.32755417 -0.13903995 -0.15143456
-0.22257572 0.20225313 0.19293134 -0.14066237 0.08881121 -0.37238938 -0.20564862 0.29714882
0.16787 0.23844288 0.03862299 0.2751636 -0.39983156 0.013091579 0.3527664 -0.19519933
0.13661386 -0.453408 -0.17611778 -0.09686954 0.28368315 -0.37974983 0.18538797 -0.27600324
-0.020089567 -0.21509872 0.4752696 -0.3214462 0.29714963 0.117486976 -0.29745293 0.53090334
-0.37357038 0.17897563 0.03186995 -0.40252164 0.30698475 -0.26601106 0.24757923 0.041157383
-0.37973908 0.14519264 0.1836689 -0.18615381 0.11587414 0.025849117 -0.2686587 0.14470755
0.40797037 0.4250052 0.15122385 -0.26326606 0.068647236 0.012206256 0.3132361 -0.4142108
-0.16713752 -0.24448627 0.045837823 0.06661351 0.30177903 -0.3984699 -0.18343833 -0.10846713
-0.22971635 -0.3544068 0.39506084 0.15542251 0.004117323 -0.3595812 0.3678621 0.023300905
-0.23583513 0.357919 0.33457264 -0.03957346 -0.02108255 -0.42184144 0.4121561 0.33353132
-0.3750425 -0.13988021 -0.0027380236 0.37868917 0.3743173 -0.13072556 0.264034 -0.17752163
-0.32097316 0.29743594 -0.04707797 0.3677214 0.38810956 0.38925165 0.36950216 -0.056436583
0.24189745 -0.2412661 -0.08065625 -0.011575753 0.091482446 0.38557774 -0.04928799 -0.38093567
-0.32647339 -0.01879633 -0.42577747 0.23930185 -0.042813428 -0.3337893 0.1526686 0.30071154
0.050731968 0.006191847 0.045773923 0.06553513 -0.299411 -0.09905943 -0.36767888 0.3651186
0.36429948 0.19281317 0.17148575 -0.343757 0.030968722 -0.33585125 0.10589719 -0.21346782
0.0227969 0.47744027 0.45416316 -0.17998323 -0.056785822 -0.18330157 -0.20346573 -0.3494467
-0.31057292 0.381133 -0.067551434 -0.35057086 0.18095483 0.11720681 -0.21736172 -0.004082471
0.06370658 -0.10850665 0.24961713 0.050459236 -0.22833571 -0.27128088 -0.33675402 0.15676124
0.30114558 -0.36318648 -0.1946552 0.009081267 -0.028483337 0.48748904 -0.21427959 0.20335291
0.40703213 0.55549896 -0.3591413 0.427331 0.25273788 0.18180473 -0.18564452 0.46741986
-0.11981329 -0.42260134 -0.30564487 -0.45305917 0.008275151 -0.09498568 0.032856353 -0.21490265
-0.095882505 0.061881702 0.38255113 0.04038795 0.12076957 0.16857046 -0.32572705 -0.0888114
-0.25808388 0.08677912 0.25595543 0.19788101 0.17249107 -0.3808302 -0.13134426 0.30729032
00000000: 6ef0 7e3e 8cc4 cd3e 3591 63bd a82e 023e
00000010: 2343 19be a641 d3bd 8949 57bc 1d96 e4be
00000020: fdf1 523c c027 a0be c8bd c4be fe52 44be
00000030: 60ad 27bc 3cc9 f0bd 6cee 563e 37d2 c63e
00000040: 2ae0 f13c e8e7 b4bd 0138 e6be 4814 e8be
00000050: 2f6a e1be ed8c 95be 4101 cc3e d1e7 cdbe
00000060: 3aab 10be 11df 5abe cb98 3abe 9463 d3be
00000070: c701 3f3e bc31 993e 33b9 5e3e b396 f93d
00000080: d07a b4bd 5f77 a23e 1552 8f3e 413f b7be
00000090: 70f5 b43e a266 a03e 9434 913e 6399 cd3e
000000a0: ffaf 5dbe ec5b 463c 7e4e b13e 50c2 54be
000000b0: 00bb 793d b9bd eb3e 1579 80be be58 9cbd
000000c0: 6cea 523e d03a 96be 9c23 ad3b 9f19 173e
000000d0: 7f18 a33e 85c0 91bd eff6 8a3e 1ed6 2ebd
000000e0: 0430 893e 2837 10be 5715 0b3e f9d2 d93d
000000f0: d20d dc3e 2eb5 a73e 7d60 0ebe a911 1bbe
00000100: e4ea 63be 721b 4f3e cb8f 453e cc09 10be
00000110: a7e2 b53d d2a9 bebe 8d95 52be e423 983e
00000120: 1de6 2b3e 5f2a 743e 2433 1e3d 3ee2 8c3e
00000130: b9b6 ccbe 107e 563c cc9d b43e 55e2 47be
00000140: 81e4 0b3e 1825 e8be 3858 34be 8a63 c6bd
00000150: eb3e 913e 926e c2be 58d6 3d3e 4c50 8dbe
00000160: e092 a4bc d742 5cbe 8956 f33e 9994 a4be
00000170: ff23 983e 039d f03d c04b 98be 48e9 073f
00000180: 9e44 bfbe 6345 373e 118a 023d 5117 cebe
00000190: 1b2d 9d3e 9a32 88be 6985 7d3e a594 283d
000001a0: 296d c2be 61ad 143e b313 3c3e 1b9f 3ebe
000001b0: 6c4f ed3d 87c1 d33c a28d 89be 372e 143e
000001c0: 7ee1 d03e 489a d93e 6dda 1a3e cfca 86be
000001d0: ec96 8c3d c0fc 473c 7b60 a03e 7013 d4be
000001e0: 1926 2bbe 9c5a 7abe 71c0 3b3d aa6c 883d
000001f0: c882 9a3e 3f04 ccbe 42d7 3bbe 0424 debd
00000200: c33a 6bbe cf74 b5be 6a45 ca3e 1427 1f3e
00000210: 9cea 863b 071b b8be 6c58 bc3e 8ae1 be3c
00000220: c47e 71be 2941 b73e 1b4d ab3e c817 22bd
00000230: 50b5 acbc 9afb d7be 2006 d33e 9ec4 aa3e
00000240: 9205 c0be c23c 0fbe 6a70 33bb 8ce3 c13e
00000250: 84a6 bf3e ecdc 05be 772f 873e 3bc8 35be
00000260: 9856 a4be 8649 983e d4d4 40bd fb45 bc3e
00000270: 4cb6 c63e fe4b c73e 632f bd3e 0c2a 67bd
00000280: f7b3 773e 760e 77be 1b2f a5bd 3aa8 3dbc
00000290: 265b bb3d 726a c53e 34e2 49bd 000a c3be
000002a0: 8527 a7be c3fa 99bc 81ff d9be 8b0b 753e
000002b0: 225d 2fbd 6ee6 aabe 2855 1c3e ddf6 993e
000002c0: 53cc 4f3d fae4 ca3b 707d 3b3d 4837 863d
000002d0: 664c 99be acdf cabd 6840 bcbe d3f0 ba3e
000002e0: 7685 ba3e d170 453e f699 2f3e eb00 b0be
000002f0: 1eb2 fd3c b2f4 abbe a0e0 d83d 4f97 5abe
00000300: 90c0 ba3c 0d73 f43e 1388 e83e 864d 38be
00000310: 4098 68bd 68b3 3bbe 5259 50be aeea b2be
00000320: 6a03 9fbe dd23 c33e 6858 8abd 067e b3be
00000330: 394c 393e 200a f03d 1294 5ebe 40c6 85bb
00000340: 9878 823d bc38 debd a29b 7f3e 58ae 4e3d
00000350: d6d0 69be 54e5 8abe 066b acbe 0586 203e
00000360: c12f 9a3e 94f3 b9be b153 47be 98c9 143c
00000370: e355 e9bc 2a98 f93e 1c6c 5bbe bf3b 503e
00000380: 8466 d03e 2e35 0e3f 5ee1 b7be 21cb da3e
00000390: dc66 813e 052b 3a3e 9919 3ebe a851 ef3e
000003a0: ac60 f5bd 345f d8be 7c7d 9cbe 5ff7 e7be
000003b0: 8094 073c da87 c2bd 6294 063d 710f 5cbe
000003c0: 0c5e c4bd ab77 7d3d bedd c33e d66d 253d
000003d0: 0956 f73d bc9d 2c3e b2c5 a6be c0e2 b5bd
000003e0: 9223 84be 40b9 b13d 970c 833e 52a1 4a3e
000003f0: 80a1 303e 2dfc c2be 1c7f 06be 2855 9d3e

bias f4 [128]
0.29805377 0.015113864 -0.30250227 0.06038871 0.36175117 0.035672028 0.2067974 0.065737024
-0.16373523 -0.22227545 -0.115221605 -0.1901762 0.04503041 -0.08041804 -0.023976233 0.40326762
0.022665223 -0.24011028 0.33398056 -0.041883674 0.16489914 -0.059173983 0.28113222 -0.2400384
0.3709718 -0.39339685 -0.089241594 -0.17204364 -0.41134763 0.35580435 0.10658061 -0.01688808
0.121648595 0.037881956 0.16238095 -0.24317425 0.079340614 0.23271427 -0.33591053 -0.13565531
-0.115191504 -0.31693518 0.24514171 0.030166535 -0.3752552 -0.09281598 -0.11437026 0.34832874
0.0842976 0.10036465 0.30590972 0.330458 0.35809258 0.28062728 -0.19103236 0.3858615
-0.29496223 0.48238164 -0.031685233 0.016870018 0.13693917 0.38001722 0.088516235 0.11979746
0.42805862 -0.055826686 0.1966814 -0.1597923 0.010166217 -0.13034743 0.30404237 -0.16123767
-0.24992667 0.11673304 0.092037916 0.21631938 0.28188762 -0.07273006 -0.2896652 0.445999
0.017368458 0.40693745 0.16352306 -0.38904065 0.15757503 -0.1974064 0.22862056 0.08544897
0.04136093 0.23282433 0.095348276 -0.42500007 0.10574862 -0.18483075 0.00079709967 -0.22063455
-0.112819724 0.41781425 0.285319 -0.32093352 -0.07429354 -0.10421187 0.1299994 -0.121186465
0.19649397 -0.23872086 -0.2873067 -0.22623812 0.25619397 -0.16018918 -0.46412718 0.26620057
0.14744726 0.2524611 0.032095797 0.2958854 0.20621054 -0.1967355 0.3548738 -0.062491708
-0.13187264 -0.39203352 -0.4187077 -0.26772842 0.3781054 -0.0016069361 0.14369632 -0.114632234
00000000: 819a 983e 24a0 773c 94e1 9abe 275a 773d
00000010: 7337 b93e d51c 123d b3c2 533e 22a1 863d
00000020: 35aa 27be 2d9c 63be 4ef9 ebbd 8dbd 42be
00000030: cf71 383d 37b2 a4bd ce69 c4bc 1879 ce3e
00000040: 6bac b93c 78df 75be 80ff aa3e 378e 2bbd
00000050: 52db 283e 6b60 72bd 90f0 8f3e a0cc 75be
00000060: 04f0 bd3e 506b c9be 4cc4 b6bd 352c 30be
00000070: 289c d2be fd2b b63e ef46 da3d df58 8abc
00000080: e622 f93d 1c2a 1b3d 3147 263e ac02 79be
00000090: 557d a23d a64c 6e3e 77fc abbe 3ae9 0abe
000000a0: 86e9 ebbd 5445 a2be 6e06 7b3e cf1f f73c
000000b0: 7321 c0be 4e16 bebd f43a eabd 2558 b23e
000000c0: 38a4 ac3d fb8b cd3d 33a0 9c3e ca31 a93e
000000d0: e957 b73e 61ae 8f3e fd9d 43be a38f c53e
000000e0: 4a05 97be bafa f63e 60c8 01bd fe32 8a3c
000000f0: c839 0c3e 9e91 c23e 0048 b53d 5f58 f53d
00000100: 802a db3e 86aa 64bd d966 493e 98a0 23be
00000110: 3490 263c cc79 05be 71ab 9b3e 7d1b 25be
00000120: c7ec 7fbe bb11 ef3d 607e bc3d d482 5d3e
00000130: 9353 903e 7ff3 94bd ff4e 94be fb59 e43e
00000140: 4c48 8e3c 1b5a d03e 9772 273e 5630 c7be
00000150: 595b 213e e724 4abe 821b 6a3e dfff ae3d
00000160: 146a 293d 8069 6e3e f545 c33d 9c99 d9be
00000170: bc92 d83d 4644 3dbe 74f4 503a 06ee 61be
00000180: 070e e7bd c0eb d53e 5515 923e 6651 a4be
00000190: 3627 98bd 086d d5bd 901e 053e 9c30 f8bd
000001a0: b735 493e 3e73 74be dd19 93be f7aa 67be
000001b0: db2b 833e a208 24be 14a2 edbe 714b 883e
000001c0: 6afc 163e 9542 813e e276 033d 4b7e 973e
000001d0: db28 533e 0875 49be 05b2 b53e 4ef7 7fbd
000001e0: 9f09 07be 9eb8 c8be db60 d6be b313 89be
000001f0: 0897 c13e d49f d2ba 2125 133e 4ec4 eabd

weight f4 [128, 128]
-0.056398362 0.030692235 -0.014721297 0.08565414 -0.013621333 0.086365364 -0.0040388475 0.09379549
-0.1740817 0.07784892 0.07122066 0.01831827 0.058337074 -0.023053382 0.042228013 -0.0527493
0.022508532 -0.07790443 0.0058929473 0.10543942 0.06730109 0.09713782 0.016486337 -0.024522755
0.10366377 -0.07083675 0.028159607 0.064717844 -0.0135438815 0.09160343 -0.0789761 0.003692747
0.06317602 -0.090035774 0.07050093 -0.008570831 0.008290284 0.033512466 0.011615357 0.081776105
-0.0007741048 -0.03295112 -0.036074683 -0.00090910826 0.059399307 0.004479105 -0.01111001 -0.14874993
-0.07772013 0.007879991 0.038487874 0.029920658 0.028056143 0.029359 0.0471757 0.062026974
0.036588438 -0.042917866 -0.016433453 0.07210293 -0.039599128 0.022868218 -0.087739706 0.05699367
-0.07747894 0.023231268 -0.07677064 -0.073889 0.0075565125 -0.07659092 0.0011945005 -0.015518139
-0.07820633 -0.09414943 0.06331098 0.070427366 0.00385662 -0.14996582 -0.19401981 -0.029938752
0.0106140515 -0.058748227 0.09706325 -0.014478529 0.08891812 0.11579179 -0.017433269 -0.005880138
0.053973548 0.042007323 0.0061444086 0.028915308 -0.038252402 -0.02942264 0.10417738 -0.07390671
0.0075837267 -0.060979374 -0.09618443 0.0109997615 0.01607141 0.005815898 -0.038505003 -0.06598308
0.041161995 0.083034314 -0.06461793 -0.05904693 0.060453802 0.08833816 0.012725997 -0.035726897
-0.095702365 0.023476789 0.09776883 0.036471486 -0.20446482 0.07641304 0.063121885 0.10927987
0.01822607 -0.032620247 -0.0012301579 -0.15541174 0.099066116 -0.09885667 -0.0013372533 -0.05448954
0.05414044 0.06428902 0.03691744 0.038108025 0.0504866 0.047149453 -0.07088801 0.08233783
0.041155957 0.09658398 0.061862256 -0.037162688 0.08462657 0.09282054 -0.014136249 0.06507892
0.045862794 0.005347058 -0.072852574 -0.08278763 -0.0119475 0.03948577 -0.016496854 -0.07941249
0.0432376 -0.082342915 0.0070869736 -0.022271588 -0.020293012 -0.013814512 -0.0885313 0.01997541
0.07523177 -0.017376876 0.060747456 0.017661221 0.01997335 0.03923247 -0.042704675 0.045661993
-0.043163713 -0.0001731813 -0.057483796 -0.031893816 0.041015584 0.059538115 0.16312629 -0.0452377
0.08298381 -0.13926339 0.06592418 0.026005965 0.025227448 0.088914365 -0.026763309 0.041263465
-0.045777872 0.061214052 0.032788284 -0.001432396 -0.04252045 0.0377084 -0.051397536 -0.048093315
-0.005252226 0.10992176 0.074765444 -0.021572053 -0.07149455 0.07045125 0.07916139 -0.06077093
-0.05132347 0.032624785 0.020546595 -0.0034292939 0.046492826 -0.08079557 -0.018055225 0.0056786304
-0.025844924 -0.053592913 -0.040234648 0.060689736 -0.0272028 0.038002335 0.057316806 0.020068757
-0.0077151167 0.042998854 0.08793468 0.012458891 0.10730981 -0.058989882 0.13488616 -0.045919668
0.12498095 -0.026662448 -0.09232795 0.052087 0.008798057 0.075117216 0.09148646 -0.08778538
-0.052970115 0.09826943 0.065934315 -0.0023976788 -0.033066094 0.063474715 -0.089598686 0.011011409
-0.038780022 -0.012816772 0.009686431 0.024514396 -0.13522367 0.053363957 -0.04095994 -0.031755272
0.008302432 -0.06543717 0.0311459 0.03514997 -0.02313959 0.09530037 0.060332574 -0.07538887
00000000: f801 67bd 486e fb3c 9831 71bc 706b af3d
00000010: 032c 5fbc 53e0 b03d 4f58 84bb da17 c03d
00000020: 7942 32be 416f 9f3d 23dc 913d 3210 963c
00000030: dbf2 6e3d 72da bcbc 48f7 2c3d a60f 58bd
00000040: d063 b83c 5c8c 9fbd a019 c13b 9ff0 d73d
00000050: 27d5 893d 32f0 c63d 5b0e 873c f2e3 c8bc
00000060: ac4d d43d dc12 91bd faae e63c ca8a 843d
00000070: 28e7 5dbc 949a bb3d 39be a1bd 0402 723b
00000080: 6e62 813d ad64 b8bd cb62 903d ac6c 0cbc
00000090: f9d3 073c 5e44 093d 574e 3e3c 3b7a a73d
000000a0: 4bed 4aba c1f7 06bd 0cc3 13bd 3951 6eba
000000b0: b04c 733d 75c5 923b c206 36bc e751 18be
000000c0: bb2b 9fbd 141b 013c 76a5 1d3d 2b1c f53c
000000d0: ffd5 e53c 4982 f03c 4f3b 413d ff0f 7e3d
000000e0: c2dd 153d a5ca 2fbd 739f 86bc b3aa 933d
000000f0: b232 22bd 2156 bb3c e0b0 b3bd 3272 693d
00000100: 47ad 9ebd 804f be3c ed39 9dbd 1e53 97bd
00000110: 9f9c f73b b3db 9cbd c990 9c3a cb3f 7ebc
00000120: a42a a0bd 6bd1 c0bd 30a9 813d 393c 903d
00000130: 59bf 7c3b a490 19be 21ad 46be 1d42 f5bc
00000140: 8fe6 2d3c fba1 70bd 19c9 c63d 5a37 6dbc
00000150: b41a b63d 3f24 ed3d 37d0 8ebc 2cae c0bb
00000160: 5e13 5d3d df0f 2c3d 0957 c93b ccdf ec3c
00000170: 8dae 1cbd c007 f1bc f35a d53d 675c 97bd
00000180: e980 f83b 82c5 79bd 58fc c4bd 5838 343c
00000190: 31a8 833c 4a93 be3b 6cb7 1dbd 2322 87bd
000001a0: 7b99 283d e50d aa3d 6856 84bd 32db 71bd
000001b0: 689e 773d a3ea b43d b380 503c 5e56 12bd
000001c0: 9aff c3bd 6552 c03c 063b c83d 2063 153d
000001d0: 3a5f 51be 717e 9c3d 0c46 813d 20ce df3d
000001e0: d74e 953c cf9c 05bd 403d a1ba 4124 1fbe
000001f0: 2de3 ca3d 5e75 cabd c646 afba 6d30 5fbd
00000200: 5ec2 5d3d f6a9 833d be36 173d 2917 1c3d
00000210: 09cb 4e3d c91f 413d bc2d 91bd bca0 a83d
00000220: 2693 283d d2cd c53d 4763 7d3d e737 18bd
00000230: b250 ad3d b218 be3d ba9b 67bc 1948 853d
00000240: a0da 3b3d 6036 af3b bb33 95bd 908c a9bd
00000250: 72bf 43bc d5bb 213d 6924 87bc 04a3 a2bd
00000260: e919 313d 67a3 a8bd d839 e83b e872 b6bc
00000270: 883d a6bc 4356 62bc e64f b5bd 79a3 a33c
00000280: 1d13 9a3d f359 8ebc 53d2 783d 44ae 903c
00000290: 279f a33c 3ab2 203d 19eb 2ebd 1208 3b3d
000002a0: 6fcc 30bd 0098 35b9 2174 6bbd 17a3 02bd
000002b0: f5ff 273d 3dde 733d 940a 273e 2b4b 39bd
000002c0: 6af3 a93d 109b 0ebe 4203 873d 760a d53c
000002d0: cba9 ce3c bc18 b63d ba3e dbbc e103 293d
000002e0: 9481 3bbd 96bb 7a3d 024d 063d 3cbf bbba
000002f0: ec29 2ebd 2074 1a3d 3986 52bd 7ffd 44bd
00000300: dd1a acbb a91e e13d a01e 993d e0b7 b0bc
00000310: bc6b 92bd bf48 903d 5e1f a23d f0ea 78bd
00000320: 8f38 52bd 91a1 053d 5551 a83c 01be 60bb
00000330: 436f 3e3d 2678 a5bd 8de8 93bc ce13 ba3b
00000340: bcb8 d3bc 3e84 5bbd 16cd 24bd cd95 783d
00000350: 68d8 debc 56a8 1b3d 07c5 6a3d 3c67 a43c
00000360: 17cf fcbb 911f 303d 1917 b43d 6020 4c3c
00000370: 3fc5 db3d 609f 71bd 991f 0a3e 4316 3cbd
00000380: 03f6 ff3d 356b dabc 7016 bdbd 2e59 553d
00000390: ba25 103c 0ed7 993d 415d bb3d d2c8 b3bd
000003a0: 31f7 58bd 7c41 c93d 9208 873d 6022 1dbb
000003b0: 5070 07bd 08ff 813d 847f b7bd 3269 343c
000003c0: cdd7 1ebd 70fd 51bc d6b3 1e3c 6ad2 c83c
000003d0: 1378 0abe 2a94 5a3d 9cc5 27bd d111 02bd
000003e0: ec06 083c ec03 86bd b025 ff3c 6af9 0f3d
000003f0: 3d8f bdbc d72c c33d 4a1f 773d 7b65 9abd

bias f4 [128]
-0.03364234 -0.015701724 -0.026621584 0.10245691 -0.004177411 -0.08266817 -0.028999818 0.05352461
0.035670873 0.010009608 0.02819071 -0.025785401 -0.062604375 0.06738963 0.058396455 0.020738987
-0.056514956 -0.051257256 -0.072283655 -0.0037471089 -0.039689068 0.056301203 0.07985715 0.0053241267
-0.0124527095 0.057018183 0.032257587 0.021453997 0.019171782 -0.031946063 -0.017674722 -0.0065857456
0.019478822 -0.020845544 -0.058916237 -0.049414147 0.022185873 0.042964607 -0.02635014 -0.028070858
0.051687267 -0.05470598 0.057124548 -0.08338598 -0.07194564 0.0185683 -0.04976605 -0.043663714
-0.0060389414 0.05431314 0.071435004 0.003451738 0.03246386 0.06369834 -0.02523091 0.041160256
0.023794048 -0.017881146 0.024892006 0.04534089 -0.037280962 -0.021543434 -0.06838828 -0.01802782
0.0043118084 -0.042285834 -0.0837183 -0.03622133 -0.054186553 0.09853116 0.0873139 -0.07036703
0.027237292 0.032686353 0.010762185 0.04431945 -0.0006153214 -0.045433864 -0.06130848 0.046517745
0.032278743 -0.07029673 -0.01771868 -0.039019678 -0.03490451 -0.04462152 -0.03234012 0.035622716
0.067636006 0.043704383 -0.030177278 0.0016414821 0.07204975 -0.0014207255 0.053680975 0.0790995
-0.018926792 0.0771653 -0.06897935 -0.031522844 0.044757448 0.04661295 -0.038037464 -0.03521777
0.047349587 0.039304465 0.00027481117 -0.05413312 -0.06284813 0.007192172 0.045247093 -0.0057130964
-0.039097425 -0.044274442 -0.019886509 0.10353145 -0.03292579 0.04872688 0.013334887 -0.052142236
0.045169935 -0.051147632 -0.06835515 -0.024480702 -0.06783153 -0.0798672 0.027387872 0.061724156
00000000: 8dcc 09bd e7a0 80bc 8215 dabc eed4 d13d
00000010: aae2 88bb ee4d a9bd 0791 edbc 9f3c 5b3d
00000020: 9f1b 123d 57ff 233c 34f0 e63c e83b d3bc
00000030: b936 80bd 9303 8a3d 1f31 6f3d cfe4 a93c
00000040: 3a7c 67bd 21f3 51bd 7409 94bd 0e92 75bb
00000050: 0191 22bd 179c 663d 258c a33d 0376 ae3b
00000060: 7306 4cbc e68b 693d 8820 043d 4bc0 af3c
00000070: 240e 9d3c e0d9 02bd 94ca 90bc 3dcd d7bb
00000080: 0d92 9f3c 46c4 aabc 2752 71bd 7d66 4abd
00000090: 26bf b53c a8fb 2f3d 40dc d7bc dbf4 e5bc
000000a0: 07b6 533d 6113 60bd 6efb 693d 45c6 aabd
000000b0: 3c58 93bd 8c1c 983c 7cd7 4bbd b9d8 32bd
000000c0: 50e2 c5bb 7577 5e3d 844c 923d 8e36 623b
000000d0: d3f8 043d 4674 823d 0eb1 cebc a897 283d
000000e0: bceb c23c 7b7b 92bc 52ea cb3c 5eb7 393d
000000f0: ecb3 18bd db7b b0bc 280f 8cbd 14af 93bc
00000100: 124a 8d3b e933 2dbd 8074 abbd d15c 14bd
00000110: b8f2 5dbd b4ca c93d a1d1 b23d 971c 90bd
00000120: be20 df3c 20e2 053d e053 303c 5088 353d
00000130: 854d 21ba dc18 3abd 9a1e 7bbd 6489 3e3d
00000140: b736 043d bbf7 8fbd c426 91bc 19d3 1fbd
00000150: 08f8 0ebd 0ec5 36bd 1377 04bd 20e9 113d
00000160: bf84 8a3d 5e03 333d 5736 f7bc 0027 d73a
00000170: d28e 933d a337 baba 95e0 5b3d ebfe a13d
00000180: 5c0c 9bbc d708 9e3d 0c45 8dbd 191e 01bd
00000190: 9653 373d 38ed 3e3d 2ccd 1bbd 8240 10bd
000001a0: a4f1 413d b8fd 203d 8814 9039 b1ba 5dbd
000001b0: 85b6 80bd 50ac eb3b 0455 393d ed34 bbbb
000001c0: 9f24 20bd 1e59 35bd 08e9 a2bc 4c08 d43d
000001d0: 31dd 06bd d695 473d 927a 5a3c 1993 55bd
000001e0: 1c04 393d 2e80 51bd c9fd 8bbd c18b c8bc
000001f0: 42eb 8abd 6a91 a3bd 885c e03c 78d2 7c3d

weight f4 [2, 128]
0.038103532 0.031961557 -0.032924093 0.051246375 -0.0012970425 -0.08708442 0.103944905 0.06165575
0.08240215 -0.063267365 0.0408572 0.012801354 0.047468856 0.09063084 0.0010788162 0.021477723
0.090946525 0.07241592 -0.02882172 -0.25994915 -0.06845641 0.005029037 -0.031734604 -0.003722889
0.032951668 0.04842173 -0.031024665 0.020927139 0.09955017 -0.0084267175 -0.024842747 0.023167728
-0.013673883 0.035758335 -1.0878807 -0.0617614 0.078429066 -0.028644716 -0.0045613917 0.059930004
-0.045179415 0.05150651 -0.0849464 -0.019534439 -0.02543138 -0.059087668 -0.024028752 0.05743617
-0.046239406 -0.009706067 -0.0140395975 0.012063989 0.043351326 0.01921248 0.08989097 -0.01141588
0.073383115 -0.520932 -0.110075444 -0.0053395587 0.0029785486 -0.034866113 -0.039176054 -0.001462707
0.031414136 0.10712137 0.013569854 -0.040750023 0.00043649235 0.109557964 -0.042512514 -0.037643846
0.09207716 -0.0633078 -0.015956443 0.07001427 -0.07062823 0.016136253 0.029668175 0.00052510545
0.033422228 0.059666965 0.0014739388 0.020353034 -0.120223 -0.0219916 0.028589126 -0.0039370554
-0.007940695 -0.0020035708 -0.007913503 -0.0017124073 -0.012226942 0.05575639 -0.058168013 0.027789565
-0.01191846 -0.11526058 0.0056688422 -0.030176759 0.055960838 0.0072676265 -0.12987337 0.056197796
0.088522196 0.06619229 -0.00027458917 0.09291478 0.034880206 0.051995136 -0.0015467114 -0.05702962
0.065834746 0.050340477 -0.07397201 0.038998123 -0.023307567 0.035663094 -0.17910512 0.08438701
-0.023382777 -0.14972264 0.075804524 -0.07847265 -0.50125766 -0.08152543 0.09217607 -0.0017275889
0.00040688112 0.081170805 0.06095316 0.06861985 0.0032577978 0.021893311 0.044393178 -0.040156636
0.036086127 0.07312578 -0.08425062 -0.005457127 0.0024648968 0.034984108 0.035183635 0.009164746
0.059077267 0.11179789 0.08491684 0.04337266 0.04127783 -0.024150316 -0.0073330095 0.008942437
0.08317325 -0.038059536 -0.08532528 0.09382767 0.08642988 -0.017118832 -0.04261138 0.081465
0.048346777 0.016761983 -0.2292554 0.008708998 0.0634909 0.08153775 -0.03841602 -0.0011579286
0.08632837 -0.11776676 0.054012477 -0.06489535 -0.1346709 0.068876006 0.06595445 0.0006404898
-0.02872121 0.024998017 0.076767236 0.029717576 0.09717166 -0.018564245 0.012053711 0.07365343
-0.00405477 -0.08690398 -0.033031967 0.059009485 0.04572651 0.07932532 0.05265481 -0.0027297668
0.05874415 0.06402305 0.065703996 -0.04673536 0.010713725 0.01861067 0.04048439 -0.016953431
-0.047787488 0.049467135 0.049009282 -0.030952096 -0.056970734 0.07296491 -0.08595041 0.0054708635
-0.0582799 0.026027892 -0.029900163 0.018486077 -0.06796493 0.04328993 0.0841167 -0.0013035884
-0.0024663624 -0.0010055265 0.54837763 -0.06712684 -0.025234256 -0.051095065 -0.028563198 0.07997505
-0.08176854 0.068169676 -0.060724784 -0.070619695 0.047410037 -0.012011333 -0.024350747 -0.06225137
-0.007672764 0.020547094 -0.0008633166 -0.0593822 -0.06451141 0.08515563 -0.0052621504 -0.078332245
0.03761522 0.06442353 0.085157014 0.051068775 -0.016738579 0.025441011 0.0139166 0.036133565
0.07192144 -0.015804145 0.08422064 -0.010822069 -0.07853569 -0.052004732 0.015905064 0.0016080977
00000000: 7312 1c3d 1fea 023d 6adb 06bd b8e7 513d
00000010: 8601 aaba 5159 b2bd 11e1 d43d bd8a 7c3d
00000020: 75c2 a83d 5292 81bd e159 273d c5bc 513c
00000030: b46e 423d a99c b93d 1167 8d3a 0df2 af3c
00000040: 2c42 ba3d cc4e 943d 871b ecbc 0e18 85be
00000050: e032 8cbd 9fca a43b 25fc 01bd b7fb 73bb
00000060: 54f8 063d dd55 463d 7027 febc 646f ab3c
00000070: f6e0 cb3d 3710 0abc 0483 cbbc 3fca bd3c
00000080: 6c08 60bc 5577 123d ad3f 8bbf 86f9 7cbd
00000090: 6b9f a03d 53a8 eabc ba77 95bb 2a79 753d
000000a0: 0d0e 39bd 7df8 523d 61f8 adbd b006 a0bc
000000b0: 7855 d0bc e905 72bd f2d7 c4bc 3042 6b3d
000000c0: 8865 3dbd 3206 1fbc 5706 66bc 0aa8 453c
000000d0: 2991 313d 7e63 9d3c c218 b83d ac09 3bbc
000000e0: e349 963d cd5b 05bf 3c6f e1bd 77f7 aebb
000000f0: c133 433b c5cf 0ebd 1277 20bd 4db8 bfba
00000100: 1cac 003d 7362 db3d 1854 5e3c 7fe9 26bd
00000110: 03d9 e439 ed5f e03d 9a21 2ebd 6f30 1abd
00000120: f392 bc3d 85a7 81bd 16b7 82bc a463 8f3d
00000130: 89a5 90bd 2d30 843c ac0a f33c 3ba7 093a
00000140: bfe5 083d 5965 743d 2e31 c13a 68bb a63c
00000150: 7a37 f6bd ba27 b4bc be33 ea3c 6a02 81bb
00000160: b019 02bc 574e 03bb a3a7 01bc db72 e0ba
00000170: 8353 48bc d060 643d 9541 6ebd f1a6 e33c
00000180: a545 43bc bd0d ecbd b2c1 b93b 4035 f7bc
00000190: 3137 653d 4525 ee3b 86fd 04be a92f 663d
000001a0: 204b b53d d38f 873d bcf6 8fb9 1b4a be3d
000001b0: 8cde 0e3d daf8 543d 06bb caba e497 69bd
000001c0: 5ed4 863d d131 4e3d a37e 97bd 7fbc 1f3d
000001d0: 83ef bebc 7713 123d 5567 37be 19d3 ac3d
000001e0: 3d8d bfbc e450 19be 673f 9b3d 45b6 a0bd
000001f0: 6c52 00bf cef6 a6bd cfc6 bc3d 4470 e2ba
00000200: a952 d539 e13c a63d 05aa 793d 9088 8c3d
00000210: c780 553b 9a59 b33c 9fd5 353d 497b 24bd
00000220: 0ccf 133d f8c2 953d 978b acbd b3d1 b2bb
00000230: 1b8a 213b 7f4b 0f3d b71c 103d bb27 163c
00000240: 01fb 713d 4bf6 e43d e1e8 ad3d 88a7 313d
00000250: f112 293d e2d6 c5bc be49 f0bb 4d83 123c
00000260: bd56 aa3d 51e4 1bbd 05bf aebd b928 c03d
00000270: 2602 b13d cb3c 8cbc 4589 2ebd 1fd7 a63d
00000280: 4507 463d 6d50 893c edc1 6abe 2fb0 0e3c
00000290: 8407 823d 44fd a63d 1e5a 1dbd a3c5 97ba
000002a0: eecc b03d b32f f1bd 303c 5d3d dae7 84bd
000002b0: 2be7 09be dd0e 8d3d 2013 873d 8be6 273a
000002c0: be48 ebbc a4c8 cc3c 2438 9d3d 4672 f33c
000002d0: ef01 c73d 0b14 98bc ee7c 453c 9cd7 963d
000002e0: e0dd 84bb b7fa b1bd 874c 07bd eeb3 713d
000002f0: b94b 3b3d 5075 a23d 92ac 573d e3e5 32bb
00000300: b59d 703d 841e 833d d18f 863d 946d 3fbd
00000310: 9f88 2f3c 6775 983c f6d2 253d ece1 8abc
00000320: d0bc 43bd 0d9e 4a3d f5bd 483d 408f fdbc
00000330: 255a 69bd a06e 953d c506 b0bd ee44 b33b
00000340: e8b6 6ebd 7238 d53c 30f1 f4bc 1d70 973c
00000350: 3231 8bbd c850 313d 6045 ac3d 2bdd aaba
00000360: b2a2 21bb dfcb 83ba 7a62 0c3f cc79 89bd
00000370: 12b8 cebc 0f49 51bd 5efd e9bc f6c9 a33d
00000380: 4476 a7bd 8b9c 8b3d 8dba 78bd 0fa1 90bd
00000390: 0731 423d 2fcb 44bc 387b c7bc 4bfb 7ebd
000003a0: cf6b fbbb 6152 a83c 3250 62ba c03a 73bd
000003b0: 8f1e 84bd 1366 ae3d 1e6e acbb a86c a0bd
000003c0: 6b12 1a3d 7cf0 833d cd66 ae3d 7e2d 513d
000003d0: 581f 89bc ab69 d03c 7302 643c ca00 143d
000003e0: 8c4b 933d b277 81bc df7b ac3d 0c4f 31bc
000003f0: 52d7 a0bd ea02 55bd 564b 823c cec6 d23a

bias f4 [2]
-0.024917716 -0.019120581
00000000: 3d20 ccbc c4a2 9cbc
