models/mountaincar_2D/checkpoint_att.19.pth.tar (torch_old, 105542 bytes, 8 tensors)

weight f4 [128, 5]
00000000: e009 55bf 2c53 98be 2f51 85bb 91f6 963e
00000010: eb87 4abe b195 a1bb 3ac7 a33e 3b10 523e
00000020: 5944 c23e c57d 3dbd 5286 7fbe 137e 7c3e
00000030: abec 643e 0cd9 a9be ef5f 7e3e c3e9 28bf
00000040: a5e9 ccbe 66c0 623e 2830 573e 4e69 78be
00000050: d6f0 a7be 80e4 68bd d845 dbbe 768a 81be
00000060: ee66 48be a87f fd3e a38e a53e be1b bdbe
00000070: 00c4 52bd 5b85 0b3e 4379 bb3d 3a4c cc3e
00000080: df7b c1bb ae50 e8be 0aa6 23be 7c5b ab3d
00000090: 17ee 4d3d fecf 063e f637 0ebe a9b5 cd3d
000000a0: 6798 c03e dc43 3cbe 4453 ae3e 40c7 6bbc
000000b0: 78f0 b8bd 7b45 003f f101 403d 9c83 4abe
000000c0: 3aeb 9d3e 7df4 14be 2b24 b83b c999 2abf
000000d0: bc15 ad3a 277e 073e 9099 57bd 91c2 10be
000000e0: ee5d 013e e8cd 24bd c9aa c63e 10dc f2bc
000000f0: e18c 82bd c519 bebe 7ff6 d0be 041c b1be
00000100: fc39 a13e 414c 1f3e 7edb e93e a854 d2be
00000110: 6f62 d1bd 8243 54be 561e 12be 7d90 82bd
00000120: 6a6b 8ebe 780d 6c3e c322 1d3e 70d0 eebe
00000130: 54cc f63e 5c05 aa3d 89c6 d2bd 1b9d b93d
00000140: c0e5 ddbe d3e1 943e 1988 a9be ba25 bcbd
00000150: a2d4 303e 15f7 863e 21f4 19be 6de4 643d
00000160: 1be6 debe 6fd1 333d 9a8a 3dbe 1a42 e0be
00000170: b2c6 71be 1a36 c0be 946b 4bbe 7b0b 683e
00000180: f1c4 993e ea33 e13d e3c2 bf3d 0194 223e
00000190: 4e29 5bbe 8dd8 113e d748 4e3e d4c6 a1bd
000001a0: 2a91 89be 237c 7fbe 3273 88be 8052 b3bb
000001b0: 8a8b 26be 24f1 373e a125 243d da7a 81be
000001c0: 9daf 893d e504 c53d f838 b7be 66f3 fb3d
000001d0: d6ba e23e dd4d 0b3c 3edc 78bd eadf f3bd
000001e0: 812a cd3d 37eb bebe de68 e33e a483 dd3e
000001f0: 0054 133c b8a4 903d faf7 823e 2c49 64be
00000200: b7cd b1be 3d51 4ebe b295 d0be f421 4d3e
00000210: 3fe5 be3d 09b1 153e 1e7b 11be d90b 063f
00000220: 1e09 213e 08a2 383e 3fbe 83bc 6988 38be
00000230: 459c 92be 5e85 f83e d8dd af3e 149c 603d
00000240: 4cd7 dfbd ebb6 c43d 56d5 7bbe 9201 0fbe
00000250: 5269 44be a1f5 29be c564 69be 12f3 733e
00000260: ae3e a3bd f3b2 653d cecf 133d 4a43 bf3d
00000270: af89 a93e 0803 84bd 3f2b a7be 3f50 e7bd
00000280: c169 bf3e 2cf0 17be 1e21 e53d 7dd8 abbe
00000290: 0fe7 323d 480a 86be 10cd fe3e 706d 8b3e
000002a0: be4d b03e d4c8 713e 200a ebbc 6fea 83be
000002b0: 121c b1be 6a85 6fbe 7aaa 30be fd08 f03e
000002c0: b965 5dbe bd4a 233d cfd2 ab3e d0c5 8abd
000002d0: 8b52 f93d 069b e5be 7502 babe fc6a 493e
000002e0: e776 a33e 422e 9dbe 58b7 9dbe 3ffe fa3d
000002f0: 43a9 d9be 40d1 1b3e 4b3c a23e 3360 fe3c
00000300: 9038 3cbe 95a1 41be db66 413d 65e9 53be
00000310: 88e3 0bbf adca 3c3d 5353 453e 54cb fa3d
00000320: 20c5 fabd 8e2d a53e f7c5 27be f238 dfbd
00000330: f6ce 3f3d 5ff1 7c3d 5cde 07bf 9b41 143e
00000340: e527 afbe a265 743e d185 83be c984 93bc
00000350: 1bcc d93d 5b08 a43e b0ac 25be 1357 323e
00000360: c69c a53e 4bc0 aabd 2696 c7be a47b 92be
00000370: 27dc 503e 6d13 9cbe cc09 c3bd 8259 513e
00000380: a608 e1be 3495 bebe e562 d53e 1f85 fcbd
00000390: c516 413c 8301 4f3e 1f68 c53d 2e29 043f
000003a0: 20b8 7cbe 976d 163e c5ad 73bc d4d2 a8be
000003b0: 841b 573e 303b b13d d48b 97bd a14e 93be
000003c0: a113 6a3c f976 2abf 1958 1a3e f18b 0cbd
000003d0: e8df d43d 30e1 d43d c4ae efbe 3b6e 7c3e
000003e0: 57d2 50bd 2d23 c9be 416d 43be c729 6ebc
000003f0: 4984 66be 285c 523e bcda b73c 876e 513e
-0.83218193 -0.29750955 -0.0040685157 0.2948499 -0.19778411 -0.0049311747 0.31987935 0.20514004
0.3794277 -0.04626252 -0.24953583 0.24657468 0.22355907 -0.33173406 0.24841283 -0.6598169
-0.40022007 0.22143707 0.21014464 -0.2425892 -0.3280093 -0.05685854 -0.42826724 -0.2530095
-0.19570515 0.49511456 0.32335386 -0.36935228 -0.05145645 0.1362509 0.09153988 0.39901906
-0.005904659 -0.45374054 -0.15981308 0.08367059 0.05027589 0.1316528 -0.13888535 0.100444146
0.37616274 -0.18385261 0.34047902 -0.014390767 -0.09030241 0.5010602 0.04687685 -0.19776767
0.30843526 -0.1454639 0.005619546 -0.6664091 0.001320533 0.13231717 -0.052636683 -0.14136721
0.12633488 -0.04023543 0.38802174 -0.02964595 -0.06374527 -0.37129036 -0.40813062 -0.34591687
0.3148955 0.15556432 0.45675272 -0.41080213 -0.10223853 -0.20728877 -0.14269385 -0.06375215
-0.27816325 0.23052013 0.15345292 -0.466434 0.48202765 0.083018035 -0.10291774 0.090631686
-0.43339348 0.2907854 -0.33111647 -0.09186883 0.17268613 0.26360384 -0.15034534 0.055881906
-0.43534932 0.043900903 -0.18509904 -0.4380043 -0.23610952 -0.37541276 -0.19865257 0.2266063
0.30033067 0.1099623 0.093633436 0.15876772 -0.21402475 0.14242764 0.20144974 -0.078992516
-0.26868564 -0.24949698 -0.26650387 -0.0054724813 -0.16264167 0.17963082 0.04007495 -0.2528904
0.06722949 0.09620074 -0.3578565 0.12302284 0.4428317 0.008502451 -0.060756914 -0.119079426
0.100178726 -0.3728883 0.44415945 0.43264496 0.008992195 0.070626676 0.25579816 -0.22293538
-0.3472726 -0.20148177 -0.40739208 0.20032483 0.09321069 0.14618315 -0.14207122 0.5236183
0.15726134 0.1803056 -0.016081927 -0.18020786 -0.2863485 0.4853925 0.3434894 0.054836348
-0.109297365 0.09605201 -0.245931 -0.13965443 -0.19180802 -0.16597606 -0.22792347 0.23823193
-0.079709396 0.056078862 0.03608685 0.09339006 0.33112857 -0.06445891 -0.32650182 -0.112946026
0.3738537 -0.14837712 0.11187957 -0.33563605 0.043677386 -0.2617972 0.49765825 0.27231932
0.34434313 0.23611766 -0.028691351 -0.25764796 -0.34591728 -0.23390737 -0.17252532 0.46881858
-0.21620835 0.039866198 0.33559272 -0.06776011 0.12173947 -0.44844836 -0.3633 0.19669718
0.31926653 -0.30699354 -0.30803943 0.12255525 -0.4251195 0.15216541 0.31686625 0.03105173
-0.18380952 -0.18909295 0.04721723 -0.20694502 -0.5464406 0.046091724 0.19270067 0.12245813
-0.1224463 0.32261318 -0.16384111 -0.10899533 0.046828233 0.061753627 -0.5307367 0.14478152
-0.34210125 0.23866895 -0.2568803 -0.018007653 0.10634633 0.32037625 -0.16179156 0.17416029
0.3234617 -0.08337458 -0.38981742 -0.28609955 0.20396481 -0.3048357 -0.09523353 0.20444301
-0.4395191 -0.37223208 0.41677013 -0.12330078 0.011785214 0.2021542 0.09639 0.51625335
-0.24679613 0.14690243 -0.014872973 -0.3297335 0.2100659 0.08653867 -0.07399717 -0.28770927
0.014286906 -0.6658779 0.15072669 -0.034313146 0.10394269 0.103945136 -0.46813023 0.24651425
-0.050981846 -0.3928465 -0.19084646 -0.014536328 -0.225114 0.20542967 0.022443168 0.20452319

bias f4 [128]
00000000: 69f1 463e 9841 c2bd c029 60be 3672 4c3e
00000010: e4c0 04be f010 86be e292 5cbd f54a 2abe
00000020: 96c6 9fbe 6cf1 d23d 1f6a cd3e 9665 85be
00000030: 8a63 a6bd f068 4ebe 9e47 89bd d717 843d
00000040: 3fc6 af3e 5d7b b83c ea28 26be 4653 84be
00000050: 7201 83be 684e 6ebe 56cd 433d 8abd c4bd
00000060: 5251 92be 966b b8be 4643 5dbd df79 a4be
00000070: eaa8 d8be 7f84 7c3e 9068 143d a045 7abd
00000080: a43f d6bc ae1c 2ebe d015 c53d bfd7 a8be
00000090: 3feb 0cbd 333d 343e c7ab de3d d184 b13e
000000a0: a20b 563d 4b11 713e 92c8 babd 2c90 6abd
000000b0: d791 22be b33d ec3d 21ab b9be 1964 59be
000000c0: 049a 903e 31a9 7a3e fe48 933d 12cf 81be
000000d0: 8a60 773e 3641 e2be f310 573e 3f6c 363c
000000e0: d8c2 50be ad3e 92bd b90a d93d cd1f 99be
000000f0: 3493 26be 05f2 353e f30e ddbd 0e2a 613e
00000100: 34b5 bb3e c309 323d a0fe 543e 14b8 613e
00000110: ff27 8abe 837b 06be a4f6 5c3d 3872 75bc
00000120: 2259 9a3e 77b7 493e 20af 5dbe e527 8c3e
00000130: 894b afbe 4046 2c3d 2f39 183e 81e0 b7be
00000140: c6c6 bebe ec18 83bd 83dd 5abe 1881 1c3d
00000150: 3589 d23e b391 c0be 3e13 afbe 8622 b43e
00000160: 3224 40be 27d5 9a3d 8225 313e aaba 963d
00000170: 9f6d e4be f5de 533c fbd4 b63e 237b cf3e
00000180: d8c3 42be 155f 6d3e f16c 6d3e 4361 d9be
00000190: 649d 72be bbc8 383e 0739 333e 00ab d8be
000001a0: 7c2b 18be 6d56 38be 4c36 bebd 7cb3 713e
000001b0: 1e29 d2be e44c a8be 086e 953d 2ff7 673e
000001c0: 0e03 153e 2386 6b3d 1233 1c3e 8c23 af3c
000001d0: 15ef 07be bce1 59be e194 9fbe 81e4 913e
000001e0: 29d1 cbbd 78f6 75bd 690d ee3e ee75 7ebe
000001f0: 8347 863e e485 5abe 561b c13e 2023 c8bd
0.19428028 -0.09485167 -0.21890926 0.19965443 -0.12964207 -0.26184797 -0.053851016 -0.16630156
-0.31206197 0.10299954 0.40120026 -0.26054066 -0.08124454 -0.20157218 -0.06703113 0.064498596
0.34330937 0.022519762 -0.16226545 -0.25844783 -0.2558704 -0.23272097 0.047803245 -0.09606464
-0.28577667 -0.36019582 -0.054019235 -0.3212423 -0.4231637 0.24659918 0.03623253 -0.061101556
-0.026153393 -0.17003128 0.09623301 -0.329771 -0.034404036 0.1760147 0.10872608 0.34671643
0.052257188 0.23541753 -0.09120287 -0.0572664 -0.15875946 0.11535206 -0.36263373 -0.2122959
0.28242505 0.24478604 0.071916565 -0.25353295 0.2415792 -0.44190377 0.2100256 0.011134206
-0.20386827 -0.07140861 0.10597748 -0.29907075 -0.16267091 0.17768104 -0.10793867 0.21988699
0.36661685 0.04346634 0.20800257 0.22042876 -0.2698364 -0.13133053 0.053946152 -0.014980845
0.30146128 0.19698893 -0.21648836 0.27374187 -0.34237316 0.042059183 0.14865564 -0.3591347
-0.37261027 -0.06401238 -0.21373563 0.03820905 0.41120306 -0.3761116 -0.34194368 0.3518259
-0.18763807 0.07560187 0.17299464 0.07359822 -0.44614884 0.012931575 0.35709366 0.40523633
-0.19020021 0.23180802 0.23186089 -0.42457017 -0.23692852 0.18045323 0.17502223 -0.42317963
-0.14860338 -0.18001719 -0.092877 0.23603624 -0.41046995 -0.32871163 0.072963774 0.22652887
0.14551947 0.05750097 0.15253857 0.021379255 -0.13274796 -0.21277517 -0.31168273 0.28494647
-0.099520035 -0.060049504 0.46494606 -0.24849674 0.26226434 -0.21340138 0.37716168 -0.097723246

weight f4 [128, 128]
00000000: c580 c53a 7e4e 66be 5573 f8bc f73c 07be
00000010: 28fb c63c 80f9 e1bc 316b 12bd dcdf 853d
00000020: 71f5 133c 6e02 15bd b9fb 71be 92d5 33be
00000030: ddea 433d 37f9 8dbe 6703 0c3a 5c2f a03d
00000040: e7e7 e7bb 443c 333d 79e6 8c3d 96af af3d
00000050: 46c3 7b3c d84c 34bc 48b4 00bd 7fc8 3ebc
00000060: 92a6 8cbe 3bfd 51bd 309a d8bd 5f17 5dbe
00000070: aa36 c6bb d0f9 5ebc 9d67 1c3d 98d7 29bc
00000080: b3d6 873d 9fed 8abb e6c7 613d e9eb a7bc
00000090: 9967 e9bc c3c0 bebe c65e 823d 7809 dcbd
000000a0: fdd8 863c 7dca 13bc 78d1 edbd e825 21be
000000b0: 2022 9fbc 6347 153e f3cd 9fbe fa88 73bd
000000c0: 3012 99bd 4d0e df3b 0338 32bd b17a 8a3d
000000d0: 50c8 89bd 9adb 28bd 180d 8e3d d8eb 9ebd
000000e0: 671c ca3d 8a95 603d 0e88 67bb 0a78 303d
000000f0: e065 68bd 7343 193d 94c9 70bc 1cc1 39bd
00000100: 262b 6b3d 00dc 87bb 11e7 1fbd 2164 5abf
00000110: b3b9 b3bd 1a25 fbbd fe48 01bd 4f9d 1d3c
00000120: ab50 653d 5ff6 eb3c c99f 3cbd b33e 843d
00000130: 7ed9 61bd fa5a c2bc a71b f5bc 4de8 f9bd
00000140: 6e6e 673d 5386 ae3c 579e ebbe 1bdc 9e3d
00000150: bd07 543d 38f7 34bf 98ea 073d 62bb d8bd
00000160: 0e0a 513d cd0c 9bbe d293 e93d 041f b23b
00000170: 5454 7ebd af8e 05bf e93b 32bd e0ed d23c
00000180: 9728 73be 33ee 9cbe e1e4 45bd 3298 80bd
00000190: bac9 223e 44e8 513d c7b8 2ebe c44d fbbc
000001a0: 5b03 373d 20fb c6bd 4007 bcbb 0547 62bd
000001b0: 74d3 23bd e399 913d 854b c5bc 3311 acbe
000001c0: 32f8 24be e818 a43a 71db a0bd 9327 193d
000001d0: a250 dabc f2b0 b03d 131d 07bc 858b 9cbe
000001e0: 58f9 8e3d 0930 6f3d 316f 533d 8872 4abe
000001f0: ebd8 473d 7c0a 0bbf 5868 bfbe b96b e33d
00000200: 1cc3 8eba c0f3 59be c091 f13c 18fc 98bd
00000210: 703a debb 113f b13d 88f2 003e 5261 273d
00000220: 1523 97bd 5b24 e6bb 19b6 73be c453 79be
00000230: 205f 89bb 0a51 b33b 2c65 a73d 0f47 5f3e
00000240: ff58 da3c 25ba 5e3d 64e5 ebbc 475b 253e
00000250: df32 59be 648f 87bd 6ecd 3dbe 0d3b 843e
00000260: 3b2a 19be 6c45 e0bc caa6 b2be b081 8bbe
00000270: 5b99 47be 489c 00be ca17 ef3d efc1 273e
00000280: c620 b33d 1645 903d 5a7a 1b3d edda 08be
00000290: 2d59 07be f871 13be 922c 903d 4542 37be
000002a0: 49e9 643d bd53 963d 062c 26be c5f9 42be
000002b0: 9646 56bd d8d9 8a3d d44f 0d3c c44d 5cbd
000002c0: 0e9b bebd bc6c 9bbe 328b 9e3d 7b62 6c3b
000002d0: 102b 10be 18d2 643c 6834 3e3d 3c85 00be
000002e0: 945b 4c3d ce39 393e 54ac ca3c bc66 a43c
000002f0: 581a 22bc 106e b03d 7a02 2b3e 5e75 18bd
00000300: 322e b83d f287 d7bd 0c09 1e3d 667b 073e
00000310: 0760 71be 42ae 0bbe a548 69be 5e5e f4bd
00000320: f84b b7bc 6fe4 223d 76ac 4fbe 1ed2 b63d
00000330: d034 333c cc75 f3bd a8c3 2dbe ec8e 08be
00000340: 0b0b 1bbe 818b e5bd bb1f 1dbf 8614 f5bc
00000350: b5bd 493b 8936 1ebf cea7 8b3d 3f8c a83d
00000360: 5bc2 9c3d 8c8d ccbd dbcd 50bb e1f4 0cbe
00000370: 44e3 2bbd 73d7 67be 9fde 81bd 48af 28be
00000380: aa87 96be 0433 39bd fd61 9abe 7217 b2bd
00000390: 084e 5b3e 3b22 c53c 934f 05bd 6e86 8cbe
000003a0: bec3 2f3c 0fbb 34be cfbc 8cbd 1fb4 3bbd
000003b0: 987e 3fbc d003 a9bc fb04 03be d95c 40be
000003c0: 3ab0 28bd 89d0 d7bd f3b9 b83d 38fc bc3c
000003d0: 1d61 41bd 9df5 01be 3e83 4a3c 8a74 73be
000003e0: 5d2c d73d 3257 bd3d 3ad6 8f3c 1b4f febd
000003f0: d640 b93d edc6 7cbe a2ce 31be bd47 46be
0.0015068284 -0.2249088 -0.030328432 -0.1320685 0.024289683 -0.027584791 -0.035746757 0.065368384
0.009030686 -0.03637927 -0.23631181 -0.1756194 0.047831405 -0.27729198 0.0005341083 0.07821533
-0.0070772055 0.043758646 0.06879897 0.08578412 0.015366381 -0.011004649 -0.03142193 -0.011644482
-0.27470833 -0.05126689 -0.10576284 -0.21590947 -0.006048997 -0.013609365 0.03818475 -0.010366343
0.066327475 -0.0042397524 0.05512228 -0.020498233 -0.028491782 -0.3725644 0.06365733 -0.107439935
0.01646089 -0.009020445 -0.116122186 -0.15737116 -0.019425452 0.14578013 -0.31211814 -0.059456803
-0.07474172 0.0068071247 -0.04351045 0.06761683 -0.0672766 -0.041225053 0.06936091 -0.077598274
0.098686986 0.05483011 -0.0035328898 0.04308323 -0.05673778 0.03741784 -0.0146964975 -0.04535018
0.057414196 -0.004146099 -0.03903872 -0.85309035 -0.08775654 -0.12262936 -0.03156375 0.009620025
0.055985134 0.028804002 -0.04605082 0.064572714 -0.055139057 -0.023725022 -0.029920412 -0.12202511
0.0565018 0.021304285 -0.4601924 0.077568255 0.051765192 -0.70689726 0.03318271 -0.105826154
0.05103498 -0.30283204 0.114051476 0.0054358263 -0.06209214 -0.5217084 -0.043514166 0.025748193
-0.23745953 -0.30650482 -0.04831398 -0.06279029 0.15897265 0.051246896 -0.17062674 -0.03067673
0.044680934 -0.09715867 -0.005738169 -0.05524351 -0.03999658 0.0710943 -0.024083862 -0.33606872
-0.16110304 0.001251963 -0.07854355 0.037391257 -0.026649777 0.086275 -0.008246678 -0.30575195
0.06981152 0.05839542 0.051619712 -0.19770253 0.048790853 -0.5431287 -0.37384295 0.11104531
-0.0010891887 -0.2128439 0.029488444 -0.07469958 -0.0067818686 0.08654607 0.12592518 0.040864296
-0.07379738 -0.007023377 -0.23799933 -0.2434836 -0.004192248 0.005472307 0.08173594 0.2180445
0.026653765 0.05437674 -0.028795905 0.16148101 -0.21210812 -0.066191465 -0.18535396 0.25826302
-0.14957516 -0.027376853 -0.34892875 -0.2724738 -0.19492094 -0.12559617 0.11674459 0.16382574
0.087464854 0.07044427 0.03795848 -0.13364764 -0.13217612 -0.14398944 0.07039751 -0.17896374
0.05588654 0.073401906 -0.16227731 -0.19040592 -0.05231341 0.06779832 0.00862499 -0.0537851
-0.09306918 -0.30356395 0.07741393 0.003606944 -0.14078927 0.013966106 0.046436697 -0.12550825
0.049892023 0.18088457 0.024740376 0.020068519 -0.009893976 0.08614743 0.16700163 -0.037221305
0.08993186 -0.105239764 0.038582847 0.13230667 -0.23571788 -0.13640693 -0.22781618 -0.119320616
-0.022375092 0.039768633 -0.20280632 0.089267954 0.010937884 -0.11887702 -0.16969168 -0.1333577
-0.15140931 -0.11208249 -0.6137654 -0.029917013 0.003078324 -0.61801964 0.068191156 0.08229875
0.07654258 -0.099879354 -0.003186098 -0.13765289 -0.041964784 -0.22640781 -0.0634129 -0.16473114
-0.29400378 -0.045214668 -0.30152884 -0.08695878 0.21416485 0.024064174 -0.03254659 -0.27446312
0.010727821 -0.17649482 -0.0687195 -0.045826074 -0.011687897 -0.0206317 -0.12794869 -0.18785419
-0.041183688 -0.10537822 0.09019842 0.023069486 -0.047211755 -0.1269135 0.012360392 -0.23774925
0.105065085 0.09245147 0.017558206 -0.12417432 0.090455696 -0.24685259 -0.1736398 -0.19363303

bias f4 [128]
00000000: 8e61 91bc f685 6abd d7b6 87bd e76e 3fbd
00000010: bf1b 853b 2f5d 8dbc d4c3 8fbb a5e7 fdbc
00000020: 5b70 253d fcc6 d13c 7a79 1bbd 5153 04bd
00000030: cf58 d93d 01a7 3e3d 1639 463d 7f50 313d
00000040: 48f1 963c 20f2 bfbd 9493 073d 8f08 1abc
00000050: 0b64 273d ac44 5fbd 3efb 09bd dfaa 2dbc
00000060: 3864 a1bd d68a 7bbd 50e5 b3bd 153e 593d
00000070: 0736 65bd 3d7b a7bc 424c 51bd 3b15 b2bd
00000080: 1346 b9bc 9c9c a6bd d1b0 9dbd 2b11 cbbb
00000090: a056 f43c 1251 26bd 340e d8bd a4c0 c4bd
000000a0: 2f02 d4bd 555b 6c3c 2c25 93bc 565c 703d
000000b0: 02f2 a4bd ea71 c13d 49fd efbd e5e3 37bd
000000c0: 54cc f7bb a262 3ebd 9bf6 653d ca0f 4b3d
000000d0: 6d43 2fbc 8f60 1c3d b1c2 fa3c 8da9 09bd
000000e0: bacb b9bc 61b0 ce3c cab7 c7bc ca07 1fbc
000000f0: 0fba 943b 415e c0bd 4298 44bd 0076 3b3c
00000100: 6a18 bdbd d316 dabc 6d33 83bd 7410 aa3d
00000110: 7697 823d cae5 a33c c5fb c6bd 4e1f 85bc
00000120: d47d d23c 68d7 b33c e2c6 c3bc 27bf 76bd
00000130: 2f0e 983c e4c4 3abc 8758 6d3c 3817 8bbd
00000140: 084a 72bd 6108 2a3a fe02 07bc f468 483d
00000150: 5448 c4bc 3315 d63c d672 a4bc 530a f73b
00000160: 29c3 d0bb 3efd 01bd 17d0 65bd bc4d 923d
00000170: 3b1f a23d 8a58 093d 96ad cf3c c69a 853d
00000180: 516a 4bbb 7958 c1bd 3e30 12bd ff52 b1bc
00000190: 3f60 543d 8d5f 703d 3252 0abd 90c0 d2bc
000001a0: 21f8 f33c 858b a0bd de84 07bc 488c b4bc
000001b0: 91c4 b2bd 8450 f13c 33c3 63bd 68d1 a8bd
000001c0: 3279 e4bc f870 d23c 104f c5bd e2bf 9bbc
000001d0: e328 8e3d f667 ae3c 919b 2ebd 3b68 3a3d
000001e0: ae0a 8ebd 1488 6b3d edb5 ce3d a025 5d3b
000001f0: 37bf 6cbd ef78 db3c da8a f0bc b06f 3f3c
-0.017746713 -0.05725666 -0.06626671 -0.046736624 0.0040621455 -0.017256347 -0.004387358 -0.030994246
0.040390354 0.025607578 -0.037957646 -0.03230602 0.10612642 0.046545986 0.048394285 0.043289658
0.018425599 -0.093723536 0.033099726 -0.009401455 0.040866893 -0.05450885 -0.03368687 -0.010599821
-0.07880443 -0.0614117 -0.08783972 0.05303772 -0.055959728 -0.020444507 -0.051098116 -0.08695456
-0.022616422 -0.081353396 -0.07699741 -0.006197115 0.029826462 -0.04060466 -0.10549584 -0.09607056
-0.10351979 0.014426072 -0.01796206 0.05868181 -0.08053972 0.094455555 -0.11718232 -0.04489507
-0.0075621996 -0.046480782 0.056143384 0.049575604 -0.010697228 0.038178023 0.030610414 -0.03360896
-0.022680152 0.025230588 -0.02437963 -0.009706447 0.0045387815 -0.093929775 -0.047996767 0.011441708
-0.09233172 -0.026622212 -0.06406293 0.083039194 0.06376545 0.020007033 -0.0971599 -0.016250279
0.025694765 0.0219533 -0.023898546 -0.06024089 0.01856145 -0.011399481 0.014486439 -0.06791538
-0.059152633 0.0006486234 -0.0082404595 0.048928216 -0.02396027 0.026133155 -0.02007429 0.0075390725
-0.006370921 -0.03173565 -0.056106653 0.07143733 0.07916113 0.033531703 0.025351327 0.06523661
-0.0031038711 -0.09440703 -0.03569054 -0.021646021 0.0518496 0.058684874 -0.033769794 -0.025726587
0.029781403 -0.07839111 -0.008271424 -0.022039548 -0.08728898 0.029457338 -0.05560608 -0.08243066
-0.027889822 0.025688633 -0.096342206 -0.019012395 0.06941392 0.021289807 -0.04262883 0.04550956
-0.06935631 0.05750282 0.10093293 0.003374435 -0.057799544 0.026791064 -0.029363085 0.011684343

weight f4 [64, 128]
00000000: 2a56 47be fc37 78ba 830f 5cbe f14a cebd
00000010: a371 4abe 38f6 953d a961 0cbd 682f 9c3e
00000020: 94eb 6b3c 3256 573d 5725 3abe 5f28 db3e
00000030: 4161 153d 156c 673d f40b c9be 8fd5 923c
00000040: d667 9cbe 0316 9cbd 104c 9dbd 1cff 22be
00000050: 381d f6bc 24b5 cd3d 6c7f 3c3e 2d69 55bc
00000060: 501c 1dbc 8bd4 d2bc 6ac6 413d 1b55 45bc
00000070: a608 07bd 0e9b ecbd 0f6b 49bd 32c4 643c
00000080: 5eb2 28be 7ed2 1a3e 9f8f 9ebd 6a1f b63e
00000090: 0f79 70bd ab63 173d b576 a03d 1f6c fa3d
000000a0: fd77 63be ee4c f33d 4a96 efbd 5794 853d
000000b0: 3b82 ecbb ccbf a03c 9fa8 d53c 4dbd 47bd
000000c0: 68e3 9ebd dffe 7d3d c683 3f3d 309a c13c
000000d0: ab36 eebd 3f2e 8f3d 450e 803d 5dd8 a33d
000000e0: cf20 b73d 9957 eabc 5ad9 8abe 9eb6 9dbd
000000f0: f4f9 1dbe b55c 9c3d 83dd 7b3d 5265 89bd
00000100: 761d 023d c0b9 9bbc 1077 d73e d412 863d
00000110: 2796 aabd b685 27bc 15b7 163c 725e 40be
00000120: b91d 3f3e e669 31be 8224 933d 5245 afbd
00000130: 07fb c13d c34c 043d 61d5 293d 8a32 1e3d
00000140: e40b 023f 4a18 5dbe 398f 763d 637f babd
00000150: 64c4 733e b71b 59bc cb4e 013e 6a01 4bbc
00000160: 36aa 9abe 3e94 713c 2933 993b eb39 68be
00000170: f892 8bbc c889 92bd 8d78 023e 41cc 1ebe
00000180: 0a63 b93d c2bf 06be e548 0c3e e483 953e
00000190: e862 483c ca6a 993d 2afc 623d 0091 0b3d
000001a0: 0c47 80bd 6f10 823d 1f96 acbd 5417 373e
000001b0: 88bc 22bc a89d 7bbc cc62 6dbd 8e72 2ebd
000001c0: 2b66 253e 0018 5ebc 4e3f 8c3d 7971 c43e
000001d0: c48c 4b3d b7e9 e33a 487b ec3e c692 3c3d
000001e0: 179c ab3d c9f0 97be 45d6 623e d7d7 6f3d
000001f0: 5b9c a3bd ee30 db3c 6722 553d f56b d53c
00000200: b49b 0e3d 5c80 45bd a977 2e3d 6197 42be
00000210: 44df 5bbf 31b6 073d 01cf 143d 0912 1bbd
00000220: 5f90 80bc 30e7 183c 37e6 a43d 9760 a03e
00000230: 3e0e f1bd cd99 8abd cdd9 023d 9d4b 85bc
00000240: 6440 033e ddfd 083d b43e fd3c 9750 bfbe
00000250: dda3 a03d c676 84be 1d21 833d 6720 e8bd
00000260: 4c12 063d fb3d 3d3b eef2 73bd 6d3b d93d
00000270: c48f 2ebd ee18 b5b9 3014 8bbc f3eb 423e
00000280: e1e2 723d 2e2d 29bf b9ac 033e c7f2 c2be
00000290: ab22 07bd 36ff 67bf c2d2 183d bcd5 71bd
000002a0: 8f45 ad3e 8afd 3a3d f7d3 803d 23f6 cfbe
000002b0: 6718 3ebd 3c49 e7bd b9a4 113d e58c b63d
000002c0: 0a4e d13d ba3a cd3c 4d20 f53c 0ef2 09bd
000002d0: 7179 893d 8254 87bc 2e0f 4c3e 0ae2 ecbd
000002e0: f5b6 41bd a83c 6bbd 7934 02bd a237 ab3a
000002f0: a131 363e 6ce0 abbd 7f73 9dbc fccd cdbd
00000300: ded8 fc3c 4c14 f4bc 697e e93e 226c 0cbd
00000310: cdf8 45bd 120c 463d 7425 f7bc a2e5 50bd
00000320: e385 a7be dd51 313d f73e 30be 7016 63bc
00000330: 7b1c 8ebd a277 ca3d 8ab2 343e 2358 83bd
00000340: 8b1e ff3e aff1 783e 1303 20bd dc1d aabd
00000350: 063c b3be 7852 36bf cabc 78bd b315 c2be
00000360: b46d 463e 09b2 81bd f0d1 803d 90d4 e03d
00000370: 3340 08bd dc68 433e 8b51 16bd 17d4 283e
00000380: 23ce bb3d 7abe 92bd 70db 99be 6c1e 47bd
00000390: 7c99 863c cc61 40be e960 aebd 600a 02bc
000003a0: c2d3 aabc 8952 803d 82e9 213d 71b6 9abd
000003b0: f68f 88bd 1a5f 73bc 3495 303b 7081 35bc
000003c0: 4f89 21be bb7b eebc 46bf 3ebd e3cf da3e
000003d0: 019b 22bd b70e 1bbf efb4 693e 21d6 70be
000003e0: 8d08 0d3e cc16 4abe 05c6 6bbe 8cf7 6c3d
000003f0: e2d6 f93c 8dd7 003d 8187 8d3d 7509 3abc
-0.19466463 -0.00094687915 -0.21490292 -0.10072888 -0.19769911 0.07322353 -0.034272823 0.30504918
0.014399428 0.052572437 -0.18178307 0.42804238 0.0364697 0.05649956 -0.39266932 0.017924098
-0.3054797 -0.07621386 -0.076805234 -0.15917629 -0.03004323 0.100443155 0.18407983 -0.013025564
-0.00958927 -0.025736114 0.047308363 -0.0120442165 -0.032967232 -0.11553012 -0.049174365 0.013962792
-0.16474292 0.15119359 -0.07742237 0.35570842 -0.0587092 0.036960285 0.078351416 0.12227654
-0.2221374 0.118799075 -0.11698587 0.06522434 -0.007217673 0.019622706 0.026081381 -0.048764516
-0.07758218 0.062010642 0.04675653 0.023633093 -0.11631521 0.069912426 0.06252722 0.080002524
0.089418046 -0.028606223 -0.2711895 -0.07700847 -0.15427381 0.0763487 0.061490547 -0.067087784
0.031766377 -0.019009471 0.42083025 0.0654656 -0.083294205 -0.01022475 0.009198924 -0.18786028
0.18663682 -0.17325553 0.07184698 -0.08558144 0.09471708 0.03229977 0.04146326 0.038622417
0.50799394 -0.21591297 0.06019518 -0.09106328 0.23805386 -0.013251237 0.12627713 -0.012390474
-0.30207986 0.014744816 0.004675288 -0.22678344 -0.017037854 -0.07155186 0.12741299 -0.15507604
0.09052093 -0.13159087 0.13699682 0.29202187 0.012230612 0.074910715 0.055416264 0.03407383
-0.06263551 0.06350791 -0.08427071 0.17879993 -0.009932645 -0.015357412 -0.05795555 -0.042589717
0.16152255 -0.013555527 0.06848012 0.38367823 0.04969479 0.0017388378 0.46187806 0.04603841
0.08379381 -0.29675892 0.2215205 0.05855545 -0.07988807 0.02675673 0.05203476 0.026052454
0.03481646 -0.048218116 0.042594586 -0.19003059 -0.8588755 0.033132736 0.036330227 -0.037858997
-0.015693842 0.009332463 0.080517225 0.31323692 -0.117702946 -0.067676164 0.031945992 -0.016271407
0.12817532 0.033445228 0.030913688 -0.37366173 0.078437544 -0.25871867 0.064028 -0.11334305
0.032732293 0.0028876055 -0.059557848 0.10607038 -0.042617574 -0.00034541584 -0.0169774 0.1903532
0.0592984 -0.66084564 0.12858857 -0.3807585 -0.032992046 -0.90623796 0.03731037 -0.059041724
0.33842131 0.04565195 0.06290429 -0.40617475 -0.04640999 -0.11293265 0.035557482 0.08913592
0.10219963 0.025052417 0.029922629 -0.033678107 0.06712616 -0.016519789 0.19927666 -0.11566551
-0.047293622 -0.057430893 -0.031788323 0.0013062845 0.1779237 -0.083924145 -0.019220112 -0.10049054
0.03086513 -0.029794835 0.45604256 -0.03428281 -0.048332978 0.048351355 -0.030169226 -0.051000245
-0.32719335 0.04329096 -0.17211519 -0.01386033 -0.06939026 0.098860994 0.17646232 -0.06413295
0.4982799 0.24310945 -0.03906543 -0.083064765 -0.35006732 -0.7121959 -0.06072692 -0.3790718
0.19377786 -0.06332786 0.062900424 0.10978043 -0.03326435 0.1908297 -0.03669886 0.16487156
0.09170177 -0.07165237 -0.3005023 -0.048612997 0.016430609 -0.18787307 -0.08514578 -0.007937044
-0.020852927 0.06265742 0.03952933 -0.07554329 -0.06668083 -0.014854217 0.00269444 -0.011078224
-0.15775035 -0.029111734 -0.04656913 0.4273673 -0.039698604 -0.6056933 0.22822927 -0.23519184
0.13772793 -0.19735259 -0.23024757 0.057853267 0.030497972 0.031455565 0.06910611 -0.011354794

bias f4 [64]
00000000: 4401 0ebe 9600 973c 48c2 ae3d 467a c0ba
00000010: 6c66 3cbe 2b31 a9bc 29bb 9cbd b84e 46bd
00000020: 152c d4bd d561 f3bc e979 33be 134b 83bd
00000030: 5674 15be 8716 183d 4292 95bd a024 80bc
00000040: beb2 063d 322a 99bd 44d2 56bd 34d5 ae3d
00000050: 802e ddbc 8a46 32bd 1f44 373c 09b9 e63c
00000060: 98e7 e0b9 213f 153e cf00 d23c ded1 bebd
00000070: 886d 0cbe be69 96bd 2565 c5bc 3488 fdbc
00000080: bdc7 f1bd e522 b3bd ec7e 5fbc 5297 d7bd
00000090: f590 e53c c3cd 13be 6363 d2bd 6e40 393d
000000a0: 9243 3c3d e439 85bd 1b0a 7cbd ef04 08be
000000b0: 9685 35bd 2173 35bd 4a5e 3ebd 2842 cb3d
000000c0: ab5f b73d c43a 0ebc def1 bd3d ca2d 09bd
000000d0: 8ad2 f1bc 17f9 573d 4665 7d3d 4215 11be
000000e0: f3fe 773c 4942 b63d 8576 503c c15d aebd
000000f0: 5633 a43d 954a 9dbd 8fca 133d 2670 20bd
-0.1386767 0.018432897 0.0853315 -0.0014684878 -0.18398446 -0.020653328 -0.076528855 -0.048414916
-0.103599705 -0.029709736 -0.17526974 -0.06410804 -0.1459516 0.03713086 -0.07303287 -0.015642464
0.032885306 -0.07478751 -0.05244662 0.08536759 -0.026999712 -0.043524303 0.011185675 0.028164404
-0.0004289716 0.14574863 0.025635151 -0.09317373 -0.13713658 -0.073443875 -0.024096081 -0.030948736
-0.11805675 -0.0874689 -0.0136411 -0.10526909 0.028023222 -0.1443396 -0.10272863 0.04522746
0.045962878 -0.065051824 -0.061533075 -0.13283132 -0.04431685 -0.04429925 -0.04647664 0.09924728
0.08953794 -0.008681003 0.09274648 -0.033490933 -0.029519338 0.052727785 0.06186416 -0.14168265
0.015136468 0.08899362 0.01272357 -0.08513976 0.08017604 -0.07680241 0.036081847 -0.039169453

weight f4 [2, 64]
00000000: c71e dd3e 89fb 583e 54c3 9abe 7c87 a1be
00000010: 6a59 0dbe 2b8b 7c3d f5bd 843e 3ad7 2a3c
00000020: 7260 4cbe caa9 fe3e d625 0b3f 5e20 3d3e
00000030: 5697 653f 065c 313d bab7 b13c 5258 0c3e
00000040: f843 30be fb1f 963d 52af 56bd 0ccd dc3d
00000050: 44a5 d6bd c096 013c 4f0c 323e 0215 f63d
00000060: 0a66 abbd ef88 683e 72d8 793c 77df b1be
00000070: 2151 21be 97f4 d4bd 9b19 85bd 665d ff3d
00000080: fd91 f2bd 3ca2 393e 97c9 9d3d c30b f83d
00000090: da91 bebd 2139 94bd 7219 013e 1b7d 003e
000000a0: 6d53 29be 1a6e 24bd 8e4e e63d 9d6e 24be
000000b0: d04d f03d da3c 553c 8c55 7ebd 0932 923d
000000c0: 61d7 b63e 949d 53bd 3a8a acbe 945a ea3c
000000d0: 338a baba 979a 8abe da3a 793e f959 f8be
000000e0: 4f9f 153e eb53 013d b609 c13e 082f 2cbc
000000f0: 3393 aa3e 4865 f83d a258 dc3e 928f 34bd
00000100: 6641 e6be 98a8 80be 150f 7d3e 15e8 673e
00000110: 5cd4 a03e 778e f9bd 6dcd b8bd e3b5 ef3c
00000120: 6644 dd3d c78a 30bf b9f7 ccbe 5268 f2bc
00000130: e18b 7dbf 52d4 7bbe a306 cf3c dff1 1cbe
00000140: d2c3 183d 6b9e 5cbe 7bbc 99bd 8b57 e7bd
00000150: bda9 8c3d 3c34 8ebd e682 1dbe 7fee 9abe
00000160: da6c fc3d d485 71bd 44b6 fb3a 1126 863e
00000170: b169 553e 5caf dbbd dfd9 ed3c 7d93 fbbd
00000180: 64a2 6a3e 6cf4 e5bd f40d 0cbe 993b bc3c
00000190: 2e29 34bd 3ae0 9c3d 0a6e d3bd e33a 79bd
000001a0: ec08 4d3c 9722 a4bc 67d7 c7bd 3dcc f13d
000001b0: 7807 24be d2ce 45be 5d56 a53c dbab 44be
000001c0: 2a20 21be 7af4 06be 0e00 a23e 56d6 583b
000001d0: 2f3b 22bd dd90 263e d37e 06be 8ffc f03e
000001e0: b8cf a6bd 3936 73be ff21 61be d357 32bc
000001f0: d9ed 46be 3abc 10be 500f cabe 03a3 ebbd
0.43187544 0.21189703 -0.3022715 -0.3154868 -0.1380364 0.06165616 0.25926176 0.010427291
-0.19958666 0.49738914 0.5435461 0.18469378 0.89684045 0.04330065 0.021694053 0.13705567
-0.17213428 0.073303185 -0.052413292 0.10781297 -0.10480741 0.007909477 0.17387508 0.12015726
-0.08369072 0.22708486 0.0152493585 -0.34740803 -0.15753604 -0.10398214 -0.064990245 0.12468986
-0.11844251 0.18128294 0.07704466 0.12111618 -0.09305163 -0.07237459 0.12607363 0.12547724
-0.1653573 -0.040144064 0.11245452 -0.1605782 0.117335916 0.013014996 -0.062093303 0.0713845
0.35711196 -0.05166395 -0.33699208 0.028607644 -0.001423186 -0.27071068 0.24338856 -0.48506144
0.14611553 0.03157417 0.3770272 -0.01050926 0.3331543 0.12128693 0.4303637 -0.04408223
-0.4497177 -0.25128627 0.24712785 0.22647126 0.31412017 -0.12185376 -0.09023557 0.029261535
0.108040616 -0.6896176 -0.40032747 -0.02959076 -0.99041563 -0.24592713 0.02527172 -0.15326641
0.037296124 -0.21544807 -0.07506653 -0.11295994 0.068683125 -0.06943557 -0.15381965 -0.30260083
0.12325449 -0.05896552 0.00192041 0.26200917 0.208411 -0.107268065 0.029034553 -0.122839905
0.2291351 -0.112282604 -0.13677198 0.022977637 -0.043984585 0.07659955 -0.10323723 -0.060847174
0.012514334 -0.020036025 -0.097578816 0.118065335 -0.16018474 -0.19317177 0.020182783 -0.19206183
-0.15734926 -0.13179198 0.31640667 0.0033086739 -0.039607223 0.16266198 -0.13134317 0.47067687
-0.08145088 -0.23751153 -0.21985625 -0.010885197 -0.19426669 -0.14134303 -0.39464808 -0.115057014

bias f4 [2]
00000000: 693e 93bb aab2 de3d
-0.004493524 0.10873921
