models/mountaincar_2D/checkpoint_att.9.pth.tar (torch_old, 105802 bytes, 8 tensors)

weight f4 [128, 5]
00000000: dfc8 6f3e 6747 2f3e 8550 76be ac6d 893d
00000010: 102c 433e 6964 183f 6636 8abe 9a28 a63e
00000020: 22c4 c23e ae45 6e3e d08e 8d3c 5a94 b1be
00000030: 045f 11be cc85 373e be55 823e 5244 9fbe
00000040: 6ac1 243e c19c 6f3d 7299 d43d b7d3 573e
00000050: 843c bdbe 56c1 d2be 2868 b5be 0017 bdbe
00000060: f65e 81be 59bb f23d e120 ba3c 95de cdbd
00000070: 57ab d5be 08bf b0be f789 ac3d 86f1 3f3e
00000080: 927c dcbc 1939 c73e 2e3b e13a 38be 2c3d
00000090: 8cce ebbd 280b 24be 3c36 d7bd 36a7 2ebe
000000a0: b5d3 f2bc 3b11 0fbf 2778 793e c9c7 e1bd
000000b0: e67c 973e 29f8 23be 75b7 a4be 5b0e d7be
000000c0: 5a47 07be 79aa 1f3e 01a8 debe 4c7c 98bd
000000d0: 24c5 f6bd 8d80 dcbe ed42 c43e 8b59 a5be
000000e0: b0f9 d9bd 38b2 b93d 08e7 303e 5c5a 1dbe
000000f0: 2cfd d3be 30b9 833e d865 133e 60b9 353e
00000100: c0a1 d53c 26b0 08bf b410 f73e fe10 d1be
00000110: 6d6b 563e 1412 363e f05d c7be 02c9 d13e
00000120: 3289 9fbe 5420 b83e 4b26 e73c acd7 36be
00000130: 40fe e0be f362 fc3c f201 f83e a003 e1be
00000140: a6c4 823e 7f84 303d 0552 fd3c 8235 063e
00000150: 058a 8fbe 94ef 843e 9306 013f d4f2 3d3e
00000160: 35c6 c83e 123f aebe 7291 3d3e 403d ec3e
00000170: 5183 d3be 2595 6cbe de7c 95be 3dd9 afbe
00000180: 61cb 563c 2fc7 143e 8ad4 803e 91f4 593e
00000190: 8776 d03e 3650 283d 92c1 28be 0b4e 643e
000001a0: a33b adbe 3300 e1be fbee b5bc 2bb0 6bbe
000001b0: 7c31 80be d349 83be ec26 cd3e 764a b9be
000001c0: 300a cbbe 3557 34be 66a0 a83b 8bfb 69bf
000001d0: f06f 6ebe 6e30 843e cc54 78be 2dc1 e1be
000001e0: 1444 77be c867 81be 86b3 953e 5e34 49be
000001f0: 18ba 9c3e 5845 0f3e f5f8 bebe 4459 34be
00000200: ce75 c7be 6369 ddbe af30 37be 4163 98be
00000210: 28db 2d3e 78c1 713e aeed a9be d87a 4c3d
00000220: 6541 c1be 08e7 48be 0c12 dfbe 0697 3abe
00000230: caf4 073f 8111 75be cd11 403d 801e bf3d
00000240: d0a2 953e 8f9e 5d3d b606 d93e f0f0 863e
00000250: 44f3 81bd 781e babd 1498 b3be 00c6 c4bd
00000260: ac8b 063e b069 213d 6033 aabc 976c 0f3f
00000270: a8df 1f3e 16c2 0cbd 3e1b 59be 8967 26be
00000280: 5902 d3be 6723 3cbe 3019 93be 993d 56bc
00000290: 7408 7f3d c444 20bf 93dd 833e 1dfa 813d
000002a0: 4eb0 123e 6afd 95be 283a e5be 8e16 c13e
000002b0: 9d6c 523e 73f4 343d 8813 063e b261 09bf
000002c0: 47d8 d23e 5929 b4bd 7452 54be 275f b1bd
000002d0: 94d6 bf3e 2fd9 dc3e 23c3 8bbe 86df 8ebe
000002e0: 5477 c4bd 752d b73e 7664 69be 6ec4 90bd
000002f0: 98c2 9bbe cc91 813e 064d 81be 3ebf 993e
00000300: 6b9d 88bd 638b e83e 3db1 9ebe 2950 bbbe
00000310: aa3d d1be 012d 903e aa4d 88be b2d3 ad3e
00000320: a6bc b9be 0421 23be 10ff d8bd f04c f53c
00000330: 8058 ecbb 4346 d1be 5287 ff3e 8693 acbe
00000340: 27e9 ddbe 694f 763e b16a 3dbf 606f 0d3e
00000350: fb78 083e 9914 33be f97f 72be 1ec6 47bf
00000360: 7811 f6be f381 25be 5aac 143e 06b1 50be
00000370: b82e 32bd d275 a93e fe97 a5be 84ac 7ebe
00000380: 5457 a1bd 1c82 d1be ae1c 053f d227 c03d
00000390: d821 85bb 8668 6fbe 8e9f fa3e 8ab5 d5bd
000003a0: 44e7 f13d 020e a83b d342 243e 7f9d e2be
000003b0: 5f78 59be e8bb 663e aaf9 b03e 5687 503e
000003c0: b23d ac3e 5028 043e f964 913d d5c9 f8be
000003d0: 4900 ccbe 8752 c0be cec8 823e ec4f 1a3c
000003e0: cf90 483d 6f07 2ebe f16f 2f3e a1d9 e7be
000003f0: 8e77 96be 4416 57be d742 483e 78c1 b1bd
0.2341647 0.17117082 -0.24054153 0.067103714 0.19059777 0.59528214 -0.26994628 0.32452852
0.38040262 0.23268768 0.017280012 -0.34683496 -0.14196402 0.17922133 0.2545604 -0.31106812
0.16089407 0.0584991 0.1038083 0.21076857 -0.36960232 -0.4116313 -0.35431027 -0.3693161
-0.25267762 0.1185214 0.022720756 -0.1005222 -0.41732284 -0.34520745 0.08424752 0.18744478
-0.026914869 0.3891075 0.0017183775 0.042173594 -0.11514005 -0.16019881 -0.10508391 -0.17055973
-0.029641965 -0.55885667 0.2436224 -0.11024434 0.29587477 -0.16012634 -0.32171217 -0.4200314
-0.13210812 0.15592374 -0.43487552 -0.07445583 -0.1204932 -0.43066826 0.3833231 -0.32294878
-0.10643327 0.09067196 0.17275631 -0.153665 -0.41404092 0.25727224 0.14394319 0.17746496
0.026078105 -0.5339378 0.4825493 -0.40833277 0.20939417 0.17780334 -0.38938856 0.4097367
-0.3115936 0.35962164 0.028216502 -0.1785571 -0.43943977 0.030808901 0.48438984 -0.43948078
0.25540656 0.043095108 0.030922899 0.13106349 -0.28034988 0.25964034 0.50400656 0.18549663
0.3921372 -0.34032494 0.18512514 0.4614048 -0.41311124 -0.23103769 -0.2919683 -0.34345427
0.013110013 0.14529108 0.25162154 0.21284701 0.4071543 0.04109212 -0.16480091 0.22295396
-0.33834562 -0.43945464 -0.022208681 -0.23016421 -0.25037754 -0.2564226 0.40068758 -0.36189622
-0.3965621 -0.17611392 0.005146074 -0.9139945 -0.23284888 0.258182 -0.24251097 -0.44092694
-0.24147063 -0.2527449 0.29238528 -0.19648883 0.30610728 0.13991296 -0.37299314 -0.17612177
-0.38957065 -0.43244466 -0.17889665 -0.29763225 0.16978133 0.23608959 -0.33189148 0.04992184
-0.37745205 -0.19619381 -0.43568456 -0.18221673 0.53107893 -0.23932458 0.046891976 0.09331989
0.2922578 0.05410629 0.42387933 0.26355696 -0.06345227 -0.09087843 -0.35076964 -0.09608078
0.13139218 0.039407432 -0.02077645 0.5602507 0.15612662 -0.034364782 -0.21201798 -0.16250433
-0.4121273 -0.1837288 -0.28730154 -0.013076209 0.06226392 -0.6260493 0.25754985 0.063465334
0.14325067 -0.29294902 -0.44770932 0.3771252 0.20549245 0.044178437 0.13093388 -0.53664696
0.41180632 -0.08796949 -0.20734578 -0.08660727 0.37468398 0.43134448 -0.27297315 -0.2790491
-0.095930725 0.35776868 -0.22792229 -0.07068716 -0.304219 0.25306547 -0.25254077 0.3002872
-0.0667065 0.45418844 -0.30994597 -0.36584595 -0.40867358 0.28159335 -0.26621753 0.33950573
-0.3627674 -0.15930563 -0.10595524 0.029943913 -0.0072126985 -0.40873918 0.4990793 -0.337063
-0.43341944 0.2405373 -0.73990923 0.13812017 0.133274 -0.17488326 -0.2368163 -0.7803668
-0.48060203 -0.16162853 0.14518872 -0.20380029 -0.043501586 0.33097702 -0.32342523 -0.24870497
-0.07877985 -0.40919578 0.51996887 0.09382595 -0.0040628724 -0.23379716 0.48949856 -0.104350165
0.118116885 0.005128623 0.16041116 -0.44260785 -0.21237324 0.22532618 0.3456548 0.20364127
0.3364082 0.12906003 0.07099337 -0.48591486 -0.39843968 -0.37562963 0.25543827 0.009418469
0.048966225 -0.16995023 0.17132546 -0.45283225 -0.29388088 -0.21004587 0.19556747 -0.08679479

bias f4 [128]
00000000: 7227 763c 969b b2be 8ad1 d5be c2ac 5fbc
00000010: e3fe 75be 61f0 e93d 9691 4abe 849b 89be
00000020: 3ccf 473d 4cd4 133e f58b e5bd 5883 b1be
00000030: ce07 debe 7307 02be f07c 6dbe 76a0 6d3e
00000040: fa7b 0a3e 367b dcbe f703 483e 164a 32bc
00000050: 4eea 113e cc63 fc3e 77d6 103e 3e2d 153e
00000060: 628f 1ebd 6083 c4bc 6177 d93c 003d 9a3d
00000070: e36f a1bd e9ed d4be 19f6 d4be f045 11be
00000080: b1ec ac3e fcc5 953c 9152 3b3a fc84 cd3e
00000090: 882c ab3c 7c9f 37be 601d b23c 6ec6 b43d
000000a0: 4ca3 a0be 4e08 86be eef8 c03e aaaa ea3e
000000b0: 6c52 b5be a011 41be 7fb9 3ebe bc76 1d3e
000000c0: 3107 303e 41bc 763e 73b9 11bd 1bac 74be
000000d0: f188 9e3d 3b50 603e 9214 833e 2787 0a3e
000000e0: 0812 ccbd 560c 3cbd 3929 8aba b196 23bd
000000f0: d20c 9c3e 8c82 fa3e 701e 35be 6169 533e
00000100: daec b43e 6800 22be 0b2b abbe a1eb 50be
00000110: 937a d8be df17 413d 1a4a a4be f2e0 3d3d
00000120: 46f5 d9bc 6a85 b9bd 732e 863e d2ea 16be
00000130: e6e7 513c 9134 f93d de43 15bd eb0d c5be
00000140: e8e8 44be 1cd5 983e 1a5e 99bd f822 4c3e
00000150: 5738 81be 5833 01be ec9f 013d 9397 93be
00000160: 4aa4 8c3b ec7c b03e 1898 86be b0cf 463e
00000170: a906 693d 27ec a2be ad0a 423e 9108 9a3e
00000180: 0c49 883e 04d4 96bd 79b4 2d3e d748 78be
00000190: a074 bfbe 6dbd ed3c 737b 2cbe cd7f 15be
000001a0: 23ea 4e3e e24f 423e 34b9 9d3d 55b0 19be
000001b0: 96eb 0cbd a521 40be 80e6 dbbd 24e7 80be
000001c0: 7a19 593e a0af 15be 9e71 ef3d 0884 adbe
000001d0: d9ff f0bd ecd1 7abe 0d72 abbe d66f b53d
000001e0: 1325 c9be 8f6c ac3e c9f9 0c3e f3ee 033d
000001f0: f9db c1be 78b7 30be 4c8d 033e 8495 923e
0.015024053 -0.34884328 -0.41761428 -0.0136520285 -0.24023013 0.11422802 -0.19782099 -0.26876462
0.04878162 0.14436454 -0.11208335 -0.3467052 -0.4336533 -0.12698154 -0.23192191 0.23205742
0.13523856 -0.43062752 0.19532762 -0.010881921 0.14249536 0.4929489 0.14144312 0.1456804
-0.03871096 -0.023988426 0.026546182 0.07531166 -0.07882669 -0.4158776 -0.41594008 -0.14186835
0.3377433 0.018282883 0.0007145787 0.40140522 0.020895258 -0.17931932 0.021742523 0.0882691
-0.31374586 -0.2617821 0.37689918 0.4583333 -0.35414445 -0.1885438 -0.18625449 0.15377325
0.17190243 0.2409525 -0.03557725 -0.23893778 0.07740963 0.21905605 0.2560163 0.13528119
-0.09964377 -0.045910202 -0.001054085 -0.039938632 0.3047853 0.48927724 -0.17687392 0.20645668
0.35336953 -0.15820467 -0.33431277 -0.20402385 -0.42281017 0.047141906 -0.32087785 0.046357103
-0.026606213 -0.0905865 0.26207313 -0.14738014 0.012811637 0.12168229 -0.036441676 -0.3848718
-0.19229472 0.2985009 -0.074886516 0.19935215 -0.25238296 -0.12617242 0.031646654 -0.2882658
0.0042920457 0.34470308 -0.26287913 0.19415164 0.056891117 -0.31820795 0.18949385 0.3008466
0.2661823 -0.073646575 0.16963376 -0.24246536 -0.37393665 0.02902099 -0.16843967 -0.14599533
0.20206504 0.18975785 0.0770134 -0.15008672 -0.03440436 -0.18762834 -0.10737324 -0.25176346
0.21201125 -0.14617777 0.11691593 -0.33889794 -0.11767549 -0.24494141 -0.3348545 0.08859222
-0.39286098 0.33676574 0.1376716 0.0322103 -0.37863138 -0.17257488 0.12846869 0.28629696

weight f4 [128, 128]
00000000: dea1 abbc e6e6 933d 519a 813d 950c e6bd
00000010: e061 0c3b 729d 29bd cf81 f43c 4005 1dbc
00000020: c21d 6abe 9254 2cbf 55b9 babe c097 223c
00000030: bcd2 a1bc 1249 0e3d 3235 28bf 6991 ddbd
00000040: 0cbc 76bd ec40 683d 3be6 0b3e d7c5 40be
00000050: 71f5 b3bc ff4c 15bf 1e07 80be 2872 5d3e
00000060: 3b6b 94be 5f2e b23d 1af4 20be 40b0 623b
00000070: 51bb 8d3c 7cdb ccbc 4102 b23d 98bf ae3e
00000080: d3c7 a6be f9ec a2be 0bf9 cf3a 669a 043b
00000090: d944 463e de22 56be cc69 d7bd e11e d5be
000000a0: 8097 333b 0b84 693e a3ac 12be 6fa3 b4bd
000000b0: cbe7 af3d 794e bcbe 4718 1d3e f544 f9be
000000c0: 5fa5 b93d 6be2 49bd 4b86 96be efb1 843d
000000d0: 53ca 813d 92a6 48be bc4c babe 8cbd 7dbe
000000e0: c8e9 123d c796 47bd 57cd 51be edb5 99bc
000000f0: e644 5dbe 67a7 9dbe acb2 a9bd e7ef 91be
00000100: fcfd 7c3d 8054 0cba 0718 d9be 40a4 16bb
00000110: 00da a3ba 6cd5 143d 45d4 aa3d f533 f8bd
00000120: 2ebc 1c3e c8f4 b6bd b7fd 373d e794 c43d
00000130: 8ecb c9be b81d 07bd 813e e2bc def6 1cbd
00000140: 899e 9d3d c21e cc3b 3e5d ac3d 556e c0bd
00000150: 9fec c1be 5b32 9a3d 0f5f b4be 3a7f 7a3e
00000160: 7ccd 01be 1b61 423c bff7 263f 80b0 0f3d
00000170: cc78 bb3d 62d8 de3e 0c4a babd 1f94 62bd
00000180: b67e a3bd 11c8 d73d 32e2 aabb 6103 bebd
00000190: 9f9e 0a3f cb01 79bd 13d6 9cbc e54b 55bb
000001a0: a7e0 8ebd 3acf dbbe 4b86 babe 9d1b 93bd
000001b0: 9cf6 a2be d565 6d3d 66f6 ad3d e4b5 83bd
000001c0: fb62 d73c 081e 903d dd1a f7b9 4db0 fd3d
000001d0: 052c 013e 3193 07ba 6c37 8c3e 853a 4cbe
000001e0: 7a4d 533d 55df 0fbe 7bab d3be d335 b9bd
000001f0: f79b cd3c eea7 94bd 88a5 fb3c dc46 093e
00000200: 12a9 8abd 0846 b2bd d8de 38bc f22e 873d
00000210: 2fcc 8c3d 745e 56bc 1876 f4ba 844d 133d
00000220: c26f f3bc 1cb6 d4bd 75b6 67bd 4922 82bd
00000230: d71b 46bd a19a 363e ca61 eb3c c7d6 1dbd
00000240: b3bb bbbd 1a03 b03c b108 83bc e405 9cbb
00000250: c0fb 363d a536 473d 29ea 98bd 1041 8d3e
00000260: 6157 213c 8ea7 6c3d 6f12 a03d ba7d 49bd
00000270: 2bda e5b9 8873 6b3b 30f9 093d 6e1f c43d
00000280: 1c43 08bd c6db 1d3e d94d 143d c458 21b8
00000290: 3b8a b53c 3b45 57bc bb35 78bc 2a01 97bc
000002a0: 085d 893c a7f6 88bd fde2 083d ccb9 053e
000002b0: a7f0 98bd be2e 223e 7456 b8bd e48f c93c
000002c0: 77a2 21bd 1b78 be3c ec06 7fbd 9e00 7c3d
000002d0: 73d2 64ba 63d7 72bc b9ce d13d a336 e83d
000002e0: 30dd 09bc 7573 3bbe 0742 09bd 69e7 c83d
000002f0: f68a c73b ce5d 213e 5a42 1f3d ab6d 0cbe
00000300: 799d dd3c 04c8 b73c 9ebd 043d 65cc 9b3d
00000310: eac2 55bd 5ead 503d e8fd 5abc 3f52 073d
00000320: d9a7 13be 75a9 c83d 7580 a1bd 4f04 753c
00000330: 0776 173c d18a 943c 7adb 14bd 9faa 8d3d
00000340: fed4 643d 1d3b 70bd a41e 67bd eb52 013e
00000350: 1f1b 403e 5647 703d 6cfc 623d e83a 193d
00000360: 06e6 3e3d edc9 6bbb 80a3 da3d 6a76 99bc
00000370: 3ab8 60bd c326 e3bb 9896 fdbc 2fce 14be
00000380: c5ae a5bc 6a6e 123c e68c 2d3b 6e28 853d
00000390: e8b2 3b3d f358 40bd 86af 443c c06d 11bd
000003a0: 5e19 76bc cd08 11be c313 ab3d 846c d1bd
000003b0: b89a c53e 9501 7eba 169d 92bd 3525 933d
000003c0: e81d 303d d96c 22bd db55 a03d 8ba3 353d
000003d0: 880f 9bbd 009d a8bd 7795 8abd 9a76 e73d
000003e0: 46dc 3a3d e427 8c3d cf43 243d 009f 8a3c
000003f0: 365d 853d 68d5 fd3d 80ae 62bc 01a8 2cbc
-0.020951208 0.07221775 0.06328262 -0.112328686 0.0021420643 -0.041409917 0.029847054 -0.009583771
-0.22862914 -0.67316544 -0.36469522 0.009923875 -0.019753806 0.034737654 -0.6570617 -0.108187504
-0.06023793 0.05670254 0.13662045 -0.1882547 -0.021967622 -0.5832061 -0.2500543 0.21625578
-0.2898806 0.08700251 -0.15718117 0.0034589916 0.017301233 -0.025007002 0.08691836 0.3413055
-0.3257433 -0.3182142 0.0015867067 0.002023363 0.19362201 -0.20911738 -0.10518226 -0.4162512
0.0027403533 0.22804277 -0.14323668 -0.08820235 0.08589133 -0.3677862 0.15341292 -0.48685423
0.09064745 -0.049288195 -0.29399332 0.06479251 0.063374184 -0.19594792 -0.3638667 -0.24779338
0.035867482 -0.048727777 -0.20488487 -0.018763507 -0.21608314 -0.3079178 -0.08286032 -0.28503343
0.061765656 -0.00053531677 -0.42401144 -0.0022986084 -0.0012500882 0.036336347 0.083412685 -0.12119285
0.1530616 -0.08933407 0.044919696 0.09598713 -0.39413112 -0.032987326 -0.027617695 -0.03832137
0.07696254 0.0062292526 0.08416222 -0.09396044 -0.3787584 0.07529136 -0.35228774 0.24462596
-0.12676042 0.011863972 0.6522178 0.035080433 0.091538996 0.43524462 -0.090961546 -0.05531704
-0.079831526 0.105362065 -0.005214953 -0.09277988 0.54148287 -0.060792726 -0.019145047 -0.0032546457
-0.06976443 -0.4293154 -0.36430582 -0.07183001 -0.31828773 0.057958443 0.084942624 -0.06431177
0.026292315 0.07036978 -0.00047131526 0.12387142 0.12614448 -0.00051717745 0.27386034 -0.19944198
0.05158756 -0.14050038 -0.41341767 -0.09043469 0.025098784 -0.072585925 0.03071858 0.13405937
-0.06770529 -0.08704764 -0.011283599 0.06600751 0.068748824 -0.013084043 -0.0018650917 0.035962597
-0.029716376 -0.10386297 -0.05657049 -0.063541956 -0.048366394 0.17832424 0.028733153 -0.038534906
-0.0916666 0.021485854 -0.015995355 -0.0047614444 0.04467368 0.048636097 -0.074665375 0.275887
0.009847493 0.05777698 0.07816016 -0.049192168 -0.00043840831 0.0035927016 0.03368491 0.09576307
-0.033267125 0.15415868 0.036207054 -3.846806e-05 0.02216064 -0.013139064 -0.015149529 -0.018433172
0.016767994 -0.0668767 0.033419598 0.13059157 -0.07467776 0.15838143 -0.090008646 0.024604745
-0.03946158 0.02325063 -0.06226246 0.061524026 -0.0008728869 -0.01482186 0.10244507 0.11338546
-0.008414552 -0.18305762 -0.033510234 0.09809763 0.0060895635 0.1575844 0.038881637 -0.1371371
0.027052628 0.022434242 0.032407396 0.076073445 -0.052187838 0.050946586 -0.0133662 0.03303742
-0.14419498 0.09797946 -0.07885829 0.0149546405 0.0092444485 0.0181326 -0.03634212 0.06917309
0.055867188 -0.058650125 -0.056425706 0.12629287 0.18760346 0.05866178 0.05541651 0.037409693
0.046606086 -0.0035978511 0.106757164 -0.018733222 -0.054863192 -0.006932111 -0.030955598 -0.14531778
-0.020224938 0.008937458 0.0026481687 0.06501852 0.045824915 -0.04695983 0.012004739 -0.035505056
-0.015020696 -0.14163513 0.083533786 -0.10225776 0.38594604 -0.0009689567 -0.07158868 0.07184831
0.04299727 -0.039654586 0.07828876 0.04434542 -0.07571322 -0.082330704 -0.067667894 0.11301918
0.045620225 0.06843546 0.04010373 0.01692152 0.06511919 0.1239422 -0.013835549 -0.010538102

bias f4 [128]
00000000: 60e3 1c3c 7772 82bb 07ca 113c 846a 193d
00000010: eb18 163d 31df 9c3d 87e4 60bc 17fb 9dbd
00000020: cbcf e6bc cd3f 113c e9b5 643d c558 0c3e
00000030: b303 d239 5048 5abd a91c 013d 75bb bb3d
00000040: c5b0 173d 6af2 99bd ab31 093d 5d9d 9f3d
00000050: eb81 953c 2bef 263d 487a 4d3d 9806 273d
00000060: a695 da3d e9fa 88bc 2745 9a3d f89d 0e3e
00000070: 2842 913d 2898 e2bc a041 1dbc e170 8e3d
00000080: 2b9c 243e abf0 07bd 9eec 93bd 550d 4d3d
00000090: 5792 29bb e255 f2bd a479 093d e2ba ab3d
000000a0: 3796 d9bb b3f5 3b3d 7d32 42bd 2ae1 223d
000000b0: 7bed eabc 47c7 0bbd ea9c 35bc b138 cd3b
000000c0: eb4c 9a3c db24 c2bc 638a 193d 5902 763d
000000d0: 6a41 c4bb 0658 a33d 916e 0a3e 16a9 983d
000000e0: 0534 e83c 9e08 69bd 5bd4 75bd fe88 d63d
000000f0: dbca 21bd 742e 193d 1a61 f23c 9521 423d
00000100: 5b1b 9c3c 767f 4c3d 7918 00bd fd5d be3c
00000110: afbf d0bc 58bd 43bb 0fdd b9bc 94bb 91bd
00000120: 46d9 4cbd 5af4 88bd 71a1 f33d 4ce9 12bd
00000130: 40c1 7c3d a8f0 883c f7fd 59ba ae22 cc3c
00000140: 3ac9 27bd 0edd 0ebd 78f4 103d f4f0 ebbc
00000150: ed49 16bd bc74 3dbd 8991 783d b5df 36bc
00000160: 958c 74bd b354 7b3b 1fa9 8cbc 4888 28bd
00000170: 5823 04bd 5795 bcbd 1cc5 003d 3246 f5ba
00000180: b9f6 a9bd 0311 95bc 9812 103d dfb7 0cbd
00000190: c4b1 a8bd 3e13 cebc c724 dcbd 7baa 0abd
000001a0: 3eb0 2abc 2f41 843d 66a0 2bbd faf1 9abc
000001b0: 673e 79bd 2d50 cebc 172f c53d 978b 94bd
000001c0: fc78 623d 2f8d 0b3d 1199 ab3d 581a e43d
000001d0: d048 96bd 9885 103e 033b 9b3d 4c99 b3bd
000001e0: 37ba 62bd c9df 61bc 0047 7abd e005 13bc
000001f0: ebc4 85bd c93d 9b3d fc13 92bd 60ec 35bc
0.009575695 -0.0039809304 0.008898265 0.037455097 0.036644857 0.07659758 -0.01372636 -0.07713907
-0.028175255 0.008865309 0.055837546 0.13705738 0.00040057077 -0.05329162 0.031521473 0.09166614
0.037033815 -0.0751694 0.033494633 0.077936865 0.018250426 0.040755432 0.050165445 0.040777773
0.106730744 -0.016721206 0.07532721 0.13927448 0.070926964 -0.027660444 -0.009598166 0.06955124
0.16075198 -0.033188503 -0.072228655 0.050061543 -0.002587458 -0.11832787 0.03356327 0.083852544
-0.0066402215 0.045888614 -0.04741143 0.039765514 -0.028677693 -0.034125593 -0.0110847745 0.0062628617
0.018835505 -0.023699215 0.03748549 0.060060833 -0.0059892433 0.079757735 0.1351874 0.074541256
0.028345117 -0.056892984 -0.06001697 0.10475348 -0.0395001 0.037397817 0.029587317 0.047395308
0.019056013 0.049926244 -0.03127334 0.023238176 -0.025482027 -0.0029867496 -0.022688417 -0.07115856
-0.050011896 -0.06687231 0.11896027 -0.03586702 0.061707735 0.016716316 -0.0008315737 0.02491888
-0.04096339 -0.034878783 0.035389394 -0.028801419 -0.036691595 -0.046253905 0.06068567 -0.011161734
-0.059704382 0.0038350045 -0.017170487 -0.041145593 -0.03226027 -0.09208172 0.03143798 -0.0018712936
-0.08299012 -0.018196588 0.035173982 -0.03435504 -0.08237031 -0.02515566 -0.10749202 -0.03385399
-0.010417996 0.06457745 -0.041901015 -0.018914212 -0.060850527 -0.025184715 0.09628122 -0.07253187
0.05529116 0.03407019 0.083788045 0.11137837 -0.07338107 0.14113462 0.07579615 -0.087694734
-0.05535337 -0.013786265 -0.061102867 -0.008973569 -0.065317 0.07580144 -0.07132718 -0.0111037195

weight f4 [64, 128]
00000000: f2af a9bb 6950 9f3c 0d28 b0bc 7bc6 63bd
00000010: d288 c93d 434e b2bd 1ad6 d33b 1481 b73d
00000020: 5fc7 ecbc 0274 763d 4453 8bbb fd15 783d
00000030: adae ddbd 4a10 b3bd 7995 d5be 1f9d d43d
00000040: cd84 303b d723 96ba 18a6 26bd c0e2 bfbd
00000050: 08fa 53be 2739 703d 4d73 f53d 53b3 4e3e
00000060: bc8a 153e dede 163d 0ea4 923d f841 ae3d
00000070: 9d86 96bb cf04 14bd 1657 f33c 3077 53bd
00000080: 715f ffbc a1ef 97bc 0eca 1c3d 2f3d e83d
00000090: 7d14 593d bfca 4ebe 7046 3f3d 3360 25bb
000000a0: 2344 71bd 6aa6 b43d d2af 373d 908b efbb
000000b0: c29e 7c3c ab30 263d c24b 533d 4e3c c1bc
000000c0: 1fc1 c7be 1b7a f6bc ec80 debd b2ee 1f3e
000000d0: 388f 463d 9401 db3c fd42 e13d 4e74 a83d
000000e0: e3ba 23be e758 b0bd 1298 5a3d 2998 833e
000000f0: 4347 80bc 72d8 243e c732 f03a 457b f13c
00000100: 60f6 9ebd 053c 3e3d 7940 a4bd 9ab2 84bd
00000110: c06a 3b3d f826 593d 52ef 343c e99c 8f3d
00000120: 9c8c 9cbd 80b8 edbb 82b7 cc3c e2d1 373d
00000130: ee1c 813d 0e8e babe e915 ddbc 229d 5f3d
00000140: 22aa 823d 9e10 323f 3afe 6c3b efed 343e
00000150: 293a 8cbe 3ceb 2abe 0f47 5ebd e066 bf3c
00000160: 4446 c73c eb3f 7ebc 0a6a 62bd 3a59 7abd
00000170: 9b0d a23d 854c 93bd 0912 15bd 2b5a f73d
00000180: 5470 4fbe 986d 95bd 5123 19bd 710f ab3d
00000190: 489f f13c dcd6 e2bd 550c e2bb 1eee 7ebd
000001a0: d034 9dbd 52ef 37bf 40d9 fbba a69b c33d
000001b0: 4cf9 73bd 2e6d 2b3d 0b58 013e ac4c 50bd
000001c0: d4e5 e4bc 835a b0bc c7e7 a73d 07d1 ae3d
000001d0: 2174 ad3d 6582 a43c 63b3 fbbd 6249 62bd
000001e0: f241 14be aa74 c8bc 5272 c73d 5272 37bd
000001f0: 1afc 7dbd f7e8 f83d c619 f3bc 391b 36bd
00000200: 890c 213d 4e70 f0bc 06cd 363e 65ce ae3d
00000210: f754 a8bb 30bd 46be 75a5 663d d987 353e
00000220: 6e05 533e 42c1 aebd f647 c2bc 460b 3abe
00000230: b2ff 88bd 36a8 68be 394a 78be 84fa 943d
00000240: 282a 93bd 0836 87bd a059 bc3c c83a 5f3c
00000250: 2206 713d 9098 ea38 da82 a93d 93b9 b73c
00000260: b65b a2bd 403b f03d cf78 45bd 9f55 2ebe
00000270: 3adf 49be 9f3a 103d 3c57 16be 53a6 6abe
00000280: 86eb 27be c2ee 90bc 3a2e 4a3d 515f a53d
00000290: a07b af3e 864c 10bd fdc6 83bd c6f3 16be
000002a0: bfed 6f3e f82e 803d c024 c9bc d524 af3e
000002b0: 4666 e73d 913a 70bd 811a 963d 582d c43c
000002c0: 85a5 f9be 25eb 62bd 0094 413e 5898 273e
000002d0: 1db9 08bd 92fd 5fbc 5c57 c43d 13e9 f83a
000002e0: 42a1 403d 89bf 563d ddab 97bd d97f a63d
000002f0: 4f05 f4bd 5a2d 00be 85a8 6abd 402b 3d3e
00000300: 8aa3 a13c 6825 13be 662d f93d 4bcf 32be
00000310: fd89 c13d e77a 9a3e ec3d a6bd 0c32 d53d
00000320: d43d c43c e951 12bd 61ab 9f3d 777f 0c3c
00000330: e5f5 b13d a7c5 aabd 259d 003e acfb c3bd
00000340: 9e54 01bc 6e16 443e ee5e adbb da42 a73e
00000350: 1af3 0ebe aff9 bbbe 9c15 be3c 5a72 123e
00000360: 72be 56bd 3c19 c93e acfe 4dbc 9c19 513d
00000370: e87b 683c d69d c63d 83db 14bd 72fc 32bd
00000380: 9ec5 54be 58e2 babe 257d 3cbb 7e8d 063e
00000390: c661 c53d 947c 2ebe 41f2 273d 6152 0b3d
000003a0: 7e01 04be 9ad6 b9be 3a4d 673d 5bb9 1e3e
000003b0: d271 0b3d eca0 80bd ac2e b6bd ae57 a0be
000003c0: 394b 98bd 10e5 a8bd f4b5 693c 6815 63bd
000003d0: ce6b 453d fd0c 72bd 959a 69bd 3fb6 ab3b
000003e0: 1496 95be 581f 53be 36d0 4c3e b14f b2bd
000003f0: c7d9 76bd 29bf f53c 6155 583d 05f1 9f3d
-0.005178445 0.019447522 -0.021503473 -0.055609208 0.098405495 -0.087063335 0.006464732 0.089601666
-0.028903661 0.060169227 -0.0042518694 0.060567845 -0.108243324 -0.08743341 -0.417156 0.10381531
0.0026934624 -0.0011454773 -0.040685743 -0.09369421 -0.20700848 0.058648255 0.119848825 0.20185594
0.14603704 0.036833636 0.07160197 0.08508676 -0.004593684 -0.0361374 0.029704612 -0.051627338
-0.03117344 -0.018546881 0.038278632 0.11339795 0.052998055 -0.20194529 0.046698034 -0.002523434
-0.05890287 0.088208035 0.04484541 -0.0073103383 0.01541871 0.040573757 0.05158592 -0.023588326
-0.39014527 -0.030087521 -0.10864434 0.15618399 0.048476428 0.026734151 0.10999105 0.08225308
-0.1598926 -0.08610707 0.05336768 0.25702026 -0.01565898 0.16098192 0.001832568 0.029477725
-0.07761836 0.046443958 -0.0802011 -0.06479378 0.0457561 0.05301568 0.0110433865 0.0701235
-0.076440066 -0.00725466 0.024989847 0.044877894 0.06304346 -0.36436504 -0.026987987 0.054593213
0.063801065 0.69556606 0.0036162273 0.1766889 -0.27388123 -0.16691297 -0.054266986 0.023364484
0.024325497 -0.015518169 -0.055276908 -0.06112025 0.07912751 -0.07192329 -0.036394153 0.12077745
-0.20257694 -0.07296294 -0.037387196 0.083525546 0.029494897 -0.110761374 -0.0068984427 -0.062238805
-0.07676089 -0.7184955 -0.0019214526 0.09551172 -0.05956392 0.04185217 0.12631242 -0.05085437
-0.027941622 -0.021527534 0.08198505 0.085359626 0.084694155 0.020081708 -0.12290075 -0.055245765
-0.14478281 -0.024469692 0.09738602 -0.04478676 -0.062008 0.121538095 -0.029675376 -0.044459555
0.039318595 -0.029350426 0.17851648 0.085354604 -0.0051370817 -0.19408107 0.056310136 0.17727603
0.2060754 -0.08532955 -0.023715954 -0.18168363 -0.06689395 -0.22720417 -0.24247064 0.072743446
-0.07185775 -0.066021025 0.022991955 0.013624854 0.05884374 0.000111864065 0.08276911 0.022427356
-0.07927649 0.11730051 -0.048210915 -0.1702485 -0.1971406 0.035212155 -0.14681715 -0.2291501
-0.16398439 -0.017691974 0.04936049 0.08074821 0.34274006 -0.03522923 -0.064344384 -0.1474143
0.23430537 0.062589586 -0.024553657 0.34207788 0.11298804 -0.058649603 0.07329274 0.023947403
-0.48759094 -0.055400033 0.18904114 0.16366708 -0.033379663 -0.013671296 0.09586975 0.001899036
0.047028787 0.052428756 -0.07405827 0.08129854 -0.11915075 -0.125173 -0.05728962 0.1847353
0.019731302 -0.14369738 0.12166862 -0.17461888 0.09450147 0.30171892 -0.081172794 0.10409936
0.023955263 -0.035722647 0.0779636 0.008575312 0.08689479 -0.083384804 0.12559946 -0.09569487
-0.0078937095 0.19149181 -0.0052908575 0.3266819 -0.13959923 -0.3671393 0.023203664 0.14301434
-0.052427717 0.39277065 -0.012572926 0.051049814 0.014189698 0.096980736 -0.036342155 -0.04369778
-0.2077851 -0.36500812 -0.0028761115 0.13139912 0.096377894 -0.1703971 0.041002516 0.03401411
-0.12891194 -0.3629654 0.056470133 0.15500395 0.034044094 -0.062806934 -0.08895621 -0.31316894
-0.074362226 -0.08246815 0.014264572 -0.055440336 0.048198514 -0.059094418 -0.057032187 0.0052402313
-0.29216063 -0.20617425 0.20001301 -0.08706606 -0.060266282 0.029998379 0.0528158 0.07809643

bias f4 [64]
00000000: 5589 f33d 417e 62bd a8e0 403d 7138 3c3d
00000010: 0e31 103b 8428 39bd 83eb 44bc fb11 f33c
00000020: ee9e 163d 6256 b93c 4ed1 943d 434a 4b3c
00000030: 94e3 503c 8a28 d1bc 5cde 35bd b3c0 cbbd
00000040: 91c8 69bd 36a1 51bb cbb2 b73d 4b32 0bbe
00000050: ea26 2ebe 64b6 c6bc a15b 57bd 0a12 b33d
00000060: 4bf1 863d cf5d 043e ff58 353d c8e9 fdba
00000070: a59a 9b3c 45e6 3dbe 4c4d 45be 92d3 bcbd
00000080: 8cae 33bc 241d e83c 2040 a3bd a3a8 bbbd
00000090: 274f d2bd e4e0 90bd 7f20 d23a 7b36 18bd
000000a0: 26b1 8cbb e2ff 9c3c 4fb1 06ba 2463 ff3c
000000b0: 6ad6 dc3d c7e7 03bc 3389 dc3d 23d4 90bd
000000c0: 2fc2 293d 8613 9ebd 2bd4 bfba 14b7 d3bc
000000d0: 8744 b8bd ec2a b3bd 944d 9fbd 82b1 87ba
000000e0: fd1a 8f3d 87bb 443c 5a0b 13bd f131 2e3c
000000f0: 1d00 ca3d 942a 953d 04b6 bfbc 0ad2 3cbc
0.118914284 -0.055296186 0.04708925 0.045952264 0.0022001895 -0.045204654 -0.012019041 0.02967166
0.03677266 0.022624198 0.07266484 0.012407842 0.012749571 -0.025532026 -0.04440151 -0.09948864
-0.05707604 -0.0031986958 0.08969649 -0.13593404 -0.17007032 -0.024256893 -0.05257762 0.08743675
0.06588992 0.1292641 0.044274326 -0.001937204 0.018994639 -0.18544872 -0.19267768 -0.09220041
-0.010966908 0.028334208 -0.07971215 -0.09163024 -0.10269003 -0.070741445 0.0016031413 -0.03716133
-0.0042935787 0.019164983 -0.00051381154 0.031175204 0.10783084 -0.0080508655 0.10768356 -0.07071712
0.041444954 -0.077185676 -0.0014635375 -0.025844134 -0.089974456 -0.08748421 -0.07778469 -0.0010352584
0.069875695 0.012007601 -0.035899498 0.010632024 0.09863303 0.07283512 -0.023402222 -0.011524687

weight f4 [3, 64]
00000000: e62b 01be d152 d9be ff78 6bbf c014 cfbe
00000010: 0e53 063f fcd0 583e 24f9 d73e b203 8abf
00000020: a31f 08bd 12e7 52bf 07d5 a13e fbae bbbe
00000030: 7f04 6c3e 31b2 433e adb5 ea3e 5acc 783f
00000040: 39a8 f33d ef87 503e 5f86 303e 5c4c 86bf
00000050: 5b06 7bbf 3de9 7ebe a01f 8fbf 3107 873e
00000060: e05f 35bf 1cae cbbe c8c0 6fbf b35b 49bd
00000070: 6680 fcbd ead0 223f 598a b33e b86b 3dbf
00000080: 6c0a 1cbd f7c7 05bf 89b6 153e 2bf3 8b3e
00000090: 5875 673e ae7b 1ebd a947 3b3e cf5f b2be
000000a0: c6cf 9f3e acdf 0dbf d35e 973f 76ac 07bf
000000b0: 3f12 b93e 1e2e 86bf fc2f 453e c0e9 eb3e
000000c0: 30be 8bbf 742a 74bf ed36 e73e 7600 413e
000000d0: 00bf 8ebd 6707 54bf bb05 083e c767 fabd
000000e0: 65c9 86bf c1c1 30bd 159c 61bf 69b4 d8bc
000000f0: 1c9d 373e dd71 0cbf 0cf0 5d3f e589 383f
00000100: b67c e03d 5548 893d a352 a1bd 7edc ca3e
00000110: d61e 29bf bbe3 eabe 3047 09bf 23db 90be
00000120: 8115 7c3e 800a d23e 4e46 563e 2ab1 c33e
00000130: 165a 31bf 25b1 c9be 7ec0 b1be e0fe 4dbf
00000140: f9a0 3bbd cab6 97bd 6de4 293e cbff d1be
00000150: ffc9 cabe 789c 823d 33c6 023e 881b 983d
00000160: 6d29 5a3e b061 433e d273 c3be 91f0 a33c
00000170: 2eb7 483c f3b3 9dbe 1a97 3fbf d96b f5be
00000180: 513b 85bd d4c7 033e 6172 9dbe a93f bbbe
00000190: d69f 9e3d f1be babd e06d a2be 9c37 d63e
000001a0: eab7 083e b649 d73e 2ac0 2f3f d6b7 dc3d
000001b0: eb1e 433e c84d 523e 9367 c8be 0d4c abbe
000001c0: f4dc 9ebe 92f2 aa3d 82b5 dabe 5e9f 19bf
000001d0: bbdd f0bd 5ad6 3e3e b1b5 afbe a59a f6bd
000001e0: 2476 b6bc 2fd7 f0bd 1e84 1abe 6915 56be
000001f0: 2b94 d8be 3a06 e83e 2733 363f 5e56 c1bd
00000200: 4e09 febd 1c71 0e3d efe4 c93d b6d6 1c3e
00000210: 7eb4 ddbe 7d23 0a3c fac5 afbe 6385 043f
00000220: 969a febd 19e4 de3d 05e3 f4be ea02 a5be
00000230: d57d 1a3e d652 1c3e 402b 9a3e 8af5 d53e
00000240: b21b cebd 6382 8cbe d544 a3be f48d d13e
00000250: 3a39 d23e 45a9 883e 48b8 4f3e 697a b2be
00000260: 1edc 883d 6e57 eb3d 4c37 b83e ac31 c4bd
00000270: 6e53 6c3e 25f7 3b3e c529 2c3f 7ce2 a43e
00000280: 09d1 7dbd a58c 8b3e 10dd a43c 79cf e63d
00000290: 1670 103c 0dc5 b43d d83f cd3c 7b8c d2be
000002a0: 1153 05bf 33b3 91be fedf 80bf 422f 2b3c
000002b0: f46c b6be dcbd e23d befd 353e f648 e33e
000002c0: 045a 183f 587e 1e3f 6b33 3f3e 4e6a 483e
000002d0: 908e 103d c7d4 8e3c 4d38 3c3e 04ac 623e
000002e0: 7091 033e ede7 80bd 9e01 de3e 6863 193e
000002f0: 0c20 503d 3576 bdbe 6876 4ebf 69e5 1fbf
-0.12614402 -0.42445996 -0.919815 -0.40445518 0.5247048 0.21173471 0.42182267 -1.0782378
-0.033233296 -0.82383835 0.3160784 -0.36656937 0.2304859 0.19110943 0.45841733 0.97186816
0.1189732 0.20364355 0.17238759 -1.0492053 -0.9805657 -0.24893661 -1.1181526 0.26372674
-0.7084942 -0.39781272 -0.93653536 -0.049159717 -0.123291776 0.6360003 0.35066488 -0.7399249
-0.038095877 -0.5225825 0.14620413 0.2733396 0.22603357 -0.03869217 0.18289055 -0.3483872
0.31213206 -0.5541942 1.1825813 -0.5299753 0.36146733 -1.0482824 0.19256586 0.46076775
-1.0917416 -0.9537728 0.45159093 0.18847832 -0.06970024 -0.82823795 0.13283436 -0.12226825
-1.0530211 -0.043153528 -0.8812879 -0.026453214 0.17931026 -0.5486124 0.8669441 0.7208541
0.10961287 0.06703249 -0.0787709 0.39621347 -0.66062677 -0.4587687 -0.5362425 -0.28292188
0.24617578 0.41023636 0.20925257 0.38221103 -0.69278085 -0.39392963 -0.34717172 -0.80467033
-0.045807812 -0.07407911 0.16591044 -0.41015467 -0.39607236 0.063775 0.1277092 0.07427126
0.21304865 0.19080234 -0.381743 0.020012172 0.012250705 -0.30801353 -0.7483994 -0.47933844
-0.06505454 0.12869197 -0.30751327 -0.36572006 0.0774533 -0.091184504 -0.31724453 0.41839302
0.13351408 0.42048424 0.68652594 0.107772514 0.19054763 0.20537484 -0.3914152 -0.3345646
-0.3102795 0.08347048 -0.42716604 -0.600088 -0.11761042 0.18636456 -0.34318307 -0.12041215
-0.02227313 -0.11759793 -0.15089461 -0.20906605 -0.42300543 0.4531725 0.711718 -0.09440301
-0.124041185 0.03477584 0.09858119 0.1531628 -0.43301767 0.008431313 -0.34330732 0.5176603
-0.12431829 0.1088335 -0.47829452 -0.32228786 0.15087064 0.15265974 0.30111122 0.41788894
-0.10063876 -0.27443227 -0.31888452 0.40928614 0.41059285 0.26691642 0.20285141 -0.34859017
0.06682609 0.11491285 0.35979688 -0.09579787 0.23078701 0.18355997 0.67251235 0.32204044
-0.06196693 0.2725574 0.020124942 0.11270041 0.008815786 0.08826647 0.025054857 -0.41122803
-0.52079874 -0.2845703 -1.0068357 0.010448279 -0.3563 0.11071369 0.17772576 0.44391602
0.5951235 0.61911535 0.18671958 0.19571802 0.03529221 0.017435445 0.18380852 0.22135931
0.12848449 -0.06294236 0.4336061 0.14979327 0.050811812 -0.37004247 -0.80649424 -0.6245943

bias f4 [3]
00000000: f75b e2bd 7814 f23d 95c7 09bd
-0.11052697 0.1182031 -0.033637602
