models/mountaincar_2D/checkpoint_cl.15.pth.tar (torch_old, 143897 bytes, 12 tensors)

weight f4 [128, 5]
00000000: ee45 353e 6ae5 893d a4f4 dbbd cbc5 713e
00000010: d1ed c4be f8b8 7fbe 44eb 023e 24a3 b2bd
00000020: b48f 81be 34f8 89be 2a08 c1bf fa67 83be
00000030: 1fa2 91bd 9f75 97bd 5bde 68be 116d c2bc
00000040: 8514 00be 0388 0fbd 3e23 2a3e d7ce 923e
00000050: 0a93 993d 8dad 9dbe c070 b23e c094 cd3c
00000060: 013a bb3e 7dd3 da3e 9d68 6d3e d357 3a3e
00000070: 11de 22be a8d0 89be df70 173e db81 babe
00000080: 055e 35be 515f 8e3e 16ab 833e a03f c8be
00000090: 8320 cebd 0e29 bc3e 03d9 a8be 427d 8b3e
000000a0: 3dd0 d4be d4b9 3a3d 4a13 92be ba52 0bbe
000000b0: 0125 9f3e 426e b53d a846 0bbe eadd b5bd
000000c0: 927c 95be 9a66 5ebe 1f3b e8be f54c 5a3e
000000d0: 74e5 82be a5bf b23e 6086 663e 38d3 0d3f
000000e0: 4a5a 613e 843e 3e3e 7203 c03e 0e5c 42be
000000f0: 20c3 dd3d 2c7d 11be a380 933e d429 483e
00000100: 1c67 503e 8903 b0bd c6f9 a03e 44c6 cdbe
00000110: f083 173d cf79 c23d 64ce ddbe 9a46 4cbe
00000120: 9046 af3e 3610 573e fb07 d3be b585 a3be
00000130: dd96 743e ce9b b23e c951 5ebe 063a 45be
00000140: 3664 823e b2be cc3e 16ea fabe 175b 99be
00000150: 3047 9d3e 5bb6 bcbe b710 22be 36d2 cd3e
00000160: d3c3 cf3e cb92 3f3d 10d0 b4bc 94a2 ccbe
00000170: 50ff c63c 28ca 91be f03a 81bc 96d0 c0be
00000180: e4e3 263e cf7b dd3d c127 113e 90ec cabe
00000190: a9fd 303e c806 ea3c 6ae9 a2be 2e6f 0b3e
000001a0: 1c1c babe 803f d33e 03b4 183e f8d3 903d
000001b0: bc2b 7f3e 7257 a9be 5a7b 0f3e 617f e33e
000001c0: 19f6 623d ae87 95bd 03a1 ac3e d081 0bbe
000001d0: 912a 9f3d 01b2 6d3e 23a8 d4bd 8e15 253e
000001e0: 4b7f 76be 0e2f b33e 019b 903e 742b cf3e
000001f0: db27 63be 6ea9 8bbe 4066 d0be f7f8 a53e
00000200: dc00 3a3e 79aa 7cbe aa6e c8be 8b8b bb3e
00000210: 3a78 403e fd7d 453e 75f4 db3c ad8b 18be
00000220: ba75 b73e 7b66 c83e 0fbd d53e 88a6 533d
00000230: 1e85 d03e f0a1 08bc b8d0 c0be d8d8 a93e
00000240: f08a 7d3e d2e0 a83e ef05 e8be 0f35 9f3e
00000250: 1989 7cbc 9514 353d 9dd8 d53e d6c0 793e
00000260: 5ce6 cebe 25c5 55bd 3177 ba3e 35c4 fb3d
00000270: c81a 263e 2e37 783d 0e70 843e 969f 3bbe
00000280: a5eb 8d3e 42ec a43e 3c9c 503e 9585 023e
00000290: e8f7 b83e 2f0b e0be f1e4 b9be dc63 363e
000002a0: 7001 18be 92c0 ac3e daa5 c9be fad7 a9be
000002b0: 10dc 933d 78b7 053d b83f cebd c643 323e
000002c0: ec0b 30be 7ebf ad3e 5867 fabd 1646 c93e
000002d0: d454 10be 908d 393e 2eaa 4fbe 6052 9abe
000002e0: 4055 ce3b d4d4 d33e 35f1 813d afd7 8bbe
000002f0: 466f 09bd 4b9e aebe 860d 883e 3f5d 96be
00000300: a0b2 39bd 14fb 8cbe f060 14be 2813 b9be
00000310: 6c7c c6be 46f6 0fbe 48f0 a93e 3cbb d2be
00000320: ca7a 70bc ab91 afbd b44e 42be 0666 13bd
00000330: 728f 7b3e b778 cf3e e6e9 63be c077 93be
00000340: d896 d6bd caa3 ce3c 3247 0bbe 80bd 783e
00000350: d8f9 31be 7c6f a7be 14bb 853e 72e2 fcbd
00000360: 76d9 4e3e 0d27 7fbe 6d5a ba3e c67e 0cbe
00000370: 6f89 1cbe f6ea 9f3e a104 2bbd a99b 0fbc
00000380: aa2e c3bd 98fe bb3e d02f 8e3b b177 9bbe
00000390: 9a82 a3be 9fac f53d fe81 c83e 5d66 a6be
000003a0: 2a4f c2be d073 bd3e 161b 44be b04a d8be
000003b0: 23de 5b3e 8ef8 c43d 4454 b4bd e5cf 50bd
000003c0: 7208 bcbe 58ea 323e 5d32 b23e 3854 9bbe
000003d0: 5522 ca3e 6cb0 a33e ad38 9c3e bc8a 6e3e
000003e0: 3419 8c3e d48f 8e3e d0a0 853e 777e 9b3d
000003f0: 30a7 4e3d a766 783e 22e3 94be 2ce4 f0bd
0.17702457 0.067332104 -0.10740021 0.23610608 -0.3846269 -0.24972904 0.12785059 -0.08722523
-0.2530495 -0.26947176 -1.5080616 -0.25665265 -0.07111 -0.07395481 -0.22741072 -0.023733648
-0.12507828 -0.03504182 0.16615006 0.2867343 0.074987486 -0.3079647 0.34851646 0.025095344
0.3656769 0.42739478 0.23184438 0.18197565 -0.15905024 -0.26917005 0.1478915 -0.36427197
-0.17711647 0.27807096 0.25716466 -0.39111042 -0.10064795 0.36750072 -0.32978067 0.27244002
-0.41565123 0.045587376 -0.2853034 -0.13605776 0.3108292 0.08858921 -0.13601172 -0.088802174
-0.29196602 -0.21718827 -0.45357606 0.2131842 -0.25565684 0.34911838 0.22512197 0.5540042
0.22007099 0.18578535 0.3750263 -0.18980429 0.10828233 -0.14207906 0.2880908 0.19547206
0.20351833 -0.08594424 0.31440562 -0.40190327 0.03699106 0.094958894 -0.43321526 -0.19948807
0.34233522 0.21002278 -0.41217026 -0.31937948 0.23885675 0.34884495 -0.21710886 -0.19260415
0.2546708 0.3998924 -0.49006718 -0.2995231 0.30718374 -0.36857876 -0.15826689 0.4019944
0.4057909 0.046770852 -0.022071868 -0.39967787 0.024291664 -0.28474545 -0.015775174 -0.37659138
0.16297871 0.1081463 0.14175321 -0.39633608 0.17284264 0.028567687 -0.31818706 0.1361663
-0.3634957 0.41259384 0.14912419 0.0707168 0.24919027 -0.33074528 0.14011899 0.4443312
0.05541048 -0.073012695 0.33716592 -0.13623738 0.07771791 0.23212434 -0.10383632 0.16121504
-0.24071996 0.34996837 0.2824326 0.4046284 -0.22183172 -0.27277702 -0.4070301 0.32416508
0.1816439 -0.24674405 -0.3914693 0.366299 0.18795863 0.19286342 0.026849965 -0.14897032
0.35832006 0.39140686 0.41745803 0.05167249 0.4072656 -0.00833939 -0.3765924 0.3317325
0.24760032 0.32984024 -0.45317027 0.31095168 -0.015413546 0.04420908 0.41766825 0.24389967
-0.40410125 -0.052189965 0.3641906 0.12293283 0.16221154 0.0605995 0.2586674 -0.18322596
0.27718845 0.322115 0.20372099 0.1274627 0.36126637 -0.43758532 -0.3630748 0.17811531
-0.14844298 0.3374067 -0.39384347 -0.3317259 0.07219708 0.032645673 -0.10070747 0.17408666
-0.17192048 0.3393516 -0.122267425 0.39311284 -0.1409486 0.18120408 -0.20279762 -0.30140972
0.0062967837 0.41373312 0.06344835 -0.2731299 -0.033553384 -0.34105143 0.26572818 -0.29368016
-0.045336366 -0.27535307 -0.14490104 -0.36147428 -0.387668 -0.1405879 0.33191133 -0.41158473
-0.014677713 -0.08572706 -0.18975335 -0.03598597 0.24566439 0.40521786 -0.22257194 -0.288023
-0.1047799 0.025224585 -0.13601378 0.24291039 -0.17380464 -0.32702243 0.26119292 -0.123478785
0.20200142 -0.2491724 0.36397114 -0.13720235 -0.15286802 0.31233948 -0.04175246 -0.00876514
-0.09530385 0.36717677 0.004339196 -0.30364755 -0.3193558 0.119958155 0.39161676 -0.32499972
-0.37951022 0.3700242 -0.19150957 -0.42244482 0.21471457 0.096177205 -0.08805135 -0.050979514
-0.36725193 0.17472208 0.3480405 -0.3033769 0.39479318 0.31970537 0.3051199 0.2329511
0.27362978 0.27844107 0.26099253 0.07592481 0.05045241 0.24257909 -0.2907954 -0.1176227

bias f4 [128]
00000000: 4070 d3be 17df 5dbe b191 4c3e 7e1e fc3d
00000010: f7a6 03be aa0b 00be c54a 163e beca 253e
00000020: 7183 823d ecfd 8a3e 2387 a63e f0e9 ebbe
00000030: 2cf0 d9bd 078d b9be 5ce1 bf3e f0c3 3ebe
00000040: 5f7d 993e 469f ee3e 1508 babe 56a4 023e
00000050: 7dd3 84be bf73 d9be 89ad 8ebe 3a61 463e
00000060: 87e6 bebe ddab 97be 5514 c3bc 0156 1a3c
00000070: cedd d1bd 6cee a03e 02c9 143e e55d e73d
00000080: 50b6 a3bd ec6a a2be 2605 25be 6762 413e
00000090: 7c53 a1be 49cf 763e f7d8 b1be 5dcb 9e3e
000000a0: aae5 ffbd 9410 49be 95e0 d23e a545 babe
000000b0: e8ad b43d dfcf bc3e b6ba c63e cd8c bd3e
000000c0: a6a9 0abe a90d bdbe bd1b edbe 15b4 55be
000000d0: b5e2 893e a005 6f3e 3810 da3e 645a 50bc
000000e0: f1f7 c6be b205 94be 2309 0dbe dce3 d5be
000000f0: f3b2 2d3e 3ba8 aebb b225 163e 81a2 1abe
00000100: b7da 213e a58f 68be 6ca3 a03d 2671 3abe
00000110: 25a6 4abe fe6b b5be 4328 4d3e 3907 2cbc
00000120: 32c6 013e c661 343c 876b db3d 700d 193d
00000130: cfd2 d0be 7f04 f43e 962c 81be bff6 28be
00000140: d509 35be e838 9bbe b02f 74bd 2c2e 76be
00000150: fcb3 353e 8a0b 63be c0d2 d43e 248d 823e
00000160: 5a12 12be acae 81bd 569c 533e 877b a5bd
00000170: 4163 673e d905 4d3e 6816 f3be d72a d43e
00000180: 2193 26be 007a 963e 9866 d73e f208 1c3e
00000190: 2d36 c93e 0508 d03e ce83 e7bd 6a24 9ebe
000001a0: 34cc 63be ce55 f4bd 5372 adbd e611 c5be
000001b0: eb6c b0be 7abb bebd c9fc 0a3e 93ba 0abe
000001c0: c689 4cbe 5493 24be 63e4 683e 4640 81be
000001d0: 667f 84be 55e1 22be 4c11 bfbe 4d3b cd3e
000001e0: c2b0 afbe 9d0c c23e 8d70 49be 9131 49be
000001f0: c75b ae3e ea57 de3e ab2d e7bd 295a 97be
-0.41296577 -0.21667133 0.19977452 0.123105034 -0.12856661 -0.1250445 0.1467696 0.16190621
0.06372727 0.27146852 0.32524976 -0.46076918 -0.10641512 -0.36240408 0.37476623 -0.18629432
0.29978463 0.4660589 -0.3633429 0.12758002 -0.25942603 -0.4247112 -0.27866772 0.19373026
-0.37285253 -0.2962331 -0.023813406 0.009419919 -0.10247384 0.314319 0.14529803 0.11297206
-0.07993758 -0.317222 -0.16115245 0.18885194 -0.31509006 0.2410251 -0.34735844 0.3101453
-0.12494977 -0.1963523 0.41186967 -0.3638126 0.088222325 0.36877343 0.38814324 0.37021485
-0.13541278 -0.36924484 -0.46310225 -0.20869477 0.26930776 0.2334199 0.425905 -0.012716863
-0.3886104 -0.28910595 -0.13773017 -0.41775405 0.16962795 -0.005330113 0.14662817 -0.15101053
0.1580609 -0.22711046 0.0784367 -0.18207225 -0.19789942 -0.35433954 0.2003489 -0.010499769
0.12673262 0.011009639 0.107138686 0.03736633 -0.40785834 0.4765968 -0.2522933 -0.16500376
-0.17679532 -0.30316854 -0.05961579 -0.2404105 0.1774444 -0.2217237 0.4156704 0.25498307
-0.14264813 -0.06332144 0.20665106 -0.080802016 0.22596456 0.20021762 -0.47478032 0.41438934
-0.16267063 0.29389954 0.4207046 0.15237787 0.39299145 0.40631118 -0.113044366 -0.30887157
-0.22245866 -0.119304284 -0.08469071 -0.38490218 -0.34458098 -0.09313102 0.13572992 -0.13547735
-0.19974431 -0.16071826 0.22743373 -0.2524435 -0.25878447 -0.1590627 -0.37317884 0.40084305
-0.34314543 0.37900248 -0.19671841 -0.19647814 0.34054396 0.43426448 -0.11288007 -0.29560974

weight f4 [128, 128]
00000000: 3009 dabd 2c70 8ebc 89e7 a0bf 4250 c0bc
00000010: 8af5 bd3c 96f0 e7bb 4f36 db3d 4f71 253d
00000020: 67dc 403c aea4 813d 881f 5a3d 4208 f3bd
00000030: 3891 56bd 17af 24bd 938d 75bc 84b8 73bc
00000040: ba04 133d 939e 7ebc 6157 83bd 1399 c4bd
00000050: 1a92 103c 86ec 7c3c 369c a4bd f047 9f3d
00000060: 2511 f6bc eb9b 993d a36d bbbd e53b 9c3d
00000070: e5cd cf3c 442a 8e3c 41f0 693d 85dc b73d
00000080: 471d 253c 9864 363c fe7d 7a3d 466a 993d
00000090: 1136 91bd 3d79 d73d 1f56 68bd de31 19bc
000000a0: ab17 523d 03b5 55b9 7e4a 8c3d 8c15 20bd
000000b0: d2e8 09bb bbc7 30bc 9178 513d 5f61 1b3d
000000c0: 96bc 3c3d 4f84 5b3d 5957 c3bd e3e9 583d
000000d0: 9090 c43d 3c80 f33c feb6 863d a4f0 623b
000000e0: fe21 273d b205 e8bc 875f 333d d6dd 4f3d
000000f0: 919c 883d 2924 bb3d a81d 983d 21bc 143d
00000100: 0607 c3bd b715 f4bc 1c3c 17bd 3eec 663d
00000110: f675 68bd 00ee 1f39 914b 283d 2ea9 803d
00000120: 9e93 c43d 9f1a 71bc 2975 7c3d 8804 6d3c
00000130: d6c3 2e3d 6f31 3cbe 9108 3fbd 7a11 11bd
00000140: e02f 21bc 7514 98bc 3c3c c93c 6b62 c33d
00000150: 20b1 9fbd 3b5e 853c 701a f3bc cc39 90bd
00000160: bb6e 813a 02ab 1b3d 4adf b33c a711 39bd
00000170: 953b 883d 9d82 fd3c 9ab9 36be 473a 253d
00000180: d8f4 503d def1 03bd 7271 b83c ff45 553b
00000190: bd4a 10bd b5fc a33d 6f36 6c3d 889f 9abd
000001a0: c8c0 013d d6d3 f03c cb4e 54bd 4ef9 043d
000001b0: 1572 963d 77aa b23d 246f 6cbd 3b00 2ebd
000001c0: 66a6 41bd dc95 87bd 5662 bfbc e7f1 1dbe
000001d0: e7d8 493c 655b e43d fda3 f73c 1cd8 a3bd
000001e0: d020 d93d b8e1 2dbd 5ad7 b33d a727 5cbc
000001f0: 16a8 dc3c eb25 aa3d 714a b6be 8008 463c
00000200: 72e7 9c3a 801b 023c 0567 ab3d 582c d73c
00000210: ed8d c83c fb9b a2bd 4413 31bd f813 4d3d
00000220: 42c5 5c3d 48d2 a7bd 010f 56bd d365 aebd
00000230: ff5b 073b ba27 013d bb32 6abd 2c49 a1bd
00000240: 182e 073d b931 04bd cc21 a1bc 3c49 843c
00000250: df4e 1c3d 82ae 42bd 841f 353d 918d d23c
00000260: 957d 12bd 24e3 a6bc 028d 41bd 66b6 bebd
00000270: a0e0 d63c 89a9 53bd 10a4 8f3d 546a 433c
00000280: 8bd2 523d dce1 b33c a03d a6bd cb5f 6fbd
00000290: 3d4b 993d 08a6 7dbd 4003 6b3c 91ec 42bd
000002a0: 6065 6c3d 9df1 a93d 7841 713c 52bb 363d
000002b0: 2349 3b3d 7e09 3ebd c4d1 a1bc 9af8 a6bd
000002c0: 73e1 91bd 9231 b9bd 8889 84bd 15dc 2bbd
000002d0: 196b 353d 044c b73c 2f95 8e3d cc63 06bd
000002e0: 5025 803c 3105 8d3d 1534 80bc f846 c0bc
000002f0: 8c25 1fbd da97 8c3d c626 003d 8085 ae3d
00000300: c9b7 2b3d e18c 40bd 6104 fcbc 4cc0 68bd
00000310: af32 8abd 080a 5dbc d65e 453c af73 a33d
00000320: 8bd4 98bc 5f84 8b3d c1c7 4dbd 6b76 983c
00000330: e19c 95bd 62b3 3bbc e1ff 60bd 30ec 2e3d
00000340: 000f 933c 5007 2e3c c8b6 083d 2c7c c93c
00000350: 3ec3 f7bc 20e7 223c 6463 473c f633 f6bc
00000360: e2ee 7ebb d8ec 2e3c 2166 7cbd e58a d1bb
00000370: 2b65 753d 6dee a0bd d63e 1f3d 7861 c3bc
00000380: 1539 3c3d 5907 9bbc 6644 413d 5dfc 83bd
00000390: 9792 1e3d 98ac 193d 5d31 93bd 6254 0b3d
000003a0: 71b1 00bd 9b85 f63c c027 5a3d e853 013d
000003b0: 864e 433d d87b 5dbd fefe f73b 0768 84bb
000003c0: 6faa 883c 91f0 49bd b780 973d bf65 ce3c
000003d0: 19a8 5ebc ff77 843d 5768 ae3c b304 f23c
000003e0: 7f87 94bd d40f 86bc 8d54 a5bd 5b8f 393d
000003f0: 5a72 f5bc 9e1a d1b9 2039 94bb 20f6 dc3b
-0.106462836 -0.017387472 -1.2570659 -0.02347577 0.023188371 -0.0070782406 0.10703718 0.040391263
0.011771298 0.06330238 0.053252727 -0.118668094 -0.052384585 -0.04020604 -0.014987367 -0.014875535
0.03589318 -0.015540737 -0.064131506 -0.09599509 0.008823896 0.015437251 -0.08037607 0.07777393
-0.030037472 0.07500442 -0.09151771 0.076286115 0.025366733 0.017354138 0.05711389 0.08977608
0.010077781 0.011132382 0.06115531 0.07490973 -0.070903905 0.10521171 -0.056722756 -0.009350268
0.051292103 -0.00020380695 0.06850146 -0.03908305 -0.0021043313 -0.010789807 0.05114037 0.037934657
0.046078287 0.053592976 -0.095381446 0.052957427 0.095978856 0.029724233 0.06577872 0.0034628296
0.0408039 -0.028323028 0.043792274 0.05074867 0.06670488 0.091377564 0.074275315 0.036312226
-0.09522824 -0.02979551 -0.03692256 0.05637764 -0.05675312 0.00015252084 0.04108769 0.062822685
0.09598468 -0.01471582 0.06163517 0.014466412 0.042667232 -0.18378232 -0.04663903 -0.035417058
-0.009838074 -0.018564442 0.024564855 0.09540256 -0.07797456 0.016280284 -0.029675692 -0.07042274
0.0009874919 0.038004883 0.021957058 -0.04518285 0.06651989 0.03094607 -0.17844239 0.04033878
0.05101475 -0.032213084 0.022515032 0.0032542942 -0.035227526 0.080071844 0.0576691 -0.075499594
0.03167799 0.029397886 -0.051832955 0.032464318 0.07345978 0.0872392 -0.05772318 -0.04248069
-0.04727783 -0.0662038 -0.02336232 -0.1542431 0.01231978 0.111502446 0.030229563 -0.08000204
0.106019616 -0.04245159 0.087813094 -0.013437188 0.026935618 0.083080135 -0.3560367 0.0120869875
0.0011970832 0.007941127 0.08369259 0.026266262 0.024481738 -0.07939907 -0.043231264 0.05006787
0.053899057 -0.08194405 -0.052260403 -0.08515515 0.00206542 0.031532027 -0.057177287 -0.078752846
0.033002943 -0.03227398 -0.019669436 0.016148202 0.038161155 -0.047529705 0.04421951 0.02570227
-0.035764296 -0.020371981 -0.047253616 -0.093121335 0.026230156 -0.051675353 0.07013714 0.011927206
0.05147032 0.021958284 -0.08117223 -0.058440965 0.07485054 -0.061925918 0.014344037 -0.04758889
0.057713866 0.08298037 0.014725082 0.044612236 0.045724045 -0.04639577 -0.019753344 -0.08152886
-0.07123079 -0.09042658 -0.064715445 -0.041957933 0.04429159 0.022375114 0.06962048 -0.032810017
0.015642792 0.06885756 -0.015649835 -0.02347134 -0.038854167 0.06864901 0.031286977 0.08521557
0.041923318 -0.047009353 -0.030763807 -0.056824014 -0.067479484 -0.013491161 0.012046536 0.07981049
-0.018656036 0.06812357 -0.05023933 0.018611154 -0.07305313 -0.011456342 -0.054931525 0.042705715
0.017951488 0.010621861 0.03337744 0.024595343 -0.030244466 0.0099428 0.012169693 -0.030054074
-0.003889971 0.010676585 -0.061620835 -0.0063947313 0.059910934 -0.07857976 0.038878284 -0.023850188
0.045952875 -0.018924402 0.04718437 -0.06444619 0.038714018 0.037518114 -0.0718715 0.03401602
-0.03141922 0.030093005 0.053260565 0.03157416 0.047682308 -0.054073185 0.0075682392 -0.0040407213
0.016682832 -0.049301688 0.07397597 0.025195 -0.013589882 0.064682 0.021289987 0.029543256
-0.07252406 -0.01636497 -0.080727674 0.04530273 -0.029961754 -0.00039883418 -0.0045234114 0.0067432076

bias f4 [128]
00000000: 74b2 063d f91e adbd aa54 94bc 31fb 50bd
00000010: bbed 493d 17f7 883d 2276 8b3d e48b 1cbb
00000020: 4cbf 65bd f93d 893d 57cb d3bc 1dda fbba
00000030: 1c34 893d 8dd3 3b3d 1b85 993d 0246 84bd
00000040: bc46 ae3c c197 2dbd 2350 063d e4c1 b13d
00000050: 73bc dc3d 42a6 363d e4c4 b0bc a7b4 623c
00000060: 25ed 023d 9590 2dbd 33b0 903d f5e5 a33c
00000070: b0a9 a73d 8c38 ca3c ffe6 89bd b648 c13d
00000080: 83c2 343d b2a9 a9bc 054f eb3d d062 38b9
00000090: e917 593d 6b83 2fbd 7322 17bd 6680 733d
000000a0: 67ce c9bc 2a2e 96bc 9cfb b93d 6e5a f2bc
000000b0: f348 353a 1a0a 6a3d b1ed 853d a01c eb3c
000000c0: 5d7a aa3d cbed e13d 2746 acbd d866 5ebd
000000d0: db67 82bd 4f5b 9b3d 2502 63bd e48f 0abd
000000e0: 46e0 9ebc f372 b3bd 95f5 98bd 0b05 883c
000000f0: 5dd4 7ebd 35e7 793d a803 ca3c b210 2dbc
00000100: 1257 073c e1a8 03bc 64d1 9c3d 23c0 973d
00000110: 84e9 1c3d 0f43 5ebd de6d abbd 7bb3 613c
00000120: fe47 63bc b770 be3d 4c3e 843d 940d 20bd
00000130: acf8 d93d 5afe 80bd 37a3 933c 5a9e b13d
00000140: 30a1 b4bd dffd 42bd 9088 523d 980e 633c
00000150: be20 893d e243 c3bc b415 8dbd 1203 e8bc
00000160: e899 633d 8e76 813d 5faa 4abc db7d c83a
00000170: b8af 66bd e0a5 873d d753 113d e099 a43d
00000180: 4e6b 8dbd 4b6f 69bd f54f e5bd 3b4c 38bd
00000190: 267e 6fbc 6ef0 87bd f9d8 eebd 3558 4a3c
000001a0: 85e7 93bc 8ab3 8fbd 0057 8abc 0141 11bd
000001b0: bfc6 8cbd 9462 203d 5ede b43c 0aca 9a3b
000001c0: 177b 0e3d 6c06 ef3c 717f f9ba b3ff 2abd
000001d0: 530d bfbc 1589 99bd b5c3 84bd 0577 8b3d
000001e0: c88c 353d 54e3 99bd 0e8a 17bc 5627 36bd
000001f0: 515c 2bbd 1e8f 82bd b727 233d ed92 613d
0.03288503 -0.08453173 -0.018106777 -0.051020805 0.049298983 0.06687754 0.068096414 -0.0023887092
-0.056090638 0.067012735 -0.025853796 -0.0019214783 0.06699392 0.045856047 0.07496091 -0.064586654
0.021273963 -0.042381052 0.032791268 0.0867956 0.10778131 0.04459215 -0.02157826 0.013837016
0.03196444 -0.042374212 0.07064857 0.020007113 0.08186662 0.024685167 -0.06733512 0.09437697
0.044130813 -0.0207108 0.11489681 -0.00017584418 0.053001318 -0.04284994 -0.036898088 0.059448622
-0.024634553 -0.01833256 0.09081194 -0.029584136 0.00069154723 0.05713854 0.06539477 0.028700173
0.0832412 0.110316835 -0.08411818 -0.0542973 -0.06367465 0.07585775 -0.055421967 -0.03382863
-0.019394051 -0.08762159 -0.07468716 0.016603967 -0.062214244 0.06101151 0.024659947 -0.0105630625
0.008260505 -0.008035869 0.076571256 0.07409694 0.038308635 -0.05426317 -0.08370565 0.013775702
-0.013872145 0.092988424 0.06457195 -0.03907545 0.106431335 -0.06298514 0.018022163 0.08672781
-0.088198066 -0.04760539 0.051399767 0.01385846 0.06695698 -0.02383608 -0.06888905 -0.028321777
0.0555667 0.06321441 -0.012369721 0.0015296297 -0.056319922 0.06623435 0.035480347 0.08037162
-0.06905232 -0.056990903 -0.11196891 -0.044994574 -0.0146174785 -0.06637655 -0.11662478 0.012350132
-0.018054733 -0.07016666 -0.016887188 -0.035462383 -0.06873845 0.03915651 0.02207869 0.004723792
0.034785356 0.029177867 -0.0019035173 -0.04174776 -0.023321783 -0.074968494 -0.06482641 0.068098105
0.044323713 -0.075140625 -0.009249223 -0.044471107 -0.041836087 -0.06374954 0.039832797 0.05507176

weight f4 [2, 128]
00000000: a21f b73d 44e5 4dbc 4c76 a8bd 6b1b 95bd
00000010: e00c fa3b 20ce f93b 1592 72bd 8d7a 243d
00000020: c896 ba3c 1256 81bc 5120 2e3d ae25 abbd
00000030: e919 323c f50d 12bd a675 983c 1537 ef3d
00000040: a72d 1d39 0506 5fbd d8d9 27bb d38c 3dbe
00000050: 6fe1 be3d 5d5b a43d 8d2f 21bd aff8 593d
00000060: 6580 9ebd 91fb 903d e028 39bd 0ca5 e5bf
00000070: 87a3 653d 90c3 eabb 20d2 4aba 8821 abbd
00000080: 5579 f63c 1e1d 133d 70da 823d 2c8c b53d
00000090: f8cb a0bd 3b4a 6ebd ad4a a63d b07b 383d
000000a0: 5a5c 373a 1db6 bb3d 4dc8 63bc e033 193b
000000b0: 983b 683d e081 a0bd 71b6 c9bb d4a0 99bc
000000c0: a746 963d c7d3 c23d 3a51 89bc 92a5 53bd
000000d0: 15a2 c5bc 5bca 053d 9e7e bb3e 60c7 f03b
000000e0: f4f2 72bc 62fa dfbc 0cca 58b9 b171 0ebe
000000f0: 2883 9abd 17e7 21bd 5a9d e1bd c94c 483c
00000100: d679 cc38 ce1d 023d cc83 933d e951 07bc
00000110: 4ab6 883d 1d17 c93b 4096 97bd 503c d7bd
00000120: 8ff2 e73d 58aa ae3d 2306 a0bc 42d8 d63d
00000130: b322 053d a6f5 5a3d 1222 88bc 9007 e4bd
00000140: b013 1fbc e485 89bd 318e 00bf 23f5 82bd
00000150: ecb9 c73d 9da4 c3bf 25f6 b03d c9e1 aabd
00000160: 126f 5d3d 697e 583c 69e4 923c 48d3 eb3c
00000170: 865b af3d 362c 053c 0b61 823c 10d3 6b3c
00000180: 2d00 243d 15ca 56bd c0e0 243d 8254 213d
00000190: 6c61 19bd 01af 1ebc 1e85 edbf 7ed7 3bbd
000001a0: 3a2d d33d 558d adbd 05e8 20bd 155a 57be
000001b0: ae5b 273d c987 ce3d 006b b8bc 315c c63d
000001c0: 3791 83bd f6e7 2b3d dfa6 f2bd f3f3 b0bd
000001d0: 1edb 90bd 0052 35bd 2efc 46bd 3fbc c5bc
000001e0: e851 0cbe 7e22 c63d 16c6 413d ad32 b3bf
000001f0: 3bd4 35be 0b9c 913d b916 57b9 ecc6 efbb
00000200: da25 2fbd f77b 51bb efe9 c1bc 84bd 73bb
00000210: 504c 423d bc9b d0bc cd9f 69bd 5d5e ebbc
00000220: 1432 91bc 1d91 51bc 32ed 63be e05e 93bd
00000230: c8b4 a03d 22c6 ac3d f702 743d 718e 1fbd
00000240: 8bbc 99ba cc2c d03c 3387 eebb 614f cbbd
00000250: 952b a93b 5f91 23bd 7a67 863d aeb5 a1bb
00000260: c10f 6ebd bdbc 68bc ab60 833d 1d4b 85bf
00000270: 4985 a93d 704b 573c ccc7 0f3c ed31 943d
00000280: 3b19 92bd d95a be3d 2e53 a23c 535a b13c
00000290: 13d7 753d 078b bb3d b417 ac3d 4bf6 01bd
000002a0: 13a9 353d 7178 9a3d 35d1 973d ec75 fb3c
000002b0: c6c8 283d 53a8 983d d18b 1b3d 8ccb 523d
000002c0: f2d6 873c b252 d338 002d 5cbd 90c2 adbd
000002d0: deb6 983d fe10 123d 33c3 6fbd f6fe 5c3d
000002e0: 9ffd 6a3d 207c b1bc 66a9 a23d 3723 413d
000002f0: 0555 18bd 6720 d8bd a174 f0bc c52d 213d
00000300: 4c5a 913b 230c 4abd 7f2d 7dbd 0cc6 033d
00000310: b00a e93d 4a0d 1e3c 6bd6 673d eedb c2bd
00000320: 485f fe3d b0a9 8aba 9edb d0bc c761 24bd
00000330: bb16 0c3d 6e32 403d 8cc7 a1bc 1031 46bd
00000340: 6a30 623d 7958 35bd 21c4 463f 7d7d af3d
00000350: aa8d 8b3d bcfb dc3d 29e7 843d 5947 abbd
00000360: 791f 4b3c 49fd b73d c3d1 9d3c d9fa 333d
00000370: 6c46 50bc c285 a8bd 3398 cd3d 843a db3c
00000380: 0604 973c 2005 b83c 4486 8dbd c451 6cbd
00000390: 5a43 c53d f577 443d e67e 69bf a085 1fbd
000003a0: cf60 1bbc 7047 a03c a7ef 53bd 44e3 1abd
000003b0: cdba 2ebd 249e 00bd 621d 983d b579 e23c
000003c0: c9ac 14be 33dd d93c fb7a 393d a06b 16bb
000003d0: fa1a 39be ddca ad3d 9ca8 a7bc 776c 9c3d
000003e0: 2ada 04bd e28a 21be fdee a33d 0a96 4dbd
000003f0: bae2 f93c 41a7 76bd 90b7 56bb b493 113d
0.0894158 -0.012566868 -0.08225688 -0.0728062 0.0076309294 0.007623449 -0.059221346 0.040155936
0.022776976 -0.015788112 0.042511288 -0.08356796 0.010870435 -0.03565784 0.018610787 0.11680428
0.00014989694 -0.0544491 -0.0025612023 -0.18510751 0.09320342 0.08025239 -0.03935199 0.05321568
-0.07739333 0.070792325 -0.045204997 -1.7940993 0.056064155 -0.007164426 -0.00077369995 -0.08356005
0.030087152 0.03591644 0.0638932 0.08864626 -0.07851404 -0.05817626 0.08119712 0.045039833
0.00069946575 0.09165595 -0.013902736 0.0023376867 0.056697458 -0.07837272 -0.006155782 -0.018753447
0.073376946 0.095130496 -0.016762365 -0.051671572 -0.024125138 0.032663684 0.3662004 0.007347986
-0.014828432 -0.027341072 -0.00020674634 -0.13910557 -0.07544547 -0.039527025 -0.110163406 0.012225338
9.750172e-05 0.031766705 0.07202873 -0.008259275 0.06675394 0.0061367885 -0.07401705 -0.105095506
0.11325561 0.08528584 -0.019534176 0.10490467 0.032503795 0.053456925 -0.016617808 -0.11134255
-0.009709284 -0.06714991 -0.50216967 -0.06394412 0.09752259 -1.5284611 0.08640698 -0.08343846
0.054061003 0.013213732 0.01793118 0.02878727 0.085623786 0.0081282165 0.015915414 0.014393583
0.04003923 -0.052438814 0.0402534 0.039387234 -0.037446424 -0.009685279 -1.8556249 -0.045859806
0.10311361 -0.084742226 -0.03928377 -0.21030457 0.040858917 0.10084493 -0.02251196 0.09685553
-0.06424182 0.041969262 -0.118482344 -0.086402796 -0.07073043 -0.044267654 -0.04858034 -0.024137614
-0.1370312 0.096745476 0.04730805 -1.399984 -0.17756741 0.07109841 -0.00020512463 -0.0073174145
-0.042760707 -0.0031964758 -0.023671119 -0.0037191818 0.04743606 -0.025464885 -0.057037164 -0.02873152
-0.017724074 -0.012790945 -0.22258452 -0.0719583 0.07846981 0.08436228 0.05957314 -0.038954202
-0.0011729164 0.025411986 -0.0072793006 -0.0992725 0.005162666 -0.03993356 0.06562705 -0.004934988
-0.058120493 -0.014205155 0.06414922 -1.0413548 0.08277375 0.013140544 0.008775663 0.07236085
-0.071337186 0.092946716 0.019815054 0.021649515 0.060019564 0.09157377 0.084029585 -0.031729024
0.044350695 0.075425036 0.0741295 0.030695878 0.041207097 0.0745398 0.037975136 0.05146365
0.016581986 0.00010076667 -0.053753853 -0.084843755 0.07456754 0.035660736 -0.058535766 0.053954087
0.05737078 -0.021665633 0.079424664 0.047152724 -0.037190456 -0.10553055 -0.029352488 0.03935029
0.004435813 -0.04932798 -0.061810967 0.032171294 0.113789916 0.009646723 0.05660097 -0.095146045
0.12420517 -0.0010579135 -0.025495347 -0.04013231 0.034201365 0.046923093 -0.019748472 -0.048386633
0.055221952 -0.044273827 0.7764302 0.08568857 0.0681413 0.10790202 0.06489403 -0.08363218
0.01239764 0.08983857 0.019265061 0.0439404 -0.012712102 -0.08228637 0.10038795 0.0267613
0.018434536 0.022463381 -0.06910375 -0.057695165 0.09631987 0.047965962 -0.91209257 -0.038945794
-0.00948353 0.019565314 -0.051742222 -0.037814394 -0.042658616 -0.031400815 0.07427479 0.027645925
-0.14519037 0.026594734 0.0452833 -0.0022952333 -0.18076697 0.08485959 -0.020466141 0.076378755
-0.03243462 -0.15775636 0.08004568 -0.050191917 0.03050362 -0.0602181 -0.003276322 0.03554125

bias f4 [2]
00000000: 3860 a53d 38da a2bc
0.08074993 -0.019879445

weight f4 [128, 5]
00000000: 1c89 7a3e 402f cd3e 41b0 6ebd 144c f33d
00000010: 3bac 1ebe 0890 1bbe 5a06 cebc 1d96 e4be
00000020: 849a c43c c027 a0be c8bd c4be fe52 44be
00000030: 60ad 27bc 3cc9 f0bd 6cee 563e 1915 cb3e
00000040: 3c1e 143d d1a9 b1bd 95b3 ecbe 1392 eebe
00000050: a18d e6be 02c4 96be 87bb ca3e d1e7 cdbe
00000060: 07e3 f2bd 9ee7 5dbe e1f4 3dbe 9463 d3be
00000070: fc7d 3c3e b483 9c3e 133c 533e 35d5 d93d
00000080: 17c7 acbd a226 a03e ae76 8c3e ee17 bcbe
00000090: 4f88 ae3e 59f9 a23e 3029 933e 6908 cc3e
000000a0: 33c8 59be b57c 7f3c 30af b33e 50c2 54be
000000b0: 00bb 793d 1adf e83e 01d2 83be 666c 61bd
000000c0: ae5f 563e d03a 96be 5cf5 49bc 83e0 fc3d
000000d0: 581b 9e3e 85c0 91bd aa4c 853e 3c07 2bbd
000000e0: 8e2b 883e 2837 10be d377 e53d 1ce4 e73d
000000f0: 562a df3e 7794 ad3e 1e72 0fbe b408 20be
00000100: 30e7 5fbe b0c5 4a3e a34b 443e 9ae7 03be
00000110: 00f9 a23d d2a9 bebe f112 5fbe a091 913e
00000120: d7c9 2f3e 8e18 753e 606b 123d 529d 8b3e
00000130: e5c0 ccbe 3ab1 0c3c a0ee ab3e db8c 40be
00000140: e572 143e 776f e1be 3858 34be 8a63 c6bd
00000150: 7870 8e3e 926e c2be 58d6 3d3e 4c50 8dbe
00000160: e092 a4bc d742 5cbe 73e4 f53e 7ed5 a0be
00000170: 51f6 923e 1a46 e43d b8ac 96be d23b 083f
00000180: 0352 bebe cbc2 3e3e c997 b63c 5117 cebe
00000190: b893 9b3e 9cbf 8cbe 0688 773e d35b 2b3d
000001a0: 296d c2be 5d25 183e a345 453e 5892 3bbe
000001b0: 89aa c63d ee28 d73c efd5 8dbe a576 073e
000001c0: 6ba6 d13e bdc1 da3e 4fdf 183e f71d 87be
000001d0: a441 843d c0fc 473c 26fe a33e 7013 d4be
000001e0: 1b16 35be b9ca 82be 96cd 3e3d b296 8e3d
000001f0: 7748 973e 3f04 ccbe 42d7 3bbe 0424 debd
00000200: c33a 6bbe cf74 b5be 1053 ce3e 86b8 2c3e
00000210: 0985 693b 63fa b3be 2216 b93e 7866 ba3c
00000220: ca09 76be 8350 b73e 0a2d ac3e c817 22bd
00000230: 50b5 acbc 9afb d7be 2006 d33e 9ec4 aa3e
00000240: 9205 c0be 8694 19be 4bb0 82bc 44cd bd3e
00000250: 4936 bd3e 7a0f ffbd 07f0 8a3e cb6b 27be
00000260: 9856 a4be ecab 8c3e e466 24bd 2b1b ba3e
00000270: 781d c43e d626 c63e 97ef ba3e cffd 3dbd
00000280: 7969 7d3e 3618 6abe 5f4f a0bd 9b5d 48bc
00000290: d225 a43d 1bd1 ca3e 650a f3bc 850b cabe
000002a0: a0be a9be da88 93bc a533 e0be 3341 623e
000002b0: b09e 24bd 6ee6 aabe 442e 1a3e bcde 9e3e
000002c0: 292e 823d 536b 23bc 7b6b 173d 3078 863d
000002d0: 60b4 9fbe 5b20 f4bd 6840 bcbe 5a98 bb3e
000002e0: f049 b93e e949 493e 13ab 383e 279f aebe
000002f0: e4da 6f3b 1dc2 acbe 6cf7 e53d 6665 4ebe
00000300: 90c0 ba3c 8951 f43e f884 e93e 864d 38be
00000310: 4098 68bd 68b3 3bbe 5259 50be aeea b2be
00000320: 2182 a4be b4d5 bb3e df91 b4bd 067e b3be
00000330: 8193 3a3e 200a f03d 1294 5ebe 40c6 85bb
00000340: 9878 823d bc38 debd eb7a 813e b94f 643d
00000350: 6fc1 77be a1fe 92be 109d b0be 5f79 0e3e
00000360: 7401 973e f84c a8be 405c 4bbe 9aee 90bc
00000370: 20fe 33bd 34f6 ef3e 1c6c 5bbe 8b42 593e
00000380: 7163 cc3e 499f 0f3f b8fe b1be 2637 d63e
00000390: 4c5f 7e3e 9ec3 3f3e acd3 35be 3232 f33e
000003a0: b981 f0bd 345f d8be 7c7d 9cbe 1d91 e6be
000003b0: bd54 1e3b cec3 c3bd a0a6 403d 4005 45be
000003c0: 2e22 d6bd c269 4e3d 3845 c43e 2c87 393d
000003d0: 778f f33d c437 363e 9d50 a0be 6735 b6bd
000003e0: 9223 84be cf2d b13d a468 7d3e e5aa 483e
000003f0: 4c2e 2b3e c91d c1be c81e 0ebe c14b 9b3e
0.24466366 0.4007511 -0.058273558 0.11879745 -0.15495388 -0.15191662 -0.025149513 -0.44645777
0.02399946 -0.31280327 -0.38426042 -0.19172284 -0.010234207 -0.117571324 0.20989388 0.39664534
0.036161646 -0.08674968 -0.4623076 -0.4659582 -0.4502993 -0.29446417 0.39596197 -0.40215924
-0.11859708 -0.21670386 -0.18550445 -0.4128691 0.18407434 0.30569232 0.20628385 0.10636369
-0.08436411 0.31279474 0.27434295 -0.36737007 0.3408837 0.31830862 0.2874236 0.39850166
-0.21267776 0.015593697 0.35094595 -0.2077725 0.060969353 0.45482713 -0.25746158 -0.055035017
0.20934936 -0.29341745 -0.012326565 0.1234751 0.30880237 -0.07116798 0.26035053 -0.041754946
0.2659573 -0.1408354 0.11204495 0.11322805 0.43586987 0.33902332 -0.14008376 -0.1562832
-0.21865535 0.19801974 0.19169478 -0.12881318 0.07957649 -0.37238938 -0.2178457 0.28431416
0.1716684 0.23935148 0.035746932 0.27268463 -0.39990917 0.008587176 0.33580494 -0.18803732
0.14496954 -0.44030353 -0.17611778 -0.09686954 0.27820182 -0.37974983 0.18538797 -0.27600324
-0.020089567 -0.21509872 0.48025855 -0.31412882 0.2870355 0.11146183 -0.2942865 0.5321628
-0.37171945 0.18628995 0.022289174 -0.40252164 0.30386138 -0.27489936 0.24172983 0.041835617
-0.37973908 0.14858003 0.19264846 -0.18317544 0.09700496 0.026264634 -0.2770228 0.13228853
0.4094728 0.42725936 0.14928935 -0.2639005 0.064578325 0.012206256 0.32029837 -0.4142108
-0.17684214 -0.2554529 0.04658278 0.069623366 0.29547474 -0.3984699 -0.18343833 -0.10846713
-0.22971635 -0.3544068 0.40297747 0.16867265 0.0035632274 -0.35151967 0.36149698 0.022753939
-0.24027172 0.35803613 0.33628112 -0.03957346 -0.02108255 -0.42184144 0.4121561 0.33353132
-0.3750425 -0.14998063 -0.015953204 0.37070668 0.3695548 -0.12454124 0.2713625 -0.16349714
-0.32097316 0.27474916 -0.040137187 0.36348853 0.38303733 0.38701504 0.36510918 -0.04638463
0.24747266 -0.22860798 -0.07827639 -0.0122293485 0.08015026 0.3961266 -0.029668042 -0.39461914
-0.33153248 -0.018009592 -0.43789402 0.22095184 -0.0401904 -0.3337893 0.15056711 0.31029308
0.063564606 -0.009974319 0.036967736 0.06565893 -0.31192303 -0.11920234 -0.36767888 0.36639673
0.36189222 0.196571 0.1803401 -0.341058 0.0036598975 -0.33741847 0.112288326 -0.20155868
0.0227969 0.47718456 0.4560926 -0.17998323 -0.056785822 -0.18330157 -0.20346573 -0.3494467
-0.3213053 0.3668648 -0.08816885 -0.35057086 0.18220331 0.11720681 -0.21736172 -0.004082471
0.06370658 -0.10850665 0.2528909 0.055740092 -0.24194883 -0.2870989 -0.3449483 0.13913487
0.29493296 -0.32871222 -0.1985941 -0.0176919 -0.043943524 0.46867526 -0.21427959 0.2121679
0.39919618 0.56102425 -0.34764647 0.4183895 0.2484104 0.18726966 -0.17756528 0.47499233
-0.11743493 -0.42260134 -0.30564487 -0.45032588 0.0024159395 -0.09558831 0.047033906 -0.19240284
-0.10455738 0.050393827 0.3833406 0.045294926 0.11892598 0.1779471 -0.31311503 -0.088969044
-0.25808388 0.086513154 0.24746948 0.19596441 0.1671688 -0.37718037 -0.1387893 0.30331233

bias f4 [128]
00000000: 9d03 953e 8cf1 d63c 94e1 9abe e496 793d
00000010: b44d b93e 9b76 2f3d 0e54 533e 7546 8c3d
00000020: a3e8 22be fc42 60be c88e 03be cade 43be
00000030: 19b1 383d b308 a4bd 9986 bdbc f472 cd3e
00000040: 29c6 8c3c 78df 75be ed3b a73e 357a 2bbd
00000050: 63c2 253e 4c75 8abd ef69 913e a990 6ebe
00000060: 06c3 bc3e 506b c9be b232 c4bd a9dc 2ebe
00000070: 289c d2be 7ba3 b63e a5b8 d33d ed95 3ebc
00000080: f877 e23d 5c63 0d3d 2914 253e 38d3 80be
00000090: 9a71 a33d 01df 653e ff75 abbe 3ae9 0abe
000000a0: a183 eabd 5445 a2be 7b09 693e c4e7 663c
000000b0: ac92 c1be 7307 c4bd ff5b e5bd c25d b63e
000000c0: 7ee9 b13d bf76 cc3d b708 993e 841b a83e
000000d0: 2a8e bc3e d27d 883e 8ed7 52be e619 c43e
000000e0: 4a05 97be 4b2b fb3e 6fc4 22bd f0ce c33a
000000f0: 1faa 153e c789 c23e f9f5 dc3d 98cf ed3d
00000100: 45d7 dd3e 77a0 62bd c3be 403e 98a0 23be
00000110: 29b8 353c 0b9d 09be 3aa1 973e 39c5 27be
00000120: 4ca0 86be e50c f33d ee3d ba3d 620e 5f3e
00000130: bc13 903e 2480 89bd 50b4 94be 3d7b e23e
00000140: 71a2 da3a 7a73 d23e 061c 193e f3b3 cebe
00000150: da8d 1d3e ce6f 4bbe 744f 5d3e 4d36 8e3d
00000160: 6374 3b3d a281 653e 07dc ab3d 9c99 d9be
00000170: 394e cd3d 94c7 3bbe 1e30 7b3b e7da 67be
00000180: 01e7 e1bd 4095 d43e 4315 933e 6651 a4be
00000190: 46cf 95bd 04a6 ddbd 2fa0 053e cb18 fcbd
000001a0: 4b0e 423e 7590 77be 285e 98be f7aa 67be
000001b0: 2ed4 853e e6c9 2fbe ca6c f0be f522 883e
000001c0: 86df 0c3e f708 7e3e e392 033d 839d 9a3e
000001d0: bc9a 5b3e 0875 49be 751d b73e 20a9 86bd
000001e0: c579 11be 9eb8 c8be db60 d6be f576 8abe
000001f0: 2b7a c33e bee8 c9bb 6e91 143e cd77 bcbd
0.2910432 0.026238225 -0.30250227 0.060934916 0.36192095 0.04283772 0.20637533 0.06849376
-0.15909056 -0.21900553 -0.12847435 -0.19127956 0.04509077 -0.08009472 -0.02313547 0.40126765
0.017184334 -0.24011028 0.32662907 -0.041864593 0.16187434 -0.06760654 0.28401133 -0.23297371
0.3686754 -0.39339685 -0.09579982 -0.17076363 -0.41134763 0.356716 0.103379525 -0.011632425
0.110580385 0.034518585 0.16120972 -0.25161147 0.07980652 0.2244835 -0.3348846 -0.13565531
-0.114508875 -0.31693518 0.22757523 0.014093343 -0.37807214 -0.09571733 -0.111991875 0.35618407
0.08687113 0.099835865 0.2988946 0.32833493 0.36827213 0.26658493 -0.2059004 0.3830101
-0.29496223 0.49056467 -0.039738115 0.0014938992 0.14615677 0.3799574 0.10789103 0.11611861
0.433283 -0.055328812 0.1882277 -0.1597923 0.0110912705 -0.13438813 0.29615194 -0.16383828
-0.26294172 0.11867694 0.090938434 0.2178283 0.28140056 -0.06713894 -0.29043818 0.44234648
0.0016680491 0.41103727 0.14952096 -0.40371665 0.15386143 -0.19866869 0.2161234 0.06943951
0.045765292 0.22412732 0.08391576 -0.42500007 0.100246854 -0.18337852 0.003832824 -0.22642098
-0.110303886 0.4152012 0.2872716 -0.32093352 -0.07314925 -0.108226806 0.13049386 -0.123094164
0.18950765 -0.241762 -0.29759336 -0.22623812 0.26138443 -0.17166862 -0.46958 0.2658917
0.13757142 0.24808107 0.032122504 0.30198297 0.21445745 -0.1967355 0.3576466 -0.06575227
-0.14206608 -0.39203352 -0.4187077 -0.27043882 0.38179144 -0.0061617782 0.14508602 -0.09202538

weight f4 [128, 128]
00000000: 2ef5 67bd 486e fb3c 9831 71bc 9cae b53d
00000010: 9297 91bc ed83 bd3d d712 5abb 426f be3d
00000020: 99fe 36be dc93 a53d fc99 8e3d 900a a43b
00000030: 597b 6d3d 887e 9abc ebcf 1d3d 26f7 4ebd
00000040: e67c 013d 5c8c 9fbd 243d e23b 91b3 dd3d
00000050: ffff 883d 257e c73d 1720 7e3c 8593 ccbc
00000060: 9826 d73d dc12 91bd da0f dc3c 53a3 783d
00000070: 28e7 5dbc e658 b93d 846e 9abd ab00 2b3b
00000080: e557 893d da9b c0bd c103 8a3d 3fb7 78bc
00000090: 8e33 533c e3e1 133d 26e1 b93c 3b7a a73d
000000a0: fcfd 7ebb c1f7 06bd 0f68 11bd 298a 56bb
000000b0: d589 5d3d 8c6e d33b 3022 02bd 94c9 28be
000000c0: 1451 a2bd 3f8b 843c 3c98 1c3d 9a8f f23c
000000d0: e510 093d 6397 ec3c 3993 3b3d 4a45 7e3d
000000e0: c2dd 153d a490 0cbd 2a76 c4bc d041 963d
000000f0: d806 0ebd 5258 b93c 9a40 cbbd 50bd 6c3d
00000100: aa1f b5bd e451 cd3c f077 98bd 1e53 97bd
00000110: 5c39 cc3b 8823 9fbd 05a8 fd3b ef11 1abc
00000120: e4e3 b0bd 6b13 c8bd 7129 863d 04bc 893d
00000130: a40a 423b d521 2ebe 2710 4abe fc58 06bd
00000140: bf7a 1e3c 594a 6ebd e4d5 c93d 41eb 80bc
00000150: ebe3 b13d 347f f63d 73f9 42bc 9a5f 08bb
00000160: 764c 763d 650a 233d 1149 cb3b ccdf ec3c
00000170: 560e 20bd 2524 f7bc c839 dd3d e178 9cbd
00000180: 5c2c 2d3c c423 77bd e2f1 cfbd 5838 343c
00000190: fe1f 703c dce2 c53b 56bc 18bd 1273 78bd
000001a0: 62b8 263d 23b9 a53d 4ba8 86bd 32db 71bd
000001b0: 5166 873d 4f4e af3d 9e5f a5b8 ff73 15bd
000001c0: dd05 bfbd e431 ac3c 3ee6 c73d f41a 103d
000001d0: c14b afbe 717e 9c3d 7eb2 7f3d 0a56 dd3d
000001e0: bd57 903c cf9c 05bd 403d a1ba 3306 1ebe
000001f0: 0eac c63d 778b ccbd b95c 06bb 07a9 51bd
00000200: 40cf 673d eebc 293d be36 173d fca1 2b3d
00000210: e24c 433d 849b 513d 6de5 8cbd aa9c ae3d
00000220: 0eec 2d3d 5d43 c23d bf1f 813d 0d42 41bd
00000230: 1ca5 b13d ed8b c23d 8c6d 20bc 65dc 853d
00000240: 81c8 583d 6036 af3b 58a5 90bd 3e1a b0bd
00000250: 059a 4ebc 509f 293d d8ba 67bc b290 bcbd
00000260: 31da 363d 67a3 a8bd 4af8 003c 6385 e8bc
00000270: 883d a6bc 0af6 45bc ad74 b0bd 1d5a b53c
00000280: 13f8 9c3d f40d 91bc 7418 6c3d 39ab b63c
00000290: 425b c03c a583 263d 161f 10bd 1208 3b3d
000002a0: dcd8 31bd 0098 35b9 6391 6ebd a285 06bd
000002b0: cb18 223d 9fbd 793d b9c0 2f3e 5d2a 3cbd
000002c0: 0499 ac3d bb7f 09be 714e 8a3d 7c08 e53c
000002d0: fb2f eb3c 7816 bb3d 5980 9cbc b856 2e3d
000002e0: 9481 3bbd 7ed4 833d 61a0 e93c 0beb d23a
000002f0: d508 1cbd 97c3 233d 092f 5cbd 4fd4 3bbd
00000300: cc88 4ebc 4f41 e73d 51ff 993d e0b7 b0bc
00000310: 4e79 99bd 6f1f 923d a94a a43d ed83 63bd
00000320: 293c 80bd 7474 023d 2a13 8b3c 4882 27bb
00000330: 2211 493d b337 bebd f020 1dbc 1617 0d3c
00000340: 332f c9bc d715 50bd 9ebe 1ebd cba1 843d
00000350: ceb1 d5bc bac7 163d 16ba 803d 5506 c13c
00000360: e63f 70bc ba33 303d b9ee b33d 6020 4c3c
00000370: 206d de3d 36e1 78bd 98dc 0b3e 27e9 52bd
00000380: d19c 013e 2732 c4bc 4a36 bdbd 2e59 553d
00000390: 32a6 bc3b 3327 9e3d 8af8 bd3d 5831 9ebd
000003a0: 3ed7 62bd f1e5 c13d 11ab 863d 6022 1dbb
000003b0: eb7e febc 9151 813d 279f d4bd 8283 613c
000003c0: b671 0abd d2e9 9ebc 70c5 3f3c 846a e43c
000003d0: 8fdb 13be 2a94 5a3d 3466 1dbd 02b7 febc
000003e0: feb5 d8bb ec03 86bd b025 ff3c 11d8 163d
000003f0: decb ebbc 311c ca3d 9b79 7c3d 0e65 99bd
-0.056630306 0.030692235 -0.014721297 0.08871195 -0.01777247 0.092536785 -0.003327539 0.092985645
-0.17870559 0.080848426 0.06962964 0.005006142 0.05797896 -0.018859163 0.038528364 -0.050528668
0.031613253 -0.07790443 0.006904261 0.10825265 0.066894524 0.09740857 0.0155105805 -0.024972687
0.10505408 -0.07083675 0.026863027 0.060702633 -0.0135438815 0.09050159 -0.075406104 0.0026092927
0.06706218 -0.09404726 0.06738997 -0.015180408 0.01289071 0.036104094 0.022690367 0.081776105
-0.003890871 -0.03295112 -0.03549963 -0.0032736158 0.054086525 0.006452387 -0.031770885 -0.16483146
-0.07925621 0.016179679 0.03823112 0.02960949 0.033463378 0.02888078 0.0457947 0.062077798
0.036588438 -0.034317628 -0.023982126 0.073367715 -0.034674495 0.022625122 -0.09924431 0.05779773
-0.0884393 0.025063463 -0.07444751 -0.073889 0.0062324237 -0.07770449 0.0077409768 -0.00940369
-0.08637217 -0.09769329 0.06550873 0.06725314 0.0029608393 -0.17005093 -0.19732724 -0.032799706
0.00967282 -0.058176372 0.098552495 -0.015737178 0.0868605 0.12035981 -0.011900294 -0.0020808936
0.060131513 0.039804835 0.0062037786 0.028915308 -0.03907617 -0.030168602 0.108020365 -0.07640243
0.010569658 -0.060336843 -0.10153557 0.0109997615 0.014656065 0.0060390066 -0.037288986 -0.060656615
0.040703185 0.08091953 -0.06575068 -0.05904693 0.06611312 0.08559858 -7.885623e-05 -0.036487576
-0.0932729 0.021019883 0.09760712 0.035181955 -0.34237483 0.07641304 0.062426083 0.10807426
0.017619962 -0.032620247 -0.0012301579 -0.15432052 0.097007856 -0.09987538 -0.0020502044 -0.051186588
0.056594133 0.041439943 0.03691744 0.041902527 0.047680743 0.051173702 -0.06879697 0.08525975
0.042461447 0.09485505 0.06304883 -0.04718213 0.0867407 0.09499345 -0.009791743 0.065361775
0.05292559 0.005347058 -0.07062787 -0.08598755 -0.012609963 0.041411698 -0.014143668 -0.09207286
0.044641677 -0.082342915 0.007871697 -0.028383916 -0.020293012 -0.012082586 -0.08616004 0.022137696
0.07664504 -0.017706849 0.057640508 0.022298442 0.023481015 0.04065289 -0.035185896 0.045661993
-0.043419704 -0.0001731813 -0.05824412 -0.032842286 0.039574426 0.060971852 0.17163362 -0.04593884
0.08427623 -0.13427632 0.06753243 0.027958147 0.028709402 0.09135145 -0.01910417 0.04256317
-0.045777872 0.06437014 0.028518857 0.0016091777 -0.03809436 0.03998145 -0.053755794 -0.04585677
-0.012605857 0.112917535 0.07519401 -0.021572053 -0.0749384 0.07134902 0.08022053 -0.055545736
-0.06261475 0.03184934 0.016976912 -0.0025559831 0.049088605 -0.092879675 -0.009590372 0.008611461
-0.02455864 -0.050802078 -0.038756005 0.06476172 -0.02608576 0.036811568 0.06285493 0.02356259
-0.014663672 0.04301808 0.08785767 0.012458891 0.10860658 -0.060761653 0.13658369 -0.051491883
0.12657477 -0.023949696 -0.092388704 0.052087 0.0057571167 0.077223204 0.09275921 -0.07724255
-0.055381052 0.09467686 0.06575597 -0.0023976788 -0.031066379 0.06314386 -0.103819184 0.013764264
-0.03379985 -0.019398604 0.011704788 0.027882822 -0.14439224 0.053363957 -0.038427547 -0.031093124
-0.006613492 -0.06543717 0.0311459 0.03682715 -0.028783735 0.09868658 0.06163941 -0.07489978

bias f4 [128]
00000000: 4a11 06bd 37e7 57bc 49ae d7bc c0c9 d73d
00000010: 11c1 c1bb 6e5a abbd 51b3 d1bc 9f3c 5b3d
00000020: 6d0d 1f3d 57ff 233c 684c ee3c c8a4 05bd
00000030: b936 80bd b29b 903d 3bef 6a3d ebb9 b03c
00000040: 1fc8 59bd fc1e 46bd 3801 92bd 0e92 75bb
00000050: 0191 22bd 179c 663d 258c a33d af35 b3b9
00000060: 7306 4cbc 5751 6b3d 8820 043d 53d9 c13c
00000070: f3db b93c 7cf1 2ebd 94ca 90bc 2eb3 8fbb
00000080: 51c1 a93c e62b 9ebc 5f02 87bd 7d66 4abd
00000090: 6779 d03c a8fb 2f3d 40dc d7bc 05ec d2bc
000000a0: e3eb 543d 8121 58bd 6efb 693d 45c6 aabd
000000b0: 3c74 94bd 8c1c 983c 085f 4dbd 9366 29bd
000000c0: cce8 12bc f007 5b3d 7837 923d 7501 7e3b
000000d0: f7a0 0b3d 4674 823d 54e1 b5bc 33f9 293d
000000e0: bceb c23c 263a a1bc e10b ec3c 175c 3a3d
000000f0: b2c6 19bd aed2 adbc 280f 8cbd ffe0 b7bc
00000100: a0f8 d73b d5d6 1ebd 8074 abbd 237b 10bd
00000110: 1261 84bd 1d7c d03d 37de b43d 971c 90bd
00000120: bcf6 ef3c f86f 033d 1db7 353c 0a15 3d3d
00000130: 47e9 113b 92ea 2ebd 9a1e 7bbd 6489 3e3d
00000140: 4a49 093d f491 94bd 5dc0 80bc 2fc1 2bbd
00000150: 95f4 ffbc 3d79 3fbd 3465 f4bc 20e9 113d
00000160: bf84 8a3d 5e03 333d cf2a 02bd 0027 d73a
00000170: 864a 953d 8238 74b9 95e0 5b3d 51d4 a63d
00000180: 5c0c 9bbc 5646 9f3d 0c45 8dbd 191e 01bd
00000190: 1746 403d 38ed 3e3d 6d6c 1dbd 8240 10bd
000001a0: 971c 4d3d b8fd 203d f905 1eba f122 56bd
000001b0: 4ba8 7fbd 50ac eb3b 66cc 353d ed34 bbbb
000001c0: 1407 14bd 1493 29bd 08e9 a2bc 5816 d93d
000001d0: 31dd 06bd b015 473d 7e05 893c 1993 55bd
000001e0: a846 323d edb1 4bbd c9fd 8bbd c18b c8bc
000001f0: 3531 95bd 6a91 a3bd 9905 f43c b2fa 663d
-0.032731332 -0.0131776845 -0.026328223 0.10536528 -0.005912908 -0.083668575 -0.0255982 0.05352461
0.038831163 0.010009608 0.029089168 -0.03262785 -0.062604375 0.070609465 0.057357054 0.021573028
-0.053169366 -0.048369393 -0.07129139 -0.0037471089 -0.039689068 0.056301203 0.07985715 -0.00034181538
-0.0124527095 0.05745062 0.032257587 0.023663199 0.022687888 -0.042710766 -0.017674722 -0.0043853736
0.020722063 -0.019308042 -0.06592249 -0.049414147 0.025448514 0.042964607 -0.02635014 -0.025747309
0.05198277 -0.052766327 0.057124548 -0.08338598 -0.072487324 0.0185683 -0.050139457 -0.041357588
-0.008966636 0.053474367 0.07139486 0.0038758193 0.034089055 0.06369834 -0.022202171 0.04149742
0.023794048 -0.019681048 0.028814258 0.04549798 -0.037543006 -0.021218624 -0.06838828 -0.022446154
0.0065909177 -0.0387791 -0.0837183 -0.035273682 -0.06463827 0.10179923 0.088314466 -0.07036703
0.029292457 0.032089204 0.011091021 0.046162643 0.0022264288 -0.042704172 -0.06130848 0.046517745
0.03351716 -0.07254401 -0.015716726 -0.04193228 -0.031244555 -0.04674648 -0.029833414 0.035622716
0.067636006 0.043704383 -0.031779107 0.0016414821 0.07289605 -0.00023290704 0.053680975 0.08145965
-0.018926792 0.077770874 -0.06897935 -0.031522844 0.046941843 0.04661295 -0.03843348 -0.03521777
0.050076094 0.039304465 -0.00060281117 -0.052279416 -0.062416356 0.007192172 0.044384383 -0.0057130964
-0.036139563 -0.04140003 -0.019886509 0.10599965 -0.03292579 0.048604667 0.016726252 -0.052142236
0.043524414 -0.04973023 -0.06835515 -0.024480702 -0.07284776 -0.0798672 0.029787825 0.056391425

weight f4 [2, 128]
00000000: 3e81 0d3d cf51 003d 4f97 e9bc f708 4e3d
00000010: 6418 94bb 43e2 a0bd 2620 cd3d bd8a 7c3d
00000020: bfd6 a53d 5292 81bd 46ee 233d 24ba ef3a
00000030: b46e 423d 8dec b73d cf2c 443a 6ea0 8d3c
00000040: c5a1 b43d 55fa 903d 965e d1bc 0e18 85be
00000050: e032 8cbd 9fca a43b 25fc 01bd 0fb7 66bb
00000060: 54f8 063d 0969 3f3d 7027 febc 0c99 a23c
00000070: 7b12 c73d d5ff 00bc 0483 cbbc f59d ad3c
00000080: f5b4 3cbc 3053 e93c 7394 a2bf 86f9 7cbd
00000090: 10b2 9b3d 53a8 eabc ba77 95bb c430 703d
000000a0: 2383 37bd 7d86 5c3d 61f8 adbd b006 a0bc
000000b0: e4c3 1ebd e905 72bd 0ac5 acbc 0f61 623d
000000c0: e0ff 3cbd 296b 8cbb 8a68 6abc decf bb3b
000000d0: 01bc 273d 7e63 9d3c 181d b73d 93e9 5cbc
000000e0: e349 963d 3800 16bf efa9 ebbd f888 bcbb
000000f0: 60e1 063b 65c3 03bd 1277 20bd 75cb 2cba
00000100: c329 d53c 2180 d63d 1854 5e3c 7d87 50bd
00000110: a368 01ba 04c9 dc3d 248a 0fbd 6f30 1abd
00000120: 37c0 bc3d eb79 5fbd 67ce 22bc bcbf 8f3d
00000130: eb34 8dbd ef9a aa3b ac0a f33c 3ba7 093a
00000140: af1a 0a3d 8abf 2f3d 5c44 843b 9188 27bb
00000150: 19fe fbbd 0815 d8bc e231 d43c 6a02 81bb
00000160: b019 02bc 574e 03bb 9682 a1bb db72 e0ba
00000170: ce61 1fbc 2513 5e3d 9541 6ebd af3c d63c
00000180: a545 43bc beeb e4bd b2c1 b93b 4035 f7bc
00000190: b93a 5e3d 4525 ee3b 0ec6 00be a92f 663d
000001a0: 72d7 b03d d38f 873d a57a e33a e457 b83d
000001b0: 6b8c 0e3d daf8 543d 2a22 73ba e497 69bd
000001c0: 2234 823d 69a7 433d a37e 97bd bed7 153d
000001d0: 83ef bebc 8ab1 233d 6296 37be 19d3 ac3d
000001e0: d0b7 b3bc 53f5 0cbe 673f 9b3d 45b6 a0bd
000001f0: 47c7 18bf cef6 a6bd 11a1 be3d c750 9bbb
00000200: 5c54 33bb bec6 a13d 22ab 753d 0249 893d
00000210: e3bd 1c3c 8be0 d73c 0e76 333d 497b 24bd
00000220: a2e0 123d f8c2 953d 2e52 a3bd 9982 b1bb
00000230: 1b8a 213b 5d46 133d 0b9e 053d 52ab d03b
00000240: 0c1a 733d 3039 e53d 50a0 ad3d 88a7 313d
00000250: f112 293d e2d6 c5bc be49 f0bb 07b8 e03a
00000260: bd56 aa3d 0a07 17bd 05bf aebd 0f7d be3d
00000270: 8f23 b03d f64d 59bc 4589 2ebd 08f1 a13d
00000280: 44ef 243d eb4a 4e3c 5d1e c9be 2fb0 0e3c
00000290: 0220 803d 44fd a63d 1e5a 1dbd 3520 42b9
000002a0: c956 af3d 757a eabd 303c 5d3d dae7 84bd
000002b0: e63b f6bd dd0e 8d3d 5a3e 843d 775e 453a
000002c0: cf3f ebbc 2dbe 3c3c bdaf 933d e19f b83c
000002d0: b3b7 c33d 0b14 98bc f77b 4b3c d96c 8e3d
000002e0: e0dd 84bb 403b 9dbd 902d 13bd b2e2 533d
000002f0: 7f0d 283d 2dfe 9a3d 92ac 573d de44 3cbb
00000300: 232c 5c3d 83b3 803d d18f 863d bb21 68bd
00000310: 670e 64bb b209 963c 1c5f 343d ece1 8abc
00000320: ffb4 3ebd b559 5e3d cb50 223d fc3f f8bc
00000330: 4a3a 7cbd 8d07 863d c506 b0bd ee44 b33b
00000340: e3dc 54bd 12c5 843c bf68 33bd 48ff 393c
00000350: 5752 96bd 037a e43c eb3f a73d 2bdd aaba
00000360: b2a2 21bb dfcb 83ba 2ca9 1e3f cc79 89bd
00000370: 8e50 bcbc 94f9 4cbd 5efd e9bc 111d a03d
00000380: 4476 a7bd 7fe4 973d 8dba 78bd 0fa1 90bd
00000390: 61b1 323d 2fcb 44bc 91d4 97bc 4bfb 7ebd
000003a0: add1 fabb 6152 a83c 99a0 d3ba eded 42bd
000003b0: f396 82bd 1366 ae3d 5f3d 9ebb a86c a0bd
000003c0: 88de 113d 825e 803d cd66 ae3d cc94 483d
000003d0: 581f 89bc 5dd7 df3c 9b7c 5a3c ca00 143d
000003e0: f16e 863d 7c22 39bc df7b ac3d 0c4f 31bc
000003f0: bad9 edbd ea02 55bd 8392 863c 8614 5b3b
0.034547083 0.03132802 -0.028514532 0.05030152 -0.004519509 -0.07855656 0.100158975 0.06165575
0.080976 -0.063267365 0.040022157 0.0018289727 0.047468856 0.08980665 0.00074834836 0.017288413
0.088199176 0.07078997 -0.025557797 -0.25994915 -0.06845641 0.005029037 -0.031734604 -0.0035204326
0.032951668 0.04673103 -0.031024665 0.019848369 0.09720322 -0.007873495 -0.024842747 0.021193484
-0.011517753 0.02848205 -1.2701553 -0.0617614 0.07602322 -0.028644716 -0.0045613917 0.058640257
-0.044802796 0.053839196 -0.0849464 -0.019534439 -0.038761035 -0.059087668 -0.02109005 0.055268344
-0.04614246 -0.0042852354 -0.014307151 0.005731567 0.04095078 0.01921248 0.08941096 -0.013483423
0.073383115 -0.58594084 -0.11507022 -0.0057536326 0.0020581111 -0.032168765 -0.039176054 -0.0006591597
0.02602089 0.104736574 0.013569854 -0.05091046 -0.00049365516 0.10780528 -0.03504385 -0.037643846
0.092163496 -0.05455963 -0.0099369055 0.07018992 -0.06894859 0.005206458 0.029668175 0.00052510545
0.033716854 0.042907275 0.0040364694 -0.0025563578 -0.12304325 -0.026377216 0.025902692 -0.0039370554
-0.007940695 -0.0020035708 -0.004928897 -0.0017124073 -0.009727908 0.054217476 -0.058168013 0.026151983
-0.01191846 -0.11177777 0.0056688422 -0.030176759 0.05425522 0.0072676265 -0.12575552 0.056197796
0.08634843 0.06619229 0.0017355277 0.09001139 0.03480188 0.051995136 -0.0009274805 -0.05702962
0.063576 0.047767077 -0.07397201 0.0365827 -0.023307567 0.039964236 -0.1792846 0.08438701
-0.021938235 -0.13765459 0.075804524 -0.07847265 -0.59679073 -0.08152543 0.09308065 -0.004739854
-0.0027363515 0.07899235 0.059977658 0.06703378 0.009566757 0.026352188 0.043813758 -0.040156636
0.035858758 0.07312578 -0.07974659 -0.00541718 0.0024648968 0.035955776 0.032621425 0.006368079
0.059351012 0.11192548 0.08477843 0.04337266 0.04127783 -0.024150316 -0.0073330095 0.0017144688
0.08317325 -0.036871947 -0.08532528 0.09301197 0.08600532 -0.013263216 -0.04261138 0.07907301
0.040267244 0.012591104 -0.39280978 0.008708998 0.06256105 0.08153775 -0.03841602 -0.0001851328
0.08561475 -0.11449138 0.054012477 -0.06489535 -0.120231435 0.068876006 0.06457205 0.000752903
-0.02871695 0.011519951 0.07211254 0.022537174 0.09556522 -0.018564245 0.012419692 0.06954355
-0.00405477 -0.07677317 -0.035932124 0.051729865 0.041028496 0.075680114 0.05265481 -0.0028727571
0.05375303 0.06284239 0.065703996 -0.056672793 -0.0034798624 0.01831517 0.044036016 -0.016953431
-0.04655933 0.05428477 0.03962783 -0.030303948 -0.061579026 0.06544409 -0.08595041 0.0054708635
-0.051968466 0.016207252 -0.043801066 0.011352368 -0.07339924 0.027890211 0.08166488 -0.0013035884
-0.0024663624 -0.0010055265 0.61976886 -0.06712684 -0.02298763 -0.050042704 -0.028563198 0.07818044
-0.08176854 0.07416629 -0.060724784 -0.070619695 0.043626193 -0.012011333 -0.018533977 -0.06225137
-0.00765439 0.020547094 -0.0016145884 -0.047590185 -0.063764475 0.08515563 -0.0048290933 -0.078332245
0.035612613 0.06268026 0.085157014 0.04897003 -0.016738579 0.027324373 0.013335372 0.036133565
0.06564129 -0.011299726 0.08422064 -0.010822069 -0.11613794 -0.052004732 0.016427284 0.003342898

bias f4 [2]
00000000: 79c3 abbc cc60 85bc
-0.020967232 -0.016281508
