models/mountaincar_2D/checkpoint_cl.19.pth.tar (torch_old, 143897 bytes, 12 tensors)

weight f4 [128, 5]
000000 1a 35 36 3e 33 ab 84 3d a4 f4 db bd d4 53 6d 3e
       0.17793694 0.06477966 -0.10740021 0.23176509
000010 d1 ed c4 be f8 b8 7f be 44 eb 02 3e 24 a3 b2 bd
       -0.3846269 -0.24972904 0.12785059 -0.08722523
000020 b4 8f 81 be 34 f8 89 be 5a 6c c9 bf 16 5e 8b be
       -0.2530495 -0.26947176 -1.5736191 -0.2722022
000030 7a 96 88 bd 6f 41 8a bd 5b de 68 be 29 50 0a bd
       -0.06669326 -0.06750762 -0.22741072 -0.033767853
000040 86 1f 07 be dc ac a5 bc fd 5f 29 3e 09 2b 8e 3e
       -0.13195619 -0.020224027 0.16540523 0.27767208
000050 d9 74 72 3d 7f 2b a4 be 8e 62 ae 3e c0 94 cd 3c
       0.059193466 -0.32064435 0.34059566 0.025095344
000060 b5 17 b6 3e 3f 48 dd 3e a9 e4 6a 3e a1 ab 31 3e
       0.35564962 0.43219182 0.2293879 0.17350627
000070 c0 38 26 be 44 4e 8a be 16 f3 0e 3e 68 b4 bc be
       -0.16232586 -0.27012837 0.13959917 -0.3685639
000080 83 51 29 be ba 49 8d 3e c1 c5 81 3e 13 69 ca be
       -0.16535 0.2759531 0.25346187 -0.3953329
000090 2c 54 ca bd 73 35 bd 3e 03 d9 a8 be bd 31 8d 3e
       -0.09879336 0.3695484 -0.32978067 0.2757701
0000a0 75 2b d6 be 5e 58 42 3d 4a 13 92 be ba 52 0b be
       -0.4183003 0.047447555 -0.2853034 -0.13605776
0000b0 c7 cd 9f 3e 63 5a b0 3d a2 5a 0d be 9d c8 ed bd
       0.31211683 0.0861099 -0.13804105 -0.116105296
0000c0 44 68 8e be 33 b0 55 be 99 ed eb be ab c5 58 3e
       -0.27813923 -0.20867996 -0.4607971 0.21169154
0000d0 73 ba 85 be 76 18 b2 3e a0 88 66 3e c9 7c 10 3f
       -0.26118812 0.34784287 0.22513056 0.5644041
0000e0 5f 21 5a 3e 1e 7d 3f 3e ad b5 be 3e e5 55 40 be
       0.21301793 0.18700072 0.37247983 -0.18782766
0000f0 5e 3e d2 3d e8 16 11 be 79 03 8c 3e 81 73 46 3e
       0.10265802 -0.14168894 0.273464 0.19379999
000100 1f 51 53 3e 89 03 b0 bd c6 f9 a0 3e 44 c6 cd be
       0.20636414 -0.08594424 0.31440562 -0.40190327
000110 f0 83 17 3d cf 79 c2 3d 60 d0 e0 be f3 a8 50 be
       0.03699106 0.094958894 -0.43908978 -0.20376949
000120 41 87 af 3e 13 2a 56 3e fb 07 d3 be eb 69 a0 be
       0.34282878 0.20914488 -0.41217026 -0.3133081
000130 b4 cc 73 3e 50 36 b3 3e c9 51 5e be 06 3a 45 be
       0.23808557 0.35002375 -0.21710886 -0.19260415
000140 bb 7a 83 3e 29 80 cc 3e 7b 4f fc be e7 00 9a be
       0.25679573 0.39941528 -0.4927939 -0.30078813
000150 ef db 98 3e bd 15 c0 be 22 4a 24 be 8f 9a cd 3e
       0.29855296 -0.37516585 -0.16043904 0.4015698
000160 b9 ef ce 3e bc d9 48 3d 10 d0 b4 bc 94 a2 cc be
       0.4041727 0.049035773 -0.022071868 -0.39967787
000170 50 ff c6 3c 28 ca 91 be f0 3a 81 bc 06 61 c2 be
       0.024291664 -0.28474545 -0.015775174 -0.37964648
000180 79 72 25 3e 6c ce d4 3d 56 14 14 3e 90 ec ca be
       0.16156949 0.10390934 0.14460883 -0.39633608
000190 3c a5 34 3e 51 25 fd 3c 6a e9 a2 be b6 56 0c 3e
       0.17641157 0.030901583 -0.31818706 0.13704953
0001a0 1c 1c ba be 81 b5 d8 3e 7f 67 1b 3e 40 47 8a 3d
       -0.3634957 0.42325976 0.151762 0.06751871
0001b0 4a 4b 7e 3e 72 57 a9 be ca c0 12 3e 24 26 e6 3e
       0.24833408 -0.33074528 0.14331356 0.44950974
0001c0 5f 2b 81 3d 4c a8 97 bd 4b a3 a9 3e b9 af 11 be
       0.063071005 -0.07405147 0.33132395 -0.14227189
0001d0 63 52 98 3d a2 f9 65 3e 40 70 be bd 6c 02 1d 3e
       0.07437589 0.22458509 -0.09298754 0.15332955
0001e0 a4 dd 76 be 6f ed b3 3e a1 bf 8e 3e 2e c2 cf 3e
       -0.24107987 0.35142085 0.27880576 0.40577835
0001f0 db 27 63 be 6e a9 8b be 40 66 d0 be f7 f8 a5 3e
       -0.22183172 -0.27277702 -0.4070301 0.32416508
000200 dc 00 3a 3e 79 aa 7c be a2 09 ca be 6d 67 bb 3e
       0.1816439 -0.24674405 -0.39460474 0.36602345
000210 63 9b 49 3e 39 e7 44 3e 77 ff c5 3c 06 58 20 be
       0.19688182 0.1922883 0.024169667 -0.15658578
000220 ba f0 b3 3e 1c 44 c2 3e d1 b6 d0 3e 70 08 5e 3d
       0.35144597 0.37942588 0.40764478 0.054207265
000230 01 25 ce 3e b4 7c 8e bc b8 d0 c0 be 57 dd a2 3e
       0.40262607 -0.017393447 -0.3765924 0.31809494
000240 12 c1 79 3e a3 43 a1 3e 15 b2 ed be d2 fb 96 3e
       0.24390057 0.31496915 -0.46424928 0.29489
000250 5e 7d 91 bc b9 8b 1f 3d 8c 5e d6 3e 99 db 78 3e
       -0.017759975 0.03895161 0.4186901 0.2430252
000260 e9 35 ca be 67 94 69 bd 43 04 b5 3e 0b 97 00 3e
       -0.39494255 -0.057026293 0.35354814 0.12557618
000270 14 fd 1f 3e 9f 16 54 3d 5a b2 76 3e 23 25 3d be
       0.15623885 0.051779386 0.24091473 -0.18471198
000280 88 6c 8a 3e e9 01 a2 3e c6 30 4c 3e 91 4b 00 3e
       0.27035928 0.31642082 0.1994048 0.12528826
000290 70 85 b5 3e 2f 0b e0 be f1 e4 b9 be dc 63 36 3e
       0.35453367 -0.43758532 -0.3630748 0.17811531
0002a0 70 01 18 be 92 c0 ac 3e da a5 c9 be fa d7 a9 be
       -0.14844298 0.3374067 -0.39384347 -0.3317259
0002b0 10 dc 93 3d 78 b7 05 3d b8 3f ce bd 1b c5 27 3e
       0.07219708 0.032645673 -0.10070747 0.16383784
0002c0 9f cb 3b be f6 f5 a8 3e 99 fe f5 bd 90 c9 c4 3e
       -0.18339394 0.33000153 -0.12011451 0.3843503
0002d0 d4 54 10 be 90 8d 39 3e 2e aa 4f be 60 52 9a be
       -0.1409486 0.18120408 -0.20279762 -0.30140972
0002e0 40 55 ce 3b cb af d6 3e 6b c5 84 3d 76 1c 8b be
       0.0062967837 0.41930994 0.06482967 -0.2717015
0002f0 60 da 24 bd 9c 09 af be 86 0d 88 3e 3f 5d 96 be
       -0.04024732 -0.3418702 0.26572818 -0.29368016
000300 a0 b2 39 bd 14 fb 8c be f0 60 14 be 43 ab ba be
       -0.045336366 -0.27535307 -0.14490104 -0.36458787
000310 56 01 c6 be 8a 8f 0f be 6a 00 ab 3e 3c bb d2 be
       -0.38672894 -0.140196 0.33398753 -0.41158473
000320 23 86 e1 bc 04 c9 c2 bd b4 4e 42 be 06 66 13 bd
       -0.027529782 -0.09510997 -0.18975335 -0.03598597
000330 b0 5a 61 3e ba a5 d0 3e 58 bb 66 be c0 77 93 be
       0.22007251 0.4075144 -0.22532403 -0.288023
000340 d8 96 d6 bd 1a 3c c0 3c d1 71 13 be 12 a2 74 3e
       -0.1047799 0.023466159 -0.14398886 0.2388995
000350 56 7e 31 be 27 e4 a6 be 8d ff 80 3e 55 a1 01 be
       -0.1733335 -0.3259594 0.2519497 -0.126592
000360 bd 7c 4c 3e 0d 27 7f be e9 1d b9 3e c6 7e 0c be
       0.19969459 -0.2491724 0.36155632 -0.13720235
000370 f1 a7 23 be f2 12 9e 3e 98 69 26 bd 04 a0 8c bc
       -0.15982033 0.3087383 -0.040628046 -0.017166145
000380 4f 79 bf bd 12 a2 b7 3e c2 db 3e bb 5f fe 9c be
       -0.0934931 0.35865837 -0.0029122685 -0.3066282
000390 ee 4d a4 be 29 69 dc 3d 8c 3d c4 3e 76 1f a4 be
       -0.32090706 0.10762245 0.38328207 -0.32055253
0003a0 cc ac bd be f2 0a ab 3e cb fb 3f be fb a1 da be
       -0.37045896 0.33406788 -0.18748395 -0.42701706
0003b0 df 38 5c 3e 8b c3 c7 3d c0 79 af bd bb 1a 4b bd
       0.2150607 0.09754094 -0.08568144 -0.04958604
0003c0 92 a3 bd be 92 73 33 3e 30 29 b2 3e 38 54 9b be
       -0.37038857 0.17524555 0.3479705 -0.3033769
0003d0 c5 3c ca 3e 4a 00 a7 3e d2 5e 9c 3e 4e 5c 6b 3e
       0.39499488 0.32617408 0.30541092 0.2298443
0003e0 7d 1a 8b 3e 64 91 8e 3e 34 42 87 3e 3d 6a 98 3d
       0.27168646 0.278453 0.26417696 0.07442138
0003f0 30 a7 4e 3d b9 e4 75 3e 22 e3 94 be d5 cd 07 be
       0.05045241 0.24013032 -0.2907954 -0.13262112

bias f4 [128]
000000 52 a9 d5 be 17 df 5d be d6 b8 4e 3e 8c 40 f0 3d
       -0.41730744 -0.21667133 0.20187697 0.11731061
000010 89 a8 12 be 8b 59 05 be 82 bf 12 3e 0b b6 28 3e
       -0.14322104 -0.13022439 0.14330867 0.16475694
000020 ed 26 85 3d 96 ae 85 3e 75 c6 a5 3e 25 a8 ea be
       0.06501565 0.2610976 0.32377973 -0.4583141
000030 92 53 de bd 07 8d b9 be fa 42 bf 3e d4 8e 3d be
       -0.108557835 -0.36240408 0.37355787 -0.18511516
000040 9d 19 96 3e d8 3d ee 3e 15 08 ba be 4d c3 05 3e
       0.29316416 0.46531558 -0.3633429 0.13062783
000050 2a 60 84 be 2f 30 dc be 50 df 8e be 33 af 3e 3e
       -0.25854617 -0.4300551 -0.2790475 0.1862152
000060 b2 38 be be dd ab 97 be 67 e2 ac bc 69 cf b9 3a
       -0.3715263 -0.2962331 -0.02110405 0.0014176193
000070 db 0f e2 bd 40 57 9a 3e 0a e9 0c 3e 50 a6 cf 3d
       -0.110381804 0.3014469 0.13760772 0.101391435
000080 ac b6 b0 bd ec 6a a2 be 26 05 25 be 35 7f 37 3e
       -0.08628592 -0.317222 -0.16115245 0.1791962
000090 7c 53 a1 be 68 e2 73 3e f7 d8 b1 be 0e d8 9f 3e
       -0.31509006 0.23816836 -0.34735844 0.31219524
0000a0 93 27 1a be 83 dd 4a be 1c 41 cf 3e 28 82 bb be
       -0.15054159 -0.19811063 0.40479362 -0.3662274
0000b0 48 bc af 3d df 1d b8 3e 94 0b c1 3e ac e0 be 3e
       0.08580834 0.3596029 0.37704146 0.37280786
0000c0 d9 68 09 be 92 d1 bd be 5c 5c ee be c1 6d 66 be
       -0.13418902 -0.37073952 -0.4655484 -0.22502805
0000d0 4a 35 85 3e cc 7b 6b 3e f8 69 da 3e e0 fa a5 bc
       0.2601722 0.22996444 0.42658973 -0.020261228
0000e0 ed af c9 be b2 05 94 be ed d5 0e be dc e3 d5 be
       -0.39392033 -0.28910595 -0.13948794 -0.41775405
0000f0 d4 88 2f 3e e3 5a ca 3b 25 e7 17 3e 8a 70 20 be
       0.1714204 0.0061753853 0.14834268 -0.1566793
000100 9b b4 23 3e a6 54 69 be 5b fe 97 3d 26 71 3a be
       0.15986864 -0.22786197 0.07421561 -0.18207225
000110 25 a6 4a be fe 6b b5 be c7 34 3d 3e 22 fa 9e bc
       -0.19789942 -0.35433954 0.18477164 -0.019406382
000120 98 6b f0 3d 40 22 51 3c 29 f9 dd 3d 3a 73 d0 3c
       0.11739272 0.0127645135 0.10838539 0.02544557
000130 cf d2 d0 be 37 f0 f5 3e 96 2c 81 be 11 ee 2d be
       -0.40785834 0.48034832 -0.2522933 -0.16985346
000140 5f 8b 34 be 89 ff 9d be b0 2f 74 bd 6d 57 77 be
       -0.17631291 -0.3085902 -0.05961579 -0.24154444
000150 e9 a1 37 3e c6 10 61 be f6 1e d5 3e 24 8d 82 3e
       0.17932858 -0.21979055 0.41625184 0.25498307
000160 2b 94 12 be ac ae 81 bd a5 b8 3d 3e 6e f3 d9 bd
       -0.14314334 -0.06332144 0.18527468 -0.10642134
000170 6f 1a 68 3e 55 a6 49 3e 9b 2f f4 be 46 92 d2 3e
       0.22666334 0.19692357 -0.4769257 0.41127223
000180 9c fb 24 be 95 80 95 3e 53 f2 d6 3e a8 eb 18 3e
       -0.16111606 0.29199663 0.41981754 0.14933646
000190 10 47 c6 3e f9 6d ce 3e 64 b0 f0 bd a8 19 9e be
       0.3872609 0.40318277 -0.11752394 -0.3087895
0001a0 34 cc 63 be 73 ff 00 be 4c 92 b5 bd e6 11 c5 be
       -0.22245866 -0.12597446 -0.088657945 -0.38490218
0001b0 eb 6c b0 be c5 2b bf bd 32 b3 06 3e 8b 42 16 be
       -0.34458098 -0.0933452 0.13154295 -0.14673822
0001c0 c5 b1 4f be b5 cc 22 be d7 3e 69 3e 72 91 80 be
       -0.20282657 -0.15898402 0.22777878 -0.25110966
0001d0 87 b8 83 be ff a3 2a be 23 28 c1 be 58 1c ce 3e
       -0.2572672 -0.16664122 -0.37725934 0.40256
0001e0 0f c6 ae be 48 77 c1 3e f8 c6 4d be f4 c3 4f be
       -0.34135482 0.37786317 -0.20095432 -0.20289594
0001f0 17 c6 ab 3e 73 7d dc 3e 31 c5 e5 bd 29 5a 97 be
       0.33549568 0.4306446 -0.11219252 -0.29560974

weight f4 [128, 128]
000000 a6 3d ec bd 2c 70 8e bc 5a 97 ad bf 6b 5c bf bc
       -0.11535196 -0.017387472 -1.3561814 -0.023359498
000010 1f 00 ae 3c 69 62 ad bb 26 2f de 3d 00 52 1b 3d
       0.021240292 -0.0052912724 0.108488366 0.03792
000020 74 1b 09 3c 37 01 84 3d a0 0a 52 3d e6 bd e5 bd
       0.008368362 0.06445544 0.051279664 -0.11217861
000030 aa fb 58 bd 17 af 24 bd 72 ed 7c bc 3a 8b 59 bc
       -0.05297438 -0.04020604 -0.015437471 -0.013277823
000040 30 68 1a 3d 82 b2 86 bc 61 57 83 bd 71 f2 c6 bd
       0.037697017 -0.016442541 -0.064131506 -0.09714211
000050 7d 38 f7 3b df 42 b2 3c 00 2c a1 bd f7 20 9e 3d
       0.0075445757 0.021760402 -0.078697205 0.07721131
000060 73 23 c4 bc eb 9b 99 3d 7b 5c bf bd 69 22 9a 3d
       -0.023942685 0.07500442 -0.09343811 0.075260945
000070 59 14 d5 3c 85 6b 99 3c f2 87 70 3d 97 af ba 3d
       0.02601068 0.018728027 0.058723398 0.09115522
000080 06 5e 38 3c 98 64 36 3c fe 7d 7a 3d 9d d3 9a 3d
       0.011252886 0.011132382 0.06115531 0.07559893
000090 11 36 91 bd b0 a9 e0 3d 1f 56 68 bd 51 22 86 bb
       -0.070903905 0.10969865 -0.056722756 -0.0040934463
0000a0 32 c1 43 3d 2d 4d 72 3b 60 0c 8c 3d 1b f0 27 bd
       0.047791667 0.003697227 0.06838298 -0.041000467
0000b0 d7 d8 88 bb 51 a5 12 bc 72 eb 55 3d 6e fb 14 3d
       -0.00417624 -0.008950547 0.05222649 0.036372595
0000c0 f1 c1 28 3d 3f 69 6a 3d d5 8d cd bd b6 52 55 3d
       0.041200582 0.057229277 -0.10036818 0.052080832
0000d0 7f b6 c3 3d dc 83 03 3d fe 17 86 3d af d7 23 3a
       0.09556293 0.032108173 0.06547545 0.0006250096
0000e0 7e 0d 50 3d b2 05 e8 bc 17 3f 4b 3d d6 dd 4f 3d
       0.050794117 -0.028323028 0.049620714 0.05074867
0000f0 d6 56 84 3d b4 75 af 3d 60 4f 95 3d 00 a6 2d 3d
       0.06461875 0.08567372 0.0729053 0.042394638
000100 37 a4 c4 bd dc cd ac bd 89 aa 15 bd 3e ec 66 3d
       -0.09601634 -0.08437702 -0.036539588 0.05637764
000110 f6 75 68 bd 00 ee 1f 39 40 60 19 3d c6 bb 7d 3d
       -0.05675312 0.00015252084 0.037445307 0.061946653
000120 84 16 cf 3d a2 65 9e bc 26 fc 70 3d ee 55 82 3c
       0.101117164 -0.019335572 0.058834217 0.015910115
000130 d6 c3 2e 3d d4 cc 3b be 91 08 3f bd 6a f2 fa bc
       0.042667232 -0.18339854 -0.04663903 -0.03063317
000140 b4 e4 2a bc ea 20 e0 bc 3c 3c c9 3c c1 36 cc 3d
       -0.010430504 -0.027359445 0.024564855 0.09971381
000150 34 bb a8 bd 8c 62 9c 3c 68 1c f1 bc cc 39 90 bd
       -0.08238831 0.01908996 -0.02943249 -0.07042274
000160 b8 8a 41 3b 02 ab 1b 3d 38 2d b5 3c ca 44 17 bd
       0.0029532146 0.038004883 0.022116289 -0.036930837
000170 d7 2d 85 3d a8 37 fb 3c 0a 43 3e be f0 09 2a 3d
       0.06502884 0.030666187 -0.18580261 0.041513383
000180 2f 3b 5f 3d 4b c3 07 bd 5d b0 ba 3c 89 c9 b8 3b
       0.0544998 -0.03314523 0.022789175 0.0056392592
000190 41 9f 0e bd 67 d5 a2 3d 4d e9 5f 3d c7 7e 9e bd
       -0.034819845 0.079508595 0.054665852 -0.077390246
0001a0 c8 c0 01 3d 1e 63 ef 3c 0f 6f 46 bd 4e f9 04 3d
       0.03167799 0.029222067 -0.048445757 0.032464318
0001b0 15 72 96 3d b0 57 ae 3d f8 c0 63 bd 75 dd 35 bd
       0.07345978 0.08512819 -0.05560395 -0.04440065
0001c0 df 96 48 bd 00 87 87 bd 8e 2a d2 bc 7c d6 1e be
       -0.048972007 -0.06617546 -0.025655057 -0.15511507
0001d0 0c 6b 68 3c 1d 00 e8 3d 63 cb fe 3c e5 4c a5 bd
       0.014185678 0.113281466 0.031102842 -0.08071307
0001e0 b2 f7 d8 3d 4f dd 2c bd fb f6 b7 3d 72 3e 2a bc
       0.10594119 -0.042203244 0.08982655 -0.010390865
0001f0 59 90 e7 3c 7d ef ad 3d 81 c2 b8 be 80 08 46 3c
       0.028267073 0.084929444 -0.36085895 0.0120869875
000200 72 e7 9c 3a 80 1b 02 3c 05 67 ab 3d 58 2c d7 3c
       0.0011970832 0.007941127 0.08369259 0.026266262
000210 ed 8d c8 3c fb 9b a2 bd 44 13 31 bd f8 13 4d 3d
       0.024481738 -0.07939907 -0.043231264 0.05006787
000220 42 c5 5c 3d 48 d2 a7 bd 01 0f 56 bd d3 65 ae bd
       0.053899057 -0.08194405 -0.052260403 -0.08515515
000230 ff 5b 07 3b ba 27 01 3d bb 32 6a bd 2c 49 a1 bd
       0.00206542 0.031532027 -0.057177287 -0.078752846
000240 18 2e 07 3d b9 31 04 bd cc 21 a1 bc 3c 49 84 3c
       0.033002943 -0.03227398 -0.019669436 0.016148202
000250 df 4e 1c 3d 82 ae 42 bd 84 1f 35 3d 91 8d d2 3c
       0.038161155 -0.047529705 0.04421951 0.02570227
000260 95 7d 12 bd 24 e3 a6 bc 02 8d 41 bd 66 b6 be bd
       -0.035764296 -0.020371981 -0.047253616 -0.093121335
000270 a0 e0 d6 3c 89 a9 53 bd 10 a4 8f 3d 54 6a 43 3c
       0.026230156 -0.051675353 0.07013714 0.011927206
000280 8b d2 52 3d dc e1 b3 3c a0 3d a6 bd cb 5f 6f bd
       0.05147032 0.021958284 -0.08117223 -0.058440965
000290 3d 4b 99 3d 08 a6 7d bd 40 03 6b 3c 91 ec 42 bd
       0.07485054 -0.061925918 0.014344037 -0.04758889
0002a0 60 65 6c 3d 9d f1 a9 3d 78 41 71 3c 52 bb 36 3d
       0.057713866 0.08298037 0.014725082 0.044612236
0002b0 23 49 3b 3d 7e 09 3e bd c4 d1 a1 bc 9a f8 a6 bd
       0.045724045 -0.04639577 -0.019753344 -0.08152886
0002c0 73 e1 91 bd 92 31 b9 bd 88 89 84 bd 15 dc 2b bd
       -0.07123079 -0.09042658 -0.064715445 -0.041957933
0002d0 19 6b 35 3d 04 4c b7 3c 2f 95 8e 3d cc 63 06 bd
       0.04429159 0.022375114 0.06962048 -0.032810017
0002e0 50 25 80 3c 31 05 8d 3d 15 34 80 bc f8 46 c0 bc
       0.015642792 0.06885756 -0.015649835 -0.02347134
0002f0 8c 25 1f bd da 97 8c 3d c6 26 00 3d 80 85 ae 3d
       -0.038854167 0.06864901 0.031286977 0.08521557
000300 c9 b7 2b 3d e1 8c 40 bd 61 04 fc bc 4c c0 68 bd
       0.041923318 -0.047009353 -0.030763807 -0.056824014
000310 af 32 8a bd 08 0a 5d bc d6 5e 45 3c af 73 a3 3d
       -0.067479484 -0.013491161 0.012046536 0.07981049
000320 8b d4 98 bc 5f 84 8b 3d c1 c7 4d bd 6b 76 98 3c
       -0.018656036 0.06812357 -0.05023933 0.018611154
000330 e1 9c 95 bd 62 b3 3b bc e1 ff 60 bd 30 ec 2e 3d
       -0.07305313 -0.011456342 -0.054931525 0.042705715
000340 00 0f 93 3c 50 07 2e 3c c8 b6 08 3d 2c 7c c9 3c
       0.017951488 0.010621861 0.03337744 0.024595343
000350 3e c3 f7 bc 20 e7 22 3c 64 63 47 3c f6 33 f6 bc
       -0.030244466 0.0099428 0.012169693 -0.030054074
000360 e2 ee 7e bb d8 ec 2e 3c 21 66 7c bd e5 8a d1 bb
       -0.003889971 0.010676585 -0.061620835 -0.0063947313
000370 2b 65 75 3d 6d ee a0 bd d6 3e 1f 3d 78 61 c3 bc
       0.059910934 -0.07857976 0.038878284 -0.023850188
000380 15 39 3c 3d 59 07 9b bc 66 44 41 3d 5d fc 83 bd
       0.045952875 -0.018924402 0.04718437 -0.06444619
000390 97 92 1e 3d 98 ac 19 3d 5d 31 93 bd 62 54 0b 3d
       0.038714018 0.037518114 -0.0718715 0.03401602
0003a0 71 b1 00 bd 9b 85 f6 3c c0 27 5a 3d e8 53 01 3d
       -0.03141922 0.030093005 0.053260565 0.03157416
0003b0 86 4e 43 3d d8 7b 5d bd fe fe f7 3b 07 68 84 bb
       0.047682308 -0.054073185 0.0075682392 -0.0040407213
0003c0 6f aa 88 3c 91 f0 49 bd b7 80 97 3d bf 65 ce 3c
       0.016682832 -0.049301688 0.07397597 0.025195
0003d0 19 a8 5e bc ff 77 84 3d 57 68 ae 3c b3 04 f2 3c
       -0.013589882 0.064682 0.021289987 0.029543256
0003e0 7f 87 94 bd d4 0f 86 bc 8d 54 a5 bd 5b 8f 39 3d
       -0.07252406 -0.01636497 -0.080727674 0.04530273
0003f0 5a 72 f5 bc 9e 1a d1 b9 20 39 94 bb 20 f6 dc 3b
       -0.029961754 -0.00039883418 -0.0045234114 0.0067432076

bias f4 [128]
000000 59 de 09 3d f9 1e ad bd 68 34 94 bc 31 fb 50 bd
       0.033659313 -0.08453173 -0.018091395 -0.051020805
000010 f3 e9 46 3d 17 f7 88 3d 98 19 8a 3d 85 d9 20 bb
       0.048562955 0.06687754 0.06743163 -0.0024543714
000020 4c bf 65 bd 5c f9 6d 3d fe 61 c0 bc ae aa d8 ba
       -0.056090638 0.058099136 -0.023484226 -0.0016530359
000030 34 ce 8b 3d c7 13 38 3d e3 56 9a 3d 69 1d 83 bd
       0.068264395 0.044940736 0.075361036 -0.06402094
000040 fd 2b a4 3c c1 97 2d bd 23 50 06 3d c6 50 b2 3d
       0.020040506 -0.042381052 0.032791268 0.087068126
000050 0f 61 e0 3d 42 a6 36 3d 53 aa b2 bc 77 bd 66 3c
       0.109560125 0.04459215 -0.021809733 0.014083258
000060 25 ed 02 3d f0 0d 2a bd 60 ae 8f 3d 64 bf 96 3c
       0.03196444 -0.041517198 0.07015681 0.018401809
000070 88 5c ab 3d 8c 38 ca 3c 7e 5a a8 bd df 74 be 3d
       0.08367258 0.024685167 -0.08220385 0.09299635
000080 5c 48 34 3d 6c eb 9d bc 57 08 ee 3d be 80 ea 3a
       0.04401432 -0.019277297 0.116226844 0.0017891151
000090 f9 3d 4c 3d 6a e1 27 bd 22 08 0e bd 92 7f 6d 3d
       0.04986379 -0.040986456 -0.034675725 0.05798299
0000a0 f7 6d d3 bc 63 b4 82 bc ee 18 b8 3d 6e 5a f2 bc
       -0.025809271 -0.015955156 0.0898913 -0.029584136
0000b0 0a bb 0c 3b 1a 0a 6a 3d 0a f1 7d 3d 5c c7 e0 3c
       0.0021473789 0.05713854 0.06199745 0.027438812
0000c0 76 7a aa 3d bc 79 e5 3d 27 46 ac bd d8 66 5e bd
       0.08324139 0.112048596 -0.08411818 -0.0542973
0000d0 e4 4f 84 bd 6d 38 9c 3d 4b 13 65 bd e4 8f 0a bd
       -0.064605504 0.0762795 -0.055926602 -0.03382863
0000e0 f2 16 b2 bc f3 72 b3 bd 1b 39 98 bd b5 43 80 3c
       -0.021739457 -0.08762159 -0.07432767 0.015657285
0000f0 5d d4 7e bd 9f 9b 82 3d 2e 47 ca 3c 31 86 3e bc
       -0.062214244 0.063773386 0.024692144 -0.011628673
000100 12 57 07 3c 7b 6b 26 bc 00 82 9f 3d 98 d0 8a 3d
       0.008260505 -0.010157461 0.077884674 0.06778067
000110 6e 13 28 3d d4 54 8e bd de 6d ab bd 0d a2 4f 3c
       0.041034155 -0.069497734 -0.08370565 0.012672913
000120 9c 18 25 bc 43 70 c1 3d af 4c 7f 3d 3c a3 1a bd
       -0.010076668 0.0944524 0.06232899 -0.03775333
000130 ef 8d da 3d 5a fe 80 bd 95 5a 4c 3c eb b0 b0 3d
       0.10671603 -0.06298514 0.012472768 0.086274944
000140 30 a1 b4 bd df fd 42 bd cb 38 44 3d 8b 06 3f 3c
       -0.088198066 -0.04760539 0.047905724 0.011659275
000150 a2 07 8e 3d e8 88 d5 bc b4 15 8d bd 12 03 e8 bc
       0.069350496 -0.026066259 -0.06888905 -0.028321777
000160 07 72 67 3d 1a 09 83 3d e8 9e 7e bc 8a 61 f1 3a
       0.05650523 0.0639822 -0.015540816 0.001841591
000170 ba ed 60 bd b3 42 87 3d 5a 65 1a 3d 69 93 a0 3d
       -0.054914214 0.06604519 0.037694313 0.07840616
000180 4e 6b 8d bd 4b 6f 69 bd 89 54 ed bd 3b 4c 38 bd
       -0.06905232 -0.056990903 -0.115883894 -0.044994574
000190 24 75 7e bc 1a 92 89 bd 5f ca f1 bd 5c e3 66 3c
       -0.015530858 -0.0671732 -0.11806177 0.014092293
0001a0 45 8a 85 bc 8a b3 8f bd 00 57 8a bc 01 41 11 bd
       -0.016301284 -0.07016666 -0.016887188 -0.035462383
0001b0 bf c6 8c bd f8 8d 25 3d 8e 6e ae 3c 78 f7 df 3b
       -0.06873845 0.040418595 0.021292951 0.0068349205
0001c0 ac 15 11 3d 00 7a f3 3c c6 bc 2d bb b3 ff 2a bd
       0.03542106 0.02972126 -0.0026510223 -0.04174776
0001d0 db 25 b1 bc 15 89 99 bd b5 c3 84 bd 20 5e 89 3d
       -0.021624496 -0.074968494 -0.06482641 0.06707406
0001e0 36 a7 36 3d e5 d9 94 bd 1f 5a fc bb 98 25 3b bd
       0.04459306 -0.072681226 -0.007701173 -0.04569015
0001f0 31 60 29 bd 1e 8f 82 bd b7 27 23 3d ef 83 64 3d
       -0.0413515 -0.06374954 0.039832797 0.055789884

weight f4 [2, 128]
000000 45 51 b2 3d 44 e5 4d bc 01 90 a0 bd 6b 1b 95 bd
       0.08706907 -0.012566868 -0.078399666 -0.0728062
000010 5c 37 e0 3b 20 ce f9 3b 07 f1 54 bd 52 03 f9 3c
       0.006842537 0.007623449 -0.051987674 0.030397091
000020 c8 96 ba 3c 22 e1 19 bd d3 7b 49 3d 9a aa a1 bd
       0.022776976 -0.03756822 0.049190354 -0.07893868
000030 62 dc 28 3c 0b fa 00 bd 3b 34 8f 3c ba f9 e9 3d
       0.01030645 -0.03148846 0.01748096 0.11424585
000040 a3 67 6a bc 05 06 5f bd d8 d9 27 bb 56 12 3b be
       -0.0143069355 -0.0544491 -0.0025612023 -0.18268713
000050 51 96 b6 3d 5d 5b a4 3d e1 e1 fb bc c1 a2 46 3d
       0.08915389 0.08025239 -0.030747356 0.048495058
000060 65 80 9e bd b7 b5 89 3d e4 f5 16 bd e8 93 ff bf
       -0.07739333 0.067241125 -0.036855593 -1.9967012
000070 0c e5 5a 3d 90 c3 ea bb b3 eb c3 3a b4 d5 a0 bd
       0.053441092 -0.007164426 0.0014947563 -0.07853261
000080 a8 b1 47 3c 84 a3 11 3d 46 95 78 3d 41 4a b3 3d
       0.012188353 0.03555633 0.060689233 0.08754397
000090 35 0b 9e bd ff e2 59 bd 99 c2 a3 3d 2e 7d 20 3d
       -0.07716981 -0.053194996 0.07996101 0.03918188
0000a0 fa 7c 03 bb 81 77 b5 3d 04 dc 4c bc e0 33 19 3b
       -0.0020063506 0.08860684 -0.012503628 0.0023376867
0000b0 b1 a6 5b 3d e0 81 a0 bd ae 3c d7 bb d4 91 8c bc
       0.053625766 -0.07837272 -0.006568513 -0.01715938
0000c0 48 51 8a 3d fa 48 ba 3d 3a 51 89 bc 92 a5 53 bd
       0.067537844 0.090959504 -0.016762365 -0.051671572
0000d0 4e c7 ab bc f0 8a fc 3c 98 98 a0 3e 60 c7 f0 3b
       -0.02096906 0.03082797 0.3136642 0.007347986
0000e0 a9 0c 4c bc 62 fa df bc 86 8b af b8 1e 47 01 be
       -0.01245419 -0.027341072 -8.3706385e-05 -0.12624785
0000f0 28 83 9a bd 56 85 aa bc f8 58 da bd fa 2d 2b 3c
       -0.07544547 -0.020815533 -0.10661501 0.010447973
000100 d6 79 cc 38 5a 19 02 3d ac e6 8d 3d 20 4b 0c bc
       9.750172e-05 0.03176246 0.06928763 -0.008562833
000110 3b 4e 85 3d 97 0a 45 3c 40 96 97 bd a1 5c 2d be
       0.06509062 0.012026451 -0.07401705 -0.16929866
000120 d1 bb ed 3d 70 a9 a5 3d 8e d4 37 bc 69 47 d1 3d
       0.11608089 0.08088958 -0.011220111 0.102186985
000130 92 cd fb 3c a6 f5 5a 3d 6b 1f c3 bb a4 01 d5 bd
       0.030737672 0.053456925 -0.005954673 -0.104007035
000140 b0 13 1f bc e4 85 89 bd 72 91 14 bf 72 a1 2e bd
       -0.009709284 -0.06714991 -0.5803443 -0.042634435
000150 2c 79 c3 3d 81 0a e2 bf 25 f6 b0 3d c9 e1 aa bd
       0.09544596 -1.7659456 0.08640698 -0.08343846
000160 1b dc 51 3d 19 fa 5e 3c 24 85 19 3c 47 65 c8 3c
       0.0512353 0.013609433 0.009370122 0.024462355
000170 56 e4 a9 3d 4b fb 42 3c 87 77 7a 3c 01 de 48 3c
       0.08295505 0.011900733 0.015287287 0.012259961
000180 2d 00 24 3d 15 ca 56 bd 8f 29 08 3e 82 54 21 3d
       0.04003923 -0.052438814 0.13297103 0.039387234
000190 a1 c3 09 bd 16 cd d2 bb a1 28 04 c0 79 57 3b bd
       -0.033633832 -0.0064331396 -2.0649798 -0.045737717
0001a0 91 36 cb 3d 55 8d ad bd 05 e8 20 bd 15 5a 57 be
       0.09922517 -0.084742226 -0.03928377 -0.21030457
0001b0 ae 5b 27 3d 7a 42 c7 3d 3c c9 93 bc 00 4b c1 3d
       0.040858917 0.09729476 -0.018040292 0.09438133
0001c0 19 2a 9d bd 7a 1c 19 3d 82 aa e0 bd f3 f3 b0 bd
       -0.07674045 0.037380673 -0.10970022 -0.086402796
0001d0 a0 ef c4 bd 00 52 35 bd 2e fc 46 bd fe 8d ab bc
       -0.09616017 -0.044267654 -0.04858034 -0.02094173
0001e0 71 6d 0a be 3c 46 b0 3d ae 68 38 3d 44 b6 c9 bf
       -0.13518311 0.08607146 0.045021705 -1.5758748
0001f0 1c 64 34 be 0b 9c 91 3d b9 16 57 b9 b5 d8 97 bb
       -0.17616314 0.07109841 -0.00020512463 -0.004633988
000200 cd 45 24 bd f7 7b 51 bb 56 36 b3 bc 84 bd 73 bb
       -0.04010563 -0.0031964758 -0.021876495 -0.0037191818
000210 4b 2c 36 3d bc 9b d0 bc 2a f2 5d bd cd d9 b9 bc
       0.044475835 -0.025464885 -0.054186024 -0.022686863
000220 14 32 91 bc 5c 72 68 bd 5f a1 80 be 4e b7 92 bd
       -0.017724074 -0.056749687 -0.25123116 -0.07163869
000230 f1 b1 a1 3d f3 fa a4 3d dd 94 6f 3d 0d 44 12 bd
       0.07895268 0.08055677 0.058491576 -0.03570943
000240 63 98 37 bd cc 2c d0 3c 33 87 ee bb bb c4 c6 bd
       -0.04482306 0.025411986 -0.0072793006 -0.09705492
000250 24 69 97 3b 5f 91 23 bd f9 b1 86 3d 81 10 79 bb
       0.004620688 -0.03993356 0.06576914 -0.0038004222
000260 c1 0f 6e bd 76 fc 63 bc 3c 74 69 3d 28 0a 97 bf
       -0.058120493 -0.013915172 0.056995615 -1.1799974
000270 fa 46 a6 3d 70 4b 57 3c 0a 98 fd bb 4e 95 91 3d
       0.081190065 0.013140544 -0.0077390717 0.07108556
000280 fa 32 42 bd b6 2d ba 3d 86 f5 99 3c 80 bd b4 3c
       -0.047411896 0.0909075 0.018793833 0.022063017
000290 ab e0 77 3d f8 74 bf 3d 36 37 aa 3d 56 a6 dd bc
       0.060516994 0.09348482 0.08311312 -0.027056854
0002a0 da f7 0e 3d 96 fa 97 3d 2e 09 8b 3d ec 75 fb 3c
       0.03490434 0.07420842 0.0678886 0.030695878
0002b0 28 d4 1f 3d 53 a8 98 3d 8a 94 ba 3c a8 87 3b 3d
       0.039020687 0.0745398 0.022775907 0.04578367
0002c0 6c 6a 69 3c 3f 71 39 ba 00 2d 5c bd 90 c2 ad bd
       0.014246564 -0.0007074065 -0.053753853 -0.084843755
0002d0 f0 8f 91 3d d7 26 0c 3d 53 1a 98 bd f6 fe 5c 3d
       0.07107532 0.034216728 -0.07426896 0.053954087
0002e0 69 3d 59 3d 20 7c b1 bc 7c 7f 99 3d 31 1f 47 3d
       0.05303708 -0.021665633 0.07495019 0.04861373
0002f0 05 55 18 bd ff 2a de bd 42 62 dc bc 60 bc 12 3d
       -0.037190456 -0.108480446 -0.026902322 0.03582418
000300 4c 5a 91 3b 19 04 4a bd c8 3f 75 bd 39 f5 41 3d
       0.004435813 -0.049320314 -0.05987528 0.047353003
000310 5e 94 e9 3d e9 5f 0b bd 6b d6 67 3d 02 83 16 be
       0.11405252 -0.034027014 0.05660097 -0.14698413
000320 d9 3f 09 3e 39 eb a0 ba e6 84 96 bc 38 73 1c bd
       0.13403262 -0.0012277133 -0.018373918 -0.03819582
000330 22 4a 08 3d 6e 32 40 3d e2 5f 43 bc f1 78 39 bd
       0.033273824 0.046923093 -0.011924716 -0.045281354
000340 6a 30 62 3d 79 58 35 bd b6 05 74 3f c6 40 8c 3d
       0.055221952 -0.044273827 0.95321214 0.06848292
000350 08 25 8b 3d 83 4f 90 3d 29 e7 84 3d 59 47 ab bd
       0.067941725 0.07046416 0.06489403 -0.08363218
000360 4e 85 43 3c 30 df b1 3d b9 93 4c 3c 4f cc 23 3d
       0.011933638 0.08685148 0.012486392 0.039989766
000370 9a 30 45 bc 45 fb 91 bd 87 61 d0 3d 2d 9d c5 3c
       -0.012035513 -0.07128004 0.10174852 0.024122799
000380 06 04 97 3c 20 05 b8 3c 8a ce dc be c4 51 6c bd
       0.018434536 0.022463381 -0.43126327 -0.057695165
000390 d0 20 bc 3d f9 1f 2a 3d bb 1e 85 bf f5 7d 2e bd
       0.09185946 0.041534398 -1.0400003 -0.04260059
0003a0 fb 9d 1a bc 70 47 a0 3c a7 ef 53 bd 44 e3 1a bd
       -0.00943708 0.019565314 -0.051742222 -0.037814394
0003b0 cd ba 2e bd fa 5f f9 bc d0 e1 8f 3d a0 a0 e7 3c
       -0.042658616 -0.030441273 0.07025492 0.028274834
0003c0 44 83 21 be e8 e1 c7 3c d4 27 09 3d a0 6b 16 bb
       -0.1577273 0.024399713 0.03348525 -0.0022952333
0003d0 97 90 37 be dd ca ad 3d 9c a8 a7 bc f8 36 91 3d
       -0.1792625 0.08485959 -0.020466141 0.070905626
0003e0 63 fa 00 bd 93 d7 21 be ed 11 9f 3d 6a 46 b4 bd
       -0.031488787 -0.15804891 0.07767091 -0.08802493
0003f0 89 27 ff 3c 41 a7 76 bd 90 b7 56 bb 0e fe 02 3d
       0.031146782 -0.0602181 -0.003276322 0.031980567

bias f4 [2]
000000 ff 55 ac 3d 31 a1 91 bc
       0.0841484 -0.017777057

weight f4 [128, 5]
000000 1f 11 73 3e 27 22 cb 3e 92 69 81 bd c6 69 df 3d
       0.23737 0.39674494 -0.06318964 0.109088466
000010 71 e9 2a be 38 86 3e be 74 28 26 bc 1d 96 e4 be
       -0.16690613 -0.18605888 -0.010141481 -0.44645777
000020 a3 28 09 3d c0 27 a0 be c8 bd c4 be fe 52 44 be
       0.03348602 -0.31280327 -0.38426042 -0.19172284
000030 60 ad 27 bc 3c c9 f0 bd 6c ee 56 3e f9 00 cf 3e
       -0.010234207 -0.117571324 0.20989388 0.4043043
000040 9c 07 3c 3d 33 48 b3 bd 30 a1 f6 be 60 a3 f6 be
       0.045905694 -0.08754005 -0.4816985 -0.4817152
000050 c7 c5 ed be 6f 74 98 be 95 ef c9 3e d1 e7 cd be
       -0.46439955 -0.29776332 0.394406 -0.40215924
000060 84 b9 d9 bd 21 10 62 be 26 21 45 be 94 63 d3 be
       -0.106310874 -0.22076465 -0.19250926 -0.4128691
000070 23 e8 46 3e 52 e7 a0 3e 2a 85 47 3e 97 95 b8 3d
       0.1942449 0.31426483 0.19484392 0.09012907
000080 7b 29 a6 bd 84 40 9d 3e 41 28 8b 3e 22 b1 c0 be
       -0.081133805 0.30713284 0.2717915 -0.37635142
000090 dd 32 a8 3e da 6c a5 3e 98 7a 95 3e 5c ba cc 3e
       0.32851306 0.3230961 0.29195094 0.3998593
0000a0 9e e1 5e be 1d 3e b7 3c c7 49 b6 3e 50 c2 54 be
       -0.21765754 0.022368485 0.35603163 -0.2077725
0000b0 00 bb 79 3d 05 c7 e3 3e e7 e5 8a be 16 08 26 bd
       0.060969353 0.44487777 -0.27128527 -0.040535055
0000c0 de 91 58 3e d0 3a 96 be e4 11 de bc 4a d0 c8 3d
       0.21149394 -0.29341745 -0.02710814 0.09805353
0000d0 d6 45 98 3e 85 c0 91 bd a4 9f 81 3e bb 04 0b bd
       0.2974078 -0.07116798 0.2531711 -0.03394006
0000e0 b2 96 91 3e 28 37 10 be 7d e8 d6 3d a7 14 dc 3d
       0.28435284 -0.1408354 0.10493562 0.107461266
0000f0 be 2f e2 3e 27 d4 b3 3e 9a d0 11 be b9 b4 23 be
       0.4417705 0.35122797 -0.14239731 -0.15986909
000100 13 ee 5e be 47 f1 42 3e 9a 98 44 3e f0 17 fe bd
       -0.21770506 0.19037353 0.19198838 -0.124069095
000110 70 1e 95 3d d2 a9 be be 07 73 6e be ac 16 8a 3e
       0.07281196 -0.37238938 -0.23286067 0.26970422
000120 87 b7 33 3e cb 06 75 3e 04 0d ba 3c 09 63 88 3e
       0.17550479 0.23928373 0.022711284 0.26638058
000130 5e 60 ce be 7b 5c 6e 3b 79 dc 9f 3e 0c 0e 36 be
       -0.40307897 0.003637104 0.31222895 -0.17778796
000140 37 0b 18 3e 01 2c da be 38 58 34 be 8a 63 c6 bd
       0.14848028 -0.42611697 -0.17611778 -0.09686954
000150 7c 99 86 3e 92 6e c2 be 58 d6 3d 3e 4c 50 8d be
       0.26288974 -0.37974983 0.18538797 -0.27600324
000160 e0 92 a4 bc d7 42 5c be 0d 58 f7 3e 38 83 9c be
       -0.020089567 -0.21509872 0.48309365 -0.30568862
000170 ea f5 8d 3e 4a b8 d0 3d 5c ab 93 be 3e 20 08 3f
       0.2772668 0.101914 -0.28841674 0.531742
000180 1d 01 bc be 17 74 46 3e 2f b7 9b 3c 51 17 ce be
       -0.367196 0.19380222 0.019008247 -0.40252164
000190 0b ed 97 3e 57 9b 90 be ff e3 71 3e c0 8f 2f 3d
       0.29673037 -0.28243515 0.2362213 0.0428617
0001a0 29 6d c2 be 4d 6d 1b 3e 1e ad 4e 3e e1 f6 36 be
       -0.37973908 0.15178414 0.20183226 -0.17867614
0001b0 f7 64 a5 3d a7 07 7a 3c 04 ec 91 be 78 83 f4 3d
       0.08075898 0.0152606135 -0.28500378 0.11939138
0001c0 9b ed d1 3e 7e cf dc 3e 79 a0 1a 3e 35 92 83 be
       0.4100159 0.43127054 0.15100278 -0.25697485
0001d0 4f 06 74 3d c0 fc 47 3c 74 45 a9 3e 70 13 d4 be
       0.05957633 0.012206256 0.330608 -0.4142108
0001e0 65 14 40 be d2 c9 88 be bc c6 47 3d 28 1f 95 3d
       -0.1875778 -0.26716477 0.048773512 0.07281333
0001f0 19 ae 95 3e 3f 04 cc be 42 d7 3b be 04 24 de bd
       0.29234388 -0.3984699 -0.18343833 -0.10846713
000200 c3 3a 6b be cf 74 b5 be 76 db cf 3e c8 1e 3b 3e
       -0.22971635 -0.3544068 0.40597123 0.18273461
000210 ba fe 47 3c 3c 2c b6 be 0e 19 b4 3e c8 ff 8a 3c
       0.012206728 -0.35580623 0.35175365 0.01696767
000220 26 ef 7a be 40 6c b8 3e 4e 42 ac 3e c8 17 22 bd
       -0.2450529 0.36020088 0.33644336 -0.03957346
000230 50 b5 ac bc 9a fb d7 be 20 06 d3 3e 9e c4 aa 3e
       -0.02108255 -0.42184144 0.4121561 0.33353132
000240 92 05 c0 be 59 9f 24 be c8 df ed bc c8 9c ba 3e
       -0.3750425 -0.16076411 -0.029037371 0.3644774
000250 33 40 b9 3e b3 78 ec bd ae 95 8b 3e 52 b6 19 be
       0.36181793 -0.11546459 0.27262634 -0.15010956
000260 98 56 a4 be 34 55 7c 3e 85 d9 18 bd 39 7f b7 3e
       -0.32097316 0.24641877 -0.037316818 0.3583925
000270 df 1a bf 3e 2a a8 c4 3e ff b9 b6 3e c8 82 1e bd
       0.3732519 0.3840955 0.3568878 -0.03869894
000280 03 98 7d 3e 53 b1 5c be 94 96 85 bd 2d 4d bd bc
       0.24765019 -0.21552019 -0.06522861 -0.02310809
000290 f4 41 7c 3d da 9e ce 3e d1 ea 28 bc d9 4d ce be
       0.061586335 0.4035557 -0.010309891 -0.40293768
0002a0 fc 54 ae be 61 ec ae bc fc 9c e6 be 7e d2 4c 3e
       -0.34049213 -0.021352949 -0.45041645 0.20002171
0002b0 38 30 0c bd 6e e6 aa be ee 68 1a 3e 2c a9 a3 3e
       -0.034225672 -0.3337893 0.1507909 0.31965005
0002c0 c4 70 9d 3d 7a c4 a9 bc 04 d4 f4 3c bf 4b 7c 3d
       0.07687524 -0.02072357 0.029886253 0.061595675
0002d0 52 95 a5 be 2a 86 10 be 68 40 bc be 21 96 bc 3e
       -0.32340485 -0.1411368 -0.36767888 0.3683329
0002e0 05 53 ba 3e fb e6 4b 3e c9 93 44 3e 19 b2 ac be
       0.36391464 0.19912331 0.19197 -0.33729628
0002f0 ca df 9f bc 6c 5c af be 63 b5 e8 3d 5b 87 43 be
       -0.01951589 -0.342502 0.11362722 -0.19094603
000300 90 c0 ba 3c 91 7e f1 3e e8 ca e7 3e 86 4d 38 be
       0.0227969 0.47166875 0.45271993 -0.17998323
000310 40 98 68 bd 68 b3 3b be 52 59 50 be ae ea b2 be
       -0.056785822 -0.18330157 -0.20346573 -0.3494467
000320 9d ac ae be b8 34 ab 3e 14 20 d4 bd 06 7e b3 be
       -0.34116068 0.3343866 -0.10357681 -0.35057086
000330 c3 68 13 3e 20 0a f0 3d 12 94 5e be 40 c6 85 bb
       0.14395432 0.11720681 -0.21736172 -0.004082471
000340 98 78 82 3d bc 38 de bd 3a d1 82 3e 90 1b 7c 3d
       0.06370658 -0.10850665 0.25550252 0.061549723
000350 40 14 83 be 9c c2 9d be ff dd b5 be a1 23 07 3e
       -0.25601387 -0.30812538 -0.35520932 0.13197185
000360 37 20 9b 3e 8d dc 9b be 5c ab 46 be a3 1e 43 bd
       0.30298015 -0.30441704 -0.19401306 -0.04763664
000370 c7 25 83 bd f6 58 e8 3e 1c 6c 5b be 76 97 71 3e
       -0.0640369 0.45380372 -0.21427959 0.23592934
000380 65 ac c4 3e ca bb 10 3f 60 2a aa be 67 7d d1 3e
       0.38412777 0.56536543 -0.33235455 0.40915987
000390 85 6b 76 3e d3 f8 43 3e 97 9e 25 be d1 05 f7 3e
       0.24064453 0.19137888 -0.16173778 0.48246625
0003a0 8c 8d ec bd 34 5f d8 be 7c 7d 9c be cc 6c e9 be
       -0.115504354 -0.42260134 -0.30564487 -0.45590818
0003b0 14 b6 1c bc 8c 34 cb bd 2d 00 65 3d 6a a0 21 be
       -0.009564895 -0.09922132 0.05590837 -0.1578385
0003c0 14 23 e7 bd e9 88 19 3d c3 35 c5 3e 87 33 4a 3d
       -0.112859875 0.037484083 0.3851758 0.049365547
0003d0 a2 c2 f8 3d a9 a1 3d 3e 2d af 99 be 6e a3 c5 bd
       0.12146498 0.185187 -0.3001646 -0.09650312
0003e0 92 23 84 be 37 61 a5 3d 6b b0 6d 3e 9e c8 47 3e
       -0.25808388 0.08075183 0.2321183 0.19510123
0003f0 da af 24 3e d0 e8 c2 be 01 fa 18 be 88 01 98 3e
       0.16082707 -0.38068247 -0.14939119 0.29688668

bias f4 [128]
000000 db 2c 8f 3e 5a 54 12 3d 94 e1 9a be c0 41 73 3d
       0.2796391 0.035724975 -0.30250227 0.059388876
000010 c1 9a b9 3e 5a 2b 57 3d c5 4d 55 3e 47 8b 9c 3d
       0.3625088 0.052531578 0.20830448 0.076437525
000020 60 b4 1d be 7f d7 5d be 33 5c 0e be 39 00 4f be
       -0.15400839 -0.21664236 -0.13902359 -0.20214929
000030 ad 26 2a 3d 31 f4 a4 bd 8c d0 c1 bc 06 64 cc 3e
       0.04154079 -0.08054388 -0.023659013 0.39920062
000040 31 87 f5 3a 78 df 75 be 2d 2e a3 3e 7e 70 16 bd
       0.0018732307 -0.24011028 0.31871167 -0.036728375
000050 9f 48 25 3e 1b 7a b5 bd ad 24 95 3e 6e 01 64 be
       0.16140984 -0.088611804 0.29129544 -0.2226617
000060 38 d4 bd 3e 50 6b c9 be fa b0 df bd 1e 82 2c be
       0.37075973 -0.39339685 -0.109224275 -0.16846511
000070 28 9c d2 be 03 79 b9 3e 19 ac b8 3d 35 56 19 bc
       -0.41134763 0.36225137 0.090172 -0.009358932
000080 90 9d bb 3d cd d8 c6 3c 7e 1e 26 3e 96 2f 88 be
       0.09160912 0.0242733 0.1622257 -0.26598805
000090 9b 2f af 3d 29 d8 56 3e d8 b4 ae be 3a e9 0a be
       0.08554002 0.20980896 -0.34122348 -0.13565531
0000a0 04 88 1c be 54 45 a2 be 34 89 4f 3e 1a 8f e8 bb
       -0.15286261 -0.31693518 0.20267183 -0.007097137
0000b0 52 a8 c4 be d2 fd d1 bd d3 67 e1 bd bb e2 b9 3e
       -0.38409668 -0.102534905 -0.11006131 0.36305794
0000c0 f1 fa c1 3d cc 4f bf 3d 22 17 93 3e c3 a8 a5 3e
       0.094716914 0.09341392 0.28728586 0.32355317
0000d0 c3 28 c4 3e 5d 30 7a 3e 67 e3 62 be d2 4b c2 3e
       0.3831235 0.24432512 -0.2215706 0.3794847
0000e0 4a 05 97 be 07 60 00 3f e9 04 59 bd 4d 45 71 bc
       -0.29496223 0.50146526 -0.0529832 -0.014725995
0000f0 5c d3 22 3e 01 0b c4 3e b7 77 eb 3d 06 e5 db 3d
       0.1590094 0.38289645 0.11497443 0.10737042
000100 88 91 e1 3e 3f 4e 66 bd ad ce 35 3e 98 a0 23 be
       0.44056344 -0.056226965 0.17754622 -0.1597923
000110 d5 92 21 3c 11 cc 13 be 75 8d 93 3e 01 5c 2f be
       0.009861668 -0.14433314 0.2881886 -0.1712494
000120 d4 f7 8f be 78 99 00 3e 9d 70 bd 3d c7 85 63 3e
       -0.28118765 0.12558544 0.09249995 0.22219001
000130 39 29 8c 3e e3 cd 76 bd 34 eb 92 be e6 c8 df 3e
       0.273752 -0.060254943 -0.2869507 0.4370796
000140 b2 fb f7 bc 24 68 d7 3e 20 9a 03 3e bc 7d d4 be
       -0.030271385 0.4207164 0.12851763 -0.41502178
000150 17 1f 1e 3e e9 f1 47 be ff 8d 3f 3e 7b 26 32 3d
       0.15441547 -0.19525875 0.18706511 0.04349373
000160 84 13 4f 3d f2 14 54 3e e9 28 80 3d 9c 99 d9 be
       0.05055572 0.20711115 0.06257803 -0.42500007
000170 13 d8 cd 3d 79 d6 39 be b3 76 6d 3c 36 df 74 be
       0.100509785 -0.18148221 0.014493632 -0.23913273
000180 11 c4 cd bd 30 58 d5 3e dd 9d 91 3e 66 51 a4 be
       -0.10047162 0.41668844 0.28440753 -0.32093352
000190 58 e1 93 bd 89 c8 ed bd a0 4b 09 3e 07 e0 06 be
       -0.07220715 -0.11610515 0.13407755 -0.13171397
0001a0 e1 d9 3a 3e 95 c1 7c be 37 66 9f be f7 aa 67 be
       0.18247177 -0.2468322 -0.3113267 -0.22623812
0001b0 39 27 8a 3e 5d e5 41 be 75 6e f5 be 07 7f 85 3e
       0.2698305 -0.18935151 -0.47935835 0.26073477
0001c0 a6 25 ff 3d 6d 78 7a 3e cd 52 03 3d 44 52 a0 3e
       0.12458353 0.24460001 0.032061387 0.31312764
0001d0 6e 29 64 3e 08 75 49 be 03 fc ba 3e cc db 80 bd
       0.22281429 -0.1967355 0.36520395 -0.06291923
0001e0 ca 8b 06 be 9e b8 c8 be db 60 d6 be 56 c3 83 be
       -0.13139263 -0.39203352 -0.4187077 -0.25734967
0001f0 bd f9 c8 3e 17 39 50 bc f7 db 16 3e 89 f9 9d bd
       0.39253035 -0.012708924 0.14732347 -0.07713611

weight f4 [128, 128]
000000 33 33 62 bd 48 6e fb 3c 98 31 71 bc 2b 27 bd 3d
       -0.05522461 0.030692235 -0.014721297 0.09235986
000010 ba 85 bf bc 56 9a c8 3d c6 1d c1 ba c8 fc be 3d
       -0.023379195 0.09795062 -0.0014733605 0.09325558
000020 43 ff 39 be 59 e8 af 3d c7 61 8c 3d e2 5d 86 ba
       -0.18163781 0.08589239 0.06854587 -0.0010251368
000030 1e a5 74 3d ca b5 72 bc 5c 1f 09 3d fe fe 43 bd
       0.05972778 -0.01481385 0.033477172 -0.0478506
000040 5d 9e 1d 3d 5c 8c 9f bd 07 48 16 3c 2d d0 e3 3d
       0.038481105 -0.07790443 0.009172446 0.11123691
000050 73 05 8a 3d 6e 43 cb 3d fe f7 7f 3c ce bb 9a bc
       0.067393206 0.099249706 0.015623091 -0.01888838
000060 81 df d9 3d dc 12 91 bd ba 65 d6 3c c0 2b 6e 3d
       0.10638333 -0.07083675 0.026171554 0.058147192
000070 28 e7 5d bc ec 0e b9 3d f7 ff 8f bd c4 01 43 3b
       -0.0135438815 0.09036049 -0.07031243 0.002975569
000080 4e 83 94 3d 70 ad c9 bd ea 91 82 3d d7 5a a0 bc
       0.07251607 -0.09847534 0.06375487 -0.019574566
000090 8b db a1 3c 6f 27 23 3d 44 31 16 3d 3b 7a a7 3d
       0.019758007 0.03983253 0.036668077 0.081776105
0000a0 28 c3 46 bb c1 f7 06 bd bf 6c 04 bd 6e ad 31 bb
       -0.0030328725 -0.03295112 -0.03233027 -0.0027111429
0000b0 47 e6 46 3d 95 cc 19 3c 83 5c fd bc df 90 39 be
       0.048559453 0.009387155 -0.030927902 -0.1812167
0000c0 82 00 a5 bd eb 24 c4 3c a0 0c 1f 3d 27 e1 fa 3c
       -0.080567375 0.023943385 0.0388304 0.03062494
0000d0 9b 8f 2f 3d d5 8f ee 3c 92 e2 37 3d 82 c5 80 3d
       0.042861562 0.029121319 0.04489381 0.062876716
0000e0 c2 dd 15 3d a6 0b d1 bc 69 af 03 bd c8 62 9e 3d
       0.036588438 -0.02551825 -0.032149706 0.07733685
0000f0 5f 58 e3 bc 5d ae bb 3c f4 14 b5 bd 1e 54 77 3d
       -0.0277521 0.022910291 -0.08841887 0.060382955
000100 85 b2 cf bd 5e 44 e6 3c 18 86 92 bd 1e 53 97 bd
       -0.10141472 0.028108772 -0.071544826 -0.073889
000110 16 28 46 3b 81 ee 9f bd b1 69 65 3c 53 e8 96 bb
       0.0030236295 -0.07809163 0.01400225 -0.004605332
000120 0a 30 c8 bd 48 38 c9 bd 0d 6e 8d 3d 4b 62 84 3d
       -0.09774788 -0.09825188 0.06905756 0.064640604
000130 60 4f 85 3b 13 e5 40 be 66 ae 50 be 09 71 0e bd
       0.0040683 -0.18837385 -0.20379028 -0.034775767
000140 0d fc 65 3c e0 44 6a bd 07 2f c5 3d 9e 1e 57 bc
       0.014037144 -0.05719459 0.096281104 -0.013129858
000150 0e fa ae 3d fd d2 00 3e 7d 7d e0 bb 25 79 4f 3b
       0.08543788 0.12580486 -0.006850897 0.00316579
000160 5e 80 a6 3d 4e 51 17 3d 33 e3 02 3c cc df ec 3c
       0.08129953 0.036942773 0.007988739 0.028915308
000170 4e d3 1b bd b5 38 f6 bc d7 1b ea 3d 33 62 a1 bd
       -0.038043313 -0.030056337 0.11431091 -0.07880058
000180 3d 65 83 3c e3 29 6f bd 02 d1 d5 bd 58 38 34 3c
       0.016039485 -0.058389556 -0.10440256 0.0109997615
000190 e7 fa 37 3c 9e 6c f2 3b 44 97 10 bd a9 61 43 bd
       0.011229253 0.007398202 -0.03530051 -0.047700558
0001a0 61 d6 28 3d fe 0b aa 3d e7 50 87 bd 32 db 71 bd
       0.041220073 0.083030686 -0.06607228 -0.05904693
0001b0 41 49 92 3d c3 9f ab 3d 08 6a e2 bb 0b b7 0f bd
       0.07142878 0.083800815 -0.0069096126 -0.035086673
0001c0 53 8e b1 bd 82 1e a7 3c 00 42 c9 3d 15 6b 15 3d
       -0.08669724 0.02040029 0.098270416 0.036479075
0001d0 2d bf 07 bf 71 7e 9c 3d 1b 6e 80 3d 2f 91 dc 3d
       -0.53026086 0.07641304 0.06271001 0.10769879
0001e0 4c 05 69 3c cf 9c 05 bd 40 3d a1 ba 7e 53 1c be
       0.014222454 -0.032620247 -0.0012301579 -0.15266225
0001f0 fd f8 c5 3d 08 4a ce bd a7 50 7c ba e0 59 37 bd
       0.09666631 -0.10072714 -0.0009625055 -0.044763446
000200 6e 64 74 3d 60 94 d3 3c be 36 17 3d 02 25 3a 3d
       0.05966609 0.025827587 0.03691744 0.04544545
000210 aa d5 31 3d fa 6d 63 3d 2b bf 87 bd 3b 2b b6 3d
       0.043416657 0.055524804 -0.06628259 0.08894964
000220 3f 37 3c 3d 80 df be 3d 14 08 85 3d 40 79 4a bd
       0.045951124 0.09319973 0.064956814 -0.04943204
000230 b7 94 b6 3d 96 e8 c0 3d ea 7d 1f bc 80 32 85 3d
       0.08915084 0.09419362 -0.00973461 0.06503773
000240 18 d8 71 3d 60 36 af 3b 9e d9 89 bd 23 af b8 bd
       0.059043974 0.005347058 -0.0673096 -0.0901778
000250 59 60 5d bc 77 a7 35 3d a2 ce 3b bc 92 85 ce bd
       -0.013511741 0.04434916 -0.011462839 -0.1008407
000260 68 93 3d 3d 67 a3 a8 bd 60 fd 22 3c 43 75 0f bd
       0.046283156 -0.082342915 0.009948105 -0.03502394
000270 88 3d a6 bc 34 7f 29 bc d3 6f aa bd 88 04 ca 3c
       -0.020293012 -0.010345269 -0.0832211 0.024660364
000280 cf 29 a5 3d 2b 63 86 bc fc 97 55 3d 05 54 01 3d
       0.08064615 -0.016404709 0.052146897 0.031574268
000290 fe 92 dd 3c 2d 9e 22 3d 73 a1 c9 bc 12 08 3b 3d
       0.02704763 0.03970163 -0.024613118 0.045661993
0002a0 02 91 77 bd 00 98 35 b9 a2 48 5e bd 2d fd 07 bd
       -0.060441025 -0.0001731813 -0.054268487 -0.03320043
0002b0 54 bb 17 3d 4a 98 81 3d c3 96 3a 3e 5c d0 35 bd
       0.037043884 0.06327875 0.18221574 -0.04438816
0002c0 3f d8 af 3d 86 b2 02 be 27 dd 8e 3d 23 f5 f9 3c
       0.085861675 -0.12763414 0.06975775 0.030512398
0002d0 b7 94 08 3d ba cd bf 3d 08 7f 32 bc 58 1b 35 3d
       0.03334495 0.09365411 -0.010894544 0.04421553
0002e0 94 81 3b bd 95 1a 8a 3d 12 fe ca 3c f5 80 ba 3b
       -0.045777872 0.06743351 0.024779353 0.0056916424
0002f0 1a f4 02 bd ea 76 30 3d 67 70 54 bd 94 2c 34 bd
       -0.031971075 0.043082155 -0.051865008 -0.043987826
000300 65 fa b0 bc 9a 34 ec 3d 44 5d 9b 3d e0 b7 b0 bc
       -0.021603772 0.115334705 0.075861484 -0.021572053
000310 3c 05 a4 bd 60 05 9a 3d 83 54 a8 3d 7a ae 4c bd
       -0.08008811 0.075205564 0.08219244 -0.04997108
000320 18 27 97 bd 4f 8b 0a 3d a3 8a 53 3c 95 ac e4 ba
       -0.073805034 0.03382426 0.012911472 -0.0017446453
000330 40 75 55 3d e8 f0 db bd 41 43 8f 3b 2b 95 56 3c
       0.05211377 -0.107393086 0.004372031 0.013097088
000340 7c 31 ab bc 6e 68 42 bd 89 7b 1e bd 2c ce 96 3d
       -0.02089762 -0.047462873 -0.03869203 0.07363543
000350 0e 50 c8 bc d7 03 0d 3d d7 4d 8d 3d 2b 0c e8 3c
       -0.024452236 0.03442749 0.068996124 0.028326115
000360 98 bd 7c bc 48 33 29 3d 4d f4 b5 3d 60 20 4c 3c
       -0.015426062 0.04130867 0.08884487 0.012458891
000370 42 34 e3 3d 09 8b 80 bd c5 87 0d 3e 50 8f 64 bd
       0.11093952 -0.06276519 0.13821323 -0.055800736
000380 10 97 04 3e d4 d1 a9 bc 5a 3d b7 bd 2e 59 55 3d
       0.12948251 -0.020729937 -0.08947249 0.052087
000390 8f 44 90 3a ec 3a a4 3d 33 c3 c0 3d 53 3e 9c bd
       0.001100676 0.08019051 0.09412231 -0.07629075
0003a0 21 05 71 bd 58 49 bc 3d c7 90 84 3d 60 22 1d bb
       -0.058842782 0.09193677 0.064729266 -0.0023976788
0003b0 d0 00 f3 bc 04 10 83 3d 10 a9 db bd a8 bf 8a 3c
       -0.029663473 0.06399539 -0.107256055 0.016937092
0003c0 bc 2f f3 bc 37 98 cf bc eb cc 6e 3c 52 5b fc 3c
       -0.029685847 -0.025341136 0.014575223 0.030805264
0003d0 15 7b 21 be 2a 94 5a 3d 25 ff 0f bd d3 08 01 bd
       -0.15769608 0.053363957 -0.035155434 -0.031502556
0003e0 6a 71 83 bd ec 03 86 bd b0 25 ff 3c 2c a5 2e 3d
       -0.064181164 -0.06543717 0.0311459 0.04263799
0003f0 9d e6 08 bd ce c9 d0 3d 7d 35 83 3d 30 d5 8c bd
       -0.033423055 0.10194741 0.064066865 -0.068766

bias f4 [128]
000000 58 9d fb bc 78 46 24 bc fc 1d d7 bc 7c 40 df 3d
       -0.030714676 -0.010026567 -0.026259415 0.10900971
000010 ce f7 d0 bb df 33 a9 bd ab 19 ae bc 9f 3c 5b 3d
       -0.006377197 -0.08261847 -0.021252474 0.05352461
000020 73 8e 2f 3d 57 ff 23 3c 1e a5 f4 3c 38 1c 12 bd
       0.04286046 0.010009608 0.02986389 -0.035671443
000030 b9 36 80 bd e1 16 99 3d fa 6e 61 3d 80 9c a2 3c
       -0.062604375 0.07475067 0.055037476 0.019850016
000040 9c 5e 48 bd 40 e2 39 bd ae cf 8e bd 0e 92 75 bb
       -0.04891835 -0.045381784 -0.069732055 -0.0037471089
000050 01 91 22 bd 17 9c 66 3d 25 8c a3 3d 2d f9 87 bb
       -0.039689068 0.056301203 0.07985715 -0.004149577
000060 73 06 4c bc c9 85 6c 3d 88 20 04 3d a4 99 d8 3c
       -0.0124527095 0.057744775 0.032257587 0.026440449
000070 f1 7b de 3c 15 b0 4a bd 94 ca 90 bc c4 96 e8 ba
       0.02715871 -0.04948433 -0.017674722 -0.0017745127
000080 8a dd 93 3c 4c ea 98 bc d3 85 a1 bd 7d 66 4a bd
       0.018049974 -0.018666409 -0.07886853 -0.049414147
000090 cd 4c f2 3c a8 fb 2f 3d 40 dc d7 bc 77 99 ba bc
       0.029577637 0.042964607 -0.02635014 -0.022778256
0000a0 b7 7f 50 3d b0 82 51 bd 6e fb 69 3d 45 c6 aa bd
       0.05090305 -0.051150024 0.057124548 -0.08338598
0000b0 90 70 98 bd 8c 1c 98 3c ef 1c 4e bd da b5 1d bd
       -0.074433446 0.0185683 -0.050320562 -0.038503505
0000c0 cc e8 12 bc 31 1e 3c 3d 31 0b 93 3d 97 7f 0b 3a
       -0.008966636 0.04592723 0.07179869 0.00053214416
0000d0 fd 62 13 3d 46 74 82 3d 86 cf 95 bc c2 94 29 3d
       0.035983074 0.06369834 -0.018287431 0.041401632
0000e0 bc eb c2 3c df 4f be bc 0e a3 08 3d 72 9e 3b 3d
       0.023794048 -0.023231445 0.033358626 0.045805402
0000f0 53 19 1f bd 88 d9 ba bc 28 0f 8c bd db 73 ab bc
       -0.03884251 -0.022808805 -0.06838828 -0.020929268
000100 d8 94 14 3c fb 7e 0c bd 80 74 ab bd 2e bd 1a bd
       0.00906869 -0.034300786 -0.0837183 -0.037778072
000110 18 de 84 bd 98 1b d9 3d ed 92 b7 3d 97 1c 90 bd
       -0.064876735 0.10600966 0.08963571 -0.07036703
000120 6f 18 03 3d 8b a5 11 3d 6c 6e 3f 3c 8d e7 46 3d
       0.032005724 0.035558265 0.0116840415 0.048560668
000130 c8 11 a0 3b 80 81 25 bd 9a 1e 7b bd 64 89 3e 3d
       0.004884932 -0.040406704 -0.06130848 0.046517745
000140 5c e6 0e 3d 81 2f 9c bd 58 ba 5a bc 5f 10 32 bd
       0.034887657 -0.07626248 -0.013350092 -0.043472644
000150 5d 87 e7 bc 6d fc 4d bd cd 6d dc bc 20 e9 11 3d
       -0.028262788 -0.05028956 -0.026907826 0.035622716
000160 bf 84 8a 3d 5e 03 33 3d f7 ce 20 bd 3e 3c b1 39
       0.067636006 0.043704383 -0.039259877 0.00033804955
000170 ef dc 97 3d 26 b8 77 3a 95 e0 5b 3d 05 ba ac 3d
       0.074151866 0.00094497425 0.053680975 0.08433918
000180 5c 0c 9b bc 00 34 a4 3d 0c 45 8d bd 19 1e 01 bd
       -0.018926792 0.08017731 -0.06897935 -0.031522844
000190 a6 72 44 3d 38 ed 3e 3d c3 eb 08 bd 82 40 10 bd
       0.0479609 0.04661295 -0.033427965 -0.03521777
0001a0 c9 6a 5b 3d 6f 1e 1c 3d f9 05 1e ba be e8 4f bd
       0.053568635 0.03811496 -0.00060281117 -0.05075907
0001b0 b4 da 7f bd 50 ac eb 3b 73 80 34 3d ed 34 bb bb
       -0.06246443 0.007192172 0.04406781 -0.0057130964
0001c0 2e e6 04 bd 11 05 1b bd 08 e9 a2 bc c5 36 df 3d
       -0.03244608 -0.03784663 -0.019886509 0.10899118
0001d0 31 dd 06 bd 3a a1 48 3d 18 6c ae 3c 19 93 55 bd
       -0.03292579 0.048981883 0.021291777 -0.052142236
0001e0 a8 46 32 3d 46 24 59 bd c9 fd 8b bd c1 8b c8 bc
       0.043524414 -0.05301311 -0.06835515 -0.024480702
0001f0 9a dd a9 bd 6a 91 a3 bd 1f 5a 05 3d b2 fa 66 3d
       -0.0829422 -0.0798672 0.03255665 0.056391425
