models/mountaincar_2D/checkpoint_cl.13.pth.tar (torch_old, 143897 bytes, 12 tensors)

weight f4 [128, 5]
0	0x3e35d676	0.17757592
1	0x3d901909	0.07036025
2	0xbddbf4a4	-0.10740021
3	0x3e74d50f	0.239094
4	0xbec4edd1	-0.3846269
5	0xbe7fb8f8	-0.24972904
6	0x3e02eb44	0.12785059
7	0xbdb2a324	-0.08722523
8	0xbe818fb4	-0.2530495
9	0xbe89f834	-0.26947176
10	0xbfbb836d	-1.4649483
11	0xbe80d500	-0.25162506
12	0xbd98d4b6	-0.074624464
13	0xbd98b6b3	-0.07456722
14	0xbe68de5b	-0.22741072
15	0xbc9e731c	-0.019341998
16	0xbdf869b9	-0.1212954
17	0xbd2c61ae	-0.042085342
18	0x3e29c497	0.165789
19	0x3e954cde	0.29160208
20	0x3da3a71c	0.07990858
21	0xbe9c983f	-0.30584905
22	0x3eb34e57	0.35020706
23	0x3ccd94c0	0.025095344
24	0x3ebb9c06	0.36642474
25	0x3eda2b13	0.42610988
26	0x3e6e43e1	0.23268081
27	0x3e3dfcf7	0.1855353
28	0xbe1f3d1c	-0.15550655
29	0xbe8a1332	-0.2696777
30	0x3e1a991f	0.15097474
31	0xbeb8e075	-0.36108747
32	0xbe372f64	-0.17889172
33	0x3e8e5758	0.27801013
34	0x3e849dd4	0.25901663
35	0xbec696ae	-0.38786834
36	0xbdd17101	-0.10226632
37	0x3ebc4416	0.36770695
38	0xbea8d903	-0.32978067
39	0x3e8ad2c2	0.2711392
40	0xbed41d69	-0.41428688
41	0x3d3eee63	0.046614062
42	0xbe92134a	-0.2853034
43	0xbe0b52ba	-0.13605776
44	0x3e9ee600	0.3103485
45	0x3db6bb64	0.08922461
46	0xbe08404c	-0.13305777
47	0xbd9fe53e	-0.07807396
48	0xbe9822a9	-0.29713944
49	0xbe625ce3	-0.22105746
50	0xbee6ea95	-0.45100847
51	0x3e5b5886	0.21420488
52	0xbe83b4a0	-0.25723743
53	0x3eb28b3b	0.3487185
54	0x3e66cb97	0.22538601
55	0x3f0cfdf9	0.5507503
56	0x3e676ae8	0.22599375
57	0x3e3d1834	0.18466264
58	0x3ec13ca6	0.37741584
59	0xbe42380d	-0.18966694
60	0x3de1adbf	0.110194676
61	0xbe11dc9c	-0.14244312
62	0x3e9739a8	0.29536176
63	0x3e46be7e	0.19408605
64	0x3e4f868d	0.20266171
65	0xbdb00389	-0.08594424
66	0x3ea0f9c6	0.31440562
67	0xbecdc644	-0.40190327
68	0x3d1783f0	0.03699106
69	0x3dc279cf	0.094958894
70	0xbedd0278	-0.43165946
71	0xbe4b0f70	-0.19830108
72	0x3eaff22c	0.3436445
73	0x3e5631b9	0.20917405
74	0xbed307fb	-0.41217026
75	0xbea31492	-0.3185163
76	0x3e769c83	0.24083142
77	0x3eb2cf90	0.34923983
78	0xbe5e51c9	-0.21710886
79	0xbe453a06	-0.19260415
80	0x3e82586f	0.25458094
81	0x3ecd3709	0.4008105
82	0xbefa3c7e	-0.48874277
83	0xbe9830e6	-0.29724807
84	0x3e9f8733	0.31157836
85	0xbebb9e8d	-0.36644402
86	0xbe20a26d	-0.1568696
87	0x3eced147	0.4039404
88	0x3ecf88f6	0.4053418
89	0x3d3c1c33	0.04592533
90	0xbcb4d010	-0.022071868
91	0xbecca294	-0.39967787
92	0x3cc6ff50	0.024291664
93	0xbe91ca28	-0.28474545
94	0xbc813af0	-0.015775174
95	0xbec07051	-0.3758569
96	0x3e25a623	0.16176657
97	0x3dd70686	0.10499291
98	0x3e0f8ef1	0.14019372
99	0xbecaec90	-0.39633608
100	0x3e3289b8	0.17435348
101	0x3cfa49e8	0.03055282
102	0xbea2e96a	-0.31818706
103	0x3e0ea15e	0.13928744
104	0xbeba1c1c	-0.3634957
105	0x3ed213f0	0.41030836
106	0x3e18662e	0.14882728
107	0x3d988819	0.074478336
108	0x3e802f39	0.25036028
109	0xbea95772	-0.33074528
110	0x3e0e00e4	0.13867527
111	0x3ee2e913	0.44318447
112	0x3d5f836a	0.054568686
113	0xbd95579f	-0.07292103
114	0x3eae24a4	0.3401233
115	0xbe0acdc2	-0.13555053
116	0x3da3089d	0.07960627
117	0x3e72716d	0.23676081
118	0xbde1f1f6	-0.110324785
119	0x3e294591	0.16530444
120	0xbe764567	-0.24049912
121	0x3eb3196e	0.3498034
122	0x3e92e965	0.2869369
123	0x3ece9d3d	0.40354338
124	0xbe6327db	-0.22183172
125	0xbe8ba96e	-0.27277702
126	0xbed06640	-0.4070301
127	0x3ea5f8f7	0.32416508
128	0x3e3a00dc	0.1816439
129	0xbe7caa79	-0.24674405
130	0xbec7b3bf	-0.39004323
131	0x3ebb34c4	0.36563694
132	0x3e3eb5f8	0.18624103
133	0x3e4520ed	0.19250841
134	0x3ca0ffb3	0.019653177
135	0xbe157b48	-0.1459781
136	0x3eb93043	0.36169633
137	0x3ecb2455	0.39676157
138	0x3ed7b4ba	0.4213007
139	0x3d532541	0.0515492
140	0x3ed27da5	0.41111484
141	0xbb907152	-0.00440804
142	0xbec0d0b8	-0.3765924
143	0x3eae39ae	0.3402838
144	0x3e7fa791	0.24966265
145	0x3eabec2a	0.33578616
146	0xbee4d514	-0.44693816
147	0x3ea5bc14	0.32370055
148	0xbc776a3f	-0.015101015
149	0x3d4159ff	0.047204968
150	0x3ed5bf90	0.41747713
151	0x3e7930f2	0.24335077
152	0xbed4abde	-0.41537374
153	0xbd432a2e	-0.047647648
154	0x3ebcebc7	0.36898634
155	0x3dfc44e2	0.12317826
156	0x3e28e52f	0.16493677
157	0x3d82e292	0.06390871
158	0x3e899808	0.26873803
159	0xbe3bd3c3	-0.183425
160	0x3e8f2205	0.27955642
161	0x3ea641d0	0.32472086
162	0x3e52d0d5	0.20587476
163	0x3e02eb66	0.1278511
164	0x3ebaa230	0.36451864
165	0xbee00b2f	-0.43758532
166	0xbeb9e4f1	-0.3630748
167	0x3e3663dc	0.17811531
168	0xbe180170	-0.14844298
169	0x3eacc092	0.3374067
170	0xbec9a5da	-0.39384347
171	0xbea9d7fa	-0.3317259
172	0x3d93dc10	0.07219708
173	0x3d05b778	0.032645673
174	0xbdce3fb8	-0.10070747
175	0x3e36a37e	0.17835805
176	0xbe2a9e16	-0.16661867
177	0x3eb02eec	0.344108
178	0xbdfcb7a6	-0.12339716
179	0x3ecba32d	0.3977293
180	0xbe1054d4	-0.1409486
181	0x3e398d90	0.18120408
182	0xbe4faa2e	-0.20279762
183	0xbe9a5260	-0.30140972
184	0x3bce5540	0.0062967837
185	0x3ed2e189	0.41187695
186	0x3d7e9cc5	0.062161226
187	0xbe8baf25	-0.27282062
188	0xbceb5c6d	-0.028730595
189	0xbeaf840c	-0.3428043
190	0x3e880d86	0.26572818
191	0xbe965d3f	-0.29368016
192	0xbd39b2a0	-0.045336366
193	0xbe8cfb14	-0.27535307
194	0xbe1460f0	-0.14490104
195	0xbeb89a0c	-0.36055028
196	0xbec6eda1	-0.3885317
197	0xbe17a14e	-0.14807627
198	0x3ea91b74	0.33028758
199	0xbed2bb3c	-0.41158473
200	0xbb8e3a17	-0.004340421
201	0xbd97bd6f	-0.074091785
202	0xbe424eb4	-0.18975335
203	0xbd136606	-0.03598597
204	0x3e839c93	0.25705394
205	0x3ecf0683	0.40434656
206	0xbe6387be	-0.2221975
207	0xbe9377c0	-0.288023
208	0xbdd696d8	-0.1047799
209	0x3cd43cc1	0.025907876
210	0xbe097655	-0.13424046
211	0x3e7b69f4	0.24552137
212	0xbe312445	-0.17298992
213	0xbea8708b	-0.32898363
214	0x3e87ddb5	0.26536337
215	0xbe005a51	-0.12534453
216	0x3e4b807b	0.1987323
217	0xbe7f270d	-0.2491724
218	0x3eb91168	0.36146092
219	0xbe0c7ec6	-0.13720235
220	0xbe1984a8	-0.1499201
221	0x3ea16966	0.31525725
222	0xbd25200e	-0.040313773
223	0xbbbcd3f1	-0.00576257
224	0xbdc3e291	-0.095646985
225	0x3ebd870b	0.37017092
226	0x3c03891b	0.008028294
227	0xbe9b0107	-0.3027422
228	0xbea3500d	-0.3189701
229	0x3e006fd8	0.12542665
230	0x3eca4155	0.3950297
231	0xbea7b5de	-0.3275594
232	0xbec822ee	-0.3908915
233	0x3ec7af29	0.39000824
234	0xbe482dfa	-0.19548789
235	0xbed6df06	-0.41967028
236	0x3e5ccd13	0.21562605
237	0x3dc5bc53	0.096550606
238	0xbdb49e65	-0.08819274
239	0xbd51de8a	-0.05123762
240	0xbebb54fe	-0.3658828
241	0x3e342a7c	0.17594332
242	0x3eb3302e	0.34997696
243	0xbe9b5438	-0.3033769
244	0x3eca02f8	0.3945539
245	0x3ea2703b	0.3172625
246	0x3e9bfa90	0.30464602
247	0x3e6ddaaf	0.23227952
248	0x3e8d310c	0.27576482
249	0x3e8e108a	0.27746993
250	0x3e853b05	0.2602159
251	0x3d9e6c18	0.07735461
252	0x3d4ea730	0.05045241
253	0x3e79ef63	0.24407725
254	0xbe94e322	-0.2907954
255	0xbde60716	-0.1123182

bias f4 [128]
0	0xbed1e855	-0.40997568
1	0xbe5ddf17	-0.21667133
2	0x3e4c38d5	0.19943555
3	0x3e0037f7	0.12521349
4	0xbe01dfd1	-0.12683035
5	0xbdf99463	-0.12186506
6	0x3e179472	0.14802721
7	0x3e24e71b	0.16103785
8	0x3d8187b5	0.06324712
9	0x3e8d9869	0.27655342
10	0x3ea66482	0.32498556
11	0xbeeb6049	-0.45971897
12	0xbdd7a54a	-0.10529573
13	0xbeb98d07	-0.36240408
14	0x3ebfb77b	0.37444672
15	0xbe3e5cf5	-0.18590148
16	0x3e9bdf29	0.30443695
17	0x3eee8f04	0.46593487
18	0xbeba0815	-0.3633429
19	0x3e0049ff	0.12528227
20	0xbe833a70	-0.25630522
21	0xbed767bd	-0.42071334
22	0xbe8da304	-0.27663434
23	0x3e49bccf	0.19700931
24	0xbebe93aa	-0.37222034
25	0xbe97abdd	-0.2962331
26	0xbccc9c45	-0.024976859
27	0x3c5c0b46	0.013430422
28	0xbdc83a69	-0.09776766
29	0x3ea43032	0.3206802
30	0x3e180e97	0.14849316
31	0x3df3838d	0.11890326
32	0xbd9daee3	-0.076993726
33	0xbea26aec	-0.317222
34	0xbe250526	-0.16115245
35	0x3e464671	0.19362809
36	0xbea1537c	-0.31509006
37	0x3e78879e	0.24270484
38	0xbeb1d8f7	-0.34735844
39	0x3e9df155	0.30848184
40	0xbde89266	-0.11356048
41	0xbe485d31	-0.195668
42	0x3ed43606	0.41447467
43	0xbebb8eaa	-0.36632282
44	0x3db7f85a	0.08982916
45	0x3ebecd24	0.37265885
46	0x3ec84308	0.3911364
47	0x3ebd607b	0.3698767
48	0xbe0b4b9a	-0.13603058
49	0xbebd0007	-0.36914083
50	0xbeec577e	-0.461605
51	0xbe4c4e18	-0.19951665
52	0x3e8c37d2	0.27386338
53	0x3e6f3c5b	0.23362868
54	0x3ed9da48	0.42549348
55	0xbc00a99a	-0.007852936
56	0xbec5bfb8	-0.38622832
57	0xbe9405b2	-0.28910595
58	0xbe09ea92	-0.13468388
59	0xbed5e3dc	-0.41775405
60	0x3e38966b	0.1802613
61	0xbbdb77c6	-0.0066976277
62	0x3e17ee37	0.14836966
63	0xbe130a81	-0.14359476
64	0x3e1fd9d0	0.15610433
65	0xbe6de13d	-0.23230453
66	0x3da42894	0.08015552
67	0xbe3a7126	-0.18207225
68	0xbe4aa625	-0.19789942
69	0xbeb56bfe	-0.35433954
70	0x3e4ec2e8	0.20191538
71	0xbbdf9788	-0.006823484
72	0x3e091ef6	0.13390717
73	0x3c1ccc65	0.009570216
74	0x3dde06e9	0.10841162
75	0x3d2c45e3	0.042058837
76	0xbed0d2cf	-0.40785834
77	0x3ef20a05	0.4727327
78	0xbe812c96	-0.2522933
79	0xbe262a13	-0.16226988
80	0xbe34de58	-0.17662942
81	0xbe981061	-0.29699996
82	0xbd742fb0	-0.05961579
83	0xbe743566	-0.23848495
84	0x3e34ec45	0.17668255
85	0xbe6335ff	-0.22188567
86	0x3ed474df	0.41495416
87	0x3e828d24	0.25498307
88	0xbe1139cd	-0.14182205
89	0xbd81aeac	-0.06332144
90	0x3e5d7996	0.21628413
91	0xbda91103	-0.08255198
92	0x3e66b0f5	0.22528441
93	0x3e4eda74	0.20200521
94	0xbef1dd47	-0.47239134
95	0x3ed54fcc	0.41662443
96	0xbe274c12	-0.16337612
97	0x3e977edb	0.2958897
98	0x3ed764d5	0.42069116
99	0x3e1e3661	0.15450431
100	0x3ecac179	0.39600733
101	0x3ed0a806	0.40753192
102	0xbde1a53c	-0.11017844
103	0xbe9ea310	-0.30983782
104	0xbe63cc34	-0.22245866
105	0xbded895c	-0.11598465
106	0xbda5aed2	-0.08089985
107	0xbec511e6	-0.38490218
108	0xbeb06ceb	-0.34458098
109	0xbdbdca1b	-0.09267064
110	0x3e0dbf14	0.13842422
111	0xbe047132	-0.12933806
112	0xbe4a6f61	-0.1976905
113	0xbe25c206	-0.16187295
114	0x3e67156c	0.22566766
115	0xbe821b35	-0.25411382
116	0xbe84ec2b	-0.25961432
117	0xbe1f7476	-0.1557177
118	0xbebe07f6	-0.3711545
119	0x3eccea7f	0.40022656
120	0xbeafe979	-0.34357813
121	0x3ec21a94	0.37910903
122	0xbe472718	-0.19448507
123	0xbe4443dc	-0.19166511
124	0x3eafae29	0.3431256
125	0x3edf8bb9	0.43661287
126	0xbde30007	-0.110839896
127	0xbe975a29	-0.29560974

weight f4 [128, 128]
0	0xbdd16f16	-0.10226266
1	0xbc8e702c	-0.017387472
2	0xbf9b2bca	-1.2122738
3	0xbcc034ed	-0.023462737
4	0x3ccb0d6e	0.024786677
5	0xbc016962	-0.00789866
6	0x3dd95311	0.10611547
7	0x3d2a63fe	0.041599266
8	0x3c584c50	0.013201788
9	0x3d81d016	0.06338517
10	0x3d5c335b	0.053759914
11	0xbdfc8fa9	-0.123320885
12	0xbd53ea4c	-0.051737115
13	0xbd24af17	-0.04020604
14	0xbc6d6b69	-0.014490941
15	0xbc76a358	-0.015053593
16	0x3d105270	0.03523487
17	0xbc77de95	-0.015128751
18	0xbd835761	-0.064131506
19	0xbdc2ba0c	-0.09508142
20	0x3c0f7a25	0.008757149
21	0x3c18974c	0.009313416
22	0xbda4a563	-0.080393575
23	0x3da0f81a	0.078598216
24	0xbd0767fc	-0.03305815
25	0x3d999beb	0.07500442
26	0xbdb7922c	-0.08963427
27	0x3d9d4b98	0.07680434
28	0x3ccb2505	0.024797926
29	0x3c8ad9aa	0.016949493
30	0x3d672140	0.056428194
31	0x3db64f76	0.08901875
32	0x3c2042bb	0.009781535
33	0x3c366498	0.011132382
34	0x3d7a7dfe	0.06115531
35	0x3d99ce5d	0.07510064
36	0xbd913611	-0.070903905
37	0x3dd1ed8b	0.10250386
38	0xbd68561f	-0.056722756
39	0xbc48b68a	-0.012250552
40	0x3d56460f	0.052312907
41	0x398fefd1	0.00027453763
42	0x3d8d3057	0.06893986
43	0xbd1c5f4e	-0.038176827
44	0xba66b308	-0.00088004814
45	0xbc3a927b	-0.011387463
46	0x3d4c17ce	0.04982739
47	0x3d1f9fc8	0.03897074
48	0x3d46096a	0.04834882
49	0x3d548b6b	0.05189077
50	0xbdbe197a	-0.09282203
51	0x3d5c074b	0.053717893
52	0x3dc52347	0.09625869
53	0x3ced2f2a	0.028953154
54	0x3d879b35	0.066214
55	0x3b9d0712	0.0047921026
56	0x3d14af4c	0.03629999
57	0xbce805b2	-0.028323028
58	0x3d257343	0.040393125
59	0x3d4fddd6	0.05074867
60	0x3d8ac926	0.06776647
61	0x3dc3b254	0.09555498
62	0x3d9a7aee	0.07542978
63	0x3d0ab653	0.033865284
64	0xbdc51658	-0.09623402
65	0xbbf4d304	-0.007471444
66	0xbd1c3ff1	-0.038146917
67	0x3d66ec3e	0.05637764
68	0xbd6875f6	-0.05675312
69	0x391fee00	0.00015252084
70	0x3d20da63	0.03927077
71	0x3d80c9cc	0.0628849
72	0x3dc17393	0.09445872
73	0xbc559013	-0.013034838
74	0x3d808460	0.062752485
75	0x3c5faffb	0.013652797
76	0x3d2ec3d6	0.042667232
77	0xbe3e3d5f	-0.18578099
78	0xbd3f0891	-0.04663903
79	0xbd1bb597	-0.038014974
80	0xbc45ebe4	-0.0120801665
81	0xbc925b0b	-0.017865678
82	0x3cc93c3c	0.024564855
83	0x3dbd3074	0.09237757
84	0xbd9b33ad	-0.07578216
85	0x3c787abb	0.01516598
86	0xbcfa6ca1	-0.030569376
87	0xbd9039cc	-0.07042274
88	0x3a7bc4af	0.0009604198
89	0x3d1bab02	0.038004883
90	0x3cb54472	0.022127364
91	0xbd43cb47	-0.047801282
92	0x3d89f2b4	0.06735745
93	0x3cffca36	0.031224351
94	0xbe325178	-0.1741389
95	0x3d258c84	0.04041721
96	0x3d4c86c2	0.049933203
97	0xbd003479	-0.03130004
98	0x3cbab35c	0.022790603
99	0x3b209c73	0.0024507314
100	0xbd111eac	-0.03542964
101	0x3da4a7c9	0.08039815
102	0x3d70668c	0.058691546
103	0xbd990191	-0.07471002
104	0x3d01c0c8	0.03167799
105	0x3cf1c6ca	0.029513735
106	0xbd632141	-0.055451635
107	0x3d04f94e	0.032464318
108	0x3d967215	0.07345978
109	0x3db4df70	0.0883168
110	0xbd6e6def	-0.05821031
111	0xbd2cd3bb	-0.04219411
112	0xbd3c4b00	-0.045969963
113	0xbd8675a8	-0.0656541
114	0xbcba58e9	-0.022747474
115	0xbe1da05b	-0.15393202
116	0x3c39f394	0.011349577
117	0x3de2069b	0.11036416
118	0x3ce961de	0.02848905
119	0xbda249cf	-0.07924234
120	0x3dcf1830	0.10112035
121	0xbd2fe1ba	-0.04293988
122	0x3db290a0	0.08718991
123	0xbc779b81	-0.015112759
124	0x3cdd261d	0.026995713
125	0x3da6e541	0.081491955
126	0xbeb61c96	-0.35568684
127	0x3c460880	0.0120869875
128	0x3a9ce772	0.0011970832
129	0x3c021b80	0.007941127
130	0x3dab6705	0.08369259
131	0x3cd72c58	0.026266262
132	0x3cc88ded	0.024481738
133	0xbda29bfb	-0.07939907
134	0xbd311344	-0.043231264
135	0x3d4d13f8	0.05006787
136	0x3d5cc542	0.053899057
137	0xbda7d248	-0.08194405
138	0xbd560f01	-0.052260403
139	0xbdae65d3	-0.08515515
140	0x3b075bff	0.00206542
141	0x3d0127ba	0.031532027
142	0xbd6a32bb	-0.057177287
143	0xbda1492c	-0.078752846
144	0x3d072e18	0.033002943
145	0xbd0431b9	-0.03227398
146	0xbca121cc	-0.019669436
147	0x3c84493c	0.016148202
148	0x3d1c4edf	0.038161155
149	0xbd42ae82	-0.047529705
150	0x3d351f84	0.04421951
151	0x3cd28d91	0.02570227
152	0xbd127d95	-0.035764296
153	0xbca6e324	-0.020371981
154	0xbd418d02	-0.047253616
155	0xbdbeb666	-0.093121335
156	0x3cd6e0a0	0.026230156
157	0xbd53a989	-0.051675353
158	0x3d8fa410	0.07013714
159	0x3c436a54	0.011927206
160	0x3d52d28b	0.05147032
161	0x3cb3e1dc	0.021958284
162	0xbda63da0	-0.08117223
163	0xbd6f5fcb	-0.058440965
164	0x3d994b3d	0.07485054
165	0xbd7da608	-0.061925918
166	0x3c6b0340	0.014344037
167	0xbd42ec91	-0.04758889
168	0x3d6c6560	0.057713866
169	0x3da9f19d	0.08298037
170	0x3c714178	0.014725082
171	0x3d36bb52	0.044612236
172	0x3d3b4923	0.045724045
173	0xbd3e097e	-0.04639577
174	0xbca1d1c4	-0.019753344
175	0xbda6f89a	-0.08152886
176	0xbd91e173	-0.07123079
177	0xbdb93192	-0.09042658
178	0xbd848988	-0.064715445
179	0xbd2bdc15	-0.041957933
180	0x3d356b19	0.04429159
181	0x3cb74c04	0.022375114
182	0x3d8e952f	0.06962048
183	0xbd0663cc	-0.032810017
184	0x3c802550	0.015642792
185	0x3d8d0531	0.06885756
186	0xbc803415	-0.015649835
187	0xbcc046f8	-0.02347134
188	0xbd1f258c	-0.038854167
189	0x3d8c97da	0.06864901
190	0x3d0026c6	0.031286977
191	0x3dae8580	0.08521557
192	0x3d2bb7c9	0.041923318
193	0xbd408ce1	-0.047009353
194	0xbcfc0461	-0.030763807
195	0xbd68c04c	-0.056824014
196	0xbd8a32af	-0.067479484
197	0xbc5d0a08	-0.013491161
198	0x3c455ed6	0.012046536
199	0x3da373af	0.07981049
200	0xbc98d48b	-0.018656036
201	0x3d8b845f	0.06812357
202	0xbd4dc7c1	-0.05023933
203	0x3c98766b	0.018611154
204	0xbd959ce1	-0.07305313
205	0xbc3bb362	-0.011456342
206	0xbd60ffe1	-0.054931525
207	0x3d2eec30	0.042705715
208	0x3c930f00	0.017951488
209	0x3c2e0750	0.010621861
210	0x3d08b6c8	0.03337744
211	0x3cc97c2c	0.024595343
212	0xbcf7c33e	-0.030244466
213	0x3c22e720	0.0099428
214	0x3c476364	0.012169693
215	0xbcf633f6	-0.030054074
216	0xbb7eeee2	-0.003889971
217	0x3c2eecd8	0.010676585
218	0xbd7c6621	-0.061620835
219	0xbbd18ae5	-0.0063947313
220	0x3d75652b	0.059910934
221	0xbda0ee6d	-0.07857976
222	0x3d1f3ed6	0.038878284
223	0xbcc36178	-0.023850188
224	0x3d3c3915	0.045952875
225	0xbc9b0759	-0.018924402
226	0x3d414466	0.04718437
227	0xbd83fc5d	-0.06444619
228	0x3d1e9297	0.038714018
229	0x3d19ac98	0.037518114
230	0xbd93315d	-0.0718715
231	0x3d0b5462	0.03401602
232	0xbd00b171	-0.03141922
233	0x3cf6859b	0.030093005
234	0x3d5a27c0	0.053260565
235	0x3d0153e8	0.03157416
236	0x3d434e86	0.047682308
237	0xbd5d7bd8	-0.054073185
238	0x3bf7fefe	0.0075682392
239	0xbb846807	-0.0040407213
240	0x3c88aa6f	0.016682832
241	0xbd49f091	-0.049301688
242	0x3d9780b7	0.07397597
243	0x3cce65bf	0.025195
244	0xbc5ea819	-0.013589882
245	0x3d8477ff	0.064682
246	0x3cae6857	0.021289987
247	0x3cf204b3	0.029543256
248	0xbd94877f	-0.07252406
249	0xbc860fd4	-0.01636497
250	0xbda5548d	-0.080727674
251	0x3d398f5b	0.04530273
252	0xbcf5725a	-0.029961754
253	0xb9d11a9e	-0.00039883418
254	0xbb943920	-0.0045234114
255	0x3bdcf620	0.0067432076

bias f4 [128]
0	0x3d05c342	0.032656915
1	0xbdad1ef9	-0.08453173
2	0xbc94bc52	-0.018156204
3	0xbd50fb31	-0.051020805
4	0x3d4a6207	0.049409892
5	0x3d88f717	0.06687754
6	0x3d8c649c	0.06855127
7	0xbacb779e	-0.001552332
8	0xbd65bf4c	-0.056090638
9	0x3d8c3434	0.068458945
10	0xbcd1dcfb	-0.025618067
11	0xbaee9a7d	-0.0018204
12	0x3d89ef22	0.06735064
13	0x3d3c71f4	0.04600711
14	0x3d98bd01	0.07457925
15	0xbd864f50	-0.065580964
16	0x3cf6b81a	0.030117083
17	0xbd2d97c1	-0.042381052
18	0x3d065023	0.032791268
19	0x3db0c503	0.08631327
20	0x3ddb21a0	0.10699773
21	0x3d36a642	0.04459215
22	0xbcac255b	-0.021013906
23	0x3c6171b0	0.013760015
24	0x3d0cc713	0.03436954
25	0xbd2ee08f	-0.042694625
26	0x3d91bdbc	0.07116267
27	0x3cb32870	0.021869868
28	0x3da59dee	0.08086763
29	0x3cca388c	0.024685167
30	0xbd87deca	-0.066342905
31	0x3dc1fceb	0.094720684
32	0x3d3773fa	0.04478834
33	0xbcb0b8cf	-0.021572499
34	0x3dea0aa4	0.11427811
35	0xba89b3fe	-0.0010505912
36	0x3d5917e9	0.053001318
37	0xbd30500f	-0.0430451
38	0xbd1bc7a0	-0.038032174
39	0x3d768bbb	0.06019185
40	0xbcc5df1e	-0.024154242
41	0xbc9fdc12	-0.019514117
42	0x3dba5308	0.09097868
43	0xbcf25a6e	-0.029584136
44	0xb86e46dc	-5.6809615e-05
45	0x3d6a0a1a	0.05713854
46	0x3d88014e	0.06640874
47	0x3ceebbb2	0.029142234
48	0x3da9d14d	0.08291874
49	0x3de061e7	0.109561734
50	0xbdac4627	-0.08411818
51	0xbd5e66d8	-0.0542973
52	0xbd81afdb	-0.0633237
53	0x3d9ac441	0.07556964
54	0xbd631e85	-0.055449028
55	0xbd0a8fe4	-0.03382863
56	0xbc9bb4c8	-0.019007102
57	0xbdb372f3	-0.08762159
58	0xbd999bd3	-0.07500424
59	0x3c8e3983	0.017361408
60	0xbd7ed45d	-0.062214244
61	0x3d79a879	0.060951684
62	0x3cca58d3	0.024700558
63	0xbc2908cc	-0.010317039
64	0x3ca7a1cf	0.020462899
65	0xbc03a8e1	-0.008035869
66	0x3d9c1c2d	0.076225616
67	0x3d9d1c80	0.076714516
68	0x3d191eca	0.03738288
69	0xbd5280ad	-0.051392246
70	0xbdab6dde	-0.08370565
71	0x3c8097b8	0.015697345
72	0xbc819789	-0.015819328
73	0x3dbd2343	0.09235241
74	0x3d84fb99	0.06493301
75	0xbd221911	-0.039574686
76	0x3dd97ef8	0.106199205
77	0xbd80fe5a	-0.06298514
78	0x3ca2e7de	0.019885954
79	0x3db27f57	0.087156944
80	0xbdb4a130	-0.088198066
81	0xbd42fddf	-0.04760539
82	0x3d5c3764	0.053763762
83	0x3c5dd592	0.013539689
84	0x3d86bdb8	0.06579155
85	0xbcbda990	-0.023152143
86	0xbd8d15b4	-0.06888905
87	0xbce80312	-0.028321777
88	0x3d61e9bc	0.055154547
89	0x3d804477	0.06263059
90	0xbc3facdb	-0.011698927
91	0x3a9691fe	0.0011487601
92	0xbd6901db	-0.056886535
93	0x3d878adb	0.066182815
94	0x3d0fc777	0.035102334
95	0x3da5fb90	0.08104622
96	0xbd8d6b4e	-0.06905232
97	0xbd696f4b	-0.056990903
98	0xbdda8e76	-0.106717035
99	0xbd384c3b	-0.044994574
100	0xbc6cba2a	-0.014448682
101	0xbd869a80	-0.06572437
102	0xbdebd400	-0.11515045
103	0x3c43abb1	0.01194279
104	0xbc9a0668	-0.018801883
105	0xbd8fb38a	-0.07016666
106	0xbc8a5700	-0.016887188
107	0xbd114101	-0.035462383
108	0xbd8cc6bf	-0.06873845
109	0x3d1e5876	0.03865858
110	0x3cb44182	0.022003893
111	0x3b76d32e	0.0037662494
112	0x3d0e87b9	0.034797404
113	0x3cec2683	0.028826958
114	0xba83b547	-0.0010048532
115	0xbd2affb3	-0.04174776
116	0xbcbfe0cc	-0.023422621
117	0xbd998915	-0.074968494
118	0xbd84c3b5	-0.06482641
119	0x3d8bb449	0.06821496
120	0x3d34253a	0.043980815
121	0xbd9bf1f6	-0.0761451
122	0xbc26381e	-0.010145215
123	0xbd30fee2	-0.043211825
124	0xbd2ccd78	-0.042188138
125	0xbd828f1e	-0.06374954
126	0x3d2327b7	0.039832797
127	0x3d62300d	0.055221606

weight f4 [2, 128]
0	0x3dbab041	0.09115649
1	0xbc4de544	-0.012566868
2	0xbdad8df0	-0.08474338
3	0xbd951b6b	-0.0728062
4	0x3c05d1ed	0.008167726
5	0x3bf9ce20	0.007623449
6	0xbd811e45	-0.063046016
7	0x3d3ad663	0.04561461
8	0x3cba96c8	0.022776976
9	0xbc809841	-0.0156976
10	0x3d19d58b	0.037557166
11	0xbdb07737	-0.086164884
12	0x3c34cc3e	0.011035023
13	0xbd1c0b7b	-0.038096886
14	0x3c9e1f9c	0.019302182
15	0x3df474b5	0.119363226
16	0x3b9b5541	0.0047403877
17	0xbd5f0605	-0.0544491
18	0xbb27d9d8	-0.0025612023
19	0xbe3f690c	-0.18692416
20	0x3dc40255	0.09570757
21	0x3da45b5d	0.08025239
22	0xbd371a1d	-0.044702638
23	0x3d64b1fb	0.055833798
24	0xbd9e72ca	-0.07736738
25	0x3d953509	0.07285506
26	0xbd5037ec	-0.05083458
27	0xbfdb6463	-1.714001
28	0x3d6ccf1e	0.05781471
29	0xbbeac390	-0.007164426
30	0xb77444a8	-1.4559519e-05
31	0xbdb0ca5a	-0.086323455
32	0x3d3b31ef	0.045701917
33	0x3d153faa	0.036437668
34	0x3d8695e8	0.06571561
35	0x3db7ab97	0.08968275
36	0xbda0cbf8	-0.07851404
37	0xbd79e698	-0.061010927
38	0x3da883dd	0.08228276
39	0x3d458960	0.048226714
40	0x3b2c4f05	0.0026292216
41	0x3dbfd9d1	0.09367717
42	0xbc6fb0ba	-0.014629537
43	0x3b1933e0	0.0023376867
44	0x3d70587b	0.05867813
45	0xbda081e0	-0.07837272
46	0xbbaf9f24	-0.005359547
47	0xbca0a328	-0.019609049
48	0x3d9bae17	0.076015644
49	0x3dc7f434	0.09763375
50	0xbc89513a	-0.016762365
51	0xbd53a592	-0.051671572
52	0xbcd185ca	-0.02557649
53	0x3d0a3e12	0.0337506
54	0x3ec2ab07	0.38021109
55	0x3bf0c760	0.007347986
56	0xbc853c05	-0.016263971
57	0xbcdffa62	-0.027341072
58	0xb92f2c6b	-0.00016705848
59	0xbe151151	-0.14557387
60	0xbd9a8328	-0.07544547
61	0xbd32ac08	-0.043621093
62	0xbde6949f	-0.11258816
63	0x3c5d40c8	0.013504215
64	0xb9b9aab3	-0.0003541313
65	0x3d021dce	0.031766705
66	0x3d987afa	0.07445331
67	0xbc1dc682	-0.0096298475
68	0x3d8ba61c	0.06818792
69	0x3c2aeca2	0.010432394
70	0xbd979640	-0.07401705
71	0xbd97a452	-0.074043885
72	0x3de13efd	0.10998342
73	0x3db4ab9e	0.08821796
74	0xbcc2a634	-0.023760892
75	0x3ddac3d9	0.10681886
76	0x3d0a2146	0.03372314
77	0x3d5af5a6	0.053456925
78	0xbcb4a1b2	-0.022049759
79	0xbdebb676	-0.11509411
80	0xbc1f13b0	-0.009709284
81	0xbd8985e4	-0.06714991
82	0xbef24cbf	-0.47324178
83	0xbd9d384b	-0.07676753
84	0x3dcacbfc	0.09902188
85	0xbfb56e86	-1.4174354
86	0x3db0f625	0.08640698
87	0xbdaae1c9	-0.08343846
88	0x3d64fd32	0.05590553
89	0x3c574daf	0.01314108
90	0x3cb43d6e	0.022001948
91	0x3d004d11	0.031323496
92	0x3db2c3b8	0.08728737
93	0x3bafde8d	0.0053671063
94	0x3c86d907	0.016460909
95	0x3c7ffb1e	0.015623836
96	0x3d24002d	0.04003923
97	0xbd56ca15	-0.052438814
98	0x3be6c396	0.0070423586
99	0x3d215482	0.039387234
100	0xbd224adc	-0.039622173
101	0xbc36718b	-0.011135469
102	0xbfe2f943	-1.7732319
103	0xbd3e89dc	-0.04651819
104	0x3dd8208f	0.10553085
105	0xbdad8d55	-0.084742226
106	0xbd20e805	-0.03928377
107	0xbe575a15	-0.21030457
108	0x3d275bae	0.040858917
109	0x3dd32d3d	0.10311363
110	0xbccc055e	-0.024904903
111	0x3dca000b	0.098632894
112	0xbd38c763	-0.045112025
113	0x3d3643b4	0.04449816
114	0xbe015549	-0.1263019
115	0xbdb0f3f3	-0.086402796
116	0xbd5d421b	-0.05401812
117	0xbd355200	-0.044267654
118	0xbd46fc2e	-0.04858034
119	0xbcd46373	-0.025926327
120	0xbe0de56a	-0.13857046
121	0x3dd5f269	0.10446627
122	0x3d47d260	0.048784614
123	0xbfa9cbb9	-1.3265296
124	0xbe37379f	-0.17892312
125	0x3d919c0b	0.07109841
126	0xb95716b9	-0.00020512463
127	0xbbf932a2	-0.007604913
128	0xbd3596d3	-0.04433329
129	0xbb517bf7	-0.0031964758
130	0xbcc8e164	-0.024521537
131	0xbb73bd84	-0.0037191818
132	0x3d477912	0.048699446
133	0xbcd09bbc	-0.025464885
134	0xbd70fa59	-0.0588325
135	0xbcff6624	-0.031176634
136	0xbc913214	-0.017724074
137	0xbc4a2b57	-0.012339435
138	0xbe55002b	-0.20800845
139	0xbd945b86	-0.07244019
140	0x3da1c34b	0.07898577
141	0x3db09b42	0.08623363
142	0x3d767a61	0.060175303
143	0xbd22eb13	-0.039774965
144	0x3c2ad973	0.0104278205
145	0x3cd02ccc	0.025411986
146	0xbbee8733	-0.0072793006
147	0xbdcd0f98	-0.1001274
148	0x3ba682ec	0.005081525
149	0xbd23915f	-0.03993356
150	0x3d882770	0.06648147
151	0xbbb511d4	-0.005525807
152	0xbd741c40	-0.059597254
153	0xbc72fac3	-0.014830294
154	0x3d8aedc2	0.0678363
155	0xbf7a3d1d	-0.977495
156	0x3daa8de0	0.08327842
157	0x3c574b70	0.013140544
158	0x3c473eba	0.012160951
159	0x3d953f08	0.07287413
160	0xbda7623b	-0.08173033
161	0x3dbfafb2	0.09359683
162	0x3ca5a2b0	0.020219177
163	0x3cadd786	0.021220934
164	0x3d75d713	0.060019564
165	0x3dbc7d6c	0.0920361
166	0x3dac8261	0.08423305
167	0xbd0c33bf	-0.034229036
168	0x3d4579ff	0.048212048
169	0x3d9b785f	0.07591318
170	0x3d9d9840	0.07695055
171	0x3cfb75ec	0.030695878
172	0x3d2c303a	0.04203818
173	0x3d98a853	0.0745398
174	0x3d2ec75b	0.04267059
175	0x3d5f6548	0.05453995
176	0x3c892282	0.016740087
177	0xb780491f	-1.5292839e-05
178	0xbd5c2d00	-0.053753853
179	0xbdadc290	-0.084843755
180	0x3d9b4c98	0.075829685
181	0x3d13d140	0.03608823
182	0xbd6ba293	-0.05752809
183	0x3d5cfef6	0.053954087
184	0x3d733206	0.059373878
185	0xbcb17c20	-0.021665633
186	0x3da77d2f	0.08178174
187	0x3d3e5694	0.046469286
188	0xbd185505	-0.037190456
189	0xbdcdc012	-0.100464
190	0xbcfab9fc	-0.030606262
191	0x3d25fc2c	0.040523693
192	0x3bdb5eb5	0.0066946396
193	0xbd4a0c23	-0.04932798
194	0xbd80c5a2	-0.062876955
195	0x3cdc9621	0.026927056
196	0x3de9838d	0.114020444
197	0x3c5ff3fb	0.013669009
198	0x3d67d66b	0.05660097
199	0xbd8b2ce1	-0.06795669
200	0x3df5fcb2	0.120110884
201	0xbab41b6b	-0.0013741081
202	0xbce91aa9	-0.028455095
203	0xbd298a6f	-0.041391786
204	0x3d0d9903	0.03456975
205	0x3d40326e	0.046923093
206	0xbcba75c4	-0.022761233
207	0xbd4c3e2e	-0.049863987
208	0x3d62306a	0.055221952
209	0xbd355879	-0.044273827
210	0x3f30e32b	0.6909663
211	0x3db55792	0.08854593
212	0x3d8b4026	0.06799345
213	0x3db741da	0.08948107
214	0x3d84e729	0.06489403
215	0xbdab4759	-0.08363218
216	0x3c484b0e	0.012224926
217	0x3dbac897	0.09120291
218	0x3cb1a4d7	0.021685047
219	0x3d3ac09d	0.045593847
220	0xbc595ed7	-0.0132672405
221	0xbdb2b18a	-0.08725269
222	0x3dcdd9d8	0.10051316
223	0x3ce36e8f	0.02776268
224	0x3c970406	0.018434536
225	0x3cb80520	0.022463381
226	0x3a8afb79	0.0010603509
227	0xbd6c51c4	-0.057695165
228	0x3dc91403	0.0981827
229	0x3d4ce023	0.05001844
230	0xbf5b897d	-0.85756665
231	0xbd1a6c9f	-0.037701245
232	0xbc23faa4	-0.010008488
233	0x3ca04770	0.019565314
234	0xbd53efa7	-0.051742222
235	0xbd1ae344	-0.037814394
236	0xbd2ebacd	-0.042658616
237	0xbd03c1e6	-0.032167338
238	0x3d9bb89c	0.07603571
239	0x3cdda5c8	0.02705659
240	0xbe102d6c	-0.14079827
241	0x3cdfb74c	0.027309082
242	0x3d4a1d58	0.04934439
243	0xbb166ba0	-0.0022952333
244	0xbe3a56ca	-0.1819717
245	0x3dadcadd	0.08485959
246	0xbca7a89c	-0.020466141
247	0x3da1b838	0.07896465
248	0xbd065611	-0.032796923
249	0xbe23d084	-0.15997511
250	0x3da5c575	0.080943026
251	0xbd4deccf	-0.050274666
252	0x3cf5f468	0.030023769
253	0xbd76a741	-0.0602181
254	0xbb56b790	-0.003276322
255	0x3d170961	0.03687418

bias f4 [2]
0	0x3da23b5e	0.0792148
1	0xbcad5b1a	-0.021161605

weight f4 [128, 5]
0	0x3e7d6d3f	0.24748705
1	0x3ecd88be	0.40143389
2	0xbd6603c9	-0.056155954
3	0x3dfe1658	0.124066055
4	0xbe1b6f0c	-0.1517908
5	0xbde468a3	-0.1115277
6	0xbc8bb913	-0.017056024
7	0xbee4961d	-0.44645777
8	0x3c968f66	0.018378925
9	0xbea027c0	-0.31280327
10	0xbec4bdc8	-0.38426042
11	0xbe4452fe	-0.19172284
12	0xbc27ad60	-0.010234207
13	0xbdf0c93c	-0.117571324
14	0x3e56ee6c	0.20989388
15	0x3ec812be	0.390768
16	0x3cfb309e	0.03066283
17	0xbdb4a741	-0.08820964
18	0xbee7d7ee	-0.4528193
19	0xbee9b2ad	-0.4564413
20	0xbee44698	-0.4458511
21	0xbe962d52	-0.29331452
22	0x3ecb4f88	0.39709115
23	0xbecde7d1	-0.40215924
24	0xbe0d3869	-0.1379105
25	0xbe5bc9b7	-0.21463667
26	0xbe3b860c	-0.18312854
27	0xbed36394	-0.4128691
28	0x3e3d200a	0.18469253
29	0x3e9a5532	0.30143124
30	0x3e5abf8a	0.21362129
31	0x3deee876	0.11665432
32	0xbdb1d5ed	-0.08683381
33	0x3ea1b730	0.31585073
34	0x3e8e605e	0.27807897
35	0xbeb8d157	-0.36097214
36	0x3eb2ed2a	0.34946567
37	0x3ea0da3c	0.314165
38	0x3e925a89	0.28584698
39	0x3ecd08eb	0.40045866
40	0xbe5db32b	-0.21650378
41	0x3c490f6c	0.012271743
42	0x3eb1d566	0.34733123
43	0xbe54c250	-0.2077725
44	0x3d79bb00	0.060969353
45	0x3eeaad98	0.45835567
46	0xbe81408b	-0.25244555
47	0xbd962b6d	-0.073325016
48	0x3e5379c0	0.20651913
49	0xbe963ad0	-0.29341745
50	0xb7b3972d	-2.140886e-05
51	0x3e0f0e8d	0.13970394
52	0x3ea171ef	0.31532237
53	0xbd91c085	-0.07116798
54	0x3e8951c3	0.26820192
55	0xbd3b034b	-0.045657437
56	0x3e866ff2	0.26257282
57	0xbe103728	-0.1408354
58	0x3e055efc	0.13024515
59	0x3ddc58fa	0.107591584
60	0x3edd47b1	0.4321876
61	0x3ea9df72	0.33178288
62	0xbe0e2087	-0.13879596
63	0xbe1c86c1	-0.1528578
64	0xbe621b91	-0.22080828
65	0x3e4e0875	0.20120414
66	0x3e45896b	0.19290702
67	0xbe0a9c28	-0.13536131
68	0x3dad2819	0.08454914
69	0xbebea9d2	-0.37238938
70	0xbe542d44	-0.20720392
71	0x3e979901	0.2960892
72	0x3e2cf67f	0.16890906
73	0x3e74d5cd	0.23909684
74	0x3d2507bd	0.040290583
75	0x3e8d100e	0.2755131
76	0xbecbd445	-0.39810386
77	0x3c432a2e	0.011911912
78	0x3eb075ba	0.34464818
79	0xbe43efb7	-0.19134413
80	0x3e0e6207	0.13904582
81	0xbee63ce0	-0.4496832
82	0xbe345838	-0.17611778
83	0xbdc6638a	-0.09686954
84	0x3e903970	0.2816882
85	0xbec26e92	-0.37974983
86	0x3e3dd658	0.18538797
87	0xbe8d504c	-0.27600324
88	0xbca492e0	-0.020089567
89	0xbe5c42d7	-0.21509872
90	0x3ef45531	0.47721246
91	0xbea356a0	-0.31902027
92	0x3e96ae9b	0.29430088
93	0x3dea0cb8	0.11428207
94	0xbe9713a6	-0.29507178
95	0x3f081e64	0.5317137
96	0xbebe9b57	-0.3722789
97	0x3e39970d	0.18124028
98	0x3cf4f724	0.029903002
99	0xbece1751	-0.40252164
100	0x3e9c951b	0.30582508
101	0xbe89bf43	-0.26903734
102	0x3e7b55c0	0.2454443
103	0x3d29d16e	0.041459493
104	0xbec26d29	-0.37973908
105	0x3e15510f	0.14581703
106	0x3e3d7364	0.1850105
107	0xbe3a1601	-0.18172456
108	0x3ddc699a	0.107623294
109	0x3cd28360	0.02569741
110	0xbe8afb88	-0.27145028
111	0x3e1030c1	0.14081098
112	0x3ed10bdc	0.4082936
113	0x3eda4f63	0.42638692
114	0x3e1a2f63	0.15057139
115	0xbe87ba3e	-0.2650928
116	0x3d8687ae	0.065688476
117	0x3c47fcc0	0.012206256
118	0x3ea0aec7	0.31383345
119	0xbed41370	-0.4142108
120	0xbe2e7066	-0.17035064
121	0xbe7df51d	-0.24800535
122	0x3d3eb2ed	0.046557356
123	0x3d8ad970	0.06779754
124	0x3e993489	0.29922894
125	0xbecc043f	-0.3984699
126	0xbe3bd742	-0.18343833
127	0xbdde2404	-0.10846713
128	0xbe6b3ac3	-0.22971635
129	0xbeb574cf	-0.3544068
130	0x3ecbf235	0.39833227
131	0x3e233c00	0.15940857
132	0x3bed2113	0.007236609
133	0xbeb5bb5d	-0.3549451
134	0x3ebaea99	0.3650711
135	0x3cbc1d00	0.022963047
136	0xbe734450	-0.23756528
137	0x3eb68157	0.35645553
138	0x3eac11b0	0.33607244
139	0xbd2217c8	-0.03957346
140	0xbcacb550	-0.02108255
141	0xbed7fb9a	-0.42184144
142	0x3ed30620	0.4121561
143	0x3eaac49e	0.33353132
144	0xbec00592	-0.3750425
145	0xbe12a9cf	-0.1432259
146	0xbbe9e82f	-0.007138274
147	0x3ec076e7	0.37590715
148	0x3ebed1d1	0.37269452
149	0xbe03ad6a	-0.12859121
150	0x3e886f5c	0.2664746
151	0xbe3246c9	-0.17409815
152	0xbea45698	-0.32097316
153	0x3e92e154	0.28687537
154	0xbd361408	-0.044452697
155	0x3ebbb58e	0.36661953
156	0x3ec5e980	0.3865471
157	0x3ec7009b	0.3886765
158	0x3ebc1b20	0.36739445
159	0xbd535fcd	-0.051605035
160	0x3e79375e	0.24337527
161	0xbe741aab	-0.23838298
162	0xbda2f43e	-0.07956742
163	0xbc25bb72	-0.010115491
164	0x3db12653	0.08649888
165	0x3ec753ff	0.3893127
166	0xbd31a1ce	-0.0433672
167	0xbec58d06	-0.38584155
168	0xbea7ff4d	-0.32811967
169	0xbc98119d	-0.018563086
170	0xbedc0e2e	-0.42979568
171	0x3e6eefd6	0.23333678
172	0xbd2c7aca	-0.04210929
173	0xbeaae66e	-0.3337893
174	0x3e1bb98a	0.15207496
175	0x3e9bbcd2	0.30417496
176	0x3d658294	0.056032732
177	0x3a6d1157	0.00090434164
178	0x3d2e73d0	0.042590916
179	0x3d8739f3	0.0660285
180	0xbe9b6625	-0.30351368
181	0xbdd6f309	-0.10495574
182	0xbebc4068	-0.36767888
183	0x3ebb468e	0.36577266
184	0x3eba3d54	0.36374915
185	0x3e459cb5	0.1929806
186	0x3e315ad9	0.17319812
187	0xbeaf5852	-0.3424707
188	0x3cb1bb92	0.021695886
189	0xbeacfb44	-0.3378545
190	0x3dddea75	0.10835735
191	0xbe55b2e0	-0.20869017
192	0x3cbac090	0.0227969
193	0x3ef4646d	0.4773287
194	0x3ee985f3	0.45610008
195	0xbe384d86	-0.17998323
196	0xbd689840	-0.056785822
197	0xbe3bb368	-0.18330157
198	0xbe505952	-0.20346573
199	0xbeb2eaae	-0.3494467
200	0xbea052dd	-0.3131322
201	0x3ec1df5a	0.37865716
202	0xbd8cbfd4	-0.06872526
203	0xbeb37e06	-0.35057086
204	0x3e3ac70f	0.18239997
205	0x3df00a20	0.11720681
206	0xbe5e9412	-0.21736172
207	0xbb85c640	-0.004082471
208	0x3d827898	0.06370658
209	0xbdde38bc	-0.10850665
210	0x3e807826	0.25091666
211	0x3d58c66d	0.05292361
212	0xbe6dedf8	-0.23235309
213	0xbe8c3461	-0.27383712
214	0xbeadbd5a	-0.33933526
215	0x3e19fefb	0.15038674
216	0x3e97fb82	0.29684073
217	0xbeb406b3	-0.3516136
218	0xbe4f5ddd	-0.2025065
219	0x3b47442e	0.0030405628
220	0xbd0908f1	-0.033455793
221	0x3ef6669e	0.48125166
222	0xbe5b6c1c	-0.21427959
223	0x3e537885	0.20651443
224	0x3ecf1fd0	0.4045396
225	0x3f0ecb58	0.5577903
226	0xbeb61910	-0.35565996
227	0x3ed99b00	0.42501068
228	0x3e7fe67f	0.24990271
229	0x3e3c98a7	0.18417607
230	0xbe3d144f	-0.18464778
231	0x3ef0aa22	0.470048
232	0xbdf24de9	-0.118312664
233	0xbed85f34	-0.42260134
234	0xbe9c7d7c	-0.30564487
235	0xbee6f852	-0.45111328
236	0x3c0acdbe	0.008471904
237	0xbdc1e70d	-0.094678976
238	0x3d1f598d	0.03890376
239	0xbe55cd74	-0.20879155
240	0xbdca3581	-0.09873486
241	0x3d6f3cb6	0.058407508
242	0x3ec38e17	0.38194343
243	0x3d2e7238	0.042589396
244	0x3df63994	0.12022701
245	0x3e3010fb	0.17193978
246	0xbea41a75	-0.32051435
247	0xbdb4d13e	-0.08828972
248	0xbe842392	-0.25808388
249	0x3db34186	0.08752732
250	0x3e818b05	0.25301376
251	0x3e4901e2	0.19629624
252	0x3e2ea5cb	0.17055432
253	0xbec10e4d	-0.37706223
254	0xbe09d8b8	-0.13461578
255	0x3e9c8187	0.30567572

bias f4 [128]
0	0x3e9771c6	0.2957899
1	0x3ca8e66f	0.020617692
2	0xbe9ae194	-0.30250227
3	0x3d76c524	0.0602466
4	0x3eb8b30f	0.3607411
5	0x3d1bf202	0.038072594
6	0x3e53604a	0.206422
7	0x3d888d91	0.06667627
8	0xbe269c4b	-0.16270559
9	0xbe638c3a	-0.22221461
10	0xbdf3f7a6	-0.119124696
11	0xbe42edf2	-0.19036081
12	0x3d3c31ac	0.04594581
13	0xbda453e1	-0.08023811
14	0xbcb20934	-0.021732904
15	0x3ece885d	0.40338412
16	0x3ca95532	0.020670507
17	0xbe75df78	-0.24011028
18	0x3eaa7ba6	0.3329746
19	0xbd2a4611	-0.041570727
20	0x3e279789	0.163664
21	0xbd7d5560	-0.061848998
22	0x3e906c73	0.2820774
23	0xbe753015	-0.23944123
24	0x3ebd7e69	0.37010506
25	0xbec96b50	-0.39339685
26	0xbdb9b419	-0.09067554
27	0xbe2fc435	-0.17164691
28	0xbed29c28	-0.41134763
29	0x3eb63d35	0.35593572
30	0x3dd922d5	0.10602347
31	0xbc658cb9	-0.014010602
32	0x3df0f82c	0.11766085
33	0x3d17ec8f	0.037090834
34	0x3e25dfbb	0.16198628
35	0xbe7adf49	-0.24499239
36	0x3da2ff7a	0.079588845
37	0x3e6b1421	0.22956897
38	0xbeab2e89	-0.3343394
39	0xbe0ae93a	-0.13565531
40	0xbde94c14	-0.11391464
41	0xbea24554	-0.31693518
42	0x3e76a104	0.2408486
43	0x3cd0759a	0.025446702
44	0xbec0a463	-0.37625417
45	0xbdbedfb3	-0.09320011
46	0xbde72830	-0.11286962
47	0x3eb4033a	0.35158712
48	0x3dae9967	0.08525353
49	0x3dcedef1	0.101011164
50	0x3e9b9671	0.30388215
51	0x3ea8de5c	0.32982147
52	0x3eb8abca	0.36068565
53	0x3e8da0c7	0.27661726
54	0xbe48a04e	-0.19592401
55	0x3ec534ff	0.38516995
56	0xbe97054a	-0.29496223
57	0x3ef84b6b	0.4849504
58	0xbd0e19b2	-0.034692474
59	0x3c2f2062	0.010688873
60	0x3e0fd977	0.140478
61	0x3ec29058	0.3800075
62	0x3dc2dfa4	0.09515312
63	0x3df4d468	0.11954576
64	0x3edc7f2a	0.43065768
65	0xbd64f0e9	-0.055893812
66	0x3e471ef6	0.19445404
67	0xbe23a098	-0.1597923
68	0x3c24acfc	0.010051008
69	0xbe0618ee	-0.13095447
70	0x3e9a4692	0.30131966
71	0xbe25d196	-0.16193232
72	0xbe826298	-0.25465846
73	0x3defb6c8	0.11704785
74	0x3dbbb001	0.091644295
75	0x3e5dabc2	0.21647552
76	0x3e908716	0.28228062
77	0xbd8ff350	-0.0702883
78	0xbe950948	-0.29108644
79	0x3ee3923c	0.44447505
80	0x3c521143	0.012821498
81	0x3ed12485	0.40848175
82	0x3e20030e	0.15626165
83	0xbec890b6	-0.39172906
84	0x3e1fefb0	0.15618777
85	0xbe4a9317	-0.19782673
86	0x3e65ae01	0.22429658
87	0x3da4b36f	0.08042037
88	0x3d32a9e2	0.043619044
89	0x3e6bb557	0.23018394
90	0x3dbddfa1	0.092711695
91	0xbed9999c	-0.42500007
92	0x3dd4eff0	0.10397327
93	0xbe3ca387	-0.18421756
94	0x3b00bf53	0.0019645288
95	0xbe63e5e4	-0.22255665
96	0xbde5c524	-0.11219242
97	0x3ed56a90	0.41682863
98	0x3e927a78	0.2860906
99	0xbea45166	-0.32093352
100	0xbd97dd18	-0.07415217
101	0xbdd78b3a	-0.10524602
102	0x3e054a99	0.13016738
103	0xbdf96d11	-0.12179006
104	0x3e46c326	0.1941038
105	0xbe756273	-0.23963337
106	0xbe94dc65	-0.29074398
107	0xbe67aaf7	-0.22623812
108	0x3e843abe	0.25826067
109	0xbe282b8b	-0.1642286
110	0xbeee89ea	-0.46589595
111	0x3e883244	0.2660085
112	0x3e12698f	0.1429808
113	0x3e808d8d	0.25107995
114	0x3d03efa8	0.032210976
115	0x3e9878f4	0.2977978
116	0x3e56e4a6	0.2098566
117	0xbe497508	-0.1967355
118	0x3eb63dc7	0.35594007
119	0xbd832a63	-0.06404569
120	0xbe087034	-0.13324052
121	0xbec8b89e	-0.39203352
122	0xbed660db	-0.4187077
123	0xbe88de9c	-0.26732337
124	0x3ec1ef3d	0.37877837
125	0xbb57185a	-0.003282091
126	0x3e13528f	0.14386962
127	0xbde45a19	-0.11149997

weight f4 [128, 128]
0	0xbd664ff1	-0.05622858
1	0x3cfb6e48	0.030692235
2	0xbc713198	-0.014721297
3	0x3db2dc53	0.0873343
4	0xbc712fc9	-0.0147208655
5	0x3db58c23	0.088646196
6	0xbb7975f4	-0.003806469
7	0x3dbfec9e	0.09371303
8	0xbe33afda	-0.17547551
9	0x3da0c36c	0.07849774
10	0x3d90a2c0	0.07062292
11	0x3c4d22c3	0.012520495
12	0x3d6e93e4	0.05824651
13	0xbca8c49a	-0.02060156
14	0x3d2ba2ba	0.041903235
15	0xbd52a00d	-0.051422168
16	0x3cd25a83	0.025677925
17	0xbd9f8c5c	-0.07790443
18	0x3bd7ff0b	0.006591683
19	0x3ddaae5a	0.10677786
20	0x3d8a7941	0.067614086
21	0x3dc6af88	0.09701449
22	0x3c8819ff	0.016613958
23	0xbcc1f084	-0.023674257
24	0x3dd52ef1	0.10409344
25	0xbd9112dc	-0.07083675
26	0x3cdf238d	0.027238632
27	0x3d818b3e	0.063253865
28	0xbc5de728	-0.0135438815
29	0x3dbc12e2	0.09183289
30	0xbd9f4378	-0.077765405
31	0x3b71d89b	0.0036902789
32	0x3d839c70	0.064263225
33	0xbdbc9700	-0.092084885
34	0x3d8e7ddd	0.069576
35	0xbc421837	-0.011846594
36	0x3c208b43	0.009798828
37	0x3d0e5446	0.03474834
38	0x3c737cd5	0.014861305
39	0x3da77a3b	0.081776105
40	0xbadef8f4	-0.001701145
41	0xbd06f7c1	-0.03295112
42	0xbd12f694	-0.035879686
43	0xbb177360	-0.002310954
44	0x3d6b515e	0.057450645
45	0x3bab475b	0.005227012
46	0xbc9ab7f1	-0.018886538
47	0xbe1dc240	-0.15406132
48	0xbd9f810d	-0.07788286
49	0x3c2ee501	0.010674716
50	0x3d1de972	0.03855271
51	0x3cf48adf	0.029851375
52	0x3cf456f4	0.029826619
53	0x3cf15dcd	0.029463673
54	0x3d4394b3	0.047749233
55	0x3d7e6b12	0.06211383
56	0x3d15ddc2	0.036588438
57	0xbd22d3a9	-0.039752636
58	0xbc9eb2e3	-0.01937241
59	0x3d946b31	0.07247008
60	0xbd1c0867	-0.03809395
61	0x3cba8887	0.02277018
62	0xbdcaa694	-0.098950535
63	0x3d6bc031	0.057556335
64	0xbda6a158	-0.08136243
65	0x3cc7e8df	0.024403034
66	0xbd9af3c7	-0.07566028
67	0xbd97531e	-0.073889
68	0x3c01163e	0.007878838
69	0xbd9e4e0a	-0.077297285
70	0x3b55af62	0.0032605757
71	0xbc5d96dc	-0.013524737
72	0xbda6b751	-0.081404336
73	0xbdc2abda	-0.09505434
74	0x3d840cff	0.06447791
75	0x3d8eecf8	0.06978792
76	0x3b8414b6	0.0040307892
77	0xbe20e629	-0.15712799
78	0xbe47063b	-0.1943597
79	0xbcf77c43	-0.03021062
80	0x3c1dd572	0.009633409
81	0xbd6fa9af	-0.058511432
82	0x3dc82426	0.0977252
83	0xbc798cac	-0.015231293
84	0x3db5138a	0.088416174
85	0x3df1ab2a	0.11800225
86	0xbc81b105	-0.01583148
87	0xbba98fc2	-0.005174608
88	0x3d54ac32	0.05192203
89	0x3d295fc7	0.041351106
90	0x3bd53a35	0.006507183
91	0x3cecdfcc	0.028915308
92	0xbd1e4a33	-0.03864498
93	0xbcef3d21	-0.029203953
94	0x3dd88191	0.10571588
95	0xbd991145	-0.07473997
96	0x3c10bdcd	0.0088343145
97	0xbd791df5	-0.060819585
98	0xbdc8de4b	-0.09808024
99	0x3c343858	0.0109997615
100	0x3c860964	0.0163619
101	0x3bbce73d	0.0057648704
102	0xbd1c53bc	-0.038165793
103	0xbd839515	-0.064249195
104	0x3d2a46a6	0.04157128
105	0x3da74d55	0.08169047
106	0xbd84c4b7	-0.06482833
107	0xbd71db32	-0.05904693
108	0x3d8083d6	0.06275146
109	0x3db29433	0.08719673
110	0x3be5a0f8	0.0070077144
111	0xbd1227ad	-0.03568237
112	0xbdc24824	-0.09486416
113	0x3cbc59a1	0.022991957
114	0x3dc82078	0.09771818
115	0x3d167acc	0.036738202
116	0xbe792d18	-0.24333608
117	0x3d9c7e71	0.07641304
118	0x3d814174	0.06311312
119	0x3ddfb6e7	0.10923558
120	0x3ca7cdbd	0.020483846
121	0xbd059ccf	-0.032620247
122	0xbaa13d40	-0.0012301579
123	0xbe1e98cf	-0.1548798
124	0x3dc96d47	0.09835296
125	0xbdc9c45c	-0.09851906
126	0xbae1a983	-0.0017216656
127	0xbd5ce17a	-0.05392597
128	0x3d611484	0.054951206
129	0x3d67a51e	0.056553952
130	0x3d1736be	0.03691744
131	0x3d234a49	0.039865766
132	0x3d4add13	0.04952724
133	0x3d48ea4e	0.049051575
134	0xbd900b52	-0.07033409
135	0x3daaa123	0.08331516
136	0x3d297ae7	0.041376974
137	0x3dc3432c	0.095342964
138	0x3d7e550f	0.062092837
139	0xbd2afdd7	-0.041745987
140	0x3dae6693	0.08515658
141	0x3dc08210	0.093998075
142	0xbc487da8	-0.01223699
143	0x3d85ca6b	0.06532749
144	0x3d46071b	0.04834662
145	0x3baf3660	0.005347058
146	0xbd9401b7	-0.072268896
147	0xbdab2d25	-0.0835822
148	0xbc457cd0	-0.012053683
149	0x3d22b032	0.039718814
150	0xbc7f254b	-0.015572856
151	0xbda9971d	-0.08280776
152	0x3d32c8c6	0.043648504
153	0xbda8a367	-0.082342915
154	0x3be0b0e3	0.006857024
155	0xbcc9e63e	-0.02464592
156	0xbca63d88	-0.020293012
157	0xbc55b1ec	-0.013042908
158	0xbdb44636	-0.08802454
159	0x3caa20c6	0.02076758
160	0x3d9a979a	0.07548447
161	0xbc942dd1	-0.018088253
162	0x3d752647	0.059850957
163	0x3c921a5f	0.01783484
164	0x3cade7d4	0.021228708
165	0x3d23ed59	0.040021274
166	0xbd267a03	-0.040643703
167	0x3d3b0812	0.045661993
168	0xbd33837d	-0.04382657
169	0xb9359800	-0.0001731813
170	0xbd6e3bf5	-0.05816265
171	0xbd05d122	-0.032670148
172	0x3d24d05f	0.04023778
173	0x3d74af6d	0.05973761
174	0x3e2909ad	0.16507597
175	0xbd3eb34b	-0.046557706
176	0x3daafaa0	0.08348584
177	0xbe0cf80e	-0.137665
178	0x3d880410	0.066414
179	0x3cd94385	0.026521454
180	0x3cd88375	0.026429871
181	0x3db7af47	0.089689784
182	0xbcc309dc	-0.023808412
183	0x3d2a6b9d	0.041606534
184	0xbd3b8194	-0.045777872
185	0x3d805b41	0.06267405
186	0x3cf9c05b	0.03048723
187	0xba2d2ea8	-0.00066063786
188	0xbd279b90	-0.04091984
189	0x3d1d06d8	0.038336605
190	0xbd5eb47e	-0.05437135
191	0xbd41cc08	-0.04731372
192	0xbc0a04b3	-0.008423972
193	0x3de40b13	0.11134925
194	0x3d9957ae	0.07487427
195	0xbcb0b7e0	-0.021572053
196	0xbd93f098	-0.07223624
197	0x3d9026ab	0.07038625
198	0x3da28686	0.079358146
199	0xbd72480a	-0.059150733
200	0xbd632272	-0.05545277
201	0x3d048d11	0.032361094
202	0x3ca03af4	0.019559361
203	0xbb473adb	-0.003040007
204	0x3d4292d4	0.047503307
205	0xbdadcc25	-0.08486203
206	0xbc7f9c09	-0.0156011665
207	0x3bde9bf5	0.006793494
208	0xbcd47b2a	-0.025937635
209	0xbd57d8f7	-0.05269715
210	0xbd221f11	-0.03958041
211	0x3d785bf5	0.060634572
212	0xbcdc0fff	-0.026863096
213	0x3d1bc44f	0.03802901
214	0x3d71e12e	0.05905264
215	0x3caa9c67	0.020826532
216	0xbc434262	-0.011917682
217	0x3d2ef68b	0.04271559
218	0x3db3ba10	0.08775723
219	0x3c4c2060	0.012458891
220	0x3ddcb845	0.10777334
221	0xbd737aa1	-0.05944312
222	0x3e0ad4d3	0.13557748
223	0xbd44ecf8	-0.048077554
224	0x3e008202	0.12549594
225	0xbcd43e5b	-0.02590864
226	0xbdbd5827	-0.09245329
227	0x3d55592e	0.052087
228	0x3c05e0a3	0.008171233
229	0x3d9ace03	0.07558825
230	0x3dbbe6fc	0.09174916
231	0xbdb22588	-0.08698565
232	0xbd5b3eba	-0.053526618
233	0x3dc5cf45	0.09658674
234	0x3d86f065	0.0658882
235	0xbb1d2260	-0.0023976788
236	0xbd030d26	-0.03199496
237	0x3d810d3e	0.06301354
238	0xbdc32745	-0.095289744
239	0x3c43db04	0.011954073
240	0xbd1c3492	-0.038136072
241	0xbc75d800	-0.015005112
242	0x3c2771f1	0.010220037
243	0x3cd5f3fb	0.026117316
244	0xbe0d55f7	-0.13802324
245	0x3d5a942a	0.053363957
246	0xbd24466d	-0.040106226
247	0xbd009038	-0.031387538
248	0x3c348feb	0.011020641
249	0xbd8603ec	-0.06543717
250	0x3cff25b0	0.0311459
251	0x3d10497c	0.03522633
252	0xbccec767	-0.025241567
253	0x3dc62ee9	0.09676916
254	0x3d77ed18	0.060528845
255	0xbd9cb85f	-0.076523535

bias f4 [128]
0	0xbd07bb4d	-0.03313761
1	0xbc7392fc	-0.014866587
2	0xbcd7efb1	-0.026359411
3	0x3dd3c8a2	0.10341002
4	0xbbf14fa8	-0.007364232
5	0xbda9e612	-0.082958356
6	0xbce49f3e	-0.027907964
7	0x3d5b3c9f	0.05352461
8	0x3d1646c1	0.03668857
9	0x3c23ff57	0.010009608
10	0x3ce9280c	0.028461479
11	0xbcd49c87	-0.025953544
12	0xbd8036b9	-0.062604375
13	0x3d8c20fe	0.0684223
14	0x3d6e5357	0.058184948
15	0x3cacb685	0.021083126
16	0xbd630e70	-0.05543369
17	0xbd4e186a	-0.05031625
18	0xbd939a48	-0.07207161
19	0xbb75920e	-0.0037471089
20	0xbd229101	-0.039689068
21	0x3d669c17	0.056301203
22	0x3da38c25	0.07985715
23	0x3b394d97	0.0028275007
24	0xbc4c0673	-0.0124527095
25	0x3d6a2a35	0.057169158
26	0x3d042088	0.032257587
27	0x3cb5c8ef	0.02219054
28	0x3ca65a4c	0.020306729
29	0xbd0702e9	-0.03296176
30	0xbc90ca94	-0.017674722
31	0xbbbf93c4	-0.0058464725
32	0x3ca5b6a6	0.020228695
33	0xbca60869	-0.020267682
34	0xbd7bb949	-0.061456
35	0xbd4a667d	-0.049414147
36	0x3cbe685f	0.023243127
37	0x3d2ffba8	0.042964607
38	0xbcd7dc40	-0.02635014
39	0xbcdfe3dc	-0.027330332
40	0x3d5450aa	0.05183474
41	0xbd5af905	-0.05346014
42	0x3d69fb6e	0.057124548
43	0xbdaac645	-0.08338598
44	0xbd957191	-0.07297052
45	0x3c981c8c	0.0185683
46	0xbd4b882b	-0.049690407
47	0xbd2fc958	-0.042916626
48	0xbbc5e250	-0.0060389414
49	0x3d5dfa38	0.054193705
50	0x3d9259de	0.07146047
51	0x3b7ef679	0.0038904233
52	0x3d07412c	0.033021137
53	0x3d827446	0.06369834
54	0xbcc6c95b	-0.024265936
55	0x3d296bea	0.04136268
56	0x3cc2ebbc	0.023794048
57	0xbc95f41f	-0.018304883
58	0x3cd84d09	0.02640392
59	0x3d3a7f38	0.04553148
60	0xbd189a50	-0.03725654
61	0xbcae5765	-0.021281907
62	0xbd8c0f28	-0.06838828
63	0xbcb7e0ff	-0.022446154
64	0x3ba6c6d4	0.00508962
65	0xbd2893da	-0.041156627
66	0xbdab7480	-0.0837183
67	0xbd145cd1	-0.03622133
68	0xbd5f9914	-0.054589346
69	0x3dcbeeab	0.09957632
70	0x3db2a209	0.08722312
71	0xbd901c97	-0.07036703
72	0x3ce467bd	0.027881498
73	0x3d0435f5	0.03227802
74	0x3c341c7b	0.010993118
75	0x3d37e722	0.04489816
76	0x3979c40d	0.00023819525
77	0xbd34881e	-0.044075124
78	0xbd7b1e9a	-0.06130848
79	0x3d3e8964	0.046517745
80	0x3d05a54d	0.032628346
81	0xbd9086d3	-0.07056966
82	0xbc8fa22e	-0.017533388
83	0xbd244e5d	-0.040113796
84	0xbd085ed4	-0.03329356
85	0xbd36ff04	-0.044676796
86	0xbd00c2ca	-0.031435765
87	0x3d11e920	0.035622716
88	0x3d8a84bf	0.067636006
89	0x3d33035e	0.043704383
90	0xbcf232c9	-0.029565232
91	0x3ad72700	0.0016414821
92	0x3d9515e5	0.07279567
93	0xba8e6208	-0.0010862956
94	0x3d5be095	0.053680975
95	0x3da39cb4	0.07988873
96	0xbc9b0c5c	-0.018926792
97	0x3d9dce62	0.0770538
98	0xbd8d450c	-0.06897935
99	0xbd011e19	-0.031522844
100	0x3d386a29	0.045023117
101	0x3d3eed38	0.04661295
102	0xbd1bb8f5	-0.038018186
103	0xbd104082	-0.03521777
104	0x3d4581c6	0.048219465
105	0x3d20fdb8	0.039304465
106	0xba1e05f9	-0.00060281117
107	0xbd5c5314	-0.053790167
108	0xbd7ff910	-0.062493384
109	0x3bebac50	0.007192172
110	0x3d395504	0.045247093
111	0xbbbb34ed	-0.0057130964
112	0xbd1c3563	-0.03813685
113	0xbd317aaa	-0.043329872
114	0xbca2e908	-0.019886509
115	0x3dd5b469	0.10434801
116	0xbd06dd31	-0.03292579
117	0x3d463f5f	0.04840028
118	0x3c688284	0.014191274
119	0xbd559319	-0.052142236
120	0x3d39041c	0.045169935
121	0xbd535b0a	-0.051600493
122	0xbd8bfdc9	-0.06835515
123	0xbcc88bc1	-0.024480702
124	0xbd8e91c5	-0.06961397
125	0xbda3916a	-0.0798672
126	0x3ce4742c	0.027887426
127	0x3d66fab2	0.056391425
