models/mountaincar_2D/checkpoint_cl.16.pth.tar (torch_old, 143897 bytes, 12 tensors)

weight f4 [128, 5]
000000 29 f8 35 3e aa 3d 89 3d a4 f4 db bd d6 3f 71 3e
       0.17770447 0.067012146 -0.10740021 0.23559508
000010 d1 ed c4 be f8 b8 7f be 44 eb 02 3e 24 a3 b2 bd
       -0.3846269 -0.24972904 0.12785059 -0.08722523
000020 b4 8f 81 be 34 f8 89 be da 03 c3 bf 3b 5e 85 be
       -0.2530495 -0.26947176 -1.523555 -0.26048455
000030 17 52 91 bd 82 9f 93 bd 5b de 68 be 46 24 d5 bc
       -0.070957355 -0.07208158 -0.22741072 -0.026018273
000040 01 0e 02 be 12 bd fb bc fe 48 29 3e bd 01 92 3e
       -0.12700655 -0.030729804 0.1653175 0.2851695
000050 60 ec 8f 3d 21 fe 9f be 85 21 b1 3e c0 94 cd 3c
       0.07027507 -0.31248572 0.34595886 0.025095344
000060 89 c8 b9 3e 61 43 db 3e 63 67 6d 3e 60 3d 38 3e
       0.3628581 0.42824844 0.2318397 0.17992163
000070 7b 5f 23 be ec 28 8a be 77 9d 15 3e 99 44 bb be
       -0.15954392 -0.26984346 0.1461085 -0.36575773
000080 65 b2 38 be 9f 22 8e 3e 27 38 83 3e 4c d7 c8 be
       -0.18036802 0.2776079 0.25628778 -0.39226758
000090 05 52 ce bd cd 4b bc 3e 03 d9 a8 be 9e 1b 8c 3e
       -0.10074238 0.3677658 -0.32978067 0.2736482
0000a0 43 ad d4 be 57 c4 3c 3d 4a 13 92 be ba 52 0b be
       -0.41538438 0.04608568 -0.2853034 -0.13605776
0000b0 87 97 9f 3e a4 49 b2 3d d2 23 0d be 0b 0e c1 bd
       0.31170294 0.08705452 -0.13783196 -0.094265066
0000c0 ba 02 93 be 70 c4 5d be 7e ed e8 be fe bf 59 3e
       -0.28713018 -0.21656966 -0.45493692 0.21264645
0000d0 2d f8 83 be 77 6e b2 3e 36 ec 66 3e 8d 7f 0e 3f
       -0.2577528 0.34849903 0.22551045 0.5566338
0000e0 f3 54 5f 3e ef 9b 3d 3e 4a ea bf 3e ab e2 41 be
       0.2180975 0.18516515 0.37483436 -0.18934123
0000f0 cc 7b da 3d 8e 64 11 be 46 78 91 3e 12 15 49 3e
       0.10668144 -0.14198515 0.28412074 0.19636944
000100 b2 a3 50 3e 89 03 b0 bd c6 f9 a0 3e 44 c6 cd be
       0.20374945 -0.08594424 0.31440562 -0.40190327
000110 f0 83 17 3d cf 79 c2 3d df c9 de be f9 cc 4d be
       0.03699106 0.094958894 -0.4351339 -0.20097722
000120 2e 2c af 3e 71 6c 56 3e fb 07 d3 be 6b dc a2 be
       0.34213394 0.20939805 -0.41217026 -0.3180879
000130 a0 5c 74 3e 26 a9 b2 3e c9 51 5e be 06 3a 45 be
       0.23863459 0.34894675 -0.21710886 -0.19260415
000140 47 7f 82 3e 19 f5 cc 3e 87 be fa be 0b 58 99 be
       0.2548773 0.40030745 -0.48973486 -0.29949984
000150 2e f1 9b 3e 89 60 bd be b6 01 23 be 2a aa cd 3e
       0.30457443 -0.36987713 -0.15918621 0.40168887
000160 3c 81 cf 3e b1 f0 42 3d 10 d0 b4 bc 94 a2 cc be
       0.40528286 0.047592822 -0.022071868 -0.39967787
000170 50 ff c6 3c 28 ca 91 be f0 3a 81 bc 8b 4b c1 be
       0.024291664 -0.28474545 -0.015775174 -0.37752947
000180 35 37 26 3e c3 6f d4 3d a4 9b 12 3e 90 ec ca be
       0.16231997 0.10372879 0.14317185 -0.39633608
000190 ca a4 32 3e 69 58 f0 3c 6a e9 a2 be 5a 71 0c 3e
       0.17445675 0.029339032 -0.31818706 0.13715115
0001a0 1c 1c ba be c0 0b d5 3e bb 18 1a 3e 02 9c 8f 3d
       -0.3634957 0.41610527 0.15048496 0.07012178
0001b0 e9 7f 7f 3e 72 57 a9 be 26 ff 0f 3e b8 3f e4 3e
       0.24951138 -0.33074528 0.14062175 0.44579864
0001c0 ba c8 6d 3d fb 01 95 bd 3f 93 ab 3e 1a df 0b be
       0.058052756 -0.07275768 0.33510777 -0.13659325
0001d0 6f 9b 9c 3d 72 7a 6b 3e c8 36 cb bd 51 df 22 3e
       0.07646834 0.22995928 -0.09922558 0.15905501
0001e0 bf bb 74 be bd ec b3 3e 58 6a 90 3e 62 26 d0 3e
       -0.23899744 0.35141554 0.28206134 0.40654284
0001f0 db 27 63 be 6e a9 8b be 40 66 d0 be f7 f8 a5 3e
       -0.22183172 -0.27277702 -0.4070301 0.32416508
000200 dc 00 3a 3e 79 aa 7c be 30 b7 c8 be fc a5 bb 3e
       0.1816439 -0.24674405 -0.3920226 0.36650074
000210 c7 d9 42 3e cd 5b 45 3e c6 1b cc 3c 7d 62 1a be
       0.19028388 0.192733 0.024915587 -0.15076633
000220 0a b4 b6 3e 3f 12 c7 3e 2d 69 d4 3e f1 93 54 3d
       0.35684234 0.38881108 0.41486493 0.0518989
000230 c4 a5 cf 3e 5b 7b 25 bc b8 d0 c0 be 59 70 a8 3e
       0.40556157 -0.010100211 -0.3765924 0.32898214
000240 6e 2e 7c 3e 05 19 a7 3e a4 d8 e9 be ef bd 9c 3e
       0.24627087 0.32636276 -0.45673096 0.30613658
000250 00 0f 84 bc a3 5d 2f 3d 6c d1 d5 3e 68 f9 79 3e
       -0.016120434 0.04281391 0.4176134 0.24411547
000260 a4 d3 cc be 83 91 57 bd 6e be b8 3e 47 fc fb 3d
       -0.4000522 -0.052629005 0.36082786 0.123039775
000270 17 31 25 3e ba 30 70 3d f8 30 82 3e fd ae 3c be
       0.16132008 0.05864022 0.25427985 -0.18426128
000280 c7 0d 8d 3e 44 30 a4 3e 3a 93 4f 3e d9 f0 00 3e
       0.27549574 0.32068074 0.20271006 0.12591876
000290 5b 58 b8 3e 2f 0b e0 be f1 e4 b9 be dc 63 36 3e
       0.3600491 -0.43758532 -0.3630748 0.17811531
0002a0 70 01 18 be 92 c0 ac 3e da a5 c9 be fa d7 a9 be
       -0.14844298 0.3374067 -0.39384347 -0.3317259
0002b0 10 dc 93 3d 78 b7 05 3d b8 3f ce bd fb dd 2f 3e
       0.07219708 0.032645673 -0.10070747 0.17174523
0002c0 bc 84 32 be ad 6b ac 3e 96 97 fa bd f8 6a c8 3e
       -0.17433447 0.336759 -0.12235944 0.3914411
0002d0 d4 54 10 be 90 8d 39 3e 2e aa 4f be 60 52 9a be
       -0.1409486 0.18120408 -0.20279762 -0.30140972
0002e0 40 55 ce 3b 88 40 d4 3e fa b6 83 3d 4f be 8b be
       0.0062967837 0.41455483 0.064313844 -0.2729363
0002f0 d9 01 0e bd 63 fd ae be 86 0d 88 3e 3f 5d 96 be
       -0.03466973 -0.34177694 0.26572818 -0.29368016
000300 a0 b2 39 bd 14 fb 8c be f0 60 14 be b1 8b b9 be
       -0.045336366 -0.27535307 -0.14490104 -0.3623939
000310 40 52 c6 be 38 d3 10 be ce 1b aa 3e 3c bb d2 be
       -0.38734627 -0.14143074 0.33224338 -0.41158473
000320 7c be b6 bc f8 6f be bd b4 4e 42 be 06 66 13 bd
       -0.022307627 -0.092987 -0.18975335 -0.03598597
000330 fd 87 73 3e 9f 7f cf 3e 35 45 64 be c0 77 93 be
       0.23782344 0.40527055 -0.22292025 -0.288023
000340 d8 96 d6 bd d9 be c9 3c 78 d2 0c be 6f ea 76 3e
       -0.1047799 0.024627136 -0.13752162 0.24112867
000350 50 fe 31 be 43 ca a6 be 95 5b 84 3e 9e a4 ff bd
       -0.17382169 -0.32576188 0.25851122 -0.1248257
000360 5d 9f 4e 3e 0d 27 7f be 1d dd b9 3e c6 7e 0c be
       0.2017798 -0.2491724 0.3630151 -0.13720235
000370 c8 ff 1d be 61 68 9f 3e 27 0e 2e bd b8 12 30 bc
       -0.15429604 0.31134322 -0.042493965 -0.01074665
000380 b8 5f c1 bd d2 68 ba 3e ac 89 06 3b 8d 0c 9c be
       -0.09442085 0.36408097 0.0020528836 -0.30478325
000390 28 05 a4 be cc 97 ef 3d e1 ee c6 3e 25 70 a6 be
       -0.32035184 0.11698875 0.38854125 -0.32507434
0003a0 56 c5 c0 be e4 b3 b9 3e 3f d6 43 be 32 7a d8 be
       -0.37650555 0.36270058 -0.19124697 -0.42280728
0003b0 3f 35 5c 3e 96 65 c5 3d b8 d4 b2 bd b1 2b 4d bd
       0.21504687 0.096385166 -0.08731979 -0.050090495
0003c0 1b 52 bc be 3a 39 32 3e f7 7c b0 3e 38 54 9b be
       -0.36781392 0.17404643 0.3447034 -0.3033769
0003d0 8f 8f ca 3e bd 66 a4 3e cd c3 9c 3e 5e b8 6e 3e
       0.39562652 0.32109633 0.30618134 0.23312518
0003e0 bc 27 8c 3e 84 98 8e 3e e4 31 86 3e c7 c2 9a 3d
       0.27374065 0.27850735 0.2620994 0.07556682
0003f0 30 a7 4e 3d 69 37 78 3e 22 e3 94 be 51 fa f5 bd
       0.05045241 0.24239887 -0.2907954 -0.12010635

bias f4 [128]
000000 35 b3 d3 be 17 df 5d be 66 36 4d 3e 92 56 f9 3d
       -0.41347662 -0.21667133 0.20040283 0.12174715
000010 cb ba 07 be 0d 12 01 be 26 3e 15 3e af 65 26 3e
       -0.1325485 -0.12604542 0.14574489 0.16249727
000020 2c 4d 84 3d e4 7e 89 3e 64 53 a6 3e fd 91 eb be
       0.06460032 0.26854622 0.32485497 -0.46009818
000030 d6 52 db bd 07 8d b9 be 4b 67 bf 3e 00 a9 3e be
       -0.10709159 -0.36240408 0.37383494 -0.18619156
000040 29 ea 98 3e d3 74 ee 3e 15 08 ba be 00 34 03 3e
       0.2986615 0.46573505 -0.3633429 0.12812805
000050 63 52 84 be 1d bf d9 be 18 8a 8e be d7 e6 44 3e
       -0.25844106 -0.4252862 -0.27839732 0.19228683
000060 49 f7 bd be dd ab 97 be 46 b2 bd bc 81 f6 ea 3b
       -0.37102726 -0.2962331 -0.023156296 0.007170499
000070 d6 ef d5 bd 45 26 9f 3e 91 75 13 3e 43 6c e1 3d
       -0.10446136 0.31083885 0.14400317 0.110069774
000080 83 51 a7 bd ec 6a a2 be 26 05 25 be d6 00 3f 3e
       -0.08169844 -0.317222 -0.16115245 0.18652663
000090 7c 53 a1 be 5d 3d 76 3e f7 d8 b1 be fe f6 9e 3e
       -0.31509006 0.24046846 -0.34735844 0.31047815
0000a0 46 fa 07 be 2e ad 49 be ea fb d1 3e f4 c2 ba be
       -0.13279065 -0.19694969 0.41012508 -0.36476862
0000b0 ef fe b2 3d 6f 70 bb 3e 98 65 c5 3e dc 01 be 3e
       0.08740031 0.36609218 0.38554072 0.37110794
0000c0 6d 8b 0a be c9 b8 bc be 46 33 ed be b9 f8 59 be
       -0.13529749 -0.3685973 -0.4632818 -0.21286286
0000d0 74 b6 88 3e 2d 15 6f 3e bc d2 d9 3e 11 bb 66 bc
       0.267017 0.23347922 0.4254359 -0.014082686
0000e0 76 be c7 be b2 05 94 be 35 6d 0d be dc e3 d5 be
       -0.39012498 -0.28910595 -0.1381119 -0.41775405
0000f0 f4 04 2e 3e 82 5c 68 3a 26 8c 17 3e da 34 1c be
       0.16994077 0.00088638824 0.14799556 -0.15254536
000100 89 ce 22 3e 2a ee 6e be b4 0a 9e 3d 26 71 3a be
       0.158991 -0.2333304 0.07716885 -0.18207225
000110 25 a6 4a be fe 6b b5 be b0 1c 49 3e 56 0a 54 bc
       -0.19789942 -0.35433954 0.1963985 -0.012941917
000120 86 ef fc 3d ba 5d 44 3c 94 32 de 3d 79 fb 0f 3d
       0.12350373 0.011985237 0.10849491 0.035151932
000130 cf d2 d0 be f3 e1 f2 3e 96 2c 81 be 59 cd 29 be
       -0.40785834 0.4743801 -0.2522933 -0.1658224
000140 8a 08 35 be 37 d9 9c be b0 2f 74 bd 53 c7 75 be
       -0.17679039 -0.30634472 -0.05961579 -0.24001817
000150 fc 73 36 3e 23 47 60 be 2c 6b d4 3e 24 8d 82 3e
       0.17817682 -0.21902137 0.41488016 0.25498307
000160 da a4 11 be ac ae 81 bd 53 81 4e 3e ab 03 a6 bd
       -0.14223042 -0.06332144 0.20166521 -0.08106168
000170 f2 bd 67 3e 6e e9 4b 3e 94 29 f3 be c5 c7 d3 3e
       0.22631052 0.19913265 -0.4749266 0.4136335
000180 52 b1 26 be d5 54 96 3e 7f 30 d7 3e b1 87 1b 3e
       -0.1627858 0.29361597 0.42029187 0.15188481
000190 0b 47 c8 3e cd 71 cf 3e 5e 3f e8 bd 55 50 9e be
       0.391167 0.4051651 -0.11340211 -0.30920663
0001a0 34 cc 63 be 32 c6 f7 bd 0a 8d ae bd e6 11 c5 be
       -0.22245866 -0.1209835 -0.08522995 -0.38490218
0001b0 eb 6c b0 be 60 7d be bd 0e 06 0a 3e 82 8d 0e be
       -0.34458098 -0.09301257 0.13478872 -0.13921168
0001c0 16 78 4d be 65 86 23 be 2e 92 68 3e f9 27 81 be
       -0.2006534 -0.15969236 0.22712013 -0.2522581
0001d0 39 8e 84 be 95 ff 24 be 6d b9 bf be 07 65 cd 3e
       -0.25889757 -0.16113122 -0.37446156 0.4011614
0001e0 02 a2 af be 1b e4 c1 3e f8 ed 49 be 68 5b 4a be
       -0.3430329 0.37869343 -0.19719684 -0.19761431
0001f0 2b b1 ad 3e 66 ea dd 3e 50 d0 e6 bd 29 5a 97 be
       0.3392423 0.43342894 -0.11270201 -0.29560974

weight f4 [128, 128]
000000 82 ee dd bd 2c 70 8e bc 41 67 a4 bf 76 af bf bc
       -0.108365074 -0.017387472 -1.284401 -0.023399096
000010 cb ae b7 3c d0 2a dd bb c0 f9 db 3d b4 b2 23 3d
       0.022422215 -0.0067494884 0.107409954 0.039965346
000020 25 ae 32 3c 88 18 82 3d 2c 37 58 3d 5d 86 ee bd
       0.010905777 0.06352335 0.05278699 -0.116467215
000030 26 f0 56 bd 17 af 24 bd 86 c7 75 bc 9a e2 71 bc
       -0.052475117 -0.04020604 -0.015001183 -0.014763499
000040 cb 71 14 3d b4 c1 80 bc 61 57 83 bd a8 1f c5 bd
       0.036241334 -0.015717365 -0.064131506 -0.096251786
000050 77 2b 0a 3c 48 c1 93 3c d9 e8 a3 bd de be 9e 3d
       0.008433214 0.0180365 -0.080033965 0.07751249
000060 1e f9 f1 bc eb 9b 99 3d 3e bc bc bd 04 a7 9b 3d
       -0.029537734 0.07500442 -0.09215592 0.07600215
000070 9f d3 d1 3c b1 f9 90 3c 3d 4f 6b 3d df c7 b8 3d
       0.025613604 0.017697187 0.057448614 0.090224974
000080 87 c2 27 3c 98 64 36 3c fe 7d 7a 3d 19 7c 99 3d
       0.01023925 0.011132382 0.06115531 0.07494373
000090 11 36 91 bd 33 cc d9 3d 1f 56 68 bd 15 b4 f7 bb
       -0.070903905 0.10634651 -0.056722756 -0.0075593092
0000a0 d2 b5 4e 3d 36 33 c3 3a 39 f4 8b 3d 71 87 20 bd
       0.050466366 0.0014892581 0.06833691 -0.039191667
0000b0 a0 a0 39 bb a3 22 2b bc 51 fd 52 3d 9d 76 19 3d
       -0.00283245 -0.01044527 0.051511113 0.037466634
0000c0 21 56 38 3d 65 95 5e 3d 0a c3 c5 bd 4c 3a 57 3d
       0.045004014 0.054341692 -0.096563414 0.05254583
0000d0 a1 79 c4 3d c9 81 f7 3c 24 81 86 3d ca d3 3f 3b
       0.095935114 0.030213254 0.065676 0.0029270523
0000e0 33 3a 35 3d b2 05 e8 bc 68 de 38 3d d6 dd 4f 3d
       0.044244956 -0.028323028 0.045133978 0.05074867
0000f0 63 10 88 3d 8c 62 b7 3d e7 20 97 3d b6 68 1b 3d
       0.066437505 0.08954343 0.073793225 0.037941657
000100 a0 71 c2 bd 0e 98 31 bd 93 f3 14 bd 3e ec 66 3d
       -0.094943285 -0.0433579 -0.036365103 0.05637764
000110 f6 75 68 bd 00 ee 1f 39 e1 a0 28 3d 36 ef 80 3d
       -0.05675312 0.00015252084 0.04116905 0.06295626
000120 ca 1d c6 3d e1 71 85 bc 76 b3 7a 3d d6 9d 72 3c
       0.096736506 -0.016289653 0.061206304 0.014808139
000130 d6 c3 2e 3d f6 19 3b be 91 08 3f bd 35 e7 0b bd
       0.042667232 -0.18271622 -0.04663903 -0.034156043
000140 ee cd 0a bc f7 ae af bc 3c 3c c9 3c 49 71 c4 3d
       -0.008471949 -0.021445734 0.024564855 0.0959192
000150 a4 47 a2 bd a6 af 87 3c d2 a4 ed bc cc 39 90 bd
       -0.079238206 0.016563248 -0.029009257 -0.07042274
000160 db 82 9f 3a 02 ab 1b 3d 3e 8d b3 3c 16 e6 33 bd
       0.0012169735 0.038004883 0.021917935 -0.0439206
000170 2e 5d 87 3d ae 0d fd 3c 96 4f 39 be 21 fe 25 3d
       0.066095695 0.030890312 -0.18096766 0.04052556
000180 36 a3 55 3d bc 30 06 bd 61 ff b8 3c ce 46 70 3b
       0.052157603 -0.03276132 0.022582712 0.0036663297
000190 b2 f5 0f bd 11 a1 a3 3d d1 ac 69 3d b0 ca 9b bd
       -0.035146423 0.07989705 0.057049576 -0.07607019
0001a0 c8 c0 01 3d fe 5f f0 3c a0 5b 4d bd 4e f9 04 3d
       0.03167799 0.029342648 -0.05013621 0.032464318
0001b0 15 72 96 3d 75 cb b1 3d 73 36 6a bd 57 5a 2e bd
       0.07345978 0.086813845 -0.057180833 -0.042566624
0001c0 67 a9 44 bd be 59 88 bd fd 02 c1 bc a8 17 1e be
       -0.048013117 -0.06657742 -0.023560995 -0.15438712
0001d0 c4 d4 56 3c 29 72 e5 3d 42 8d fc 3c 08 62 a4 bd
       0.013112251 0.11203415 0.030829076 -0.080265105
0001e0 c9 18 de 3d cb fb 2c bd 82 81 b4 3d 1e 02 59 bc
       0.10844571 -0.042232316 0.08813764 -0.013245134
0001f0 0e fa dd 3c 2b 2f ab 3d 2e e9 b5 be 80 08 46 3c
       0.027096774 0.08358606 -0.35529464 0.0120869875
000200 72 e7 9c 3a 80 1b 02 3c 05 67 ab 3d 58 2c d7 3c
       0.0011970832 0.007941127 0.08369259 0.026266262
000210 ed 8d c8 3c fb 9b a2 bd 44 13 31 bd f8 13 4d 3d
       0.024481738 -0.07939907 -0.043231264 0.05006787
000220 42 c5 5c 3d 48 d2 a7 bd 01 0f 56 bd d3 65 ae bd
       0.053899057 -0.08194405 -0.052260403 -0.08515515
000230 ff 5b 07 3b ba 27 01 3d bb 32 6a bd 2c 49 a1 bd
       0.00206542 0.031532027 -0.057177287 -0.078752846
000240 18 2e 07 3d b9 31 04 bd cc 21 a1 bc 3c 49 84 3c
       0.033002943 -0.03227398 -0.019669436 0.016148202
000250 df 4e 1c 3d 82 ae 42 bd 84 1f 35 3d 91 8d d2 3c
       0.038161155 -0.047529705 0.04421951 0.02570227
000260 95 7d 12 bd 24 e3 a6 bc 02 8d 41 bd 66 b6 be bd
       -0.035764296 -0.020371981 -0.047253616 -0.093121335
000270 a0 e0 d6 3c 89 a9 53 bd 10 a4 8f 3d 54 6a 43 3c
       0.026230156 -0.051675353 0.07013714 0.011927206
000280 8b d2 52 3d dc e1 b3 3c a0 3d a6 bd cb 5f 6f bd
       0.05147032 0.021958284 -0.08117223 -0.058440965
000290 3d 4b 99 3d 08 a6 7d bd 40 03 6b 3c 91 ec 42 bd
       0.07485054 -0.061925918 0.014344037 -0.04758889
0002a0 60 65 6c 3d 9d f1 a9 3d 78 41 71 3c 52 bb 36 3d
       0.057713866 0.08298037 0.014725082 0.044612236
0002b0 23 49 3b 3d 7e 09 3e bd c4 d1 a1 bc 9a f8 a6 bd
       0.045724045 -0.04639577 -0.019753344 -0.08152886
0002c0 73 e1 91 bd 92 31 b9 bd 88 89 84 bd 15 dc 2b bd
       -0.07123079 -0.09042658 -0.064715445 -0.041957933
0002d0 19 6b 35 3d 04 4c b7 3c 2f 95 8e 3d cc 63 06 bd
       0.04429159 0.022375114 0.06962048 -0.032810017
0002e0 50 25 80 3c 31 05 8d 3d 15 34 80 bc f8 46 c0 bc
       0.015642792 0.06885756 -0.015649835 -0.02347134
0002f0 8c 25 1f bd da 97 8c 3d c6 26 00 3d 80 85 ae 3d
       -0.038854167 0.06864901 0.031286977 0.08521557
000300 c9 b7 2b 3d e1 8c 40 bd 61 04 fc bc 4c c0 68 bd
       0.041923318 -0.047009353 -0.030763807 -0.056824014
000310 af 32 8a bd 08 0a 5d bc d6 5e 45 3c af 73 a3 3d
       -0.067479484 -0.013491161 0.012046536 0.07981049
000320 8b d4 98 bc 5f 84 8b 3d c1 c7 4d bd 6b 76 98 3c
       -0.018656036 0.06812357 -0.05023933 0.018611154
000330 e1 9c 95 bd 62 b3 3b bc e1 ff 60 bd 30 ec 2e 3d
       -0.07305313 -0.011456342 -0.054931525 0.042705715
000340 00 0f 93 3c 50 07 2e 3c c8 b6 08 3d 2c 7c c9 3c
       0.017951488 0.010621861 0.03337744 0.024595343
000350 3e c3 f7 bc 20 e7 22 3c 64 63 47 3c f6 33 f6 bc
       -0.030244466 0.0099428 0.012169693 -0.030054074
000360 e2 ee 7e bb d8 ec 2e 3c 21 66 7c bd e5 8a d1 bb
       -0.003889971 0.010676585 -0.061620835 -0.0063947313
000370 2b 65 75 3d 6d ee a0 bd d6 3e 1f 3d 78 61 c3 bc
       0.059910934 -0.07857976 0.038878284 -0.023850188
000380 15 39 3c 3d 59 07 9b bc 66 44 41 3d 5d fc 83 bd
       0.045952875 -0.018924402 0.04718437 -0.06444619
000390 97 92 1e 3d 98 ac 19 3d 5d 31 93 bd 62 54 0b 3d
       0.038714018 0.037518114 -0.0718715 0.03401602
0003a0 71 b1 00 bd 9b 85 f6 3c c0 27 5a 3d e8 53 01 3d
       -0.03141922 0.030093005 0.053260565 0.03157416
0003b0 86 4e 43 3d d8 7b 5d bd fe fe f7 3b 07 68 84 bb
       0.047682308 -0.054073185 0.0075682392 -0.0040407213
0003c0 6f aa 88 3c 91 f0 49 bd b7 80 97 3d bf 65 ce 3c
       0.016682832 -0.049301688 0.07397597 0.025195
0003d0 19 a8 5e bc ff 77 84 3d 57 68 ae 3c b3 04 f2 3c
       -0.013589882 0.064682 0.021289987 0.029543256
0003e0 7f 87 94 bd d4 0f 86 bc 8d 54 a5 bd 5b 8f 39 3d
       -0.07252406 -0.01636497 -0.080727674 0.04530273
0003f0 5a 72 f5 bc 9e 1a d1 b9 20 39 94 bb 20 f6 dc 3b
       -0.029961754 -0.00039883418 -0.0045234114 0.0067432076

bias f4 [128]
000000 6b 4c 07 3d f9 1e ad bd 4f 2c 93 bc 31 fb 50 bd
       0.033031862 -0.08453173 -0.017965464 -0.051020805
000010 32 99 48 3d 17 f7 88 3d 54 ab 8b 3d ca 28 1f bb
       0.048974223 0.06687754 0.068197876 -0.0024285787
000020 4c bf 65 bd 99 af 85 3d 4a 86 d9 bc 08 b5 e5 ba
       -0.056090638 0.06527633 -0.026553292 -0.0017525265
000030 8e 09 8a 3d d1 85 3a 3d 3e 68 99 3d 72 75 85 bd
       0.06740104 0.045537774 0.07490586 -0.065165415
000040 f9 c9 b1 3c c1 97 2d bd 23 50 06 3d 2c da b1 3d
       0.021702753 -0.042381052 0.032791268 0.08684191
000050 52 6a dd 3d 42 a6 36 3d 4c 71 ad bc c1 50 62 3c
       0.108112946 0.04459215 -0.021172188 0.013813199
000060 25 ed 02 3d 0e 04 2d bd 27 3a 90 3d 2f 25 a2 3c
       0.03196444 -0.042240195 0.07042342 0.019793121
000070 e2 41 a8 3d 8c 38 ca 3c 82 4e 8a bd 0c 11 c1 3d
       0.08215691 0.024685167 -0.067532554 0.094270796
000080 d5 91 31 3d 54 1e a8 bc fe ba eb 3d 69 2b 39 39
       0.043351967 -0.020522274 0.11510275 0.00017659146
000090 f9 3d 4c 3d 32 10 2c bd ba 8b 15 bd 2a 1a 72 3d
       0.04986379 -0.042007633 -0.036510207 0.059106983
0000a0 f2 56 ce bc 12 ab 92 bc 5b 44 b9 3d 6e 5a f2 bc
       -0.025187943 -0.017903838 0.09046241 -0.029584136
0000b0 00 e3 6d 3a 1a 0a 6a 3d 85 29 84 3d 27 fb e7 3c
       0.0009074658 0.05713854 0.06453232 0.028318001
0000c0 e9 6b aa 3d 97 98 e2 3d 27 46 ac bd d8 66 5e bd
       0.083213635 0.110642605 -0.08411818 -0.0542973
0000d0 2a 13 83 bd 0b 44 9b 3d b3 7f 62 bd e4 8f 0a bd
       -0.0640014 0.075813375 -0.055297565 -0.03382863
0000e0 99 92 a0 bc f3 72 b3 bd cb 20 99 bd f3 5f 86 3c
       -0.019601153 -0.08762159 -0.07476958 0.016403174
0000f0 5d d4 7e bd a3 1c 78 3d 88 a8 ca 3c 45 57 33 bc
       -0.062214244 0.060574185 0.024738565 -0.0109461
000100 12 57 07 3c e1 a8 03 bc e1 3c 9d 3d 05 63 8e 3d
       0.008260505 -0.008035869 0.07677627 0.0695248
000110 8d 7f 20 3d 7c 1b 69 bd de 6d ab bd d3 66 4d 3c
       0.039184142 -0.056910977 -0.08370565 0.012536722
000120 eb 5f 53 bc 2d fc be 3d a2 57 83 3d 39 f7 1e bd
       -0.012901287 0.093254425 0.06413199 -0.03880999
000130 b8 d5 d9 3d 5a fe 80 bd 4b c3 8a 3c 4e a8 b1 3d
       0.10636467 -0.06298514 0.016938826 0.0867468
000140 30 a1 b4 bd df fd 42 bd 3b 14 51 3d 9f 41 4d 3c
       -0.088198066 -0.04760539 0.051044684 0.012527852
000150 b1 05 8a 3d ee 23 c6 bc b4 15 8d bd 12 03 e8 bc
       0.06739367 -0.024187054 -0.06888905 -0.028321777
000160 26 0a 64 3d 9f 85 81 3d d9 7a 55 bc 0f ad c3 3a
       0.05567374 0.06324314 -0.013029777 0.0014928895
000170 eb a3 65 bd e4 2e 88 3d 98 48 15 3d 9c 68 a3 3d
       -0.056064527 0.06649569 0.036446184 0.07978937
000180 4e 6b 8d bd 4b 6f 69 bd 5c 12 e8 bd 3b 4c 38 bd
       -0.06905232 -0.056990903 -0.11331627 -0.044994574
000190 48 bb 75 bc 80 6e 88 bd 97 5e ef bd 20 3f 51 3c
       -0.014998265 -0.06661701 -0.116879635 0.012771398
0001a0 68 21 91 bc 8a b3 8f bd 00 57 8a bc 01 41 11 bd
       -0.017716125 -0.07016666 -0.016887188 -0.035462383
0001b0 bf c6 8c bd 53 6a 21 3d b5 0e b3 3c e3 83 a7 3b
       -0.06873845 0.03940804 0.021857599 0.0051121577
0001c0 0d 8d 0a 3d a6 27 ef 3c b0 f9 50 ba b3 ff 2a bd
       0.033825923 0.02919371 -0.00079717766 -0.04174776
0001d0 33 6f ac bc 15 89 99 bd b5 c3 84 bd cb 5a 8b 3d
       -0.021049118 -0.074968494 -0.06482641 0.06804427
0001e0 6f ec 35 3d e8 f5 97 bd 76 cd 13 bc 00 73 37 bd
       0.044414934 -0.0741995 -0.009021154 -0.044787407
0001f0 43 c7 2a bd 1e 8f 82 bd b7 27 23 3d d8 ec 62 3d
       -0.041693937 -0.06374954 0.039832797 0.055401653

weight f4 [2, 128]
000000 44 b9 b5 3d 44 e5 4d bc fd 21 a6 bd 6b 1b 95 bd
       0.08873227 -0.012566868 -0.081119515 -0.0728062
000010 6d a1 ee 3b 20 ce f9 3b d1 c1 6b bd c5 db 1a 3d
       0.007282427 0.007623449 -0.057557885 0.037807245
000020 c8 96 ba 3c 26 1b a9 bc d4 b0 3c 3d 2c ea a8 bd
       0.022776976 -0.020642828 0.046067074 -0.0824779
000030 33 d3 2d 3c 74 c8 0e bd fc 60 95 3c 48 81 ee 3d
       0.010609436 -0.034859136 0.018234722 0.11645752
000040 3b 52 d7 ba 05 06 5f bd d8 d9 27 bb e0 b6 3c be
       -0.0016427705 -0.0544491 -0.0025612023 -0.18429136
000050 ee a6 bc 3d 5d 5b a4 3d 33 6e 18 bd 1e 46 55 3d
       0.09211527 0.08025239 -0.03721447 0.052068822
000060 65 80 9e bd 20 36 8f 3d 9e 65 30 bd 81 07 e9 bf
       -0.07739333 0.069927454 -0.04306566 -1.8205415
000070 a8 4e 62 3d 90 c3 ea bb 07 8d 5a ba 84 99 a8 bd
       0.055250794 -0.007164426 -0.0008337055 -0.08232406
000080 22 11 db 3c 5f 2d 12 3d 68 0f 81 3d 5a cb b4 3d
       0.026741568 0.0356878 0.06301767 0.08827849
000090 35 0b 9e bd a4 d0 69 bd cc 67 a5 3d 3f de 32 3d
       -0.07716981 -0.05708374 0.08076438 0.04366898
0000a0 3f 10 d4 b9 4c ec b9 3d 79 db 60 bc e0 33 19 3b
       -0.00040447895 0.09078273 -0.013724201 0.0023376867
0000b0 94 f1 64 3d e0 81 a0 bd 78 59 e2 bb 40 ed 97 bc
       0.05589445 -0.07837272 -0.006907638 -0.018545747
0000c0 d9 96 93 3d 17 8d c0 3d 3a 51 89 bc 92 a5 53 bd
       0.07206506 0.09401911 -0.016762365 -0.051671572
0000d0 59 f1 c0 bc e6 dc 03 3d 70 43 b7 3e 60 c7 f0 3b
       -0.023552584 0.032193087 0.35793638 0.007347986
0000e0 74 83 6c bc 62 fa df bc 54 eb db b9 b7 44 0b be
       -0.014435638 -0.027341072 -0.00041946268 -0.13600431
0000f0 28 83 9a bd a0 36 14 bd 31 64 df bd 2f be 3e 3c
       -0.07544547 -0.036184907 -0.10907782 0.011642023
000100 d6 79 cc 38 ce 1d 02 3d d2 45 93 3d 0c 62 1c bc
       9.750172e-05 0.031766705 0.071910515 -0.009544861
000110 7f 8b 87 3d 44 cd 66 3b 40 96 97 bd af 97 e3 bd
       0.06618404 0.0035217563 -0.07401705 -0.11112916
000120 fd 93 eb 3d 29 35 ac 3d 5d 7b 8f bc 1d 49 d5 3d
       0.11502836 0.08408577 -0.017514879 0.10414336
000130 72 eb 02 3d a6 f5 5a 3d 22 da 67 bc a3 a3 e0 bd
       0.03196282 0.053456925 -0.014151128 -0.10968711
000140 b0 13 1f bc e4 85 89 bd d3 7c 02 bf 7b 7a 71 bd
       -0.009709284 -0.06714991 -0.50971717 -0.058954697
000150 9f 69 c6 3d 3b da c9 bf 25 f6 b0 3d c9 e1 aa bd
       0.096881144 -1.5769724 0.08640698 -0.08343846
000160 43 34 5a 3d 4e 8b 57 3c f1 13 82 3c b3 34 e2 3c
       0.053272497 0.013155771 0.01587865 0.02761302
000170 2d e6 ad 3d ee d6 1b 3c 3b b9 7f 3c e7 dc 61 3c
       0.08491168 0.009511692 0.015608127 0.013785577
000180 2d 00 24 3d 15 ca 56 bd 69 fe 97 3d 82 54 21 3d
       0.04003923 -0.052438814 0.07421572 0.039387234
000190 cc 2c 16 bd 01 b4 16 bc 8e 17 f1 bf 0c d8 3e bd
       -0.036663815 -0.00919819 -1.8835313 -0.046592757
0001a0 69 23 d1 3d 55 8d ad bd 05 e8 20 bd 15 5a 57 be
       0.10211832 -0.084742226 -0.03928377 -0.21030457
0001b0 ae 5b 27 3d 69 93 cc 3d 43 c1 b0 bc 53 df c4 3d
       0.040858917 0.09989054 -0.02157653 0.09612908
0001c0 91 ec 8b bd 0b 19 27 3d 39 b6 ed bd f3 f3 b0 bd
       -0.06832231 0.040795367 -0.11607022 -0.086402796
0001d0 01 9a 9f bd 00 52 35 bd 2e fc 46 bd 32 b3 c0 bc
       -0.07793046 -0.044267654 -0.04858034 -0.023522947
0001e0 95 aa 0b be cc ae cc 3d fe 1d 3f 3d 02 74 b6 bf
       -0.1363929 0.09994277 0.046659462 -1.4254153
0001f0 eb 4c 35 be 0b 9c 91 3d b9 16 57 b9 67 db d6 bb
       -0.17705123 0.07109841 -0.00020512463 -0.0065569165
000200 64 b6 2c bd f7 7b 51 bb bc f1 c0 bc 84 bd 73 bb
       -0.04216613 -0.0031964758 -0.023552768 -0.0037191818
000210 fd ff 3e 3d bc 9b d0 bc 75 70 67 bd b7 2e e3 bc
       0.04663085 -0.025464885 -0.05650373 -0.027732236
000220 14 32 91 bc 2e 71 50 bc e3 ad 6d be f3 b7 92 bd
       -0.017724074 -0.012722297 -0.23210864 -0.07163992
000230 11 da a0 3d 33 6b aa 3d 16 18 72 3d 44 42 1e bd
       0.07854093 0.08321228 0.059105 -0.038637415
000240 57 ba b2 bc cc 2c d0 3c 33 87 ee bb 60 c0 ca bd
       -0.02181737 0.025411986 -0.0072793006 -0.09899974
000250 4f 49 9e 3b 5f 91 23 bd ff d2 85 3d 5d 42 9a bb
       0.0048305164 -0.03993356 0.06534385 -0.004707618
000260 c1 0f 6e bd 56 0d 68 bc 1f 42 7d 3d ee 65 87 bf
       -0.058120493 -0.014163336 0.061830636 -1.0577981
000270 72 79 a8 3d 70 4b 57 3c 5a 75 cb 3b 08 30 93 3d
       0.08226289 0.013140544 0.0062090578 0.071868956
000280 7f 2e 86 bd 66 38 bd 3d e2 5e 9e 3c 05 c0 b0 3c
       -0.06551837 0.09239273 0.019332353 0.021575937
000290 ab e0 77 3d f1 3f bc 3d 20 43 ab 3d 4f 65 fd bc
       0.060516994 0.09191883 0.083624125 -0.030932097
0002a0 1a 45 2d 3d da aa 99 3d 66 3f 94 3d ec 75 fb 3c
       0.04230223 0.075032905 0.07238655 0.030695878
0002b0 29 c4 25 3d 53 a8 98 3d 41 ae 0e 3d a6 c2 4c 3d
       0.040470276 0.0745398 0.03483415 0.04999032
0002c0 98 fc 81 3c 2d 91 99 b9 00 2d 5c bd 90 c2 ad bd
       0.015867516 -0.00029290598 -0.053753853 -0.084843755
0002d0 59 c8 96 3d f7 65 10 3d f7 55 86 bd f6 fe 5c 3d
       0.07362432 0.03525349 -0.06559365 0.053954087
0002e0 b1 64 66 3d 20 7c b1 bc 03 0f a0 3d 35 71 40 3d
       0.05624837 -0.021665633 0.07815363 0.046982963
0002f0 05 55 18 bd f7 4d e0 bd 50 bf ed bc ff 1a 1d 3d
       -0.037190456 -0.109523706 -0.029021889 0.038355824
000300 4c 5a 91 3b 23 0c 4a bd c2 c9 7d bd 16 c9 24 3d
       0.004435813 -0.04932798 -0.06195999 0.040230833
000310 c4 e4 e8 3d d5 95 d5 3b 6b d6 67 3d 20 2b dd bd
       0.113717586 0.0065181055 0.05660097 -0.10799241
000320 eb e3 00 3e ea 04 9e ba 9c 5b c7 bc 3a b7 22 bd
       0.12586944 -0.0012055908 -0.024335675 -0.03972552
000330 c9 52 0a 3d 6e 32 40 3d bf 1d 9a bc d1 ea 44 bd
       0.033770356 0.046923093 -0.018813012 -0.0480755
000340 6a 30 62 3d 79 58 35 bd 1e fd 5b 3f 0c 4a a9 3d
       0.055221952 -0.044273827 0.859331 0.082660764
000350 bf 24 8b 3d d2 7e f7 3d 29 e7 84 3d 59 47 ab bd
       0.06794118 0.12084736 0.06489403 -0.08363218
000360 6e 0a 48 3c a9 0b b6 3d 16 61 90 3c ab 15 2f 3d
       0.012209518 0.08888943 0.01762442 0.042745274
000370 e7 9d 4e bc b2 2c a3 bd 7f 38 ce 3d 70 66 d5 3c
       -0.012610889 -0.07967509 0.100693695 0.026049823
000380 06 04 97 3c 20 05 b8 3c 05 1c 19 be c4 51 6c bd
       0.018434536 0.022463381 -0.14952095 -0.057695165
000390 e8 42 c3 3d 91 58 3e 3d 12 7b 6c bf 61 5b 22 bd
       0.09534246 0.046471182 -0.9237529 -0.039637927
0003a0 99 28 1e bc 70 47 a0 3c a7 ef 53 bd 44 e3 1a bd
       -0.009653234 0.019565314 -0.051742222 -0.037814394
0003b0 cd ba 2e bd a5 33 00 bd 00 1b 96 3d 80 2c e2 3c
       -0.042658616 -0.031299252 0.073293686 0.02760911
0003c0 43 a1 1b be 32 37 d4 3c 65 96 42 3d a0 6b 16 bb
       -0.15198235 0.025905225 0.04750671 -0.0022952333
0003d0 3a 36 2d be dd ca ad 3d 9c a8 a7 bc 47 98 99 3d
       -0.16915217 0.08485959 -0.020466141 0.07499748
0003e0 d7 e3 04 bd 98 cd 23 be 7b 66 a2 3d a8 db 1b bd
       -0.032443848 -0.15996397 0.07929703 -0.038051277
0003f0 fd 10 fa 3c 41 a7 76 bd 90 b7 56 bb 2a e8 0f 3d
       0.030525679 -0.0602181 -0.003276322 0.03513352

bias f4 [2]
000000 69 e0 a6 3d 51 e2 9f bc
       0.081482716 -0.019517096

weight f4 [128, 5]
000000 f8 f2 77 3e f6 ac cc 3e 2a 64 77 bd 62 c6 ee 3d
       0.24213779 0.3997571 -0.06039826 0.11658932
000010 03 06 21 be 63 88 2d be 78 5b c6 bc 1d 96 e4 be
       -0.1572495 -0.16946559 -0.024213538 -0.44645777
000020 43 64 d4 3c c0 27 a0 be c8 bd c4 be fe 52 44 be
       0.025926715 -0.31280327 -0.38426042 -0.19172284
000030 60 ad 27 bc 3c c9 f0 bd 6c ee 56 3e bc bf cc 3e
       -0.010234207 -0.117571324 0.20989388 0.39990032
000040 13 22 19 3d 57 1f b2 bd f0 ea ef be bf 27 f0 be
       0.03738601 -0.08697384 -0.4685893 -0.46905324
000050 08 d2 e7 be c8 34 97 be 00 88 ca 3e d1 e7 cd be
       -0.4527743 -0.29532456 0.39556885 -0.40215924
000060 09 b3 e8 bd 3b 82 5e be 4e 88 3f be 94 63 d3 be
       -0.11362273 -0.21729366 -0.1870434 -0.4128691
000070 d1 1a 41 3e 48 cb 9d 3e ce 6e 51 3e 65 f6 d0 3d
       0.18857886 0.30819154 0.20452425 0.10203246
000080 85 db aa bd a8 5e 9f 3e 70 01 8c 3e 1c c9 bc be
       -0.08342651 0.31126904 0.27344847 -0.36872184
000090 62 ca ac 3e 93 c4 a3 3e fa e2 93 3e 1b f1 cb 3e
       0.33748156 0.31985912 0.28884107 0.39832386
0000a0 ae ea 57 be 6f a9 8f 3c 72 b4 b4 3e 50 c2 54 be
       -0.21085617 0.017536847 0.3529392 -0.2077725
0000b0 00 bb 79 3d 82 91 e8 3e 98 78 84 be 6d 08 45 bd
       0.060969353 0.45423514 -0.25873256 -0.04810374
0000c0 83 16 58 3e d0 3a 96 be c5 4f 74 bc ec 8f ef 3d
       0.21102338 -0.29341745 -0.014911597 0.11697373
0000d0 48 08 9d 3e 85 c0 91 bd e8 62 84 3e 42 04 23 bd
       0.3067038 -0.07116798 0.2585671 -0.039798982
0000e0 c9 72 8a 3e 28 37 10 be 05 8a dd 3d d3 f2 e6 3d
       0.270407 -0.1408354 0.10817341 0.11276784
0000f0 1d 29 df 3e 23 15 af 3e 0a 21 10 be 5b 11 21 be
       0.43586054 0.34195814 -0.14075103 -0.15729277
000100 ee 3f 60 be 82 b4 49 3e 2a f0 44 3e 80 0e 01 be
       -0.21899387 0.19697765 0.1923224 -0.12603188
000110 0a 6b 9f 3d d2 a9 be be 45 cf 67 be d1 fa 8b 3e
       0.07784088 -0.37238938 -0.22637661 0.27339795
000120 30 30 31 3e 65 6f 75 3e 10 ca a5 3c 11 02 8b 3e
       0.17303538 0.23968275 0.020237952 0.27150014
000130 87 66 cd be a7 e2 f8 3b b2 57 a8 3e 1d ca 3e be
       -0.40117285 0.0075953784 0.32879406 -0.18631788
000140 82 de 15 3e 3a 43 df be 38 58 34 be 8a 63 c6 bd
       0.14635661 -0.43605977 -0.17611778 -0.09686954
000150 12 b1 8c 3e 92 6e c2 be 58 d6 3d 3e 4c 50 8d be
       0.27478844 -0.37974983 0.18538797 -0.27600324
000160 e0 92 a4 bc d7 42 5c be 95 9f f5 3e 6e 23 a0 be
       -0.020089567 -0.21509872 0.47973314 -0.3127703
000170 4a e4 91 3e 20 76 de 3d e4 c7 96 be 72 7f 08 3f
       0.28494483 0.10862374 -0.2944938 0.53319466
000180 31 7a bd be 06 2b 42 3e 2a d4 a3 3c 51 17 ce be
       -0.37007287 0.18961725 0.019998629 -0.40252164
000190 44 51 9b 3e f9 bf 8d be 4c 8c 76 3e 04 cc 2c 3d
       0.30335438 -0.27685526 0.24076957 0.042186752
0001a0 29 6d c2 be be 84 17 3e 3b cd 47 3e 4a 3a 3b be
       -0.37973908 0.14796731 0.19511883 -0.18283954
0001b0 34 29 bb 3d 7b 3e c3 3c ca 67 8e be 6c dd 03 3e
       0.09138718 0.023833504 -0.2781356 0.12877434
0001c0 ee 80 d1 3e 94 96 db 3e e7 a8 18 3e 2f b4 8a be
       0.40918678 0.4288832 0.14908181 -0.27090594
0001d0 ed 73 77 3d c0 fc 47 3c 67 97 a2 3e 70 13 d4 be
       0.06041329 0.012206256 0.31756136 -0.4142108
0001e0 a9 58 37 be 3f a5 84 be 89 a8 3c 3d ee 16 91 3d
       -0.17904915 -0.25907323 0.046059165 0.070844516
0001f0 0b a3 96 3e 3f 04 cc be 42 d7 3b be 04 24 de bd
       0.29421267 -0.3984699 -0.18343833 -0.10846713
000200 c3 3a 6b be cf 74 b5 be e0 19 ce 3e c9 a4 30 3e
       -0.22971635 -0.3544068 0.40254116 0.1725036
000210 97 42 b6 3b 72 ff b3 be c4 d3 b7 3e 24 2a bd 3c
       0.0055621373 -0.35155827 0.35903752 0.023091383
000220 c2 88 76 be 25 b1 b8 3e eb 24 ac 3e c8 17 22 bd
       -0.24075606 0.3607265 0.33621916 -0.03957346
000230 50 b5 ac bc 9a fb d7 be 20 06 d3 3e 9e c4 aa 3e
       -0.02108255 -0.42184144 0.4121561 0.33353132
000240 92 05 c0 be 1c 70 1b be 83 83 a0 bc a2 f4 bd 3e
       -0.3750425 -0.15179485 -0.01959396 0.37100703
000250 3b df bb 3e 27 95 fa bd 35 a4 8a 3e 4f 2e 25 be
       0.3669375 -0.1223548 0.27078405 -0.16130947
000260 98 56 a4 be 1b 98 88 3e 08 01 21 bd 30 bc b9 3e
       -0.32097316 0.26678547 -0.039307624 0.36276388
000270 93 1e c3 3e 69 a6 c5 3e 13 ce b9 3e b0 72 35 bd
       0.38109264 0.38603523 0.36290035 -0.044298828
000280 19 76 7c 3e a2 af 66 be d7 bd 99 bd 22 24 6d bc
       0.24654426 -0.22527936 -0.07506912 -0.014473947
000290 05 14 9a 3d c7 70 cb 3e 1f fd cb bc ea 2b cb be
       0.0752335 0.3973448 -0.024900971 -0.3968194
0002a0 de 4d ab be e8 d4 95 bc be c0 e1 be 09 fc 5b 3e
       -0.33457845 -0.018289998 -0.44092363 0.21482863
0002b0 09 5d 20 bd 6e e6 aa be 93 44 1a 3e 0c b9 9f 3e
       -0.039151225 -0.3337893 0.15065221 0.31195867
0002c0 c5 39 8b 3d 67 05 47 bc b3 c9 0b 3d 1e cc 85 3d
       0.06798128 -0.012147284 0.034127902 0.06533073
0002d0 34 fb a0 be 8d ee ff bd 68 40 bc be a0 e3 bb 3e
       -0.31441653 -0.12496672 -0.36767888 0.36697102
0002e0 9f 47 b9 3e 62 f7 47 3e 1b 5e 3b 3e ae 80 ae be
       0.36187455 0.19527963 0.18297617 -0.3408255
0002f0 08 fe 7a bb 14 a1 ad be 55 23 e5 3d d3 0e 4d be
       -0.0038298387 -0.33911955 0.1118838 -0.20025186
000300 90 c0 ba 3c db d1 f3 3e bd b9 e8 3e 86 4d 38 be
       0.0227969 0.47621045 0.45454207 -0.17998323
000310 40 98 68 bd 68 b3 3b be 52 59 50 be ae ea b2 be
       -0.056785822 -0.18330157 -0.20346573 -0.3494467
000320 62 42 af be b8 ad af 3e 14 20 d4 bd 06 7e b3 be
       -0.34230334 0.34312224 -0.10357681 -0.35057086
000330 fe 0d 25 3e 20 0a f0 3d 12 94 5e be 40 c6 85 bb
       0.16118619 0.11720681 -0.21736172 -0.004082471
000340 98 78 82 3d bc 38 de bd 8a ab 80 3e 20 17 64 3d
       0.06370658 -0.10850665 0.25130874 0.055686116
000350 8c 6a 7d be 0c 18 96 be 30 f7 b2 be 0e fc 07 3e
       -0.24747676 -0.2931522 -0.34954214 0.13279745
000360 33 f0 97 3e 38 b4 a5 be 5d 96 4c be 11 dc ea bc
       0.29675445 -0.32364058 -0.19979234 -0.028669389
000370 77 31 47 bd 57 80 ed 3e 1c 6c 5b be 60 91 5c 3e
       -0.048631158 0.46386978 -0.21427959 0.21539831
000380 77 41 cb 3e 8f 98 0f 3f 1e ce b0 be f9 6f d5 3e
       0.39698383 0.5609216 -0.34532255 0.4168699
000390 47 f9 7b 3e 96 6b 3f 3e c3 09 36 be d2 12 f5 3e
       0.2460681 0.18693385 -0.17777161 0.4786592
0003a0 bf 30 eb bd 34 5f d8 be 7c 7d 9c be 79 72 e6 be
       -0.11483907 -0.42260134 -0.30564487 -0.4500921
0003b0 64 30 7c ba 34 45 c6 bd 06 68 4e 3d 4e aa 37 be
       -0.0009620248 -0.09681168 0.050392173 -0.1793606
0003c0 a7 3b d8 bd 0d 6b 40 3d e3 a7 c4 3e ad 03 3e 3d
       -0.10558253 0.04697709 0.38409337 0.046390224
0003d0 61 34 f4 3d e2 2b 38 3e 24 bf 9e be 0e d4 be bd
       0.11924053 0.1798549 -0.31005204 -0.0931779
0003e0 92 23 84 be 18 cf ad 3d 8d 4d 79 3e a6 d6 47 3e
       -0.25808388 0.084867656 0.2434599 0.19515476
0003f0 f4 a6 29 3e 61 03 c1 be e0 5f 11 be ca bc 9a 3e
       0.16567594 -0.3769789 -0.1419673 0.3022216

bias f4 [128]
000000 b0 65 93 3e 4a bb e6 3c 94 e1 9a be b5 b7 77 3d
       0.2878852 0.028165478 -0.30250227 0.06047793
000010 15 74 b9 3e b3 70 3b 3d ca 5d 54 3e f9 39 91 3d
       0.36221376 0.045761775 0.20738903 0.070911355
000020 37 de 20 be ff ea 5d be 0e 71 05 be 67 b6 46 be
       -0.15709768 -0.21671675 -0.13031408 -0.19405518
000030 d5 49 33 3d 34 94 a2 bd d7 17 e5 bc aa f3 cc 3e
       0.043771584 -0.07938424 -0.02796547 0.4002965
000040 0e a2 61 3c 78 df 75 be c5 18 a5 3e 3c db 25 bd
       0.013771547 -0.24011028 0.3224546 -0.04049228
000050 eb a3 25 3e 45 23 97 bd 5b 84 92 3e 67 5e 71 be
       0.16175811 -0.07379774 0.28616604 -0.23571168
000060 d8 de bc 3e 50 6b c9 be 21 fd cb bd 76 44 2d be
       0.36888766 -0.39339685 -0.0996039 -0.16920647
000070 28 9c d2 be 71 9b b7 3e e5 78 cb 3d 26 00 34 bc
       -0.41134763 0.3586078 0.09935168 -0.0109863635
000080 67 91 d8 3d 49 5f 01 3d 56 7d 25 3e 67 d3 82 be
       0.10574608 0.03158501 0.16161093 -0.25551912
000090 31 9d a6 3d 0b 2c 61 3e 00 96 ac be 3a e9 0a be
       0.08135451 0.21989457 -0.3370819 -0.13565531
0000a0 c4 e2 0a be 54 45 a2 be 83 5f 60 3e dc a6 be 3b
       -0.13563067 -0.31693518 0.21911435 0.005818231
0000b0 6f d5 c1 be aa 05 cb bd 05 0b e0 bd 70 b1 b7 3e
       -0.3785815 -0.0991319 -0.10939602 0.35877562
0000c0 5c ef b6 3d e6 41 c8 3d ee ad 97 3e 15 ae a7 3e
       0.08932373 0.09778194 0.29624885 0.32750002
0000d0 2e f9 be 3e 4f 3a 85 3e 5f 52 57 be 06 da c3 3e
       0.37299484 0.26021048 -0.21027516 0.38252276
0000e0 4a 05 97 be 3f ed fc 3e 8b 98 33 bd b1 2e 82 bb
       -0.29496223 0.49399754 -0.04384665 -0.003972851
0000f0 70 2b 1a 3e 73 09 c3 3e 04 9a e2 3d 9f c2 e6 3d
       0.15055633 0.38093147 0.110645324 0.1126759
000100 75 0b df 3e 3f 6f 60 bd e4 b1 3c 3e 98 a0 23 be
       0.4356343 -0.054793593 0.18427235 -0.1597923
000110 48 02 2c 3c 29 e2 0c be 5d 62 95 3e d7 7b 29 be
       0.010498591 -0.13758148 0.29176608 -0.16551147
000120 34 9d 89 be 59 ec f7 3d dd 62 bc 3d 65 7c 60 3e
       -0.2687775 0.121056266 0.09198544 0.21922453
000130 e3 04 8f 3e d6 94 86 bd 47 7d 94 be ce 1c e2 3e
       0.27933416 -0.06571357 -0.2900183 0.441626
000140 39 21 c7 bb 2c e8 d3 3e a6 8e 12 3e db e4 d0 be
       -0.0060769585 0.4138807 0.14312229 -0.40799603
000150 32 80 1d 3e e3 2d 49 be 11 a1 57 3e de 7f 80 3d
       0.15380934 -0.1964641 0.21057536 0.06274389
000160 fb 9c 45 3d 6c 83 60 3e c1 a1 9f 3d 9c 99 d9 be
       0.04824541 0.21925133 0.07794524 -0.42500007
000170 b8 66 cb 3d 7d a6 3a be 7c fc f1 3b 5e 47 6b be
       0.099317014 -0.18227573 0.007384835 -0.22976443
000180 9d 5b dd bd dd ac d4 3e 63 4f 92 3e 66 51 a4 be
       -0.108084895 0.41538134 0.28576192 -0.32093352
000190 b0 92 95 bd 77 73 e2 bd f2 98 07 3e ea 13 00 be
       -0.07303369 -0.110571794 0.13241938 -0.12507597
0001a0 06 de 3f 3e 64 2c 78 be e6 c0 9a be f7 aa 67 be
       0.18737039 -0.24235684 -0.30225295 -0.22623812
0001b0 31 07 87 3e 7b c7 36 be 0c 45 f2 be 91 bf 87 3e
       0.26372674 -0.17849533 -0.47318304 0.2651334
0001c0 05 3f 08 3e 11 8f 7d 3e 99 f0 04 3d 79 50 9c 3e
       0.1330529 0.24761607 0.032456014 0.30530146
0001d0 9a 03 5d 3e 08 75 49 be 95 52 b8 3e 79 3a 85 bd
       0.21583405 -0.1967355 0.36000505 -0.065052934
0001e0 39 52 0f be 9e b8 c8 be db 60 d6 be be 78 87 be
       -0.13996209 -0.39203352 -0.4187077 -0.26459306
0001f0 5c b5 c4 3e b7 91 ff bb d2 2f 15 3e 8b 3b b2 bd
       0.38419616 -0.007799353 0.14569023 -0.08702763

weight f4 [128, 128]
000000 69 8b 67 bd 48 6e fb 3c 98 31 71 bc bd ce b5 3d
       -0.056529436 0.030692235 -0.014721297 0.08877323
000010 41 18 9c bc 5a 57 c1 3d 49 0e 39 bb 07 cb bd 3d
       -0.019054534 0.09440489 -0.0028237274 0.0926724
000020 42 d3 37 be e8 07 a9 3d 52 65 8d 3d 21 a8 96 3b
       -0.17951682 0.08253461 0.06904091 0.0045976792
000030 69 49 6e 3d ef 5b 8d bc 27 4a 18 3d a4 4a 4b bd
       0.058175478 -0.017255751 0.037180092 -0.04963173
000040 03 c1 0c 3d 5c 8c 9f bd e1 4e f8 3b d9 e8 de 3d
       0.034363758 -0.07790443 0.0075777625 0.10884256
000050 5e a6 88 3d f5 ee c8 3d 7e 4e 78 3c fb 72 cb bc
       0.06672357 0.098112024 0.015155433 -0.0248351
000060 e5 18 d8 3d dc 12 91 bd 4c ae da 3c de 66 76 3d
       0.10551623 -0.07083675 0.02669444 0.060156696
000070 28 e7 5d bc d0 7d b8 3d ad d4 96 bd 10 88 1c 3b
       -0.0135438815 0.09008372 -0.073647834 0.002388481
000080 a8 53 8c 3d 40 03 c2 bd 05 9b 87 3d 9b 1e 76 bc
       0.06851894 -0.09473276 0.066213645 -0.015021945
000090 cc 07 66 3c 2d 3b 18 3d 63 fe db 3c 3b 7a a7 3d
       0.014039945 0.03716581 0.0268547 0.081776105
0000a0 92 59 2d bb c1 f7 06 bd 91 be 0f bd 81 ab 56 bb
       -0.0026451093 -0.03295112 -0.035093848 -0.0032756033
0000b0 ff bf 57 3d 50 a6 f3 3b a8 f3 0d bd cc d4 2c be
       0.052673336 0.0074355975 -0.034656197 -0.1687805
0000c0 4b b7 a3 bd 8c ce 9a 3c c5 1f 1c 3d 81 8b f3 3c
       -0.07993945 0.018897317 0.038116235 0.029729607
0000d0 28 8c 10 3d 31 a9 ea 3c 42 d3 37 3d df 0b 7f 3d
       0.035289913 0.02864513 0.044879206 0.06226718
0000e0 c2 dd 15 3d 3f 47 02 bd ad a4 d5 bc dc 30 98 3d
       0.036588438 -0.031806227 -0.0260795 0.07431194
0000f0 96 95 05 bd 01 69 b8 3c 19 b7 cc bd 34 38 6f 3d
       -0.03261336 0.022511007 -0.099958606 0.05840321
000100 c1 0d bc bd 0e 04 cb 3c 38 bb 96 bd 1e 53 97 bd
       -0.09182311 0.024782207 -0.07359928 -0.073889
000110 57 29 ae 3b a5 25 9f bd 27 7f 25 3c 36 d5 f2 bb
       0.0053149867 -0.07770852 0.010101116 -0.0074106706
000120 92 9c b3 bd 5d 5b c9 bd a5 dd 87 3d 4c 64 87 3d
       -0.08770098 -0.09831879 0.06634072 0.06610927
000130 9f 74 38 3b 09 b8 34 be 80 9f 4b be 4f 07 0a bd
       0.0028145683 -0.17648329 -0.19885063 -0.033698376
000140 f2 ac 2d 3c aa f8 6d bd d9 7c ca 3d 62 24 79 bc
       0.010600315 -0.058098473 0.09887094 -0.015206428
000150 e8 38 b0 3d 6a 9f f9 3d 16 d7 25 bc 24 5a f6 b9
       0.08604604 0.12188609 -0.010122081 -0.00046987936
000160 ed 29 83 3d 07 0d 20 3d 32 95 d8 3b cc df ec 3c
       0.06404481 0.039074924 0.0066095823 0.028915308
000170 12 aa 1f bd 21 4c f9 bc 7b 67 df 3d ab 1d 9b bd
       -0.03898055 -0.030431809 0.10908409 -0.07574018
000180 85 de 3b 3c e7 6e 75 bd f9 77 d1 bd 58 38 34 3c
       0.011466627 -0.059920218 -0.10227961 0.0109997615
000190 56 b1 60 3c c0 9d ce 3b 47 9c 15 bd 2e 9f 60 bd
       0.013714155 0.0063054264 -0.03652599 -0.054839306
0001a0 55 8e 26 3d 93 00 a5 3d 6d 75 87 bd 32 db 71 bd
       0.040663082 0.0805675 -0.06614194 -0.05904693
0001b0 44 97 8a 3d 4d 96 ad 3d 4e 9e 20 bb bf 53 15 bd
       0.06767133 0.08475933 -0.002450842 -0.03645682
0001c0 3e 23 bb bd 5f d5 ae 3c f8 e6 c7 3d ba cf 0d 3d
       -0.09137581 0.021341978 0.09760851 0.03462193
0001d0 5b 28 c8 be 71 7e 9c 3d 8f a0 7e 3d 38 1a dc 3d
       -0.3909329 0.07641304 0.06216484 0.10747188
0001e0 90 20 80 3c cf 9c 05 bd 40 3d a1 ba 78 0b 1d be
       0.015640527 -0.032620247 -0.0012301579 -0.15336406
0001f0 ac 99 c6 3d 89 17 ce bd 25 66 fd ba c9 e4 46 bd
       0.09697279 -0.10063083 -0.001933281 -0.04855803
000200 13 6f 6b 3d bc 09 14 3d be 36 17 3d ec cf 2d 3d
       0.057478976 0.036142096 0.03691744 0.042434618
000210 5a 18 3f 3d 92 cb 56 3d 29 52 8b bd 96 77 b0 3d
       0.046654083 0.052440234 -0.0680278 0.08616559
000220 b7 44 31 3d 0d fd c4 3d ab de 81 3d 11 e7 40 bd
       0.043278422 0.09618578 0.06341299 -0.047095362
000230 b0 ff b2 3d 60 53 c3 3d 85 31 27 bc cb 19 86 3d
       0.08740175 0.09537387 -0.0102046775 0.06547888
000240 84 a8 5c 3d 60 36 af 3b bb 47 8f bd 30 89 b0 bd
       0.053871647 0.005347058 -0.069961034 -0.086199164
000250 e5 26 51 bc 6c 5c 2e 3d ae 43 5c bc 20 3c c1 bd
       -0.012765621 0.04256861 -0.0134438705 -0.09435296
000260 83 5e 38 3d 67 a3 a8 bd f8 7c 05 3c bf 04 f3 bc
       0.04501201 -0.082342915 0.008147471 -0.029665349
000270 88 3d a6 bc 4c f6 3d bc e5 fd ad bd 94 55 bb 3c
       -0.020293012 -0.011594366 -0.08495692 0.022867955
000280 e8 a1 9e 3d f3 9c 8e bc 82 49 69 3d af 04 d0 3c
       0.07745725 -0.017408824 0.05695487 0.025392858
000290 19 1f c7 3c 0e fe 27 3d 7c 43 06 bd 12 08 3b 3d
       0.02430682 0.04101377 -0.032779202 0.045661993
0002a0 ee b9 48 bd 00 98 35 b9 fb 1e 6c bd ad 4d 07 bd
       -0.04900544 -0.0001731813 -0.057646733 -0.03303306
0002b0 f5 fa 1f 3d e3 06 7c 3d c3 b1 32 3e 66 77 3b bd
       0.03905769 0.061530005 0.17450623 -0.045768164
0002c0 a6 2d ad 3d b0 5d 08 be 4e 3f 8b 3d ac e0 ea 3c
       0.084559724 -0.13316989 0.06799184 0.028671585
0002d0 9f 0e f4 3c c3 13 bc 3d 63 79 8b bc 7c 2c 30 3d
       0.029792128 0.09183457 -0.017025655 0.043011174
0002e0 94 81 3b bd 9d 19 85 3d 6a 0c e1 3c 88 ba 39 3b
       -0.045777872 0.06499026 0.02747174 0.002833994
0002f0 11 cb 14 bd 80 8d 26 3d ac 70 5c bd 90 91 38 bd
       -0.03632647 0.04066229 -0.05381839 -0.045060694
000300 3c 0e 6d bc 52 a1 e7 3d 07 3b 9a 3d e0 b7 b0 bc
       -0.014468726 0.11310066 0.0753079 -0.021572053
000310 c3 3a 9c bd e6 78 93 3d 24 db a4 3d c9 01 60 bd
       -0.076283954 0.07200794 0.0804961 -0.054689202
000320 08 3a 82 bd 62 63 03 3d c3 3a 85 3c d8 8f 1b bb
       -0.06358725 0.0320772 0.016263371 -0.002373686
000330 7a c6 4c 3d 5f 4a c6 bd 28 2a ed bb aa c4 1d 3c
       0.04999397 -0.09682154 -0.0072376914 0.009629408
000340 8a 67 c2 bc 03 d0 4c bd af fb 1e bd 5a 87 89 3d
       -0.023731012 -0.050003063 -0.038814243 0.067152694
000350 55 42 d3 bc c3 dd 16 3d 09 62 83 3d f4 ed ca 3c
       -0.025788466 0.036832582 0.06415183 0.024771668
000360 ef d3 74 bc 24 24 2f 3d b0 35 b4 3d 60 20 4c 3c
       -0.014943107 0.042759076 0.087993026 0.012458891
000370 ff 41 e0 3d 7b c0 7a bd 32 75 0c 3e f9 00 51 bd
       0.10950088 -0.06121872 0.13716581 -0.05102632
000380 a5 33 02 3e 38 85 bc bc fd 79 bb bd 2e 59 55 3d
       0.12715013 -0.023012742 -0.09154127 0.052087
000390 00 b4 94 3b ff a4 9f 3d e8 18 bf 3d 12 c5 a5 bd
       0.0045380592 0.077951424 0.09330922 -0.08094229
0003a0 80 5c 65 bd 82 9a c0 3d c9 b6 86 3d 60 22 1d bb
       -0.055996418 0.0940447 0.06577832 -0.0023976788
0003b0 8b ae fb bc bc 36 81 3d f6 4d d7 bd b8 ac 72 3c
       -0.030722877 0.06309268 -0.10512917 0.014811687
0003c0 b2 fa 04 bd bb c4 aa bc 66 49 4a 3c 70 62 ed 3c
       -0.032465644 -0.020845762 0.012346601 0.028977603
0003d0 4c 91 17 be 2a 94 5a 3d 30 3c 1a bd 7c 38 fe bc
       -0.1480152 0.053363957 -0.037655056 -0.031032793
0003e0 b7 98 da bc ec 03 86 bd b0 25 ff 3c 00 77 1a 3d
       -0.026684148 -0.06543717 0.0311459 0.037711143
0003f0 b5 d3 f3 bc 91 73 cb 3d 30 3e 7f 3d 5e 40 96 bd
       -0.029764036 0.09934152 0.062315166 -0.07336496

bias f4 [128]
000000 49 8e 04 bd 89 9d 4a bc 34 0e d9 bc 51 c6 d9 3d
       -0.032362256 -0.012366661 -0.02649603 0.10633529
000010 ce f7 d0 bb 2d fa aa bd 60 20 c8 bc 9f 3c 5b 3d
       -0.006377197 -0.083484985 -0.0244295 0.05352461
000020 7f 81 23 3d 57 ff 23 3c d1 05 f1 3c 11 90 11 bd
       0.03991842 0.010009608 0.029421719 -0.035537783
000030 b9 36 80 bd dc e2 92 3d 52 c5 68 3d 01 3e af 3c
       -0.062604375 0.07172176 0.056828804 0.02139187
000040 6b 1c 55 bd bc 34 44 bd 74 10 91 bd 0e 92 75 bb
       -0.052029055 -0.047901854 -0.07083216 -0.0037471089
000050 01 91 22 bd 17 9c 66 3d 25 8c a3 3d 87 97 6c bb
       -0.039689068 0.056301203 0.07985715 -0.003610106
000060 73 06 4c bc b6 27 6c 3d 88 20 04 3d 04 6b c7 3c
       -0.0124527095 0.05765506 0.032257587 0.024343021
000070 19 a1 c3 3c d8 ff 3a bd 94 ca 90 bc b8 67 73 bb
       0.023880528 -0.045654148 -0.017674722 -0.0037140679
000080 e4 3a aa 3c af eb 9a bc db 89 8f bd 7d 66 4a bd
       0.020780034 -0.01891121 -0.07008716 -0.049414147
000090 c6 8a d9 3c a8 fb 2f 3d 40 dc d7 bc 2e 2c cc bc
       0.02655543 0.042964607 -0.02635014 -0.02492341
0000a0 15 fc 51 3d 79 7f 56 bd 6e fb 69 3d 45 c6 aa bd
       0.051265795 -0.05236766 0.057124548 -0.08338598
0000b0 d5 3e 97 bd 8c 1c 98 3c 1b 31 4e bd 50 1d 26 bd
       -0.07385031 0.0185683 -0.0503398 -0.0405553
0000c0 cc e8 12 bc 40 b7 53 3d b6 29 92 3d 5d a5 69 3b
       -0.008966636 0.051688433 0.07136862 0.0035651543
0000d0 a6 9d 0d 3d 46 74 82 3d 11 41 ad bc ca 1b 2a 3d
       0.034574173 0.06369834 -0.02114919 0.041530408
0000e0 bc eb c2 3c c7 35 a9 bc e6 6e f0 3c b1 9b 3a 3d
       0.023794048 -0.020655526 0.029349755 0.045558635
0000f0 ad e2 1a bd 5b c2 ae bc 28 0f 8c bd ff e0 b7 bc
       -0.03781383 -0.02133291 -0.06838828 -0.022446154
000100 b0 ed ee 3b f0 ee 19 bd 80 74 ab bd dd 8c 1f bd
       0.007291518 -0.037581384 -0.0837183 -0.038952697
000110 18 de 84 bd 58 cc d2 3d cf 0b b6 3d 97 1c 90 bd
       -0.064876735 0.10292882 0.08888971 -0.07036703
000120 cb 26 f6 3c 06 b3 05 3d f4 01 38 3c 57 de 3f 3d
       0.030047795 0.032641433 0.011230934 0.0468429
000130 76 7d 02 3b 0a 86 2d bd 9a 1e 7b bd 64 89 3e 3d
       0.0019911206 -0.042364158 -0.06130848 0.046517745
000140 dd 82 0a 3d 24 e9 95 bd c1 13 78 bc 0a 40 33 bd
       0.033816207 -0.07319859 -0.015141428 -0.043762244
000150 c1 df fc bc 5b a8 43 bd df 42 ee bc 20 e9 11 3d
       -0.030868413 -0.04776798 -0.029084621 0.035622716
000160 bf 84 8a 3d 5e 03 33 3d 14 1f 07 bd 00 27 d7 3a
       0.067636006 0.043704383 -0.032988623 0.0016414821
000170 09 45 95 3d 7b f8 7b 39 95 e0 5b 3d 7d 58 a8 3d
       0.07288558 0.00024029792 0.053680975 0.08220003
000180 5c 0c 9b bc 51 36 a1 3d 0c 45 8d bd 19 1e 01 bd
       -0.018926792 0.07871688 -0.06897935 -0.031522844
000190 46 3b 3f 3d 38 ed 3e 3d 26 69 1c bd 82 40 10 bd
       0.046687387 0.04661295 -0.038186215 -0.03521777
0001a0 c6 03 51 3d b8 fd 20 3d f9 05 1e ba 85 9f 53 bd
       0.05102899 0.039304465 -0.00060281117 -0.0516658
0001b0 ba 95 7d bd 50 ac eb 3b 73 80 34 3d ed 34 bb bb
       -0.06191037 0.007192172 0.04406781 -0.0057130964
0001c0 15 e8 0f bd 7e a9 25 bd 08 e9 a2 bc e1 c3 da 3d
       -0.03513344 -0.040444843 -0.019886509 0.10681892
0001d0 31 dd 06 bd 28 b5 46 3d ac 25 96 3c 19 93 55 bd
       -0.03292579 0.048512608 0.01832851 -0.052142236
0001e0 a8 46 32 3d 5e 1c 51 bd c9 fd 8b bd c1 8b c8 bc
       0.043524414 -0.051052444 -0.06835515 -0.024480702
0001f0 4e 8d 9a bd 6a 91 a3 bd a6 b7 f9 3c b2 fa 66 3d
       -0.07546483 -0.0798672 0.030483078 0.056391425
