models/mountaincar_2D/checkpoint_att.13.pth.tar (torch_old, 105542 bytes, 8 tensors)

weight f4 [128, 5]
000000 32 cd 31 bf d2 0c 98 be f8 30 73 3a 3d 51 84 3e
       -0.6945373 -0.2969728 0.0009277011 0.2584323
000010 eb 87 4a be a0 06 19 bc 4b c7 9a 3e 96 6a 80 3e
       -0.19778411 -0.009339958 0.30230173 0.2508132
000020 c5 5b cd 3e 6b 93 75 bd b0 70 79 be 6c 55 76 3e
       0.40109077 -0.05995504 -0.24359393 0.24056023
000030 95 e8 84 3e 0c d9 a9 be 7f 5f 76 3e ae 79 24 bf
       0.25958696 -0.33173406 0.24059866 -0.6424817
000040 1f c0 d0 be 5f 4e 4f 3e af fd 62 3e 4e 69 78 be
       -0.40771577 0.2024474 0.22167085 -0.2425892
000050 d6 f0 a7 be 80 e4 68 bd d8 45 db be 76 8a 81 be
       -0.3280093 -0.05685854 -0.42826724 -0.2530095
000060 ee 66 48 be 79 18 f5 3e d7 26 a5 3e 65 5e b2 be
       -0.19570515 0.47870234 0.32256195 -0.34837642
000070 52 fb 78 bd 18 25 02 3e f0 c4 a7 3d f5 72 ce 3e
       -0.060786553 0.12709463 0.0819186 0.4032208
000080 c9 ad 57 3d ae 50 e8 be ed 70 22 be 38 30 3e 3d
       0.05265597 -0.45374054 -0.1586339 0.046432704
000090 80 86 0e 3d ba 3d f3 3d f6 37 0e be 1d 5a ce 3d
       0.034796238 0.11877008 -0.13888535 0.100757815
0000a0 e6 76 ae 3e 59 3e 40 be 88 cf ac 3e 40 c7 6b bc
       0.34075087 -0.18773784 0.33752084 -0.014390767
0000b0 78 f0 b8 bd 25 42 ff 3e b1 ef 90 3d 4c fc 5d be
       -0.09030241 0.49855152 0.070769675 -0.21678275
0000c0 8e a6 ae 3e 2d 5d e9 bd 1c 4b 1c 3c d1 3d 24 bf
       0.34111446 -0.11394725 0.009539392 -0.64156824
0000d0 b8 9d 14 3c b9 96 02 3e ab 7b 6d bd 12 d6 0f be
       0.009070806 0.12752809 -0.057979267 -0.14046505
0000e0 e7 8c ff 3d e8 cd 24 bd ba 32 ce 3e 10 dc f2 bc
       0.12478047 -0.04023543 0.40273076 -0.02964595
0000f0 ff da ef bc 03 e9 ae be 7f f6 d0 be 04 1c b1 be
       -0.02927923 -0.3416215 -0.40813062 -0.34591687
000100 0e af a9 3e 30 75 20 3e eb 69 eb 3e a8 54 d2 be
       0.3314137 0.15669703 0.45979246 -0.41080213
000110 78 71 ec bd 59 fe 44 be eb 67 e0 bd c2 8d 74 bd
       -0.1154508 -0.19237651 -0.10957321 -0.059705503
000120 6a 6b 8e be e3 6b 87 3e 10 b8 19 3e 2d bc eb be
       -0.27816325 0.264495 0.1501162 -0.46042004
000130 c3 e4 f0 3e db 6d 9c 3d 8d a7 cd bd d5 9e cc 3d
       0.4704953 0.07638141 -0.100417234 0.09991232
000140 90 a7 ce be 84 4b 92 3e 39 77 ad be e1 8e ef bd
       -0.40362215 0.2857324 -0.33880022 -0.11697174
000150 f1 ab 4d 3e 1d b5 7e 3e 0a 37 0f be 97 28 25 3d
       0.20085122 0.24873777 -0.1398584 0.040321913
000160 1b e6 de be 98 55 43 3d 9a 8a 3d be 1a 42 e0 be
       -0.43534932 0.04768905 -0.18509904 -0.4380043
000170 b2 c6 71 be 1a 36 c0 be 94 6b 4b be 82 d7 59 3e
       -0.23610952 -0.37541276 -0.19865257 0.21273616
000180 f2 c7 8a 3e 7f f0 d8 3d ad a2 e2 3d bd b8 25 3e
       0.2710567 0.10592746 0.11066184 0.16183753
000190 86 b9 57 be 8c e3 0b 3e 88 f3 56 3e d4 c6 a1 bd
       -0.21066865 0.13661021 0.20991337 -0.078992516
0001a0 2a 91 89 be 23 7c 7f be 32 73 88 be 80 52 b3 bb
       -0.26868564 -0.24949698 -0.26650387 -0.0054724813
0001b0 8a 8b 26 be 24 f1 37 3e 36 98 5a 3d 96 83 68 be
       -0.16264167 0.17963082 0.053367816 -0.22706446
0001c0 1c 34 61 3d 13 e6 0d 3e f8 38 b7 be 52 1d f3 3d
       0.054981336 0.13857298 -0.3578565 0.11870827
0001d0 ad 20 da 3e 5f fb ff 3c 1b aa c4 bd ef 27 f3 bd
       0.42603055 0.031247793 -0.096027575 -0.11872851
0001e0 cb e1 c8 3d 6d 3d b1 be 9d a7 e5 3e 97 12 eb 3e
       0.098086916 -0.34617177 0.4485444 0.4591262
0001f0 00 54 13 3c b8 a4 90 3d fa f7 82 3e 2c 49 64 be
       0.008992195 0.070626676 0.25579816 -0.22293538
000200 b7 cd b1 be 3d 51 4e be 4d 1d c6 be c9 cd 43 3e
       -0.3472726 -0.20148177 -0.3869423 0.1912147
000210 8d 79 ba 3d 21 9c ec 3d 1e 7b 11 be c0 7e 00 3f
       0.09105215 0.11553217 -0.14207122 0.50193405
000220 20 e7 1d 3e 49 2e 38 3e 51 04 e1 bc 08 8d 32 be
       0.15420198 0.17986406 -0.027467879 -0.17436612
000230 df 4f 8d be 0e 60 f2 3e 7d 52 b1 3e 04 ba 6a 3d
       -0.276 0.4733891 0.34633246 0.057306305
000240 4c d7 df bd 6a 96 c7 3d ed 2c 63 be 03 a0 1b be
       -0.109297365 0.09745486 -0.22185107 -0.15197758
000250 2f 95 5c be 25 c2 2c be ab 4f 56 be d2 e7 66 3e
       -0.21541284 -0.16870935 -0.20928828 0.2254937
000260 d4 15 bc bd b6 95 ef 3c 2c 5c 84 3d 10 42 aa 3d
       -0.09183851 0.029246192 0.06462893 0.08313382
000270 9a 6b a6 3e 32 56 18 bd 3f 2b a7 be 2a 41 e5 bd
       0.32503968 -0.037191577 -0.32650182 -0.1119407
000280 77 e3 c3 3e ec e7 cf bd 77 3d 01 3e 7d d8 ab be
       0.3825948 -0.101516575 0.12621103 -0.33563605
000290 1b d2 8e 3d bd f7 7e be ec 7b fd 3e 94 bc 97 3e
       0.06973668 -0.24899192 0.49508607 0.2963606
0002a0 bf ea aa 3e f3 67 7c 3e 20 0a eb bc 6f ea 83 be
       0.33382222 0.24649028 -0.028691351 -0.25764796
0002b0 12 1c b1 be 6a 85 6f be 7a aa 30 be 2f 0f eb 3e
       -0.34591728 -0.23390737 -0.17252532 0.45910022
0002c0 67 5b 58 be 23 d2 64 3d 2d b6 b1 3e d0 c5 8a bd
       -0.21128617 0.055864464 0.34709302 -0.06776011
0002d0 d1 91 0b 3e ec 52 de be 75 02 ba be c6 22 50 3e
       0.13629843 -0.4342264 -0.3633 0.20325765
0002e0 98 44 a3 3e 3d 36 99 be 90 f4 99 be b9 4f 03 3e
       0.3188827 -0.29924193 -0.300694 0.1282338
0002f0 43 a9 d9 be 85 66 11 3e 73 0e a8 3e ec 16 44 3d
       -0.4251195 0.14199264 0.32823524 0.047873423
000300 c3 5c 58 be dc 19 1d be a8 8c e5 3d 0b a4 36 be
       -0.21129136 -0.15341896 0.11208469 -0.17836015
000310 84 bb 03 bf d3 b7 f1 3c 09 ea 41 3e dc 32 15 3e
       -0.51458 0.0295066 0.18936934 0.14570183
000320 41 14 c2 bd 8e 67 a4 3e e7 af 53 be 7e 2d e3 bd
       -0.094765194 0.32110256 -0.2067257 -0.11092661
000330 9d 06 c7 3d fe 89 a3 3d 0d 18 fa be 80 32 1f 3e
       0.09718058 0.07985304 -0.48846474 0.15546608
000340 e5 27 af be b4 7c 81 3e ed 3d 67 be d0 ee 10 bc
       -0.34210125 0.25290453 -0.22582217 -0.008846
000350 39 96 d4 3d ac 7a a6 3e b0 ac 25 be fd a4 2f 3e
       0.10380215 0.32515466 -0.16179156 0.17152782
000360 4f 8d a4 3e 59 16 ad bd 26 96 c7 be e6 c8 8e be
       0.3213906 -0.08451528 -0.38981742 -0.27887648
000370 77 d6 5a 3e c1 0c 91 be cc 09 c3 bd 5a cd 55 3e
       0.21370874 -0.28330043 -0.09523353 0.20879117
000380 a6 08 e1 be 9a 0b b7 be 78 7b cd 3e 52 70 f4 bd
       -0.4395191 -0.3575104 0.40133262 -0.11935486
000390 d9 1a dd ba 20 9f 5e 3e 61 15 d1 3d 80 20 03 3f
       -0.0016868963 0.21740389 0.10209156 0.51221466
0003a0 20 b8 7c be a0 82 19 3e ba af 6e bc d4 d2 a8 be
       -0.24679613 0.14991236 -0.014568264 -0.3297335
0003b0 84 1b 57 3e 30 3b b1 3d d4 8b 97 bd a1 4e 93 be
       0.2100659 0.08653867 -0.07399717 -0.28770927
0003c0 9a bc 35 3d 81 d4 1e bf 9a ae 2b 3e 9f 4e a1 bd
       0.044369318 -0.62043005 0.16765824 -0.07876324
0003d0 2b 7a f5 3d 6d 05 b2 3d 3c c4 df be 77 bf 8d 3e
       0.11986192 0.08692441 -0.43704402 0.2768514
0003e0 89 47 99 bd 2d 23 c9 be f7 72 17 be 7b 7b 99 bc
       -0.074843474 -0.3928465 -0.1478995 -0.018735638
0003f0 49 84 66 be 5c d2 82 3e 9c 80 f9 3b 87 6e 51 3e
       -0.225114 0.25551116 0.0076142084 0.20452319

bias f4 [128]
000000 48 65 47 3e 36 cf bb bd 49 1b 54 be d2 7a 3d 3e
       0.1947223 -0.09170382 -0.20713533 0.18503883
000010 e4 c0 04 be e4 36 8a be b9 26 f5 bc d9 c7 2c be
       -0.12964207 -0.26995003 -0.029925691 -0.16873111
000020 53 4a a1 be 6b e7 f9 3d b3 e0 cd 3e 09 ba 7b be
       -0.31502017 0.122023426 0.40210494 -0.24582686
000030 64 8f 84 bd 1e 09 4e be e7 a9 83 bd 16 ff 89 3d
       -0.06472662 -0.20120665 -0.06428891 0.06738107
000040 1e 54 b3 3e 42 f6 ec 3c ea 28 26 be 73 35 89 be
       0.35025114 0.028926019 -0.16226545 -0.2679859
000050 12 59 7d be 68 4e 6e be 12 6c 81 3d ab bb ba bd
       -0.24741009 -0.23272097 0.06319441 -0.09117826
000060 62 8f 8a be 96 6b b8 be 04 68 7c bd 98 60 a0 be
       -0.27062517 -0.36019582 -0.061622635 -0.31323695
000070 10 33 d7 be f7 82 7c 3e d0 f2 41 3d eb a2 44 bd
       -0.42031145 0.24659334 0.047350705 -0.048006933
000080 19 4d 82 3c ac 61 1e be d0 15 c5 3d 37 a8 a1 be
       0.015905904 -0.15466946 0.09623301 -0.3157365
000090 3c 76 02 bd c5 b0 28 3e e2 e9 0b 3e b8 39 b9 3e
       -0.03185104 0.16473682 0.13663438 0.36176848
0000a0 b4 aa 93 3d 2d 31 84 3e ff 8d b4 bd dc 16 46 bd
       0.072102934 0.25818768 -0.08816146 -0.048361644
0000b0 fc 1d 1e be 73 d0 fd 3d 64 cd b9 be 19 64 59 be
       -0.15441126 0.12393274 -0.36289513 -0.2122959
0000c0 88 00 9d 3e c1 50 84 3e 93 46 ab 3d 12 cf 81 be
       0.30664468 0.2584286 0.0836307 -0.25353295
0000d0 ea 15 7e 3e 36 41 e2 be 77 46 66 3e be 93 80 3c
       0.24813047 -0.44190377 0.22487818 0.015695449
0000e0 26 73 4d be 1d e8 92 bd f1 91 de 3d cd 1f 99 be
       -0.20063457 -0.07173178 0.1086768 -0.29907075
0000f0 34 93 26 be 99 df 4d 3e f8 3e ec bd 7c 11 7d 3e
       -0.16267091 0.20104827 -0.11535448 0.24713701
000100 b1 b5 bc 3e 65 90 cd 3c 65 37 57 3e c2 e5 62 3e
       0.3685737 0.025093267 0.21017225 0.22157958
000110 98 51 88 be 07 22 16 be 51 d6 0f 3d f6 5c 24 bc
       -0.2662475 -0.14661418 0.035116497 -0.010031929
000120 b4 79 9b 3e d4 8c 48 3e 32 98 57 be 31 f4 8c 3e
       0.3036629 0.19584972 -0.21054152 0.27530053
000130 89 4b af be fb 8e 7b 3d ce 46 2b 3e 32 e4 ba be
       -0.34237316 0.061415654 0.16726229 -0.36502224
000140 fb 8b be be 8b 8d 5c bd 51 b7 62 be 18 81 1c 3d
       -0.37216172 -0.053845923 -0.22140242 0.03820905
000150 e4 d7 cb 3e 72 1c bd be 3e 13 af be 5d 93 b5 3e
       0.3981315 -0.36935765 -0.34194368 0.35463992
000160 32 24 40 be b7 b3 a3 3d 0c 1f 56 3e cc e5 a4 3d
       -0.18763807 0.07993262 0.20910281 0.08051643
000170 9f 6d e4 be b3 64 dd 3c 05 49 bd 3e 0a 56 d8 3e
       -0.44614884 0.027025556 0.36969772 0.42253143
000180 35 e0 3e be 6b fb 70 3e 6a 5b 77 3e 43 61 d9 be
       -0.18640216 0.23533408 0.24155965 -0.42457017
000190 32 51 79 be a5 65 4d 3e 3d 4b 38 3e 63 c9 d5 be
       -0.2434738 0.20058306 0.17997451 -0.41755208
0001a0 52 2a 12 be 33 60 34 be 4c 36 be bd f0 a5 79 3e
       -0.14273956 -0.17614822 -0.092877 0.24379706
0001b0 1e 29 d2 be e4 4c a8 be 42 d2 9f 3d af 58 80 3e
       -0.41046995 -0.32871163 0.07803775 0.2506766
0001c0 d0 6b 0c 3e e5 a8 5b 3d 90 a2 1c 3e 5e 84 fd 3c
       0.13713002 0.053627867 0.15296388 0.030946907
0001d0 a1 33 0f be ae e4 54 be b5 e3 9e be f3 5b 8d 3e
       -0.13984539 -0.2079036 -0.31033102 0.27609214
0001e0 8f 90 cd bd cd d9 27 bd bb 86 eb 3e 35 6a 7c be
       -0.10037338 -0.040979195 0.4600123 -0.2464989
0001f0 43 a0 92 3e 26 13 65 be 06 ee bc 3e 65 06 99 bd
       0.28637895 -0.22370586 0.36900347 -0.07471923

weight f4 [128, 128]
000000 c5 80 c5 3a 5d e3 64 be 86 11 06 3c f7 3c 07 be
       0.0015068284 -0.22352357 0.008182889 -0.1320685
000010 28 fb c6 3c b5 cf d6 bc 3f e4 e6 bc 21 b1 01 3d
       0.024289683 -0.02622209 -0.028185008 0.031663064
000020 71 f5 13 3c 7a 0f 15 bd d9 76 51 be 92 d5 33 be
       0.009030686 -0.036391713 -0.20455493 -0.1756194
000030 cc 02 96 3d 51 12 2a be 70 1b 9c 3c 6b 07 c2 3d
       0.07324752 -0.1660855 0.019056052 0.09474071
000040 54 dc ec 3b 85 09 80 3d 79 e6 8c 3d 0b 3e b4 3d
       0.0072284136 0.06251816 0.06879897 0.08800896
000050 46 c3 7b 3c d8 4c 34 bc 48 b4 00 bd 4a ff 97 bc
       0.015366381 -0.011004649 -0.03142193 -0.018554348
000060 92 a6 8c be 3b fd 51 bd 30 9a d8 bd 53 28 4a be
       -0.27470833 -0.05126689 -0.10576284 -0.19741945
000070 aa 36 c6 bb d6 6b 25 3d e0 65 50 3d 49 27 03 bc
       -0.006048997 0.040386043 0.050878406 -0.008004972
000080 c8 d2 a5 3d 58 24 c6 3b e6 c7 61 3d e9 eb a7 bc
       0.08096844 0.006046813 0.05512228 -0.020498233
000090 ea a3 7c bc 1f 9e 9c be a2 be 92 3d 65 79 a3 bd
       -0.0154199395 -0.30589387 0.071652666 -0.079821385
0000a0 f5 ec 04 3d ac 1f 11 3c 78 d1 ed bd 33 e5 39 be
       0.032452542 0.008857649 -0.116122186 -0.18153839
0000b0 20 22 9f bc 64 96 22 3e 45 da 91 be fa 88 73 bd
       -0.019425452 0.15877682 -0.2848684 -0.059456803
0000c0 b4 f2 45 bd 4d 0e df 3b 76 6b e7 3a b1 7a 8a 3d
       -0.048327163 0.0068071247 0.0017655927 0.06761683
0000d0 29 f4 29 bd 9a db 28 bd 40 e2 8c 3d d8 eb 9e bd
       -0.041492615 -0.041225053 0.06879091 -0.077598274
0000e0 b4 68 01 3e 80 a7 78 3d 4d 55 56 3d 0a 78 30 3d
       0.12637597 0.060706615 0.052327443 0.04308323
0000f0 e0 65 68 bd 55 b4 62 3d bd f7 86 bc 0f 18 98 bc
       -0.05673778 0.05534776 -0.016475553 -0.01856616
000100 1c 16 90 3d 00 dc 87 bb 49 06 33 bc 84 e7 5c bf
       0.07035467 -0.004146099 -0.0109267915 -0.86290765
000110 d6 97 b4 bd 1a 25 fb bd 0d d1 8d bd 4f 9d 1d 3c
       -0.08818023 -0.12262936 -0.06924639 0.009620025
000120 d0 2d 9e 3d bd 06 53 3d c9 9f 3c bd ed d2 b6 3d
       0.07723582 0.051520098 -0.04605082 0.0892695
000130 7e d9 61 bd fa 5a c2 bc a7 1b f5 bc 4d e8 f9 bd
       -0.055139057 -0.023725022 -0.029920412 -0.12202511
000140 6b cd 94 3d ae 04 d6 3c 59 97 eb be 1b dc 9e 3d
       0.07265743 0.026125278 -0.46013907 0.077568255
000150 3e 19 90 3d 4e e3 2d bf 98 ea 07 3d 67 7b bd bd
       0.070360646 -0.67924964 0.03318271 -0.09252053
000160 0e 0a 51 3d 9d 29 7f be 0e 6c f7 3d c1 06 ed 3c
       0.05103498 -0.24918218 0.12081157 0.028933885
000170 54 54 7e bd bb 8c 04 bf 0e 7f 1d bc 39 c9 64 3d
       -0.06209214 -0.5177724 -0.009612812 0.055855963
000180 97 28 73 be 54 ec 73 be fb 62 f2 bc 32 98 80 bd
       -0.23745953 -0.23820621 -0.029588213 -0.06279029
000190 c5 19 25 3e bb 7a 80 3d b7 05 17 be c4 4d fb bc
       0.16123112 0.06273409 -0.14748274 -0.03067673
0001a0 53 ac 40 3d 51 7b ba bd 40 07 bc bb 84 c4 94 3c
       0.04703934 -0.09105552 -0.005738169 0.018160112
0001b0 74 d3 23 bd e3 99 91 3d ef ab 05 bd d2 1b 89 be
       -0.03999658 0.0710943 -0.03263467 -0.26779038
0001c0 4c 30 49 bd e8 18 a4 3a 43 9e 7d bd 28 ef 22 3d
       -0.049118325 0.001251963 -0.06191851 0.03977886
0001d0 95 9f 4d 3c 10 80 a9 3d ed ee 76 3a 63 fb 7e be
       0.012550254 0.08276379 0.0009419758 -0.24900584
0001e0 bf a2 a8 3d 8b 16 8a 3d e4 a4 8f 3d 88 72 4a be
       0.08234166 0.06742581 0.07013872 -0.19770253
0001f0 2e ae 81 3d b2 31 13 bf 35 86 9d be a4 99 66 3d
       0.0633205 -0.57497704 -0.30766454 0.056298867
000200 eb 40 c6 3c 9c 2a 43 be 04 96 41 3d d2 37 92 bd
       0.024200877 -0.19059223 0.047262207 -0.07139553
000210 70 3a de bb d2 dc 97 3d 3c 15 e2 3d 93 07 80 3c
       -0.0067818686 0.07415165 0.110392064 0.015628612
000220 15 23 97 bd 54 f4 89 bc d6 43 4d be 0b 6e 3c be
       -0.07379738 -0.016840138 -0.20045409 -0.18401353
000230 fc ad 89 3a 91 5a 04 3e c0 36 9d 3d e9 44 59 3e
       0.0010504122 0.12925173 0.07676458 0.21217693
000240 4d c3 cd 3c 86 a3 72 3d 64 e5 eb bc 9e 84 1b 3e
       0.02511754 0.05923798 -0.028795905 0.15187308
000250 bf f4 4d be 64 8f 87 bd 27 d7 23 be 30 f9 75 3e
       -0.20112894 -0.066191465 -0.16000043 0.24020839
000260 3b 2a 19 be 6c 45 e0 bc 01 6a 94 be 0e 37 86 be
       -0.14957516 -0.027376853 -0.28987125 -0.26213878
000270 ad 12 3c be 18 42 b5 bd e5 d2 f5 3d 29 f3 19 3e
       -0.18366499 -0.08850497 0.120031156 0.15034164
000280 67 ab b8 3d 6c 98 83 3d 5a 7a 1b 3d f5 35 f3 bd
       0.090170674 0.064255565 0.03795848 -0.11875526
000290 a7 6d 04 be 69 ca f2 bd 40 a2 83 3d 0d da 23 be
       -0.12932454 -0.11855013 0.06427431 -0.16001149
0002a0 4e ce 5e 3d e7 be a4 3d 10 0d d4 bd 72 49 41 be
       0.054395966 0.08044224 -0.10354054 -0.18875673
0002b0 96 46 56 bd 00 05 84 3d 5a b3 44 3d c4 4d 5c bd
       -0.05231341 0.06446266 0.048022605 -0.0537851
0002c0 1c fe 8e bd cf 6e 95 be ce c4 cf 3d 7b 62 6c 3b
       -0.06982061 -0.29186103 0.101449594 0.003606944
0002d0 96 f6 e2 bd 18 d2 64 3c 0b 88 4c 3d 1b 9e 82 bd
       -0.11082189 0.013966106 0.04993443 -0.063778125
0002e0 81 f5 8a 3d 2d 8c 2d 3e be cb d4 3c bc 66 a4 3c
       0.067851074 0.16948004 0.025976058 0.020068519
0002f0 58 1a 22 bc ec 97 a6 3d 43 67 21 3e 10 42 a4 bc
       -0.009893976 0.081344455 0.15762047 -0.020051032
000300 e6 df bc 3d 76 1d dd bd 21 d7 51 3d 45 cb a3 bd
       0.09222393 -0.10796635 0.051230554 -0.07997755
000310 a5 cf 53 be a2 28 0e be b1 8c 41 be 5e 5e f4 bd
       -0.20684679 -0.13882688 -0.18901326 -0.119320616
000320 59 3f 9f bc 8c fc 44 3d 74 a8 1b be da ff c6 3d
       -0.019439386 0.04809241 -0.15200979 0.097167686
000330 d0 34 33 3c cc 75 f3 bd a8 c3 2d be ec 8e 08 be
       0.010937884 -0.11887702 -0.16969168 -0.1333577
000340 46 93 ff bd c7 cd d6 bd 2c e4 19 bf 86 14 f5 bc
       -0.12479262 -0.10488468 -0.6011379 -0.029917013
000350 4f 41 a4 3b 80 dc 16 bf ce a7 8b 3d bc 9c ab 3d
       0.005012668 -0.58930206 0.068191156 0.08379504
000360 5b c2 9c 3d af 32 9a bd 33 2c 15 bc f7 2c 00 be
       0.07654258 -0.075291984 -0.009104776 -0.12517153
000370 44 e3 2b bd f9 7a 45 be 25 19 36 bd 29 62 00 be
       -0.041964784 -0.19285192 -0.044457573 -0.12537445
000380 aa 87 96 be 28 2b 95 bb 5a a1 83 be 72 17 b2 bd
       -0.29400378 -0.0045522638 -0.2570904 -0.08695878
000390 62 3b 52 3e 46 19 97 3c e2 cb c2 bc a1 8f 82 be
       0.20530465 0.018444669 -0.02377886 -0.25500205
0003a0 e0 04 ab 3b ad 1a 32 be cf bc 8c bd 0f 89 ff bb
       0.005219087 -0.17392989 -0.0687195 -0.007798321
0003b0 98 7e 3f bc d0 03 a9 bc 81 b6 1c be 17 57 14 be
       -0.011687897 -0.0206317 -0.15303995 -0.14486347
0003c0 4c 53 b6 bc 07 f1 3f bd f2 c0 b8 3d 39 22 49 3c
       -0.022256516 -0.04686072 0.090211764 0.012276226
0003d0 b5 e4 b6 bb 6b ca 06 be 72 a7 1b 3c 0e 17 5f be
       -0.005581463 -0.13163154 0.009500371 -0.21786138
0003e0 cb 56 d0 3d d3 6f b4 3d 69 69 ba 3c 1b 4f fe bd
       0.101728044 0.08810391 0.022755342 -0.12417432
0003f0 af d2 b8 3d c5 cc 8f be 36 86 1a be 0f e9 65 be
       0.0902456 -0.28085914 -0.1509026 -0.22452186

bias f4 [128]
000000 52 f0 f4 bb 04 a9 72 bd 70 4e 89 bd 32 de 4e bd
       -0.0074749375 -0.059243217 -0.06704414 -0.05050487
000010 50 45 c1 3b a8 70 91 bc e8 e7 9b bb d4 68 98 bc
       0.0058981553 -0.017753914 -0.00475787 -0.018604673
000020 31 ca e4 3c c4 ed ff 3c 0a 57 ec bc 29 63 67 bc
       0.027928444 0.031241305 -0.028850097 -0.014122763
000030 59 a2 d2 3d 0f b9 81 3d d8 15 fd 3c a9 21 36 3d
       0.102848716 0.06334125 0.030894205 0.044465695
000040 ed 85 68 3c b3 48 86 bd 94 93 07 3d 69 de 7c bb
       0.014192087 -0.06556835 0.033099726 -0.0038584715
000050 7d c5 3e 3d 1d 72 27 bd 71 0e 0e bc 76 31 cd 3b
       0.04657506 -0.04088031 -0.008670435 0.0062619997
000060 38 64 a1 bd e5 cb 11 bd 50 e5 b3 bd 7b 77 51 3d
       -0.07880443 -0.03559484 -0.08783972 0.051139336
000070 07 36 65 bd a0 e1 86 bc f5 c2 54 bd a0 71 b7 bd
       -0.055959728 -0.016465008 -0.051943738 -0.08957219
000080 85 b3 dd bc cd 56 94 bd 7c 63 bd bd 51 c7 7e bc
       -0.02706314 -0.072431184 -0.09247491 -0.01555045
000090 a0 56 f4 3c b9 c8 10 bd eb d7 96 bd dc e5 a8 bd
       0.029826462 -0.035347674 -0.07365402 -0.08246967
0000a0 18 60 a0 bd 09 e5 bd 3c 3a 4c 53 bc 61 9d 6c 3d
       -0.078308284 0.023180502 -0.012896592 0.057767276
0000b0 d7 c2 9a bd f1 26 bd 3d 97 40 e9 bd dc 5c 28 bd
       -0.07556694 0.09235943 -0.11389273 -0.041104183
0000c0 2e a2 7c bc 42 98 37 bd c0 ca 68 3d 56 19 5f 3d
       -0.015419526 -0.04482294 0.056833982 0.05446752
0000d0 99 52 cd bc 5a 2c 25 3d 76 ae 4a 3d 73 6f f8 bc
       -0.0250638 0.0403255 0.049482785 -0.03032658
0000e0 ce e8 e1 bc 4e 36 03 3d 3f b4 04 bd ca 07 1f bc
       -0.02757683 0.03203421 -0.03239846 -0.009706447
0000f0 4b 7d 87 3c 41 5e c0 bd 5f d1 2e bd 00 76 3b 3c
       0.016539237 -0.093929775 -0.04268014 0.011441708
000100 6a 18 bd bd d3 16 da bc 2f 4c 78 bd 17 36 ad 3d
       -0.09233172 -0.026622212 -0.06061953 0.084575824
000110 e8 f2 c4 3d 65 6b f4 3c 9f d4 dd bd db 0e c3 bc
       0.09616643 0.029836366 -0.1083157 -0.023810795
000120 52 22 e1 3c 30 69 43 3b 60 d0 df bc 27 bf 76 bd
       0.027482186 0.0029817335 -0.02732104 -0.06024089
000130 cf 10 56 3c c7 bc 60 bc 80 e5 c0 3b 38 17 8b bd
       0.013065531 -0.013716883 0.0058867335 -0.06791538
000140 60 45 4b bd b8 dc 39 3c 80 7b 03 bc 1d 09 47 3d
       -0.049626708 0.011344127 -0.00802505 0.048592675
000150 af 6f c2 bc d2 d4 9f 3c b1 81 ac bc 1e 13 07 3b
       -0.023734896 0.01951066 -0.021057935 0.002061076
000160 79 e9 14 bc 7d 8d a4 bc c3 a5 65 bd d5 a5 86 3d
       -0.009088867 -0.020086998 -0.056066286 0.06574599
000170 39 50 98 3d da 7c 1f 3d 26 13 b4 3c ff 87 49 3d
       0.07437176 0.038937427 0.021981787 0.04920196
000180 ce bc 9f bb 89 4d c3 bd e4 b9 0c bd a4 ed 14 bd
       -0.004874802 -0.09536273 -0.034356967 -0.036359444
000190 a3 dd 77 3d d6 02 5e 3d 01 3c e9 bc 90 c0 d2 bc
       0.060514104 0.054201923 -0.028470995 -0.025726587
0001a0 d0 11 89 3c 85 8b a0 bd db 21 41 bc 9f 9a 84 bc
       0.016732126 -0.07839111 -0.011787857 -0.01618701
0001b0 91 c4 b2 bd bd 73 05 3d 33 c3 63 bd 68 d1 a8 bd
       -0.08728898 0.03258108 -0.05560608 -0.08243066
0001c0 20 8c fb bc ee 24 e4 3c ef 65 a0 bd a0 fc 9b bb
       -0.030706465 0.02784964 -0.07831942 -0.00476034
0001d0 cf 41 94 3d 0c a9 9e 3c 6e ea 39 bd 4e ae 39 3d
       0.072391145 0.019367717 -0.045389585 0.045332246
0001e0 a4 5e 8e bd 39 1a 9c 3d 0a e7 c5 3d 73 0d c2 3b
       -0.06951645 0.07622189 0.09663208 0.0059220134
0001f0 37 bf 6c bd 4a 70 09 3d 34 30 d9 bc 2c d1 ae 3b
       -0.057799544 0.033554353 -0.026512243 0.005334994

weight f4 [64, 128]
000000 8f ce f2 bd 81 2c a0 3c 0d c5 cd bd be 55 7f bd
       -0.11855804 0.019552471 -0.1004735 -0.06233763
000010 7b 24 42 be 40 f9 af 3d 9d 6c b1 3b c4 8e 96 3e
       -0.18959229 0.085924625 0.005414559 0.29405797
000020 a4 40 17 3a 7e 5c a3 3c 81 d4 3f be 54 44 c0 3e
       0.0005769825 0.019941565 -0.18733408 0.3755213
000030 20 15 e1 ba 42 f7 8e 3c 7b 96 94 be d8 c5 79 3c
       -0.0017172433 0.017451886 -0.29021057 0.0152449235
000040 42 23 3c be 9e 78 94 bd 10 4c 9d bd 62 b2 a6 bd
       -0.18372825 -0.072495684 -0.076805234 -0.081394926
000050 c0 71 af bd 92 41 57 3d 8d 3f 67 3e 93 7f 00 bd
       -0.08566618 0.052552767 0.22582836 -0.031371664
000060 50 1c 1d bc cf bb d9 bc 6a c6 41 3d 19 4c 49 3d
       -0.00958927 -0.026578812 0.047308363 0.049144838
000070 a6 08 07 bd d0 ea f3 bd 73 37 2a bc e1 88 91 3d
       -0.032967232 -0.11910021 -0.010389197 0.07106186
000080 a2 33 aa bd 88 bb f9 3d a3 73 5b bd c7 73 a6 3e
       -0.083106294 0.12193972 -0.053577077 0.32510206
000090 0f 79 70 bd 6e f5 3e bd 0f dd 02 3c 43 cd 28 3d
       -0.0587092 -0.04662078 0.007987275 0.041211378
0000a0 28 89 14 be 33 92 bc 3d 9f f5 e4 bd df ae 95 3d
       -0.14505446 0.09207573 -0.11179661 0.07308745
0000b0 20 80 95 bc 10 37 00 bb b5 12 bc bb e2 bd 47 bd
       -0.018249571 -0.001956407 -0.0057395347 -0.04876507
0000c0 83 58 33 bd 3f d2 ed 3c 83 b9 4d 3d c9 46 19 bc
       -0.043785583 0.029030917 0.050225746 -0.009355255
0000d0 45 31 be bd 3f 2e 8f 3d c5 eb 21 bd 31 d9 ce 3d
       -0.09286741 0.069912426 -0.039531488 0.1010002
0000e0 db 60 88 3d 12 71 a7 3c f3 a5 1a be 9e b6 9d bd
       0.06659099 0.020439658 -0.15102367 -0.07700847
0000f0 a1 c7 b5 bd b5 5c 9c 3d a4 e5 80 3d 52 65 89 bd
       -0.08875967 0.0763487 0.062938005 -0.067087784
000100 76 1d 02 3d c0 b9 9b bc 99 bf ac 3e ef dd d8 3c
       0.031766377 -0.019009471 0.33739927 0.026473014
000110 5c cd a4 bd dd 88 1a bd b2 0a 94 bd be 12 04 be
       -0.08046982 -0.03772818 -0.072286025 -0.12897775
000120 3c 41 b5 3d 2f c1 05 be f7 ad bb 3c 52 45 af bd
       0.08850333 -0.13061975 0.022910101 -0.08558144
000130 c2 12 89 3d 0f 68 22 3d 74 f1 0a bd 8a 32 1e 3d
       0.06693031 0.03965002 -0.033921674 0.038622417
000140 44 69 e8 3e 6d 05 39 be 09 65 94 3d 10 e3 22 be
       0.4539281 -0.18068476 0.072458334 -0.1590693
000150 93 a7 42 3e 15 b8 7d bd 40 2f 91 3d b7 cb f1 3c
       0.19009237 -0.061943132 0.0708909 0.029516084
000160 c2 c4 95 be 3e 94 71 3c 49 bc 8f bc f5 10 95 be
       -0.29251677 0.014744816 -0.017545836 -0.291145
000170 63 37 53 3c ba 82 4f bc c2 82 bf 3d e8 c2 23 be
       0.012891623 -0.012665445 0.09351112 -0.1599232
000180 4b 88 4d 3d c4 6f 20 be a3 b2 ad 3d 40 cb 8d 3e
       0.050178807 -0.15667635 0.08481338 0.2769413
000190 44 8f 6c 3d 3e 4d 16 3d 1a 6e 81 3c 00 91 0b 3d
       0.057753816 0.036694758 0.01579957 0.03407383
0001a0 eb 85 fc bc 6f 10 82 3d 14 4e b5 bd 28 bd 1e 3e
       -0.030825576 0.06350791 -0.08852783 0.15501845
0001b0 88 bc 22 bc a8 9d 7b bc cc 62 6d bd 8e 72 2e bd
       -0.009932645 -0.015357412 -0.05795555 -0.042589717
0001c0 6f 45 05 3e d1 f1 db 3c 0b 89 2d 3d 00 fd a7 3e
       0.13014768 0.026848705 0.042367022 0.3281021
0001d0 06 f7 3c 3d 0c 1d 8e bd 0b 07 9d 3e 7a a8 ce bb
       0.046134017 -0.06939134 0.30669436 -0.006306705
0001e0 4e 96 c3 3d 14 bc 8c be 51 46 00 3e 02 df 71 3d
       0.09550153 -0.27487242 0.12526824 0.059050567
0001f0 5b 9c a3 bd 64 ff 69 3c fa 82 56 3d b8 06 2d bb
       -0.07988807 0.014282081 0.052371003 -0.002640171
000200 31 ac 17 3c b4 cc 6d bd bb 51 4a 3d b9 cd 0c be
       0.009257362 -0.05805655 0.04939435 -0.13750352
000210 58 38 41 bf f4 a2 1b 3d 18 5e 09 3d b0 5d d4 3c
       -0.754766 0.0379972 0.033537 0.02592358
000220 cf cd 0a bb e8 e5 50 3d c9 09 24 3d 0e 8d 9d 3e
       -0.00211798 0.051000506 0.040048394 0.3077168
000230 2e e2 b8 bd 00 a2 ba bd 5d 0e 19 3d 7b 54 b2 bc
       -0.09027515 -0.0911293 0.037367214 -0.021768799
000240 36 a7 10 3e 53 d2 3e 3d b4 3e fd 3c e1 7b 36 be
       0.14126286 0.0465873 0.030913688 -0.17820694
000250 97 6c 53 3d 4a 16 67 be 37 ef 08 3e e3 e4 3b bd
       0.05161723 -0.22567096 0.13372503 -0.04587258
000260 4c 12 06 3d fa c9 38 3c ee f2 73 bd 53 7c d0 3d
       0.032732293 0.011278624 -0.059557848 0.10179963
000270 c4 8f 2e bd 58 2e 0d 3d c2 4c 9a bc 5e 86 3d 3e
       -0.042617574 0.034468025 -0.01883543 0.18508288
000280 c9 fb 4d 3d 8e 63 21 bf 34 5f cb 3d f5 a5 79 be
       0.05028895 -0.63042533 0.09930268 -0.24379714
000290 ab 22 07 bd 19 02 5f bf 60 94 77 bc 0d 4c de bd
       -0.032992046 -0.87112576 -0.015111059 -0.10854349
0002a0 8c 03 91 3e 65 f8 cc 3d fe c0 88 3d fe 6a 7e be
       0.2832302 0.10008315 0.06677435 -0.24845502
0002b0 a2 e2 62 bd 66 c8 41 be b4 00 93 3d da 92 b6 3d
       -0.055391915 -0.18924102 0.071778685 0.089147285
0002c0 bb 63 b1 3d c8 23 31 3d 4d 20 f5 3c 26 3f 13 3c
       0.086616 0.043247014 0.029922629 0.008987224
0002d0 d8 25 a9 3d 82 54 87 bc 2b 29 5f 3e df 53 f7 bd
       0.08259171 -0.016519789 0.21793048 -0.12076544
0002e0 a7 eb 35 bd e8 3b 81 bd 79 bf 27 bd a2 37 ab 3a
       -0.04441419 -0.06310254 -0.040954087 0.0013062845
0002f0 08 04 40 3e 6c e0 ab bd cf 5e 90 3c fc cd cd bd
       0.18751538 -0.083924145 0.017623333 -0.10049054
000300 de d8 fc 3c 4c 14 f4 bc da bf ef 3e 6d 7b c2 bc
       0.03086513 -0.029794835 0.4682606 -0.023740495
000310 03 e1 4d bd d0 9f b4 3d e8 bf ad 3c a6 6a 2c bd
       -0.050263416 0.08819544 0.021209672 -0.042093895
000320 9c 07 86 be 75 56 f5 3c 6d 46 3e be 70 16 63 bc
       -0.2617768 0.029948452 -0.18581553 -0.01386033
000330 29 38 25 bd b4 c4 bd 3d d1 ec ce 3c 23 58 83 bd
       -0.04033676 0.09266034 0.025259407 -0.06413295
000340 bf 3b 0f 3f e0 59 71 3e fe bc 59 bd d6 5d 89 bd
       0.5595054 0.23569441 -0.053158753 -0.06707351
000350 95 4b 8d be 56 34 0c bf 52 37 9f bb 8f 05 52 be
       -0.27596727 -0.5476736 -0.0048588896 -0.20509933
000360 27 04 04 3e 6a b3 7e bd 80 bb 00 bc a6 72 84 3d
       0.12892209 -0.06218282 -0.0078572035 0.0646718
000370 1f f4 8e 3b 68 f4 3f 3e c2 6f 29 bc 88 3d 01 3e
       0.0043625976 0.18745577 -0.010341587 0.12621129
000380 35 b4 a5 3d 6f 03 0e bd 7b 50 93 be 8f a9 77 bd
       0.080910124 -0.034671243 -0.2877234 -0.060464438
000390 c1 b3 b0 3c e0 8e 29 be 17 2c 41 bb 60 0a 02 bc
       0.021570088 -0.16558409 -0.0029475742 -0.007937044
0003a0 64 1e 00 bd 89 52 80 3d 84 45 73 3d 9f ef c7 bd
       -0.031278983 0.06265742 0.059392467 -0.09762501
0003b0 f6 8f 88 bd 1a 5f 73 bc 34 95 30 3b 70 81 35 bc
       -0.06668083 -0.014854217 0.00269444 -0.011078224
0003c0 52 ca 0f be 11 06 8e bc a9 cd c4 bc 7e 83 d8 3e
       -0.14042023 -0.017336877 -0.024023848 0.4228782
0003d0 31 90 31 bd ac 5e d5 be f3 37 55 3e a3 52 3f be
       -0.043350402 -0.4167379 0.20822124 -0.18683867
0003e0 ed f5 fe 3d 61 3d 3a be f4 1a 88 be fe 7b 6c 3d
       0.1244925 -0.18187477 -0.26583064 0.057735436
0003f0 e2 d6 f9 3c ec 7f 44 3d f1 dc 8d 3d 12 10 70 3c
       0.030497972 0.04797356 0.06926907 0.014652269

bias f4 [64]
000000 62 58 0d be e4 0b c5 3b 05 70 76 3d a2 63 a9 bc
       -0.13803247 0.0060133804 0.060165424 -0.020677391
000010 1a 68 2f be d9 48 b8 bc de cb 5a bd f3 8a 73 bc
       -0.17129555 -0.022495674 -0.05341708 -0.014864671
000020 d5 12 c6 bd 88 9b c2 bc 97 f9 0e be 74 06 eb bc
       -0.09671561 -0.023755804 -0.13962398 -0.0286896
000030 6a c2 0e be c7 9a 05 3d 84 a4 b4 bd 49 7b 0c bd
       -0.1394135 0.03261831 -0.08820441 -0.03429726
000040 dd c6 82 3c 3c 24 ad bd 44 d2 56 bd 66 e9 a0 3d
       0.015963966 -0.08454177 -0.05244662 0.07857017
000050 dd d3 32 bc c2 72 57 bd 4e f3 6f 3c cd 98 62 3c
       -0.01091477 -0.052599676 0.014645411 0.013830376
000060 d7 83 06 bc aa 7f 0a 3e 0b 36 39 3c c2 f1 a0 bd
       -0.008210144 0.13525262 0.011304389 -0.07858612
000070 39 53 03 be a3 c8 2a bc 14 5d 30 bc 13 58 06 3c
       -0.12824716 -0.010423812 -0.010764379 0.0081997095
000080 ea 4a 0a be 1b 42 8c bd 86 12 9b bc 83 ad b4 bd
       -0.1350514 -0.06848546 -0.018929731 -0.08822157
000090 4d 99 57 bc 69 06 00 be cd 24 c7 bd 99 90 61 3d
       -0.013159108 -0.12502445 -0.09723816 0.05506954
0000a0 6a b6 67 3d 4a b2 cd bc 67 3b 9c bd b6 09 f7 bd
       0.056570448 -0.025109429 -0.076285176 -0.12062399
0000b0 b9 13 4e bd c3 e3 65 bd 6e 9e bc bb d9 8c bb 3d
       -0.050311778 -0.056125414 -0.005756191 0.09157724
0000c0 bb dc c1 3d be ce 88 bc fc 6e d5 3d af e7 05 bd
       0.09465929 -0.016700145 0.10421559 -0.032691654
0000d0 fb ba 0d bc a7 6d 9f 3d e1 dc 32 3d ff e2 0c be
       -0.008650537 0.077845864 0.043667678 -0.13758467
0000e0 2f 43 ca 3c e7 44 b2 3d 8f 34 59 3c fb 25 92 bc
       0.024690239 0.08704548 0.01325716 -0.017840376
0000f0 67 1e 8c 3d 33 e2 fa bc 66 42 85 3d 1e 9a 1a bd
       0.06841736 -0.030625438 0.06506805 -0.037744634

weight f4 [2, 64]
000000 3f 2b bd 3e 74 f0 0e 3e 45 5d 6e be 4b e6 96 be
       0.36947057 0.13958913 -0.23277767 -0.29472575
000010 33 53 00 be 5a 7a 54 3d 9e a2 82 3e 5a 2a 67 bd
       -0.12531738 0.051874496 0.25514692 -0.056436874
000020 a8 f3 1b be a8 56 e7 3e ce 51 0c 3f b9 72 69 3e
       -0.15229666 0.451833 0.54812324 0.2279767
000030 0d de 3f 3f a7 23 7f 3d 9c bf 47 3d 69 9f db 3d
       0.749482 0.06228986 0.048766717 0.107237644
000040 f3 72 44 be f6 ea a3 3c 52 af 56 bd 7f f1 78 3d
       -0.19184475 0.020009499 -0.052413292 0.060777184
000050 6a 6d a8 bd d1 bb b2 3a 28 b7 13 3e bb bd 0b 3e
       -0.08223994 0.0013636296 0.14425337 0.13646595
000060 20 d9 ce bd 23 39 82 3e b6 62 03 3b 63 a3 a5 be
       -0.10100007 0.25434217 0.002004785 -0.32351217
000070 15 9c e7 bd a7 11 ea bd d7 bf be bd 8f 38 38 3e
       -0.11309067 -0.11429148 -0.09313934 0.17990325
000080 ee 66 f6 bd c1 77 00 3e 9c 08 1e 3d e4 17 54 3d
       -0.12031351 0.12545682 0.03858243 0.051780596
000090 91 89 d3 bd 82 ce 8d bd 90 76 ac 3d 3e 29 cc 3d
       -0.10328973 -0.06924154 0.084210515 0.09968804
0000a0 1b f0 34 be 89 11 2b bd 59 92 bf 3d 85 5c 14 be
       -0.17669718 -0.04176477 0.093540855 -0.14488418
0000b0 e5 a4 b6 3d 6a 80 d4 bc 58 7d 60 bd 93 ea bb 3d
       0.0891817 -0.025940139 -0.054807037 0.09175601
0000c0 1a 5c ba 3e e2 15 a1 bc d5 22 a4 be 76 fc 90 3c
       0.36398393 -0.019663755 -0.32057825 0.017698508
0000d0 55 46 e2 bc 6c 8b 90 be 5d b5 41 3e a2 34 f1 be
       -0.027621428 -0.2823137 0.18916841 -0.47110468
0000e0 86 74 fe 3d 6d 8d 57 3d 27 e9 c2 3e af 1e 76 bd
       0.12424569 0.05262511 0.38068506 -0.060087856
0000f0 15 3d 9e 3e 67 12 01 3e 5b 8a f2 3e 89 89 4f bd
       0.30905977 0.12604676 0.47371182 -0.050668273
000100 db 4d c6 be 11 46 37 be 83 e5 35 3e 31 a6 52 3e
       -0.38731274 -0.17897822 0.17763333 0.2057121
000110 7f 51 9a 3e 6a 85 e5 bd 92 5f b0 bd bb dd c4 3d
       0.30140302 -0.11207087 -0.086119786 0.09612604
000120 c3 d5 78 3d 46 e1 24 bf 12 4f cf be 9c 3e 95 bd
       0.060750734 -0.6440624 -0.40490013 -0.072873324
000130 98 d2 57 bf 10 a3 87 be c2 11 ec ba 5d d2 fc bd
       -0.84305716 -0.26491594 -0.0018010663 -0.12344811
000140 9f 80 69 3d ed 0b 26 be 7b bc 99 bd 3e 03 87 bd
       0.05700743 -0.16215487 -0.07506653 -0.06592415
000150 2d e3 3c 3d 59 cc 80 bd 6e 5b fe bd 6a 48 a3 be
       0.04611509 -0.06288976 -0.124197826 -0.31891185
000160 57 f0 0f 3e f9 96 b0 bd 4a 76 78 3c 6d d4 73 3e
       0.14056526 -0.08622546 0.015164921 0.23811503
000170 a1 e6 27 3e 49 92 c6 bd 0c 39 6a 3d 8a 53 36 be
       0.16396572 -0.096958704 0.05718331 -0.17805305
000180 35 8d 6c 3e 77 3c 67 bd ca 56 c9 bd b8 0e bd 3d
       0.23100741 -0.05645415 -0.09831007 0.09231323
000190 7a 3b 0a bd 9a 75 96 3d 43 63 7b bd 04 99 0f bd
       -0.033748128 0.073466495 -0.06137396 -0.035058036
0001a0 81 69 c3 3c 81 da 96 bc 2a 1b a1 bd 35 a8 d1 3d
       0.02385402 -0.018414738 -0.07866509 0.10237161
0001b0 f0 32 07 be e3 ea 1d be d5 48 53 3c 5b 88 59 be
       -0.13203025 -0.15421633 0.0128957825 -0.21243422
0001c0 6b 29 28 be cb b8 27 be a8 98 99 3e b3 f1 68 3c
       -0.1642205 -0.16379087 0.2999928 0.014217782
0001d0 f9 b1 5b bc 24 73 32 3e b2 f2 9d bd 36 d7 e9 3e
       -0.013409131 0.17426735 -0.07712306 0.45672005
0001e0 0e 0c 74 bd fe 61 84 be 8b df 64 be 16 7d 1e 3d
       -0.05958181 -0.25856012 -0.223509 0.03869351
0001f0 88 40 2e be e9 9b 15 be 0c 41 e0 be 13 26 de bd
       -0.17016804 -0.14610256 -0.43799627 -0.10847106

bias f4 [2]
000000 76 81 64 bb cd a2 dc 3d
       -0.0034867204 0.10773239
