models/mountaincar_2D/checkpoint_att.17.pth.tar (torch_old, 105542 bytes, 8 tensors)

weight f4 [128, 5]
0	0xbf49c4aa	-0.7881571
1	0xbe9766f3	-0.29570732
2	0xbac57fa8	-0.0015067952
3	0x3e93f3e7	0.2889702
4	0xbe4a87eb	-0.19778411
5	0xbb8381dc	-0.004013283
6	0x3ea2e584	0.31815732
7	0x3e64ddce	0.22350237
8	0x3eca6914	0.39533293
9	0xbd5415eb	-0.051778715
10	0xbe7d1480	-0.24714851
11	0x3e7af1bd	0.24506278
12	0x3e7268ef	0.23672841
13	0xbea9d90c	-0.33173406
14	0x3e7d4cbd	0.24736305
15	0xbf279e14	-0.65475583
16	0xbecea6d9	-0.4036167
17	0x3e5ae041	0.21374609
18	0x3e7087e8	0.23489344
19	0xbe78694e	-0.2425892
20	0xbea7f0d6	-0.3280093
21	0xbd68e480	-0.05685854
22	0xbedb45d8	-0.42826724
23	0xbe818a76	-0.2530095
24	0xbe4866ee	-0.19570515
25	0x3efa65ac	0.48905694
26	0x3ea4920e	0.3214268
27	0xbebddc69	-0.37082222
28	0xbd63a3e2	-0.055576213
29	0x3e0749dc	0.13211769
30	0x3dbb30ba	0.09140153
31	0x3ecdd8df	0.40204522
32	0x3c57e2cc	0.013176631
33	0xbee850ae	-0.45374054
34	0xbe21c674	-0.1579836
35	0x3d6e32b8	0.058153838
36	0x3d1c1ae4	0.038111582
37	0x3e03ea81	0.12882425
38	0xbe0e37f6	-0.13888535
39	0x3da24bee	0.07924639
40	0x3eb9428b	0.3618358
41	0xbe405032	-0.18780592
42	0x3eacf774	0.33782542
43	0xbc6bc740	-0.014390767
44	0xbdb8f078	-0.09030241
45	0x3f004168	0.500998
46	0x3d737301	0.05943585
47	0xbe4c698f	-0.19962142
48	0x3ea4b100	0.3216629
49	0xbe0b0853	-0.13577394
50	0x3c17cbf1	0.009264932
51	0xbf286fee	-0.6579579
52	0x3ab407ec	0.0013735271
53	0x3e0c6c18	0.1371311
54	0xbd58ade4	-0.05290021
55	0xbe106dc9	-0.1410438
56	0x3e0340ee	0.12817737
57	0xbd24cde8	-0.04023543
58	0x3eca4496	0.39505452
59	0xbcf2dc10	-0.02964595
60	0xbd38343e	-0.044971697
61	0xbeb61c3a	-0.3556841
62	0xbed0f67f	-0.40813062
63	0xbeb11c04	-0.34591687
64	0x3ea6be8c	0.3256725
65	0x3de38440	0.11109209
66	0x3ed5539a	0.41665345
67	0xbed254a8	-0.41080213
68	0xbdef6c80	-0.116906166
69	0xbe6fca95	-0.23417123
70	0xbdf88b47	-0.1213594
71	0xbd56ae9d	-0.052412618
72	0xbe8e6b6a	-0.27816325
73	0x3e6f20d7	0.23352371
74	0x3e27261a	0.16323128
75	0xbeec936c	-0.46206224
76	0x3ef65141	0.48108867
77	0x3da66d0e	0.08126269
78	0xbdb59267	-0.08865815
79	0x3dc2796a	0.09495814
80	0xbed98b1e	-0.4248895
81	0x3e94f2fe	0.29091638
82	0xbeaa60f2	-0.33277088
83	0xbdd5ed31	-0.10445631
84	0x3e3bb1dd	0.18329568
85	0x3e85392a	0.26020175
86	0xbe16a348	-0.14710724
87	0x3d459c52	0.04824478
88	0xbedee61b	-0.43534932
89	0x3d3138db	0.043267112
90	0xbe3d8a9a	-0.18509904
91	0xbee0421a	-0.4380043
92	0xbe71c6b2	-0.23610952
93	0xbec0361a	-0.37541276
94	0xbe4b6b94	-0.19865257
95	0x3e5eecf7	0.21770082
96	0x3e9672ca	0.29384452
97	0x3ddd9d59	0.10821027
98	0x3dd65e9c	0.10467264
99	0x3e1f2cca	0.1554443
100	0xbe668e2b	-0.2251517
101	0x3e08e517	0.13368641
102	0x3e50f06b	0.20404212
103	0xbda1c6d4	-0.078992516
104	0xbe89912a	-0.26868564
105	0xbe7f7c23	-0.24949698
106	0xbe887332	-0.26650387
107	0xbbb35280	-0.0054724813
108	0xbe268b8a	-0.16264167
109	0x3e37f124	0.17963082
110	0x3d6592ee	0.056048326
111	0xbe73c468	-0.23805392
112	0x3d8f77f7	0.07005303
113	0x3deea3d4	0.116523415
114	0xbeb738f8	-0.3578565
115	0x3e0028d4	0.12515575
116	0x3edfdc8d	0.43722954
117	0x3c988b27	0.01862104
118	0xbd8c6c77	-0.068566255
119	0xbdf71dd7	-0.120662384
120	0x3dd9bf64	0.10632208
121	0xbebb147d	-0.3653907
122	0x3edfd77d	0.43719092
123	0x3ee885a7	0.4541447
124	0x3c135400	0.008992195
125	0x3d90a4b8	0.070626676
126	0x3e82f7fa	0.25579816
127	0xbe64492c	-0.22293538
128	0xbeb1cdb7	-0.3472726
129	0xbe4e513d	-0.20148177
130	0xbeca7933	-0.39545593
131	0x3e4e727b	0.20160858
132	0x3dbe6145	0.092958964
133	0x3e1542d8	0.1457628
134	0xbe117b1e	-0.14207122
135	0x3f03c0d0	0.51466084
136	0x3e21953b	0.15779583
137	0x3e3a722d	0.18207617
138	0x3c11d25c	0.008900251
139	0xbe3c77ca	-0.18405071
140	0xbe9155ed	-0.2838587
141	0x3ef7158a	0.4825862
142	0x3eb110bd	0.34583083
143	0x3d609c14	0.054836348
144	0xbddfd74c	-0.109297365
145	0x3dc21622	0.09476878
146	0xbe760cc9	-0.24028315
147	0xbe158f85	-0.1460553
148	0xbe4ca666	-0.19985351
149	0xbe2b46fe	-0.167263
150	0xbe61d489	-0.22053732
151	0x3e726c97	0.23674236
152	0xbdaaa588	-0.08332354
153	0x3d400c2a	0.0468866
154	0x3d40c2f4	0.04706092
155	0x3dbb5a87	0.09148126
156	0x3ea8608c	0.3288616
157	0xbd5ce4a4	-0.053928986
158	0xbea72b3f	-0.32650182
159	0xbdea4a47	-0.114399485
160	0x3ec0765c	0.375903
161	0xbe0acd52	-0.13554886
162	0x3de27b1f	0.1105864
163	0xbeabd87d	-0.33563605
164	0x3d537c6a	0.051632322
165	0xbe84a83b	-0.259096
166	0x3efea00c	0.4973148
167	0x3e913d2e	0.2836699
168	0x3eac0303	0.33596048
169	0x3e7337b5	0.2375172
170	0xbceb0a20	-0.028691351
171	0xbe83ea6f	-0.25764796
172	0xbeb11c12	-0.34591728
173	0xbe6f856a	-0.23390737
174	0xbe30aa7a	-0.17252532
175	0x3eec8e64	0.46202385
176	0xbe5dbe06	-0.2165452
177	0x3d424a5e	0.047434203
178	0x3eae200c	0.34008825
179	0xbd8ac5d0	-0.06776011
180	0x3e02b4b9	0.12764253
181	0xbee307ac	-0.4434179
182	0xbeba0275	-0.3633
183	0x3e4d85e1	0.20070602
184	0x3ea3bc6f	0.319797
185	0xbe9b1d50	-0.302958
186	0xbe9b327f	-0.30311963
187	0x3df498aa	0.11943181
188	0xbed9a943	-0.4251195
189	0x3e1d796c	0.1537835
190	0x3ea13d1c	0.31491935
191	0x3d1bd0e3	0.038041007
192	0xbe44220e	-0.19153616
193	0xbe344041	-0.17602636
194	0x3d83595a	0.06413527
195	0xbe49d392	-0.19709614
196	0xbf09c63f	-0.53818125
197	0x3cd70dfa	0.026251782
198	0x3e47c3b5	0.1950825
199	0x3e0b731b	0.13618128
200	0xbdedbf08	-0.11608702
201	0x3ea693a1	0.32534507
202	0xbe379c16	-0.17930636
203	0xbdf936e2	-0.12168671
204	0x3d882ecd	0.066495515
205	0x3d8b2484	0.06794074
206	0xbf040ce1	-0.5158215
207	0x3e11b692	0.14229801
208	0xbeaf27e5	-0.34210125
209	0x3e7b449e	0.24537894
210	0xbe827f7a	-0.25487882
211	0xbc882f56	-0.016624134
212	0x3de0adb6	0.10970633
213	0x3ea11467	0.31460878
214	0xbe25acb0	-0.16179156
215	0x3e347a01	0.17624666
216	0x3ea71176	0.3263051
217	0xbda48ca4	-0.080346376
218	0xbec79626	-0.38981742
219	0xbe915876	-0.28387803
220	0x3e52e087	0.20593463
221	0xbe965075	-0.2935826
222	0xbdc309cc	-0.09523353
223	0x3e575a1a	0.21030465
224	0xbee108a6	-0.4395191
225	0xbebc8541	-0.36820415
226	0x3ed364d5	0.41287866
227	0xbdf0d255	-0.11758868
228	0x3b1a2378	0.0023519676
229	0x3e53bf9b	0.2067856
230	0x3ddce2fa	0.1078548
231	0x3f053712	0.52037156
232	0xbe7cb820	-0.24679613
233	0x3e1419ab	0.14462917
234	0xbc0b7e54	-0.008514006
235	0xbea8d2d4	-0.3297335
236	0x3e571b84	0.2100659
237	0x3db13b30	0.08653867
238	0xbd978bd4	-0.07399717
239	0xbe934ea1	-0.28770927
240	0x3cc0383e	0.023464318
241	0xbf267e96	-0.65036905
242	0x3e1cc749	0.15310396
243	0xbd2729ec	-0.040811464
244	0x3de27d8d	0.11059103
245	0x3dc52406	0.096260116
246	0xbeea6b71	-0.45785096
247	0x3e812a39	0.25227526
248	0xbd4e4ac6	-0.05036428
249	0xbec9232d	-0.3928465
250	0xbe34b834	-0.17648393
251	0xbc2ba6a5	-0.010476743
252	0xbe668449	-0.225114
253	0x3e53debc	0.20690435
254	0x3cae8bcd	0.021306897
255	0x3e516e87	0.20452319

bias f4 [128]
0	0x3e489a97	0.19590221
1	0xbdb83f33	-0.08996429
2	0xbe5a4f54	-0.21319324
3	0x3e485653	0.1956418
4	0xbe04c0e4	-0.12964207
5	0xbe87cd91	-0.26524022
6	0xbd35e8f6	-0.044411622
7	0xbe30da1d	-0.17270704
8	0xbea12266	-0.31471556
9	0x3de5474f	0.11195242
10	0x3ece2f78	0.4027059
11	0xbe81cbc2	-0.25350767
12	0xbd905240	-0.07046938
13	0xbe78098a	-0.24222389
14	0xbd621ae0	-0.05520141
15	0x3d8bdf40	0.06829691
16	0x3eb08ea7	0.34483835
17	0x3cb9d73f	0.022685645
18	0xbe2628ea	-0.16226545
19	0xbe86e01b	-0.26342854
20	0xbe81adde	-0.25327963
21	0xbe6e4e68	-0.23272097
22	0x3d6b82c5	0.05749776
23	0xbdc1f244	-0.094700366
24	0xbe9095b0	-0.28239202
25	0xbeb86b96	-0.36019582
26	0xbd5c6da4	-0.0538155
27	0xbea28a44	-0.31746113
28	0xbed77605	-0.4208223
29	0x3e7b7394	0.24555808
30	0x3d1f8d67	0.03895321
31	0xbd6bae23	-0.057539117
32	0xbc848227	-0.016175343
33	0xbe29ef0c	-0.16595095
34	0x3dc515d0	0.09623301
35	0xbea5b0db	-0.32361493
36	0xbd07c271	-0.03314442
37	0x3e339a95	0.17539437
38	0x3de80e74	0.11330882
39	0x3eb3490e	0.35016674
40	0x3d72f9e8	0.05932036
41	0x3e788f8f	0.24273513
42	0xbdb98fbc	-0.09060618
43	0xbd4fe44d	-0.050754834
44	0xbe1c913d	-0.15289779
45	0x3df2e507	0.1186009
46	0xbeb831b0	-0.3597541
47	0xbe596419	-0.2122959
48	0x3e94e147	0.29078123
49	0x3e80648d	0.25076714
50	0x3d97e3f4	0.074165255
51	0xbe81cf12	-0.25353295
52	0x3e7a685e	0.24453875
53	0xbee24136	-0.44190377
54	0x3e5b86e5	0.21438177
55	0x3c91288f	0.017719535
56	0xbe4cd3d8	-0.20002687
57	0xbd97d191	-0.074130185
58	0x3dd68cb9	0.104760595
59	0xbe991fcd	-0.29907075
60	0xbe269334	-0.16267091
61	0x3e3e3f5d	0.18578859
62	0xbde392f5	-0.11112014
63	0x3e713d98	0.23558652
64	0x3ebb6457	0.3659999
65	0x3d1387b3	0.036018085
66	0x3e56a433	0.20961075
67	0x3e6735c0	0.22579098
68	0xbe899e4d	-0.26878586
69	0xbe13cd20	-0.14433718
70	0x3d4a81a6	0.04944005
71	0xbc88b93f	-0.016689895
72	0x3e9a38c0	0.30121422
73	0x3e4b08bc	0.1982755
74	0xbe5a78b2	-0.21335104
75	0x3e8c3b43	0.27388963
76	0xbeaf4b89	-0.34237316
77	0x3d5b35a9	0.05351797
78	0x3e1d04ea	0.15333906
79	0xbeb2872c	-0.34868753
80	0xbebe744a	-0.37198097
81	0xbd830f16	-0.06399362
82	0xbe647ccd	-0.22313233
83	0x3d1c8118	0.03820905
84	0x3ed1e79e	0.40997022
85	0xbebf5a86	-0.3737375
86	0xbeaf133e	-0.34194368
87	0x3eb4c228	0.3530438
88	0xbe402432	-0.18763807
89	0x3da7f460	0.08200908
90	0x3e3d32a6	0.18476352
91	0x3d9abe96	0.07555883
92	0xbee46d9f	-0.44614884
93	0x3cc6749f	0.024225531
94	0x3eb82b47	0.35970518
95	0x3ecf5a93	0.4049879
96	0xbe401ee5	-0.18761785
97	0x3e700e91	0.23443057
98	0x3e6f9328	0.2339598
99	0xbed96143	-0.42457017
100	0xbe791cb2	-0.24327353
101	0x3e3d44c5	0.18483265
102	0x3e380f44	0.17974573
103	0xbed72784	-0.42022336
104	0xbe164654	-0.14675266
105	0xbe3aa577	-0.18227182
106	0xbdbe364c	-0.092877
107	0x3e79d6e0	0.24398375
108	0xbed2291e	-0.41046995
109	0xbea84ce4	-0.32871163
110	0x3d99c352	0.075079575
111	0x3e6f3f50	0.23363996
112	0x3e1602c2	0.1464949
113	0x3d64d2fe	0.05586528
114	0x3e1a4940	0.15067005
115	0x3cb00af3	0.021489596
116	0xbe0a9e3d	-0.13536926
117	0xbe5beacb	-0.21476285
118	0xbea099f5	-0.3136746
119	0x3e925e74	0.28587687
120	0xbdc1ceb3	-0.09463253
121	0xbd63a97b	-0.05558155
122	0x3eef33b0	0.46719122
123	0xbe7fcde5	-0.24980886
124	0x3e8ad4ed	0.27115574
125	0xbe535c6c	-0.20640725
126	0x3ec16c1a	0.37777787
127	0xbdabef6b	-0.08395275

weight f4 [128, 128]
0	0x3ac580c5	0.0015068284
1	0xbe715cd0	-0.23570561
2	0xbd098005	-0.033569355
3	0xbe073cf7	-0.1320685
4	0x3cc6fb28	0.024289683
5	0xbcf3ba97	-0.029752059
6	0xbd0b809a	-0.03405819
7	0x3d2a800b	0.041626018
8	0x3c13f571	0.009030686
9	0xbd1ff0da	-0.039048053
10	0xbe74143a	-0.23835841
11	0xbe33d592	-0.1756194
12	0x3d52ce38	0.051466197
13	0xbe47f29a	-0.19526139
14	0xbc00dabe	-0.007864652
15	0x3d987db5	0.07445852
16	0xbc173d23	-0.009230885
17	0x3d4e91dd	0.050432075
18	0x3d8ce679	0.06879897
19	0x3da91021	0.082550295
20	0x3c7bc346	0.015366381
21	0xbc344cd8	-0.011004649
22	0xbd00b448	-0.03142193
23	0xbc859af6	-0.016309243
24	0xbe8ca692	-0.27470833
25	0xbd51fd3b	-0.05126689
26	0xbdd89a30	-0.10576284
27	0xbe64f358	-0.22358453
28	0xbbc636aa	-0.006048997
29	0x3bdd83dc	0.0067601036
30	0x3cffcac5	0.031224618
31	0xbc506d49	-0.012721368
32	0x3d91fc16	0.0712816
33	0xbc0fbcae	-0.008773012
34	0x3d61c7e6	0.05512228
35	0xbca7ebe9	-0.020498233
36	0xbcd327db	-0.02577584
37	0xbec0d30b	-0.37661013
38	0x3d7e8e83	0.06214763
39	0xbdd79c7a	-0.105278924
40	0x3c8a52ae	0.016885128
41	0xbbd3fe71	-0.0064695408
42	0xbdedd178	-0.116122186
43	0xbe426281	-0.18982889
44	0xbc9f2220	-0.019425452
45	0x3e122ba4	0.1427446
46	0xbea7a57a	-0.32743436
47	0xbd7388fa	-0.059456803
48	0xbd8dd9c0	-0.06926298
49	0x3bdf0e4d	0.0068071247
50	0xbd0e3260	-0.03471601
51	0x3d8a7ab1	0.06761683
52	0xbd4c99d8	-0.049951404
53	0xbd28db9a	-0.041225053
54	0x3d8435d1	0.06455577
55	0xbd9eebd8	-0.077598274
56	0x3dd2fb28	0.103018105
57	0x3d541f7e	0.051787846
58	0x3a2a861e	0.00065049704
59	0x3d30780a	0.04308323
60	0xbd6865e0	-0.05673778
61	0x3d0b642e	0.034031086
62	0xbc9bb6aa	-0.019008
63	0xbd2f07f6	-0.0427322
64	0x3d514561	0.051091556
65	0xbb87dc00	-0.004146099
66	0xbd175c02	-0.03695298
67	0xbf5a6421	-0.85309035
68	0xbdb497d6	-0.08818023
69	0xbdfb251a	-0.12262936
70	0xbcd0a40d	-0.02546885
71	0x3c1d9d4f	0.009620025
72	0x3d5c8d56	0.053845726
73	0x3ceb19ad	0.028698767
74	0xbd3c9fc9	-0.04605082
75	0x3d8212c1	0.06351233
76	0xbd61d97e	-0.055139057
77	0xbcc25afa	-0.023725022
78	0xbcf51ba7	-0.029920412
79	0xbdf9e84d	-0.12202511
80	0x3d89f888	0.06736857
81	0x3cd76fc5	0.026298413
82	0xbeeb9759	-0.46013907
83	0x3d9edc1b	0.077568255
84	0x3d47d8c3	0.048790704
85	0xbf33dde1	-0.70260435
86	0x3d07ea98	0.03318271
87	0xbde5c1d9	-0.11218614
88	0x3d510a0e	0.05103498
89	0xbe9a19a8	-0.300977
90	0x3de5fbe3	0.11229684
91	0x3bd9ff54	0.006652752
92	0xbd7e5454	-0.06209214
93	0xbf07bc2d	-0.5302151
94	0xbd212478	-0.03934142
95	0x3cfb8a1b	0.030705502
96	0xbe732897	-0.23745953
97	0xbe99811e	-0.2998132
98	0xbd155a24	-0.036462918
99	0xbd809832	-0.06279029
100	0x3e21a19b	0.15784304
101	0x3d554146	0.052064203
102	0xbe2f91e2	-0.17145494
103	0xbcfb4dc4	-0.03067673
104	0x3d2e922f	0.04261988
105	0xbdbbdb9c	-0.091727465
106	0xbbbc0740	-0.005738169
107	0xbc7d8c59	-0.015475356
108	0xbd23d374	-0.03999658
109	0x3d9199e3	0.0710943
110	0xbccfc821	-0.025363984
111	0xbea0de4b	-0.31419596
112	0xbe115090	-0.14190888
113	0x3aa418e8	0.001251963
114	0xbdaa8395	-0.083258785
115	0x3d11af7a	0.035567738
116	0xbc403e4e	-0.011733605
117	0x3db15fd8	0.08660859
118	0xbc0479fb	-0.008085723
119	0xbe9db781	-0.30804065
120	0x3d84fc96	0.064934894
121	0x3d708e67	0.058729555
122	0x3d48036a	0.04883138
123	0xbe4a7288	-0.19770253
124	0x3d3ece9d	0.04658376
125	0xbf0f6401	-0.5601197
126	0xbec0006d	-0.37500325
127	0x3dafe81b	0.085891925
128	0x3c0a7c38	0.008452468
129	0xbe5f5219	-0.21808662
130	0x3cfbb1de	0.030724462
131	0xbd98fc18	-0.07469958
132	0xbbde3a70	-0.0067818686
133	0x3da8105e	0.08206247
134	0x3e004094	0.12524635
135	0x3c64b950	0.013960198
136	0xbd972315	-0.07379738
137	0xbc3ca02a	-0.011512795
138	0xbe6c83c0	-0.23097134
139	0xbe68397b	-0.22678177
140	0xbb9c2e2d	-0.004766247
141	0x3d48a3e1	0.048984412
142	0x3dac7877	0.08421414
143	0x3e5a3913	0.21310835
144	0x3cc56fba	0.024101127
145	0x3d664c05	0.05622484
146	0xbcebe564	-0.028795905
147	0x3e21a670	0.15786147
148	0xbe5a4d41	-0.21318533
149	0xbd878f64	-0.066191465
150	0xbe3dcd6e	-0.18535396
151	0x3e830cc8	0.2559569
152	0xbe192a3b	-0.14957516
153	0xbce0456c	-0.027376853
154	0xbeab1ad5	-0.3341891
155	0xbe8d9f41	-0.27660564
156	0xbe48c441	-0.19606115
157	0xbdf1d82f	-0.11808812
158	0x3ded8aee	0.11598764
159	0x3e28f747	0.16500579
160	0x3db59ff4	0.08868399
161	0x3d861d56	0.06548564
162	0x3d1b7a5a	0.03795848
163	0xbe08daed	-0.13364764
164	0xbe06a3e4	-0.13148457
165	0xbe11bbfe	-0.1423187
166	0x3d8a031d	0.06738875
167	0xbe322d61	-0.17400123
168	0x3d5ede33	0.054411124
169	0x3d99ebb6	0.075156614
170	0xbe150549	-0.14552797
171	0xbe5a5394	-0.21320945
172	0xbd564696	-0.05231341
173	0x3d84206b	0.06451496
174	0xbacef05f	-0.0015788189
175	0xbd5c4dc4	-0.0537851
176	0xbdac88aa	-0.08424504
177	0xbe9c1714	-0.30486357
178	0x3db8108d	0.08987532
179	0x3b6c627b	0.003606944
180	0xbe09a882	-0.13443187
181	0x3c64d218	0.013966106
182	0x3d3d4516	0.046208464
183	0xbdde7615	-0.10862366
184	0x3d50e6fc	0.051001534
185	0x3e34db4d	0.17661782
186	0x3c894000	0.01675415
187	0x3ca466bc	0.020068519
188	0xbc221a58	-0.009893976
189	0x3da7cf13	0.08193793
190	0x3e270ba7	0.16313039
191	0xbd02be75	-0.031919915
192	0x3db0a025	0.08624295
193	0xbddc9065	-0.107697286
194	0x3d27577a	0.04085491
195	0x3d6f133b	0.05836795
196	0xbe721bc4	-0.23643404
197	0xbe09d857	-0.13461433
198	0xbe4f1226	-0.20221767
199	0xbdf45e5e	-0.119320616
200	0xbcc59f5b	-0.024123838
201	0x3d24961a	0.04018221
202	0xbe3e8707	-0.18606196
203	0x3db776ce	0.08958207
204	0x3c3334d0	0.010937884
205	0xbdf375cc	-0.11887702
206	0xbe2dc3a8	-0.16969168
207	0xbe088eec	-0.1333577
208	0xbe182490	-0.14857697
209	0xbdebb683	-0.11509421
210	0xbf1d49af	-0.6144056
211	0xbcf51486	-0.029917013
212	0x3aab9d79	0.0013093195
213	0xbf1d3426	-0.614077
214	0x3d8ba7ce	0.068191156
215	0x3da127e4	0.07868937
216	0x3d9cc25b	0.07654258
217	0xbdcfec71	-0.101525195
218	0xbbc7c7b1	-0.006096803
219	0xbe098462	-0.13429406
220	0xbd2be344	-0.041964784
221	0xbe6955ef	-0.22786687
222	0xbd6bb217	-0.057542887
223	0xbe201a40	-0.15635014
224	0xbe9687aa	-0.29400378
225	0xbd356047	-0.04428127
226	0xbe948cca	-0.29013664
227	0xbdb21772	-0.08695878
228	0x3e5bcb8d	0.21464367
229	0x3caff882	0.021480802
230	0xbd010250	-0.031496346
231	0xbe8d162e	-0.27555984
232	0x3bfd9722	0.0077389637
233	0xbe3982e7	-0.18116342
234	0xbd8cbccf	-0.0687195
235	0xbd0dc5aa	-0.034612335
236	0xbc3f7e98	-0.011687897
237	0xbca903d0	-0.0206317
238	0xbe0e6bc8	-0.13908303
239	0xbe3ca0d9	-0.18420734
240	0xbd1f84c9	-0.038944993
241	0xbdb60668	-0.08887941
242	0x3db0baa0	0.08629346
243	0x3c9e3614	0.019312896
244	0xbd205483	-0.039143097
245	0xbe08c709	-0.13357176
246	0x3c3fa47f	0.011696934
247	0xbe70b659	-0.2350706
248	0x3dd08a7c	0.10182664
249	0x3db95685	0.090497054
250	0x3c8a32c1	0.016869904
251	0xbdfe4f1b	-0.12417432
252	0x3db4a0d0	0.08819735
253	0xbe81686c	-0.2527498
254	0xbe304c09	-0.17216505
255	0xbe5ef7cc	-0.21774215

bias f4 [128]
0	0xbca06cf6	-0.019583207
1	0xbd7516cd	-0.059836198
2	0xbd839b9b	-0.06426164
3	0xbd3f44d9	-0.046696518
4	0x3c35a3e6	0.01108644
5	0xbc99f692	-0.018794332
6	0xba80699d	-0.00097971
7	0xbcffea7b	-0.031239739
8	0x3d08e63b	0.03342269
9	0x3d01ef10	0.03172213
10	0xbd0dcd59	-0.034619663
11	0xbcc48cc6	-0.023992907
12	0x3ddc0115	0.10742394
13	0x3d39ca5b	0.045358997
14	0x3d1ded6d	0.038556505
15	0x3d3621a9	0.044465695
16	0x3c952630	0.018206686
17	0xbda40d57	-0.08010357
18	0x3d079394	0.033099726
19	0xbc44811a	-0.011993671
20	0x3d30413e	0.04303097
21	0xbd3d91ae	-0.04628151
22	0xbce8671d	-0.02836948
23	0xbc3124c9	-0.010811993
24	0xbda16438	-0.07880443
25	0xbd22689a	-0.039650537
26	0xbdb3e550	-0.08783972
27	0x3d48d5b8	0.049031943
28	0xbd653607	-0.055959728
29	0xbc8159fb	-0.015789976
30	0xbd59a321	-0.053134087
31	0xbdbafe21	-0.091305025
32	0xbcb25f38	-0.02177392
33	0xbda1bbcd	-0.07897148
34	0xbdb0404c	-0.08606014
35	0xbb77e207	-0.0037823932
36	0x3cf456a0	0.029826462
37	0xbd083498	-0.033253282
38	0xbdb93b0a	-0.09044464
39	0xbdb0c364	-0.08631018
40	0xbdbc8dcf	-0.09206735
41	0x3cbdef14	0.02318529
42	0xbc431b10	-0.011908308
43	0x3d8357a7	0.06413203
44	0xbda4f202	-0.08053972
45	0x3dbcc0f6	0.09216492
46	0xbde57403	-0.11203768
47	0xbd2bc850	-0.04193908
48	0xbc47844c	-0.012177538
49	0xbd2bc062	-0.041931517
50	0x3d65f69b	0.056143384
51	0x3d67fe61	0.05663908
52	0xbcc35091	-0.023842128
53	0x3d1c608f	0.038178023
54	0x3d2c44db	0.042057853
55	0xbd112afc	-0.035441384
56	0xbcc4987a	-0.023998488
57	0x3cfa3274	0.030541636
58	0xbcb1a570	-0.021685332
59	0xbc1f07ca	-0.009706447
60	0x3c149aff	0.009070157
61	0xbdc05e41	-0.093929775
62	0xbd48c368	-0.04901448
63	0x3c3b7600	0.011441708
64	0xbdbd186a	-0.09233172
65	0xbcda16d3	-0.026622212
66	0xbd7cb477	-0.061695542
67	0x3dad40be	0.08459614
68	0x3d854138	0.0650658
69	0x3ccc0f24	0.024909563
70	0xbdc80394	-0.097663075
71	0xbc81555f	-0.015787778
72	0x3cb558ce	0.022137072
73	0x3c47507b	0.012165184
74	0xbcca3e5b	-0.024687937
75	0xbd76bf27	-0.06024089
76	0x3c9640f8	0.018341526
77	0xbc4c0863	-0.012453171
78	0x3c48354b	0.012219737
79	0xbd8b1738	-0.06791538
80	0xbd5f952f	-0.054585632
81	0x3c4aa639	0.012368732
82	0xbc0e39c8	-0.008680768
83	0x3d4a32cd	0.049364854
84	0xbcb26f63	-0.021781629
85	0x3ca76c7a	0.020437468
86	0xbccc2d03	-0.024923807
87	0xb992ebe7	-0.0002802305
88	0xbbf811be	-0.0075704744
89	0xbcfb92ce	-0.03070965
90	0xbd705a12	-0.058679648
91	0x3d804291	0.062626965
92	0x3d8cc66d	0.06873784
93	0x3d08ac6e	0.033367567
94	0x3cc7538a	0.024331827
95	0x3d67cde4	0.056592837
96	0xbb8277c5	-0.003981563
97	0xbdbc03cf	-0.09180414
98	0xbd0b44fc	-0.034001336
99	0xbd1ee630	-0.038793743
100	0x3d49565d	0.049154628
101	0x3d6d60e9	0.05795375
102	0xbcc38633	-0.023867702
103	0xbcd2c090	-0.025726587
104	0x3cc14815	0.023593942
105	0xbda08b85	-0.07839111
106	0xbc3b4acf	-0.01143141
107	0xbcb76544	-0.022387154
108	0xbdb2c491	-0.08728898
109	0x3cf15084	0.029457338
110	0xbd63c333	-0.05560608
111	0xbda8d168	-0.08243066
112	0xbce422cf	-0.02784863
113	0x3cfac42b	0.030611118
114	0xbdc54f10	-0.096342206
115	0xbc62bbb4	-0.013838697
116	0x3d93f66a	0.07224734
117	0x3cae3327	0.021264626
118	0xbd41dd28	-0.04733005
119	0x3d1eb56c	0.038747236
120	0xbd896956	-0.06709544
121	0x3d817d04	0.06322673
122	0x3db92c40	0.09041643
123	0x3b962377	0.0045818645
124	0xbd6cbf37	-0.057799544
125	0x3ccb3c27	0.024808956
126	0xbcd93034	-0.026512243
127	0x3c1d154e	0.009587599

weight f4 [64, 128]
0	0xbe3ddc2c	-0.1854102
1	0xb9c836b6	-0.00038187735
2	0xbe3b1d19	-0.18272819
3	0xbda7ffeb	-0.08203109
4	0xbe633b20	-0.22190523
5	0x3dd080c6	0.101808116
6	0xbd1348af	-0.03595799
7	0x3ea3bc3c	0.3197955
8	0x3c5fd387	0.013661272
9	0x3d5b90e7	0.053604987
10	0xbe1ffcea	-0.15623823
11	0x3ed8c99a	0.4234131
12	0x3d11853b	0.03552745
13	0x3d2ec47f	0.042667862
14	0xbebf3c12	-0.37350518
15	0x3c79c5d8	0.0152449235
16	0xbe8bd3b7	-0.27309963
17	0xbdaf0e63	-0.08547666
18	0xbd9d4c10	-0.076805234
19	0xbe108486	-0.14113054
20	0xbd49cd6c	-0.04926817
21	0x3d9eb350	0.07749045
22	0x3e8b43d9	0.272002
23	0xbc885d2f	-0.016645996
24	0xbc1d1c50	-0.00958927
25	0xbcf06c2e	-0.02934846
26	0x3d41c66a	0.047308363
27	0x3c58ee8c	0.013240468
28	0xbd0708a6	-0.032967232
29	0xbde29d6f	-0.11065184
30	0xbd29d410	-0.041462004
31	0x3d29a683	0.041418564
32	0xbe157518	-0.14595449
33	0x3e313476	0.17305169
34	0xbd967c0d	-0.073478796
35	0x3eb4ae02	0.35289007
36	0xbd70790f	-0.0587092
37	0x3baed758	0.0053357296
38	0x3d621875	0.055199105
39	0x3dcfc3d7	0.10144775
40	0xbe3af8f8	-0.18259037
41	0x3df7e9d6	0.121051475
42	0xbdf5a7b3	-0.11994877
43	0x3d8d3890	0.06895554
44	0xbbec823b	-0.007217673
45	0x3b9ff9c1	0.004882068
46	0x3cee549a	0.029093076
47	0xbd47bd4d	-0.048764516
48	0xbda990b8	-0.08279556
49	0x3d7964b7	0.060887065
50	0x3d3f83c6	0.04675653
51	0x3ccef681	0.025264027
52	0xbdfeddbc	-0.12444636
53	0x3d8f2e3f	0.069912426
54	0x3d0871b2	0.033311553
55	0x3d77c27a	0.0604882
56	0x3d8522e5	0.06500796
57	0xbc83432b	-0.01602324
58	0xbe6fc9a5	-0.23416765
59	0xbd9db69e	-0.07700847
60	0xbdf49cda	-0.119439796
61	0x3d9c5cb5	0.0763487
62	0x3d47c3ed	0.048770834
63	0xbd896552	-0.067087784
64	0x3d021d76	0.031766377
65	0xbc9bb9c0	-0.019009471
66	0x3ec90e1c	0.39268577
67	0x3d80cec2	0.06289436
68	0xbdaaeeaf	-0.083463065
69	0xbc04d515	-0.008107443
70	0x39a823ad	0.00032070038
71	0xbe194ba1	-0.14970256
72	0x3e4ae5d5	0.19814236
73	0xbe267068	-0.16253817
74	0x3d94e4a9	0.07270176
75	0xbdaf4552	-0.08558144
76	0x3db9c421	0.09070612
77	0x3c8800f4	0.016602017
78	0x3ce45d28	0.027876452
79	0x3d1e328a	0.038622417
80	0x3f0b0f35	0.5432008
81	0xbe4bf60b	-0.19918077
82	0x3d3fd446	0.0468333
83	0xbdd14f91	-0.10220254
84	0x3e6f1323	0.23347144
85	0xbcaa701e	-0.020805415
86	0x3df20e92	0.11819185
87	0x3c56f202	0.013119223
88	0xbe9c5deb	-0.30540404
89	0x3c71943e	0.014744816
90	0x3a39efe3	0.0007092936
91	0xbe8890dc	-0.2667302
92	0xbb355557	-0.0027669275
93	0xbd46bf71	-0.048522417
94	0x3e016e19	0.12639655
95	0xbe115c9b	-0.14195482
96	0x3d717372	0.058947988
97	0xbe0c475e	-0.136991
98	0x3e090e90	0.13384461
99	0x3e93a374	0.28835642
100	0x3c506fc5	0.01272196
101	0x3d962fa2	0.07333304
102	0x3da9a2c7	0.082830004
103	0x3d0b9100	0.03407383
104	0xbd740455	-0.059574444
105	0x3d82106f	0.06350791
106	0xbddf98f3	-0.109178446
107	0x3e2be136	0.1678513
108	0xbc22bc88	-0.009932645
109	0xbc7b9da8	-0.015357412
110	0xbd6d62cc	-0.05795555
111	0xbd2e728e	-0.042589717
112	0x3e2490d9	0.1607088
113	0x3b44b539	0.0030015244
114	0x3d8c3f4e	0.06848012
115	0x3ec40179	0.38282374
116	0x3d4b8cc4	0.04969479
117	0xbc2daba8	-0.010600008
118	0x3ec2fb49	0.3808234
119	0x3d22a373	0.03970666
120	0x3d5ad0c4	0.05342175
121	0xbe8e492f	-0.2779021
122	0x3e56da7d	0.20981784
123	0x3d6fd7d7	0.05855545
124	0xbda39c5b	-0.07988807
125	0x3ce0da67	0.027447892
126	0x3d5682fa	0.052371003
127	0x3cd5a102	0.026077751
128	0x3ce02b52	0.027364407
129	0xbd58a952	-0.05289585
130	0x3d81cb3d	0.06337593
131	0xbe31e292	-0.17371586
132	0xbf55944c	-0.8342941
133	0x3d0808d8	0.03321156
134	0x3d03394d	0.03203707
135	0xbca52cba	-0.020162929
136	0xbc6e17ff	-0.014532088
137	0x3cb79914	0.02241186
138	0x3d73a40f	0.05948263
139	0x3ec0c0f5	0.37647215
140	0xbde32b4f	-0.11092245
141	0xbd87a639	-0.06623501
142	0x3d162d42	0.036664255
143	0xbcb2547b	-0.021768799
144	0x3e170448	0.14747727
145	0x3cbbb26e	0.02291223
146	0x3cfd3eb4	0.030913688
147	0xbeab9c52	-0.335177
148	0x3d79d4ef	0.060994085
149	0xbe892b2e	-0.26790756
150	0x3db83fe0	0.08996558
151	0xbd59b648	-0.053152353
152	0x3d06124c	0.032732293
153	0x3b895986	0.00419158
154	0xbd73f2ee	-0.059557848
155	0x3dccaff5	0.09994499
156	0xbd2e8fc4	-0.042617574
157	0x3b78d830	0.0037970655
158	0xbcac2e61	-0.021018209
159	0x3e3b9aaf	0.18320726
160	0x3da21147	0.07913452
161	0xbf241ba3	-0.6410467
162	0x3df0feaa	0.11767323
163	0xbeae7001	-0.34069827
164	0xbd0722ab	-0.032992046
165	0xbf5e6193	-0.86867636
166	0x3ca2fdb2	0.019896362
167	0xbd718ea7	-0.058973935
168	0x3ed868b5	0.42267385
169	0x3d5dec08	0.054180175
170	0x3d88816b	0.066653095
171	0xbeb6c9d3	-0.35700855
172	0xbd3e1867	-0.04640999
173	0xbe08559f	-0.13313912
174	0x3d297b52	0.041377373
175	0x3db692f7	0.0891475
176	0x3db63d1f	0.08898377
177	0x3ce758f3	0.028240656
178	0x3cf5204d	0.029922629
179	0xbce484d5	-0.02789537
180	0x3d9a5dd9	0.07537431
181	0xbc875482	-0.016519789
182	0x3e77f119	0.24213065
183	0xbded1506	-0.115762755
184	0xbd45946d	-0.048237253
185	0xbd8187a5	-0.063247
186	0xbd0bb0cd	-0.034104157
187	0x3aab37a2	0.0013062845
188	0x3e45a495	0.19301064
189	0xbdabe06c	-0.083924145
190	0xbc6c56ed	-0.014425022
191	0xbdcdcdfc	-0.10049054
192	0x3cfcd8de	0.03086513
193	0xbcf4144c	-0.029794835
194	0x3efe6b62	0.49691302
195	0xbcd8b065	-0.026451299
196	0xbd4651c4	-0.04841782
197	0x3d74eacb	0.05979423
198	0x3c9dd80d	0.01926806
199	0xbd2e4b97	-0.042552557
200	0xbeab7d31	-0.3349395
201	0x3d2705c5	0.040776987
202	0xbe438505	-0.19093712
203	0xbc631670	-0.01386033
204	0xbd7472cf	-0.059679803
205	0x3dc0746c	0.09397206
206	0x3e077194	0.1322692
207	0xbd835823	-0.06413295
208	0x3f084bd3	0.532407
209	0x3e7cf73d	0.24703689
210	0xbd480399	-0.048831556
211	0xbda7cf47	-0.08193832
212	0xbea64db1	-0.3248115
213	0xbf29c21a	-0.663118
214	0xbd465ac7	-0.048426416
215	0xbec5b005	-0.38610855
216	0x3e48ae89	0.1959783
217	0xbd81b209	-0.06332786
218	0x3d6c959a	0.05775986
219	0x3dcacced	0.09902368
220	0xbd9cfddb	-0.076656066
221	0x3e3d9f1f	0.18517731
222	0xbcdc17f2	-0.026866887
223	0x3e1794e9	0.14802898
224	0x3dab43a2	0.08362509
225	0xbd81f65d	-0.06345818
226	0xbe9c411e	-0.3051843
227	0xbd2abac0	-0.041682005
228	0x3cc188e2	0.023624841
229	0xbe405cd1	-0.18785407
230	0xbd8230b7	-0.06356948
231	0xbc020a60	-0.007937044
232	0xbcf18773	-0.029483533
233	0x3d805289	0.06265742
234	0x3d4a84f1	0.04944319
235	0xbdaddc13	-0.084892415
236	0xbd888ff6	-0.06668083
237	0xbc735f1a	-0.014854217
238	0x3b309534	0.00269444
239	0xbc358170	-0.011078224
240	0xbe18cfce	-0.14923021
241	0x3bafba30	0.0053627715
242	0xbd3ebf46	-0.04656913
243	0x3ef49988	0.47773385
244	0xbd2d4f69	-0.04231206
245	0xbf13b24c	-0.57693934
246	0x3e5f4620	0.21804094
247	0xbe60287b	-0.21890442
248	0x3e06b514	0.13155013
249	0xbe40f14b	-0.18842046
250	0xbe88c23d	-0.26710692
251	0x3d6cf78c	0.057853267
252	0x3cf9d6e2	0.030497972
253	0x3d0dc2cb	0.034609597
254	0x3d8ddcf1	0.06926907
255	0xba99f025	-0.0011744542

bias f4 [64]
0	0xbe0dc6eb	-0.13845412
1	0x3bad5d77	0.005290683
2	0x3d8f458e	0.069956884
3	0xbc8bf83f	-0.017086146
4	0xbe34536f	-0.17609952
5	0xbc5d819b	-0.01351967
6	0xbd72ef25	-0.059310097
7	0xbd200330	-0.03906554
8	0xbdca9b03	-0.098928474
9	0xbd1620da	-0.036652423
10	0xbe14f2fe	-0.14545819
11	0xbd3f3fd0	-0.046691716
12	0xbe2c8b46	-0.16850004
13	0x3d15d4e8	0.036579996
14	0xbdc74341	-0.097296245
15	0xbc9bb59b	-0.019007495
16	0x3ca467b2	0.020068977
17	0xbda7e15a	-0.08197279
18	0xbd56d244	-0.05244662
19	0x3da6443a	0.08118482
20	0xbc94ab1a	-0.018147994
21	0xbd5e4d99	-0.05427322
22	0x3c97fa52	0.01855198
23	0x3cbdc5f3	0.023165679
24	0xbbc573e0	-0.0060257763
25	0x3e0dc8a3	0.13846068
26	0x3b995b03	0.004680039
27	0xbdb52411	-0.0884477
28	0xbe0681b3	-0.13135414
29	0xbd0c3e56	-0.034239136
30	0xbcae6c91	-0.021292003
31	0xbc37f0d2	-0.01122685
32	0xbdf725f3	-0.12067785
33	0xbdacbacf	-0.084340684
34	0xbcb82c0d	-0.022481943
35	0xbdd4e85f	-0.10395884
36	0x3c98e929	0.018665867
37	0xbe084964	-0.13309246
38	0xbdd8d136	-0.10586779
39	0x3d3d7ebb	0.046263438
40	0x3d4982b7	0.049196925
41	0xbd433617	-0.047659006
42	0xbd9b7cbb	-0.0759215
43	0xbe08981a	-0.13339272
44	0xbd55b914	-0.052178457
45	0xbd4db8c9	-0.050225053
46	0xbcf7b2f5	-0.0302367
47	0x3dc7e566	0.09760551
48	0x3dc211ef	0.09476077
49	0xbc0be391	-0.008538143
50	0x3dc4b15b	0.0960414
51	0xbd092dca	-0.033490933
52	0xbc4176af	-0.0118080815
53	0x3d8d4cab	0.06899389
54	0x3d30d624	0.04317297
55	0xbe0d6b98	-0.13810575
56	0x3c1988b4	0.0093709715
57	0x3db4fe1e	0.088375315
58	0x3c928407	0.017885221
59	0xbd5c3e7b	-0.053770524
60	0x3d99d7bd	0.07511852
61	0xbd87379c	-0.066024035
62	0x3d470d71	0.048596803
63	0xbd25fa66	-0.040522

weight f4 [2, 64]
0	0x3edf9df0	0.43675184
1	0x3e363018	0.17791784
2	0xbe8be643	-0.27324113
3	0xbe9b5584	-0.3033868
4	0xbe1f854e	-0.15578195
5	0x3d820659	0.06348867
6	0x3e8bee2f	0.27330157
7	0xbc88bbfa	-0.016691197
8	0xbe3924e3	-0.18080477
9	0x3f00f43b	0.50372666
10	0x3f0df63e	0.5545386
11	0x3e593d0f	0.21214698
12	0x3f53601e	0.8256854
13	0x3d711f1f	0.05886757
14	0x3d06022d	0.03271692
15	0x3e015129	0.12628616
16	0xbe32cfd3	-0.17462091
17	0x3d66f139	0.05638239
18	0xbd56af52	-0.052413292
19	0x3db21a24	0.08696392
20	0xbdbf4c2f	-0.09340703
21	0x3c024c8d	0.007952821
22	0x3e244814	0.1604312
23	0x3e08916e	0.13336727
24	0xbdb6f023	-0.08932521
25	0x3e744fab	0.23858516
26	0x3c0c1227	0.00854925
27	0xbeaeeae2	-0.34163576
28	0xbe11b080	-0.14227486
29	0xbe0cfdbe	-0.1376867
30	0xbda7c53e	-0.08191918
31	0x3e1595e0	0.14607954
32	0xbdfd03f0	-0.12354267
33	0x3e37f881	0.1796589
34	0x3d85243c	0.06501052
35	0x3da44cb9	0.08022446
36	0xbdd648d5	-0.1046311
37	0xbd9aa29c	-0.075505465
38	0x3de18f08	0.11013609
39	0x3dd3207c	0.1030893
40	0xbe28821a	-0.1645588
41	0xbd85968c	-0.06522855
42	0x3dd6488b	0.10463055
43	0xbe263377	-0.1623057
44	0x3ddbe399	0.1073677
45	0xbafca4e8	-0.001927522
46	0xbda4f6d6	-0.08054893
47	0x3da8f371	0.08249558
48	0x3ebc5e13	0.36790523
49	0xbd0d8225	-0.034547944
50	0xbeaa1934	-0.33222353
51	0x3cea5a94	0.028607644
52	0xbd206f53	-0.039168667
53	0xbe8cd21f	-0.2750406
54	0x3e59233a	0.21204844
55	0xbef626bd	-0.4807643
56	0x3e0a5b2a	0.13511339
57	0x3d308cd5	0.043103058
58	0x3ec1fc2d	0.37887707
59	0xbd0e24ed	-0.034703184
60	0x3ea42bc2	0.32064635
61	0x3e047f5a	0.12939206
62	0x3ee86244	0.4538747
63	0xbd7de47c	-0.061985478
64	0xbee8c08e	-0.45459408
65	0xbe5e85b6	-0.21730694
66	0x3e5f54d5	0.21809705
67	0x3e5b8434	0.2143715
68	0x3ea9ea48	0.33186555
69	0xbdfd4f1d	-0.12368605
70	0xbdd58e20	-0.10427499
71	0x3d66eed6	0.056380115
72	0x3db6cd3a	0.089258626
73	0xbf322a2f	-0.6959562
74	0xbed29853	-0.4113184
75	0xbd69a722	-0.057044156
76	0xbf6b54a9	-0.91926056
77	0xbe85e26f	-0.26149318
78	0x3c697336	0.01424866
79	0xbe11eab6	-0.14249691
80	0x3d22f24b	0.03978185
81	0xbe4b4ac0	-0.19852734
82	0xbd99bc7b	-0.07506653
83	0xbdbca4a3	-0.092110895
84	0x3d6aa0f8	0.057282418
85	0xbd8e4b3b	-0.06947943
86	0xbe0fbeac	-0.1403758
87	0xbea1b22f	-0.31581256
88	0x3e03fb7c	0.12888902
89	0xbd9050e4	-0.07046679
90	0x3c0d3ce1	0.008620472
91	0x3e83317c	0.2562369
92	0x3e45c90d	0.19314976
93	0xbd96a860	-0.07356334
94	0x3d3c441c	0.04596339
95	0xbe13b0de	-0.14422938
96	0x3e6fdb66	0.23423538
97	0xbde2a0be	-0.110658154
98	0xbdff76e7	-0.12473851
99	0x3d82cdc8	0.06386906
100	0xbd04bb63	-0.03240527
101	0x3da349b2	0.07973041
102	0xbdb2ca24	-0.087299615
103	0xbd1d8797	-0.038459387
104	0x3c3ff600	0.011716366
105	0x3ba56fd2	0.0050487304
106	0xbdb7d15c	-0.08975479
107	0x3df55623	0.1197932
108	0xbe19d26e	-0.15021679
109	0xbe368187	-0.17822848
110	0x3d1e42f6	0.038638078
111	0xbe500c8b	-0.20317285
112	0xbe2c2d0c	-0.16814059
113	0xbe187b4c	-0.14890784
114	0x3e9f8f06	0.31163806
115	0x3b58d656	0.0033086739
116	0xbaf403fa	-0.0018616908
117	0x3e2b0006	0.16699228
118	0xbdccce5e	-0.10000299
119	0x3eeec954	0.46637976
120	0xbd904757	-0.07044857
121	0xbe7f048b	-0.24904077
122	0xbe630668	-0.22170413
123	0x3c5a0d05	0.013308768
124	0xbe3a1e3b	-0.18175595
125	0xbe1908e3	-0.14944796
126	0xbed618f3	-0.4181591
127	0xbdc6f8a2	-0.09715392

bias f4 [2]
0	0xbb9fb200	-0.004873514
1	0x3ddf79d3	0.10911908
