models/mountaincar_2D/checkpoint_att.14.pth.tar (torch_old, 105542 bytes, 8 tensors)

weight f4 [128, 5]
00000000: 17e8 3abf 3fa3 97be 4d10 273b fc17 843e
00000010: eb87 4abe 8264 a9bb 1538 9e3e dd05 793e
00000020: f432 c93e 4e55 64bd f5f2 79be 48de 773e
00000030: 208f 823e 0cd9 a9be 6b0a 773e 1a3e 25bf
00000040: bf50 d0be bacf 503e 024b 6d3e 4e69 78be
00000050: d6f0 a7be 80e4 68bd d845 dbbe 768a 81be
00000060: ee66 48be 1d05 f53e e419 a43e c3c6 b0be
00000070: c4e5 a1bd 61b0 043e 6fde b13d 05a4 ce3e
00000080: ae47 213d ae50 e8be 7443 22be 5aca 803d
00000090: e05e 3e3d 9ec5 023e f637 0ebe a3be eb3d
000000a0: 2342 b13e 482f 40be ef09 ad3e 40c7 6bbc
000000b0: 78f0 b8bd 8a6a fd3e 7c53 873d 32fa 56be
000000c0: 8522 ac3e 8dc7 fabd c023 2f3c b828 25bf
000000d0: c453 d83b f2b3 0b3e f8c0 65bd 486f 12be
000000e0: f3dd fd3d e8cd 24bd 8638 cc3e 10dc f2bc
000000f0: 8eaf 0cbd d1c8 b1be 7ff6 d0be 041c b1be
00000100: e23d a83e fb3b 203e 1091 eb3e a854 d2be
00000110: 1a8b e4bd a537 47be c1a4 ecbd f69c 82bd
00000120: 6a6b 8ebe ad29 843e f5c3 193e 52f2 e9be
00000130: 97a4 f33e e00b 9d3d a381 d8bd cbab d13d
00000140: 9e54 d2be 41f3 923e 4af0 acbe 1c3d f5bd
00000150: d7d1 483e eba5 7f3e c7fa 14be 86aa 223d
00000160: 1be6 debe 6138 343d 9a8a 3dbe 1a42 e0be
00000170: b2c6 71be 1a36 c0be 946b 4bbe 2932 5c3e
00000180: d845 8e3e 6b06 d73d 4cf0 d63d d58a 243e
00000190: ebfd 53be 391c 113e 0518 5d3e d4c6 a1bd
000001a0: 2a91 89be 237c 7fbe 3273 88be 8052 b3bb
000001b0: 8a8b 26be 24f1 373e 3121 463d 2e90 72be
000001c0: 345b 303d e089 143e f838 b7be 6c13 f73d
000001d0: 9440 db3e b586 e73c 3455 c9bd a497 f7bd
000001e0: 89cd cb3d c347 b4be 1cc4 e13e e7cc ef3e
000001f0: 0054 133c b8a4 903d faf7 823e 2c49 64be
00000200: b7cd b1be 3d51 4ebe 5a13 c6be 1426 4a3e
00000210: 378a c23d fe99 f43d 1e7b 11be 9dc5 003f
00000220: a507 1e3e c1a0 3a3e 0d3b d9bc 08c5 38be
00000230: 7eba 8ebe 9e33 f33e 9449 b13e 04ba 6a3d
00000240: 4cd7 dfbd f73c c33d 6abc 69be 8dd9 1dbe
00000250: 237e 55be dfd5 2bbe ab2b 59be 40f8 693e
00000260: ce4e b7bd a3bb c83c a32f 783d e769 b03d
00000270: df21 a73e 4336 29bd 3f2b a7be e070 e9bd
00000280: 6106 c13e a1da e8bd fde4 f73d 7dd8 abbe
00000290: 623b 7b3d b4d5 7fbe 9b98 fe3e 453c 963e
000002a0: faec a53e cbd3 7b3e 200a ebbc 6fea 83be
000002b0: 121c b1be 6a85 6fbe 7aaa 30be d07c ee3e
000002c0: dd47 52be 298f 723d 1e1b b53e d0c5 8abd
000002d0: 1b80 063e 1739 e1be 7502 babe 9918 533e
000002e0: 7f26 a23e caa5 98be 85af 99be ac31 013e
000002f0: 43a9 d9be 8e87 153e ceb1 a63e 90ec 3c3d
00000300: 0049 51be ef47 24be 4276 c83d 5725 3cbe
00000310: c8c2 05bf 2642 e23c 814d 493e 4d3a 113e
00000320: c773 c8bd bcd5 a53e dfa2 4cbe f288 fbbd
00000330: 86bc bd3d 1406 9c3d 4f37 febe b89f 1a3e
00000340: e527 afbe c919 803e 7ad7 70be 3822 51bc
00000350: 3d32 d63d b0ee a23e b0ac 25be 028d 333e
00000360: 4307 a53e 4c85 aebd 2696 c7be f7d8 8ebe
00000370: 7041 633e 8253 8bbe cc09 c3bd ed09 633e
00000380: a608 e1be 8dec b6be e621 d03e d1ed f4bd
00000390: 42c2 dfbb 31d3 5e3e af2c d53d 1c8b 033f
000003a0: 20b8 7cbe 545e 173e 9f69 64bc d4d2 a8be
000003b0: 841b 573e 303b b13d d48b 97bd a14e 93be
000003c0: 7344 1e3d 4c0b 21bf c8c8 263e 5d90 5ebd
000003d0: a834 ef3d 042f a93d 2633 e3be 7809 8a3e
000003e0: 07f5 8abd 2d23 c9be b92f 1fbe 1e12 b5bc
000003f0: 4984 66be 0885 763e 663a f23b 876e 513e
-0.7301039 -0.29616734 0.0025491894 0.2579955 -0.19778411 -0.005169452 0.30902162 0.24318643
0.39296687 -0.055745415 -0.24409087 0.24205887 0.2549982 -0.33173406 0.24125068 -0.64547884
-0.40686604 0.20391741 0.23173144 -0.2425892 -0.3280093 -0.05685854 -0.42826724 -0.2530095
-0.19570515 0.47855464 0.32051003 -0.34526643 -0.079051524 0.12957908 0.08685004 0.40359512
0.039375 -0.45374054 -0.15846044 0.062885955 0.0464772 0.12770697 -0.13888535 0.115109704
0.3462077 -0.18768036 0.3379664 -0.014390767 -0.09030241 0.49495345 0.0660772 -0.2099388
0.33620086 -0.122450925 0.010689676 -0.64515257 0.0066017825 0.13642862 -0.056092232 -0.14300263
0.12395849 -0.04023543 0.39886874 -0.02964595 -0.03434711 -0.34723523 -0.40813062 -0.34591687
0.32859713 0.1564788 0.4600911 -0.41080213 -0.11159344 -0.1945482 -0.11554862 -0.06377594
-0.27816325 0.25813046 0.15016158 -0.45692688 0.4758651 0.076682806 -0.10571601 0.10237845
-0.41080183 0.28701213 -0.33777076 -0.11974546 0.19611298 0.24965636 -0.14548789 0.039713405
-0.43534932 0.04399908 -0.18509904 -0.4380043 -0.23610952 -0.37541276 -0.19865257 0.2150351
0.27787662 0.10499271 0.10495052 0.16068585 -0.20702331 0.14170922 0.21591194 -0.078992516
-0.26868564 -0.24949698 -0.26650387 -0.0054724813 -0.16264167 0.17963082 0.048371498 -0.23687813
0.043055728 0.1450572 -0.3578565 0.12064251 0.42822707 0.028262476 -0.09830704 -0.1208947
0.09951312 -0.35211 0.44094932 0.46836016 0.008992195 0.070626676 0.25579816 -0.22293538
-0.3472726 -0.20148177 -0.3868664 0.19741088 0.09499019 0.11943434 -0.14207122 0.50301534
0.15432604 0.18225385 -0.026517415 -0.18043911 -0.27876657 0.47500318 0.34626448 0.057306305
-0.109297365 0.095331125 -0.2282578 -0.1541502 -0.20848899 -0.16780804 -0.21208064 0.22848606
-0.08950578 0.024503535 0.060592305 0.08613949 0.3264303 -0.041311514 -0.32650182 -0.11398482
0.3770018 -0.11369825 0.12104223 -0.33563605 0.06133593 -0.24983865 0.49725804 0.29342857
0.3240736 0.24592511 -0.028691351 -0.25764796 -0.34591728 -0.23390737 -0.17252532 0.465796
-0.20535226 0.05921856 0.3537225 -0.06776011 0.13134806 -0.4398887 -0.3633 0.20614852
0.31669995 -0.29813987 -0.30016723 0.12616605 -0.4251195 0.14602491 0.3255753 0.04612404
-0.20438004 -0.16043065 0.09788181 -0.18373619 -0.5225034 0.027619433 0.19658472 0.14182396
-0.09787708 0.3238963 -0.19984005 -0.122819796 0.092644736 0.07618347 -0.49651572 0.1509999
-0.34210125 0.25019673 -0.23519698 -0.012764506 0.10458801 0.3182273 -0.16179156 0.17534259
0.32232103 -0.08521518 -0.38981742 -0.27899906 0.22192931 -0.2721215 -0.09523353 0.22171755
-0.4395191 -0.3572735 0.40650862 -0.119594224 -0.0068285773 0.2176025 0.10408913 0.5138414
-0.24679613 0.14782077 -0.013941198 -0.3297335 0.2100659 0.08653867 -0.07399717 -0.28770927
0.038639497 -0.6290786 0.1628753 -0.054336894 0.11679965 0.08260921 -0.4437496 0.2696035
-0.067850165 -0.3928465 -0.15545548 -0.022103366 -0.225114 0.24074185 0.0073922155 0.20452319

bias f4 [128]
00000000: 86b5 483e 4c3c b7bd 5c6c 56be fb3e 403e
00000010: e4c0 04be ef31 8abe 7e86 0cbd f674 24be
00000020: eb0f a1be 8934 f33d b995 ce3e b6ae 7fbe
00000030: d453 8abd 753a 4ebe 1241 86bd 5970 8c3d
00000040: e5c8 b13e a7b9 c03c ea28 26be e8bb 88be
00000050: 9734 77be 684e 6ebe 5b02 633d feb8 c1bd
00000060: 6495 8cbe 966b b8be b0ae 6bbd 5e12 a1be
00000070: f93b d7be 1ff9 7a3e a5bc 353d bd7a 52bd
00000080: 18de 7f3b ae44 21be d015 c53d 8f0c 9ebe
00000090: 9c71 0bbd ecfe 2c3e aed7 053e 553d b73e
000000a0: a343 8e3d e2c3 813e d742 bdbd 2596 49bd
000000b0: 68e1 10be bb1b fd3d 35e4 b9be 1964 59be
000000c0: 7a9f 9a3e fd71 823e 3e0b 9e3d 12cf 81be
000000d0: a93e 7c3e 3641 e2be 2c5c 613e 2f27 143c
000000e0: b58d 48be 6cea 92bd d750 e13d cd1f 99be
000000f0: 3493 26be 7dbf 4c3e ba68 e9bd d998 793e
00000100: 282a bd3e f9ac e03c cf95 553e 1342 5f3e
00000110: a79e 87be 398e 17be c7cc 493d de31 5bbc
00000120: 82b4 9b3e 361b 493e 8207 5bbe c1c2 8c3e
00000130: 894b afbe e307 793d 8cfb 223e 98b3 b4be
00000140: 9ef2 bfbe 41ab 5bbd 89b0 65be 1881 1c3d
00000150: bb74 ce3e 260d bdbe 3e13 afbe 992b b73e
00000160: 3224 40be b6c1 a43d a1a2 4d3e 5d42 9e3d
00000170: 9f6d e4be 2926 bd3c 4a2d bc3e 3a35 d63e
00000180: 295b 40be 1975 703e 0174 773e 4361 d9be
00000190: 57ed 7abe 89bc 493e c6c2 373e 2324 d5be
000001a0: 6256 13be 5acd 34be 4c36 bebd c6c2 733e
000001b0: 1e29 d2be e44c a8be 1127 9b3d ad59 7e3e
000001c0: 15aa 0c3e 844c 5b3d 378b 1e3e df9c e93c
000001d0: da72 0fbe d248 54be 59d6 9ebe 63a8 8e3e
000001e0: dcc4 bdbd b1f6 43bd 40f0 eb3e 745d 80be
000001f0: b3d8 913e fb5c 64be afd9 bd3e 27f4 9dbd
0.19600496 -0.089470476 -0.20939773 0.18774025 -0.12964207 -0.2699122 -0.03430795 -0.16060242
-0.31457457 0.11875255 0.40348604 -0.2496899 -0.0675427 -0.20139487 -0.0655538 0.06857366
0.34723583 0.023526026 -0.16226545 -0.2670586 -0.24141155 -0.23272097 0.05542217 -0.094591126
-0.27457726 -0.36019582 -0.05753964 -0.31459326 -0.42037943 0.24509095 0.04436936 -0.051386584
0.003904229 -0.15748855 0.09623301 -0.30868956 -0.034043893 0.1689412 0.13070557 0.3578898
0.069464944 0.2534476 -0.09241264 -0.049215455 -0.14148486 0.12358805 -0.3630692 -0.2122959
0.30199796 0.2547759 0.07716988 -0.25353295 0.24633278 -0.44190377 0.22007817 0.009042545
-0.19585307 -0.07173619 0.11001747 -0.29907075 -0.16267091 0.19994922 -0.11396928 0.24374713
0.36946225 0.02742623 0.20857929 0.21802549 -0.2648823 -0.14800347 0.049267557 -0.0133785885
0.30411154 0.19639286 -0.21389583 0.27492335 -0.34237316 0.060798537 0.1591627 -0.3529327
-0.3748979 -0.053630117 -0.22430624 0.03820905 0.40323433 -0.36924094 -0.34194368 0.3577545
-0.18763807 0.0804476 0.20081569 0.077275015 -0.44614884 0.023089485 0.36753303 0.41837484
-0.18784775 0.23482169 0.24165346 -0.42457017 -0.245046 0.19700827 0.17945394 -0.41629133
-0.14388421 -0.1765646 -0.092877 0.23804769 -0.41046995 -0.32871163 0.07575811 0.24838896
0.13736756 0.053539768 0.15482794 0.028517185 -0.14008656 -0.20730904 -0.3102291 0.27862844
-0.092660636 -0.047842685 0.46081734 -0.250713 0.2848564 -0.22301094 0.37080142 -0.07712584

weight f4 [128, 128]
00000000: c580 c53a 7075 65be 8171 03bc f73c 07be
00000010: 28fb c63c 10cb bebc 4b8d acbc 1006 473d
00000020: 71f5 133c 813f 0abd 6cb1 5cbe 92d5 33be
00000030: 7d0e 853d 484b 29be 40c5 1e3c 6e07 af3d
00000040: a61a 923a 3163 7f3d 79e6 8c3d a26c b83d
00000050: 46c3 7b3c d84c 34bc 48b4 00bd 4597 17bc
00000060: 92a6 8cbe 3bfd 51bd 309a d8bd 4c23 51be
00000070: aa36 c6bb d0f6 123d 0b48 2e3d 2c89 53b9
00000080: cb88 a63d 736c 323a e6c7 613d e9eb a7bc
00000090: 20b8 97bc 5700 a7be 0152 903d f232 b9bd
000000a0: 9d42 e73c f1ca 823b 78d1 edbd 07da 34be
000000b0: 2022 9fbc 7267 1c3e b336 91be fa88 73bd
000000c0: c36b 63bd 4d0e df3b eba6 323b b17a 8a3d
000000d0: 22c2 17bd 9adb 28bd cda7 933d d8eb 9ebd
000000e0: f7da 093e cc1d 763d cac0 2c3d 0a78 303d
000000f0: e065 68bd b8bd 3d3d f799 57bc 1d72 e8bc
00000100: 59e8 773d 00dc 87bb 5124 babc 2164 5abf
00000110: d697 b4bd 1a25 fbbd 5272 d2bd 4f9d 1d3c
00000120: bad7 863d 35ab 273d c99f 3cbd a0bb 9d3d
00000130: 7ed9 61bd fa5a c2bc a71b f5bc 4de8 f9bd
00000140: 9f29 9e3d 644f 0a3d 5997 ebbe 1bdc 9e3d
00000150: 760e 733d 55fa 2dbf 98ea 073d 9de5 d2bd
00000160: 0e0a 513d 43cb 88be c21b f73d 46b3 993c
00000170: 5454 7ebd 7111 02bf 2beb aebc 4615 563d
00000180: 9728 73be ec27 83be 2c4a d5bc 3298 80bd
00000190: 03e3 2f3e 3d24 7b3d a5f5 22be c44d fbbc
000001a0: d2bc 4b3d ae96 abbd 4007 bcbb f012 853b
000001b0: 74d3 23bd e399 913d d848 a3bc 20ab 90be
000001c0: 88e1 88bd e818 a43a 0fb8 94bd 5cfe 2a3d
000001d0: 9a65 2a3c 54a8 ba3d ee1d 093b 22af 88be
000001e0: b67b 9b3d 63c1 883d f82d 733d 8872 4abe
000001f0: 983c 6a3d 8618 11bf fdb5 a7be 1328 a43d
00000200: 55aa dc3c ecae 48be bcfd 3c3d 2fe9 95bd
00000210: 703a debb 5eab a33d 0052 ff3d 2850 923c
00000220: 1523 97bd df3f 44bc 6e0e 53be 8c3a 4dbe
00000230: 3097 043b 3931 f13d e199 b63d 34b3 5b3e
00000240: 523f e13c b4bc 7c3d 64e5 ebbc 30c7 203e
00000250: 621b 55be 648f 87bd 06f1 33be 2933 823e
00000260: 3b2a 19be 6c45 e0bc 5aa0 9bbe d703 87be
00000270: 529e 43be 6a79 babd 57d4 f73d cdf1 283e
00000280: d2a7 be3d b577 893d 5a7a 1b3d f3b8 0bbe
00000290: ec4e 02be bd07 f6bd d509 8c3d 6f09 25be
000002a0: 4567 6b3d 4187 a73d e21d f3bd 31f6 40be
000002b0: 9646 56bd 515e 893d cf1c 1a3d c44d 5cbd
000002c0: 9f14 91bd 2113 99be ab47 e33d 7b62 6c3b
000002d0: e82b e8bd 18d2 643c 7128 5f3d bbcb a5bd
000002e0: 9a8f a03d 3e45 333e 247e 093d bc66 a43c
000002f0: 581a 22bc c7bb ab3d 39b4 263e 5f1e a9bc
00000300: 8fe9 bc3d 6f7c dcbd c33e 4e3d 4086 87bd
00000310: 4c73 63be 855a 0abe f900 55be 5e5e f4bd
00000320: 99ce 99bc 0f15 453d ba56 26be 4a5f c63d
00000330: d034 333c cc75 f3bd a8c3 2dbe ec8e 08be
00000340: 59f4 02be 569b d4bd 3a14 1cbf 8614 f5bc
00000350: ae00 bb3b ec4c 17bf cea7 8b3d 98d8 ab3d
00000360: 5bc2 9c3d 4771 9fbd cb88 a5bb e387 00be
00000370: 44e3 2bbd f953 49be aea7 38bd 945b 01be
00000380: aa87 96be 4c8d 18bc dc12 85be 7217 b2bd
00000390: 4e4e 603e bef6 b83c 7f6e c4bc fc83 87be
000003a0: c30d 193c b310 30be cfbc 8cbd 627c dfbb
000003b0: 987e 3fbc d003 a9bc 9d8e 10be 2fce 15be
000003c0: b607 39bc 7a3c 7cbd f4e6 b93d 2797 913c
000003d0: 21d7 1bbc 85a7 03be 3192 623c 5ca9 60be
000003e0: 6b5b d73d b061 bc3d 547f bc3c 1b4f febd
000003f0: a712 bd3d 99c9 86be 3112 1dbe b7ae 68be
0.0015068284 -0.2240808 -0.008022667 -0.1320685 0.024289683 -0.023290187 -0.021063467 0.048589766
0.009030686 -0.03375197 -0.21552056 -0.1756194 0.06496904 -0.16532624 0.009690583 0.08546339
0.0011146858 0.062350456 0.06879897 0.09005095 0.015366381 -0.011004649 -0.03142193 -0.009252374
-0.27470833 -0.05126689 -0.10576284 -0.20423621 -0.006048997 0.03587991 0.042549174 -0.00020173629
0.0813156 0.00068063213 0.05512228 -0.020498233 -0.018520415 -0.32617447 0.07046891 -0.0904292
0.028230006 0.0039914777 -0.116122186 -0.17661296 -0.019425452 0.15273836 -0.28362045 -0.059456803
-0.05552269 0.0068071247 0.0027260135 0.06761683 -0.037050374 -0.041225053 0.0720974 -0.077598274
0.13462435 0.06008701 0.042176045 0.04308323 -0.05673778 0.046323508 -0.013159267 -0.028374726
0.06052432 -0.004146099 -0.022722395 -0.85309035 -0.08818023 -0.12262936 -0.10275711 0.009620025
0.06584115 0.04093476 -0.04605082 0.07701802 -0.055139057 -0.023725022 -0.029920412 -0.12202511
0.07722782 0.03376712 -0.46013907 0.077568255 0.059339963 -0.679601 0.03318271 -0.102977015
0.05103498 -0.26717576 0.12065841 0.018762242 -0.06209214 -0.50807863 -0.021352371 0.05226638
-0.23745953 -0.25616395 -0.026036344 -0.06279029 0.17176442 0.061313856 -0.15914018 -0.03067673
0.04974062 -0.08378349 -0.005738169 0.0040610954 -0.03999658 0.0710943 -0.019932196 -0.28255558
-0.06683642 0.001251963 -0.07261669 0.041746482 0.0104002 0.09114137 0.002092238 -0.26696116
0.07591955 0.066775106 0.05937001 -0.19770253 0.057186693 -0.56678045 -0.32756034 0.08015456
0.02693669 -0.19597977 0.046140417 -0.07319867 -0.0067818686 0.0799167 0.12466812 0.017860487
-0.07379738 -0.011978119 -0.20610973 -0.20041865 0.0020231716 0.117769666 0.08916069 0.2145508
0.027496014 0.0617034 -0.028795905 0.15700984 -0.20811227 -0.066191465 -0.17572412 0.25429657
-0.14957516 -0.027376853 -0.30395776 -0.26370117 -0.19103363 -0.09105189 0.121010475 0.1649849
0.09309353 0.067122854 0.03795848 -0.13644771 -0.12725419 -0.12013195 0.06837813 -0.1611688
0.057471532 0.081800945 -0.11870934 -0.18843915 -0.05231341 0.067074426 0.03762513 -0.0537851
-0.07084011 -0.29897407 0.11097654 0.003606944 -0.113364995 0.013966106 0.054481927 -0.08095499
0.0783989 0.17506883 0.033567563 0.020068519 -0.009893976 0.08385425 0.16279687 -0.020644365
0.09224235 -0.10765921 0.050352823 -0.06617403 -0.22211951 -0.13511093 -0.20801152 -0.119320616
-0.018775271 0.048115786 -0.16244021 0.09686144 0.010937884 -0.11887702 -0.16969168 -0.1333577
-0.12788524 -0.103811905 -0.60968363 -0.029917013 0.005706868 -0.5910175 0.068191156 0.08390921
0.07654258 -0.07785278 -0.0050517074 -0.12551837 -0.041964784 -0.1966094 -0.045081787 -0.1263259
-0.29400378 -0.009311032 -0.2599095 -0.08695878 0.21904871 0.022578593 -0.02397847 -0.26467884
0.00934166 -0.1719387 -0.0687195 -0.0068202475 -0.011687897 -0.0206317 -0.14116903 -0.14629434
-0.011293342 -0.061581112 0.09077254 0.01777227 -0.00951174 -0.12856872 0.0138288 -0.21939605
0.105154835 0.0919832 0.023009934 -0.12417432 0.09232073 -0.26325682 -0.1533897 -0.22722898

bias f4 [128]
00000000: 7df7 35bc a91e 68bd 72c8 80bd 1b10 4ebd
00000010: 10dd 4e3c 4dd0 76bc 4f63 95bb c2f2 f6bc
00000020: 106c ea3c c3d2 093d 7ea5 dfbc 8cec 51bc
00000030: e82d d63d e851 543d 3599 0e3d a921 363d
00000040: c113 b83c 5459 81bd 9493 073d c001 65bb
00000050: 2858 3a3d 035f 3abd 8ca5 a9bc c61b 0a3b
00000060: 3864 a1bd a923 13bd 50e5 b3bd bb3e 5b3d
00000070: 0736 65bd 9eee 9cbc 9ffe 53bd 8fcd b3bd
00000080: 8901 d6bc 82ac 99bd 8235 afbd 26d2 92bc
00000090: a056 f43c c283 08bd fd44 96bd 398e a4bd
000000a0: 98b6 9ebd 6812 cb3c 3b04 49bc 3374 663d
000000b0: 163c 9fbd fb89 bd3d 0250 e7bd 50c8 2bbd
000000c0: b761 83bc 3310 3bbd c0ca 683d 884f 6b3d
000000d0: fbec c5bc 37fc 243d fb50 4f3d a21b 15bd
000000e0: de8a d5bc a276 083d e6ea b9bc ca07 1fbc
000000f0: 1e37 cb3c 415e c0bd 93ec 38bd 0076 3b3c
00000100: 6a18 bdbd d316 dabc 3f11 75bd 075b a93d
00000110: 6b1e b73d b8df d23c cdf4 c8bd 8a46 c9bc
00000120: 6efb c43c 01c3 283c d639 d3bc 27bf 76bd
00000130: f509 553c 315d 34bc 3288 293c 3817 8bbd
00000140: 4156 65bd 1e45 853c 848e 1ebc e141 5a3d
00000150: 398b c9bc 7769 c03c 5517 94bc 3f17 db3b
00000160: 44f8 19bc cd87 e8bc a082 84bd 3154 863d
00000170: ac7f 983d 485d 213d f1d5 b13c 957c 443d
00000180: 1f0b c1bb fe77 bdbd ed14 02bd 2251 0fbd
00000190: 113e 613d d87f 673d e27f 1bbd 90c0 d2bc
000001a0: f5e6 933c 858b a0bd 3537 4fbc 816a 53bb
000001b0: 91c4 b2bd bd73 053d 33c3 63bd 68d1 a8bd
000001c0: 0578 01bd d490 cd3c 7576 b3bd 304a 8abb
000001d0: cf41 943d 347e 9c3c e3bc 48bd aa61 453d
000001e0: da93 8cbd 9b60 9a3d 72b7 bc3d 7723 963b
000001f0: 37bf 6cbd 2ec6 0c3d 3430 d9bc 9be8 c43b
-0.011106369 -0.056669865 -0.06288232 -0.050308328 0.012625948 -0.015064311 -0.0045589576 -0.030145053
0.028615981 0.033648264 -0.027300593 -0.012812745 0.10457975 0.051835924 0.03481408 0.044465695
0.022470357 -0.06315866 0.033099726 -0.003494367 0.04549423 -0.045500766 -0.020708822 0.0021073683
-0.07880443 -0.03592268 -0.08783972 0.05352662 -0.055959728 -0.01915675 -0.051756497 -0.087794416
-0.026123779 -0.075036064 -0.08555128 -0.017922472 0.029826462 -0.03332878 -0.07337377 -0.08034939
-0.07749671 0.02478905 -0.012269075 0.05626316 -0.07775132 0.09254833 -0.11294557 -0.04193908
-0.016037805 -0.045669746 0.056833982 0.057448894 -0.024160853 0.040279593 0.05061434 -0.036403306
-0.026067194 0.033316262 -0.022695016 -0.009706447 0.024806555 -0.093929775 -0.04514749 0.011441708
-0.09233172 -0.026622212 -0.0598309 0.08269315 0.08941349 0.025741443 -0.09812317 -0.024569768
0.024045672 0.010300399 -0.025784414 -0.06024089 0.013002862 -0.011008547 0.010347413 -0.06791538
-0.05599046 0.01626831 -0.009677533 0.053285483 -0.02460252 0.02348779 -0.018077532 0.0066861208
-0.00939757 -0.028385067 -0.06470227 0.06559027 0.074462265 0.0393956 0.02170846 0.047970373
-0.0058912183 -0.09251402 -0.031758238 -0.034989484 0.05499083 0.056518406 -0.037963755 -0.025726587
0.018054465 -0.07839111 -0.01264744 -0.0032259526 -0.08728898 0.03258108 -0.05560608 -0.08243066
-0.0316086 0.025093473 -0.08762828 -0.0042202696 0.072391145 0.019103147 -0.04900826 0.048188843
-0.06864138 0.07537957 0.09214677 0.0045818645 -0.057799544 0.034368686 -0.026512243 0.006009174

weight f4 [64, 128]
00000000: 7186 0abe f3cd 713c e3be fdbd feb7 64bd
00000010: a21f 51be 623b a83d 6838 acba ec66 913e
00000020: fe91 74bb d783 c73c 69a6 38be b6df c73e
00000030: 7cb2 c83b 2a69 d53c 6e72 a3be d8c5 793c
00000040: bc5d 63be 28ae 9bbd 104c 9dbd 443a 99bd
00000050: bbd7 98bd ef1a 6f3d 4c1a 7b3e d356 ccbc
00000060: 501c 1dbc 92a0 f5bc 6ac6 413d e82e 293d
00000070: a608 07bd eca3 d9bd 6c9f 8abc 649c 843d
00000080: 0c54 b2bd 572e 0b3e 1425 82bd 99e6 ab3e
00000090: 0f79 70bd d891 97bd de40 da3c 0a1e 673d
000000a0: 3ba1 2bbe 0ac9 be3d d5e7 efbd 96c2 af3d
000000b0: 3b82 ecbb 2e57 a9bc 5483 37bb 4dbd 47bd
000000c0: 5fe8 53bd dba5 113d 83b9 4d3d 1651 0abb
000000d0: 5402 d6bd 3f2e 8f3d 8c8d e0bc 3458 c93d
000000e0: 6c5b 843d b2c4 653c 95d0 38be 9eb6 9dbd
000000f0: 3313 a8bd b55c 9c3d 9be5 6d3d 5265 89bd
00000100: 761d 023d c0b9 9bbc ab1b bf3e d9cc f53c
00000110: 112e b6bd d156 17bd f1ac 73bd f1e4 10be
00000120: 322c c13d f12f 15be 0ff0 0f3d 5245 afbd
00000130: 4b6f 873d db09 0b3d 250e 39bd 8a32 1e3d
00000140: b37d fe3e c4d6 2bbe f0b4 893d 8222 14be
00000150: d8c0 4c3e 49bd 56bd 4b94 ac3d 91fd 0d3d
00000160: c3ec 9fbe 3e94 713c 3e5f 9fbc ca45 9dbe
00000170: 0d1f bc3c cbf3 95bc 8a46 c73d 8c5a 29be
00000180: aab2 4e3d 05a0 1ebe a579 c23d f690 923e
00000190: 1697 463d 789d 383d 3726 1d3d 0091 0b3d
000001a0: fe2a 1bbd 6f10 823d d7ed c5bd dc01 183e
000001b0: 88bc 22bc a89d 7bbc cc62 6dbd 8e72 2ebd
000001c0: 0134 073e 5bc0 f63c b49e 593d 236a b23e
000001d0: 06f7 3c3d 4418 88bd 2fb2 9f3e 4a5c c13b
000001e0: 873d b53d 8c16 8abe 9ca5 103e d7d7 6f3d
000001f0: 5b9c a3bd a20b 3b3c fa82 563d 1a7b 24ba
00000200: d7d0 9a3c 4ab7 49bd 5a41 693d 4b01 0cbe
00000210: 16fd 45bf f746 213d 15b7 143d 24cd 173c
00000220: 1bf7 a9bb 1fee 123d 8c8b 3a3d 7c00 ac3e
00000230: 94c9 c6bd 328f b8bd 04cd 323d 7b54 b2bc
00000240: c4ad 153e 3bd2 0e3d b43e fd3c 7c1f 62be
00000250: 57ae 313d a412 6cbe 3308 e93d bd4d 27bd
00000260: 4c12 063d 0541 533c eef2 73bd 4492 cc3d
00000270: c48f 2ebd 326a 103d 1c65 87bc f15e 3b3e
00000280: ebe9 7c3d 10fb 21bf 12ee de3d e5f2 8abe
00000290: ab22 07bd b70a 61bf 9ed6 5bbc f95d e8bd
000002a0: d794 ae3e 5b52 ac3d f087 903d c781 8bbe
000002b0: 6718 3ebd b448 48be dff9 6c3d f792 b63d
000002c0: 3b3e af3d f4ae 223d 4d20 f53c 299a 28bc
000002d0: 3aa6 aa3d 8254 87bc b4aa 6b3e 8022 f1bd
000002e0: 576c 30bd 9c6d 70bd 99e6 14bd a237 ab3a
000002f0: 2ab7 443e 6ce0 abbd e1f4 ccb9 fccd cdbd
00000300: ded8 fc3c 4c14 f4bc c158 f33e 169a d5bc
00000310: a06d 39bd 3059 ac3d 6cec 9c3c cca9 30bd
00000320: 8e61 91be d976 173d 8a77 4dbe 7016 63bc
00000330: 5af7 3bbd fd91 c53d 3e2c 793d 2358 83bd
00000340: a3a3 0b3f a445 783e 0914 72bd ed66 a1bd
00000350: 8728 96be 8e8f 16bf 1ca2 e2bc 165f 88be
00000360: e9f7 103e 09b2 81bd f94a 60ba 5b05 9c3d
00000370: 7449 0bbd 379d 3c3e faaa 76bc e5d5 ff3d
00000380: 6133 b23d 548e 46bd e6de 9bbe bb9f 76bd
00000390: fe81 cf3c 977d 31be 4d21 a5bc 600a 02bc
000003a0: 57be efbc 8952 803d 3bd4 523d e6f8 bbbd
000003b0: f68f 88bd 1a5f 73bc 3495 303b 7081 35bc
000003c0: d40a 12be 07ef bbbc 678f 3cbd b2aa e43e
000003d0: 3190 31bd 8f14 f4be 860d 4c3e 2836 55be
000003e0: d480 063e 189a 34be 2397 8fbe 8cf7 6c3d
000003f0: e2d6 f93c 58b6 3c3d f1dc 8d3d 769d 373c
-0.13527848 0.014758575 -0.123899244 -0.05583953 -0.20422223 0.082144514 -0.0013139369 0.28398836
-0.0037318463 0.024354858 -0.1803223 0.39037865 0.0061247926 0.026051123 -0.3192324 0.0152449235
-0.22203726 -0.07601577 -0.076805234 -0.074818164 -0.07463022 0.058375295 0.2452175 -0.024943745
-0.00958927 -0.029983792 0.047308363 0.0413045 -0.032967232 -0.10626969 -0.016921721 0.06475142
-0.08707437 0.13591896 -0.06354728 0.3357437 -0.0587092 -0.07400864 0.02664226 0.05642513
-0.16760723 0.09315689 -0.1171414 0.08582036 -0.007217673 -0.020671453 -0.0028001862 -0.048764516
-0.05173528 0.035558563 0.050225746 -0.002110546 -0.10449663 0.069912426 -0.027411245 0.098312765
0.0646275 0.014023947 -0.18048318 -0.07700847 -0.08206787 0.0763487 0.058080297 -0.067087784
0.031766377 -0.019009471 0.37325796 0.030004906 -0.08895505 -0.03694803 -0.0594911 -0.14149834
0.09432258 -0.1456907 0.035141047 -0.08558144 0.06613024 0.033944946 -0.045179505 0.038622417
0.49705276 -0.16781145 0.06723964 -0.14466289 0.19995439 -0.05242661 0.08426722 0.034665648
-0.31235322 0.014744816 -0.019454595 -0.30717307 0.022964025 -0.018304726 0.09730251 -0.16538447
0.050463356 -0.1549073 0.09495858 0.2862622 0.04848393 0.04507205 0.038366523 0.03407383
-0.037882797 0.06350791 -0.09664505 0.1484446 -0.009932645 -0.015357412 -0.05795555 -0.042589717
0.13203432 0.03012102 0.053129867 0.348466 0.046134017 -0.06645253 0.3119063 0.0059008943
0.08849626 -0.26970327 0.14125675 0.05855545 -0.07988807 0.011416348 0.052371003 -0.0006274447
0.01889841 -0.049247064 0.05694709 -0.13672368 -0.77339303 0.039374318 0.036307413 0.009265218
-0.005186928 0.03587162 0.04554324 0.3359412 -0.09706417 -0.09011687 0.04365255 -0.021768799
0.14617068 0.03486846 0.030913688 -0.22082323 0.043379154 -0.23053986 0.11378517 -0.04084562
0.032732293 0.01289392 -0.059557848 0.099888355 -0.042617574 0.035257526 -0.016527705 0.18297936
0.06174652 -0.63273716 0.10885252 -0.2713844 -0.032992046 -0.87906975 -0.013417868 -0.11346049
0.3409793 0.084141456 0.07057178 -0.2724745 -0.04640999 -0.19558984 0.057855483 0.0891475
0.085567914 0.03971763 0.029922629 -0.010290661 0.083324865 -0.016519789 0.23014337 -0.117741585
-0.04307207 -0.05869828 -0.036352728 0.0013062845 0.19210497 -0.083924145 -0.0003909236 -0.10049054
0.03086513 -0.029794835 0.4752865 -0.02607445 -0.045270562 0.08415449 0.019155703 -0.04313068
-0.2839474 0.036978576 -0.20065132 -0.01386033 -0.04589019 0.09646986 0.06083321 -0.06413295
0.54546565 0.24245316 -0.05910114 -0.0788096 -0.29327795 -0.588128 -0.02766519 -0.26635045
0.1415707 -0.06332786 -0.00085560937 0.07618209 -0.034005597 0.18419348 -0.015055412 0.12491969
0.08701206 -0.04847558 -0.30443496 -0.060210925 0.02533054 -0.17333065 -0.02015748 -0.007937044
-0.029265566 0.06265742 0.05147193 -0.09178333 -0.06668083 -0.014854217 0.00269444 -0.011078224
-0.14261943 -0.022941126 -0.046035197 0.4466148 -0.043350402 -0.47671935 0.19927034 -0.2082144
0.13135082 -0.17636907 -0.28044996 0.057853267 0.030497972 0.046072334 0.06926907 0.011206975

bias f4 [64]
00000000: 5f79 0cbe c9e5 ca3b 870f 7b3d 34c8 d0bc
00000010: 14aa 28be c912 a7bc 07a2 4ebd 9333 99bc
00000020: 262f c8bd 7ded 07bd 659b 0bbe 1160 03bd
00000030: aee9 0ebe 5a8e f83c bfec c2bd 66ce ebbc
00000040: 33a5 9d3c 764b a4bd 44d2 56bd 6cfb a33d
00000050: 8b38 65bc 4ddf 49bd 1a53 603c 4059 5d3c
00000060: 3fd1 a5bb 68b7 053e e886 04b9 4621 a4bd
00000070: c3c2 04be 7c72 51bc c4e7 3fbc fdf0 a4bb
00000080: 0913 0dbe bb5d 8ebd f257 8cbc 4761 b4bd
00000090: 68f1 6ebc 3639 03be 3eed c3bd c9e7 4b3d
000000a0: dc3d 613d 0879 d2bc b922 a7bd 1640 01be
000000b0: 8f63 4ebd 0992 63bd e8dc adbb 4d43 b83d
000000c0: ed2d c03d d1e0 85bc 8e42 d33d afe7 05bd
000000d0: e315 b7bc 7a8e 9d3d 471a 2b3d e2a2 09be
000000e0: 3108 d93c d39a ae3d 3681 a33c e986 a8bc
000000f0: 1b11 a23d 2ac3 1fbd 4337 7d3d 8298 1ebd
-0.13718174 0.0061919433 0.061294105 -0.02548609 -0.1647113 -0.0203947 -0.05044749 -0.01870135
-0.09774618 -0.03318547 -0.13633497 -0.032074038 -0.13956329 0.030341316 -0.09517812 -0.028784942
0.019243812 -0.080222055 -0.05244662 0.08006939 -0.013990532 -0.04928522 0.013691688 0.013510048
-0.0050603445 0.13058245 -0.00012638757 -0.08014159 -0.1296492 -0.012783643 -0.011712972 -0.005033611
-0.13776793 -0.069514714 -0.01713178 -0.08807617 -0.014583923 -0.12814793 -0.09566735 0.049781594
0.054990634 -0.025692478 -0.0816092 -0.12622103 -0.050387915 -0.05555919 -0.005305875 0.089972116
0.0938376 -0.016342552 0.10315429 -0.032691654 -0.022349304 0.07693191 0.041773107 -0.13441041
0.026493164 0.08525624 0.019959074 -0.020572143 0.07913419 -0.039004482 0.06182028 -0.03871966

weight f4 [2, 64]
00000000: 9db5 c43e 834b 153e ac4f 76be 932b 97be
00000010: 7a8d 0bbe 13c2 5f3d ad7f 843e 7296 4cbd
00000020: d426 28be b017 ed3e 5504 0c3f fec5 623e
00000030: 90dd 3f3f 3d8d 763d 73f3 133d 240d e23d
00000040: d94e 40be e74d fb3c 52af 56bd 9652 873d
00000050: bba5 b9bd 3dd2 3c3b 496d 0f3e c2f1 0c3e
00000060: 5a26 cbbd 8de3 7e3e 7a49 283c e77e a8be
00000070: a94b f9bd f256 e8bd 5e87 c2bd 834f 313e
00000080: ebbd f4bd b49c 0d3e f1df 3e3d b5ee 783d
00000090: ba0b fabd e429 9fbd 233b b63d 77c5 c23d
000000a0: f66f 32be dcc8 2abd 0d96 be3d db04 14be
000000b0: 8810 c03d 4d30 bcbc b3e5 69bd ec79 b93d
000000c0: 6314 bc3e 90b7 c0bc 104a a6be 76fc 903c
000000d0: 8d61 9dbc 0398 8fbe 9455 443e 0445 f5be
000000e0: be85 fc3d df94 533d 51df c13e 17cf 53bd
000000f0: 0b3e 9e3e 9dcd 013e 84dc ef3e a712 66bd
00000100: 3bd8 cdbe 20a1 3dbe ead7 3d3e df30 533e
00000110: 81ee 9f3e 8b29 ebbd f0d3 b7bd e493 b73d
00000120: 0ed1 943d edc1 27bf c6b3 cebe 56e5 87bd
00000130: 1bd2 57bf 4390 86be a6ae 313c 07a0 01be
00000140: ecef 583d 55f8 30be 7bbc 99bd 16dd 91bd
00000150: 2654 5f3d 19e8 83bd b2c7 f5bd 7ae2 a3be
00000160: 0217 0e3e 0d7a a5bd 060b e23b 4f8b 793e
00000170: 60be 303e fe4c c8bd fcc7 713d 7f6a 2fbe
00000180: 8bb8 6b3e 7be8 8dbd 84c2 d9bd 5da3 aa3d
00000190: a8dc 74bc fad0 a73d 3b76 87bd 9da2 f9bc
000001a0: e767 af3c ed6b 97bc dd1e a0bd 24f9 d03d
000001b0: afe8 0bbe 1af5 20be 09ea 783c d94f 58be
000001c0: 9e99 2bbe b8c4 23be e3bf 9b3e b3f1 683c
000001d0: bfbd b2bc 828c 303e b432 a3bd 99e7 ed3e
000001e0: 042e 70bd ece2 83be 7ccc 62be 275b f83c
000001f0: 6942 2ebe 3357 16be 3593 ddbe 88e1 d2bd
0.3841981 0.14579587 -0.2405383 -0.29525432 -0.13628188 0.054628443 0.2587866 -0.049948163
-0.16421062 0.46307135 0.5469411 0.2214584 0.7494745 0.06019329 0.036120843 0.110376626
-0.18780078 0.030676795 -0.052413292 0.06607549 -0.09064814 0.0028811835 0.14006533 0.13764098
-0.09919424 0.24891491 0.010271424 -0.3290932 -0.12172634 -0.113447085 -0.094984755 0.17315488
-0.119502865 0.13829309 0.046600286 0.060774524 -0.12209268 -0.07771662 0.08897998 0.0951032
-0.17425522 -0.04169546 0.09305964 -0.14454977 0.09378153 -0.02297225 -0.057103824 0.09056458
0.36734304 -0.02352503 -0.3247838 0.017698508 -0.019211555 -0.28045663 0.1917327 -0.47904217
0.12330197 0.051655646 0.3786569 -0.05171117 0.3090671 0.12676091 0.46847928 -0.056170132
-0.40204033 -0.18518496 0.18539396 0.20624112 0.31236652 -0.11482533 -0.08975971 0.08963755
0.072664365 -0.6553028 -0.4037153 -0.06635539 -0.8430497 -0.26281938 0.010844862 -0.12658702
0.052963182 -0.17282231 -0.07506653 -0.07122247 0.05452361 -0.064407535 -0.120009795 -0.32008725
0.13875964 -0.0807992 0.0068982868 0.24369548 0.17260122 -0.0978031 0.05902861 -0.17130469
0.23019616 -0.06929108 -0.10632804 0.0833194 -0.014945187 0.08194156 -0.066143475 -0.030473048
0.02141185 -0.01848408 -0.07818387 0.1020377 -0.1366298 -0.15718499 0.015192517 -0.2112421
-0.16757819 -0.15993011 0.30419835 0.014217782 -0.021818994 0.172411 -0.07968655 0.46465757
-0.058637634 -0.25759065 -0.22148317 0.030316902 -0.17017521 -0.14681701 -0.43276373 -0.10296923

bias f4 [2]
00000000: ae05 a4bb 01bf df3d
-0.00500556 0.10925103
