models/mountaincar_2D/checkpoint_att.15.pth.tar (torch_old, 105542 bytes, 8 tensors)

weight f4 [128, 5]
0	0xbf400806	-0.7501224
1	0xbe9ab337	-0.30214855
2	0xbb40f91e	-0.002944536
3	0x3e87bc9a	0.2651108
4	0xbe4a87eb	-0.19778411
5	0xbc2d46b6	-0.010575941
6	0x3e9d786d	0.3075594
7	0x3e721448	0.23640549
8	0x3ec7fc00	0.39059448
9	0xbd6d2e92	-0.05790574
10	0xbe7a52df	-0.24445675
11	0x3e793638	0.24337089
12	0x3e7eb9cc	0.24875563
13	0xbea9d90c	-0.33173406
14	0x3e7a8b7d	0.24467273
15	0xbf2545d1	-0.64559656
16	0xbecf8de3	-0.40537938
17	0x3e56856b	0.20949332
18	0x3e66a71e	0.22524688
19	0xbe78694e	-0.2425892
20	0xbea7f0d6	-0.3280093
21	0xbd68e480	-0.05685854
22	0xbedb45d8	-0.42826724
23	0xbe818a76	-0.2530095
24	0xbe4866ee	-0.19570515
25	0x3ef518a8	0.47870374
26	0x3ea39cd9	0.31955603
27	0xbeb4c782	-0.35308462
28	0xbd8be41c	-0.06830618
29	0x3e038cae	0.12846634
30	0x3db018f7	0.08598512
31	0x3ecdb8f6	0.40180176
32	0x3cf2768f	0.029597549
33	0xbee850ae	-0.45374054
34	0xbe22f29c	-0.1591286
35	0x3d4eaaf4	0.050456002
36	0x3d14193b	0.036156874
37	0x3dfe9a68	0.124317944
38	0xbe0e37f6	-0.13888535
39	0x3dd18a8d	0.102315046
40	0x3eb2de90	0.34935427
41	0xbe41b6d7	-0.18917404
42	0x3eacb52f	0.33731982
43	0xbc6bc740	-0.014390767
44	0xbdb8f078	-0.09030241
45	0x3effc024	0.4995128
46	0x3d88c9c1	0.066791065
47	0xbe4eabda	-0.20182744
48	0x3ead693c	0.3386935
49	0xbe0465fc	-0.12929529
50	0x3c577a77	0.0131517565
51	0xbf256624	-0.6460898
52	0x3ba204e0	0.004944429
53	0x3e042e30	0.12908244
54	0xbd529be4	-0.0514182
55	0xbe0dcc26	-0.13847408
56	0x3e0056c8	0.12533104
57	0xbd24cde8	-0.04023543
58	0x3ecc0368	0.3984635
59	0xbcf2dc10	-0.02964595
60	0xbcf471e3	-0.029839462
61	0xbeb0eb78	-0.34554648
62	0xbed0f67f	-0.40813062
63	0xbeb11c04	-0.34591687
64	0x3ea9c08a	0.33154708
65	0x3e12b0bb	0.1432523
66	0x3ee56225	0.4480144
67	0xbed254a8	-0.41080213
68	0xbdec6b40	-0.11543894
69	0xbe538197	-0.20654903
70	0xbde60861	-0.11232067
71	0xbd705e72	-0.05868382
72	0xbe8e6b6a	-0.27816325
73	0x3e80d941	0.25165752
74	0x3e2158f5	0.1575659
75	0xbeecb24d	-0.46229783
76	0x3ef34e71	0.47520784
77	0x3d9c0764	0.07618597
78	0xbdcddcc8	-0.10051876
79	0x3dcbc0f9	0.09948916
80	0xbed57172	-0.41688114
81	0x3e92b015	0.28649965
82	0xbeac9bf9	-0.33712748
83	0xbdf6a05f	-0.12042307
84	0x3e4470f7	0.19183718
85	0x3e81e173	0.25367317
86	0xbe16b889	-0.14718832
87	0x3d1d3673	0.038382005
88	0xbedee61b	-0.43534932
89	0x3d2e0353	0.04248364
90	0xbe3d8a9a	-0.18509904
91	0xbee0421a	-0.4380043
92	0xbe71c6b2	-0.23610952
93	0xbec0361a	-0.37541276
94	0xbe4b6b94	-0.19865257
95	0x3e58328b	0.2111303
96	0x3e8fc85d	0.28082553
97	0x3dd3cd53	0.10341897
98	0x3de15972	0.110033885
99	0x3e1efce9	0.15526165
100	0xbe59eb6e	-0.21281216
101	0x3e0e53d4	0.13899165
102	0x3e589031	0.21148755
103	0xbda1c6d4	-0.078992516
104	0xbe89912a	-0.26868564
105	0xbe7f7c23	-0.24949698
106	0xbe887332	-0.26650387
107	0xbbb35280	-0.0054724813
108	0xbe268b8a	-0.16264167
109	0x3e37f124	0.17963082
110	0x3d18d0f7	0.03730866
111	0xbe7e69fe	-0.2484512
112	0x3d647db9	0.05578396
113	0x3e02413b	0.12720196
114	0xbeb738f8	-0.3578565
115	0x3df8273d	0.12116859
116	0x3edc6999	0.43049315
117	0x3ccd939d	0.025094802
118	0xbdb904e9	-0.0903414
119	0xbdf8ecc4	-0.121545345
120	0x3dccc889	0.099991865
121	0xbeb5f530	-0.35538626
122	0x3ee27dd4	0.44236624
123	0x3eeb9157	0.46009323
124	0x3c135400	0.008992195
125	0x3d90a4b8	0.070626676
126	0x3e82f7fa	0.25579816
127	0xbe64492c	-0.22293538
128	0xbeb1cdb7	-0.3472726
129	0xbe4e513d	-0.20148177
130	0xbec63793	-0.38714275
131	0x3e4d89ee	0.20072147
132	0x3dc286f4	0.094983965
133	0x3e039d61	0.12853004
134	0xbe117b1e	-0.14207122
135	0x3f01ee07	0.50753826
136	0x3e22981a	0.15878335
137	0x3e3dd99a	0.1854004
138	0xbca7ed34	-0.02049885
139	0xbe38e5ad	-0.18056364
140	0xbe8b0e2d	-0.27159253
141	0x3ef6acad	0.48178616
142	0x3eb2b1d9	0.34901312
143	0x3d684398	0.056705087
144	0xbddfd74c	-0.109297365
145	0x3dc6858e	0.09693442
146	0xbe6b6efd	-0.22991557
147	0xbe18c101	-0.14917375
148	0xbe668134	-0.22510225
149	0xbe2b052e	-0.16701195
150	0xbe5fb07f	-0.21844672
151	0x3e699e48	0.22814286
152	0xbdb2de6b	-0.08733829
153	0x3cdf4292	0.027253423
154	0x3d6012d8	0.05470547
155	0x3db1dd58	0.08684796
156	0x3ea795d2	0.3273149
157	0xbd3952e4	-0.045245066
158	0xbea72b3f	-0.32650182
159	0xbde9f1fe	-0.114231095
160	0x3ec08859	0.37604025
161	0xbdf748f7	-0.12074464
162	0x3defad29	0.117029496
163	0xbeabd87d	-0.33563605
164	0x3d651f0e	0.05593782
165	0xbe8365f4	-0.25663722
166	0x3efdd2bf	0.4957485
167	0x3e94e6f4	0.29082453
168	0x3ea65230	0.3248458
169	0x3e789132	0.24274138
170	0xbceb0a20	-0.028691351
171	0xbe83ea6f	-0.25764796
172	0xbeb11c12	-0.34591728
173	0xbe6f856a	-0.23390737
174	0xbe30aa7a	-0.17252532
175	0x3eeca752	0.46221405
176	0xbe5517fc	-0.2080993
177	0x3d6b61e7	0.057466414
178	0x3eb3c573	0.3511158
179	0xbd8ac5d0	-0.06776011
180	0x3e07d631	0.13265301
181	0xbee1718a	-0.44031936
182	0xbeba0275	-0.3633
183	0x3e59f405	0.21284492
184	0x3ea2a6fc	0.31768024
185	0xbe9713cf	-0.295073
186	0xbe98202b	-0.29712042
187	0x3e025b21	0.12730075
188	0xbed9a943	-0.4251195
189	0x3e1b9470	0.15193343
190	0x3ea59530	0.32340384
191	0x3d3782c5	0.044802446
192	0xbe4bb93c	-0.1989488
193	0xbe26f386	-0.16303834
194	0x3daae338	0.0834412
195	0xbe3caddf	-0.18425702
196	0xbf06889c	-0.525522
197	0x3cd2c92f	0.025730697
198	0x3e3ee23e	0.18640992
199	0x3e130feb	0.14361541
200	0xbddae491	-0.10688127
201	0x3ea4613f	0.32105443
202	0xbe498775	-0.19680579
203	0xbdf74fa1	-0.12075735
204	0x3da91024	0.08255032
205	0x3d9910b3	0.07473888
206	0xbf006e38	-0.5016818
207	0x3e174cb0	0.14775348
208	0xbeaf27e5	-0.34210125
209	0x3e7ee07d	0.24890323
210	0xbe761c4e	-0.24034235
211	0xbc9e4eb7	-0.019324644
212	0x3ddb0829	0.10694916
213	0x3ea11114	0.31458342
214	0xbe25acb0	-0.16179156
215	0x3e2fb92b	0.1716048
216	0x3ea4b564	0.3216964
217	0xbdab3e52	-0.08361496
218	0xbec79626	-0.38981742
219	0xbe92d654	-0.28679144
220	0x3e5a6e2b	0.21331088
221	0xbe8d7b51	-0.27633145
222	0xbdc309cc	-0.09523353
223	0x3e61a460	0.2203536
224	0xbee108a6	-0.4395191
225	0xbeba3779	-0.36370447
226	0x3ed01f49	0.4064887
227	0xbdf20c8b	-0.11818799
228	0xbbcdaf34	-0.0062769894
229	0x3e59ebde	0.21281382
230	0x3dc7f541	0.09763575
231	0x3f02eba2	0.511408
232	0xbe7cb820	-0.24679613
233	0x3e16e99a	0.1473755
234	0xbc933e41	-0.01797402
235	0xbea8d2d4	-0.3297335
236	0x3e571b84	0.2100659
237	0x3db13b30	0.08653867
238	0xbd978bd4	-0.07399717
239	0xbe934ea1	-0.28770927
240	0x3d1c90f9	0.038224194
241	0xbf21d177	-0.63210243
242	0x3e24ae38	0.16082084
243	0xbd873a51	-0.0660292
244	0x3defbac1	0.11705542
245	0x3da77836	0.08177225
246	0xbee486fd	-0.44634238
247	0x3e87acf1	0.2649913
248	0xbd55182c	-0.052025005
249	0xbec9232d	-0.3928465
250	0xbe1dea14	-0.15421325
251	0xbc747f91	-0.014922992
252	0xbe668449	-0.225114
253	0x3e779cbb	0.24180882
254	0x3c6b9226	0.014378106
255	0x3e516e87	0.20452319

bias f4 [128]
0	0x3e43c661	0.19118644
1	0xbdbf57cb	-0.09342917
2	0xbe571bf5	-0.21006759
3	0x3e43cf67	0.19122086
4	0xbe04c0e4	-0.12964207
5	0xbe8a513e	-0.27015108
6	0xbd1ff330	-0.03905028
7	0xbe2f7c19	-0.17137183
8	0xbea164ac	-0.3152212
9	0x3df4c665	0.11951903
10	0x3ed01c34	0.40646517
11	0xbe800ca0	-0.25009632
12	0xbd8449c5	-0.06459383
13	0xbe5abccf	-0.21361087
14	0xbd732380	-0.059360027
15	0x3d883968	0.066515744
16	0x3eb0ad48	0.34507203
17	0x3ca583ee	0.02020451
18	0xbe2628ea	-0.16226545
19	0xbe8a2484	-0.26980984
20	0xbe7bbc6a	-0.24583593
21	0xbe6e4e68	-0.23272097
22	0x3d3b776a	0.04576818
23	0xbdc3c750	-0.095595
24	0xbe8d2788	-0.27569222
25	0xbeb86b96	-0.36019582
26	0xbd65544d	-0.0559886
27	0xbea043b3	-0.3130165
28	0xbed5d3ff	-0.41763303
29	0x3e7d3871	0.24728562
30	0x3d257952	0.040398903
31	0xbd5c9e71	-0.05386204
32	0xbb8ef6aa	-0.0043629007
33	0xbe2577ff	-0.16159056
34	0x3dc515d0	0.09623301
35	0xbe9f8760	-0.3115797
36	0xbd07ac05	-0.033123035
37	0x3e33b398	0.17548978
38	0x3dfff702	0.12498285
39	0x3eb6ffdd	0.35742083
40	0x3d80a139	0.06280751
41	0x3e804cf8	0.25058722
42	0xbdc174b3	-0.09446087
43	0xbd553de1	-0.052060965
44	0xbe1246f6	-0.14284882
45	0x3df657d0	0.12028468
46	0xbebb7401	-0.3661194
47	0xbe596419	-0.2122959
48	0x3e9a56c9	0.30144337
49	0x3e833b6e	0.2563128
50	0x3da3ca02	0.07997514
51	0xbe81cf12	-0.25353295
52	0x3e7c2fa7	0.24627553
53	0xbee24136	-0.44190377
54	0x3e5f1970	0.21787047
55	0x3c762639	0.015023761
56	0xbe488960	-0.19583654
57	0xbd96b64a	-0.07358988
58	0x3ddf248b	0.10895642
59	0xbe991fcd	-0.29907075
60	0xbe269334	-0.16267091
61	0x3e464aa8	0.19364417
62	0xbdec755e	-0.115458235
63	0x3e7a1d7c	0.2442531
64	0x3ebbc337	0.36672375
65	0x3cfcdde9	0.030867534
66	0x3e591f0c	0.2120325
67	0x3e61a970	0.22037292
68	0xbe879272	-0.26478916
69	0xbe14c1d0	-0.14527059
70	0x3d5c19fd	0.05373572
71	0xbc55b3a6	-0.01304332
72	0x3e9ae0d1	0.30249646
73	0x3e4b321f	0.19843338
74	0xbe587316	-0.21137652
75	0x3e8ed91e	0.27900022
76	0xbeaf4b89	-0.34237316
77	0x3d58f7df	0.052970763
78	0x3e199bb4	0.15000802
79	0xbeb75ca5	-0.3581287
80	0xbebfb90f	-0.37445876
81	0xbd617e2f	-0.05505198
82	0xbe65f4a9	-0.22456612
83	0x3d1c8118	0.03820905
84	0x3ecead65	0.40366665
85	0xbebc4249	-0.36769322
86	0xbeaf133e	-0.34194368
87	0x3eb4bea4	0.35301697
88	0xbe402432	-0.18763807
89	0x3da5592c	0.08073649
90	0x3e45f800	0.19332886
91	0x3da3d5ef	0.07999789
92	0xbee46d9f	-0.44614884
93	0x3cd4a8dc	0.025959425
94	0x3ebc3172	0.36756474
95	0x3ed42229	0.41432312
96	0xbe3bd584	-0.18343168
97	0x3e6f2fd0	0.23358083
98	0x3e75e4d7	0.24013077
99	0xbed96143	-0.42457017
100	0xbe7bc795	-0.24587853
101	0x3e4676f2	0.19381312
102	0x3e3bf05a	0.18353406
103	0xbed3e851	-0.4138818
104	0xbe15b556	-0.14619955
105	0xbe37dd7d	-0.17955585
106	0xbdbe364c	-0.092877
107	0x3e7897c5	0.24276645
108	0xbed2291e	-0.41046995
109	0xbea84ce4	-0.32871163
110	0x3d975990	0.073901296
111	0x3e7ea571	0.24867798
112	0x3e15d18f	0.14630722
113	0x3d503b0d	0.050837565
114	0x3e1b1ff4	0.15148908
115	0x3cf2fd7b	0.029661885
116	0xbe0f532e	-0.13996574
117	0xbe556cdf	-0.20842312
118	0xbea08062	-0.31347948
119	0x3e91ce0f	0.28477523
120	0xbdbc0fd0	-0.091827035
121	0xbd521abc	-0.051295027
122	0x3eed6c52	0.46371704
123	0xbe7e7cc0	-0.24852276
124	0x3e8e94ee	0.27848
125	0xbe636fa7	-0.2221056
126	0x3ec0d97a	0.3766592
127	0xbda3fb1d	-0.080068804

weight f4 [128, 128]
0	0x3ac580c5	0.0015068284
1	0xbe6758dd	-0.22592492
2	0xbc5707bc	-0.013124403
3	0xbe073cf7	-0.1320685
4	0x3cc6fb28	0.024289683
5	0xbcdfdcfe	-0.027327057
6	0xbcc38029	-0.023864822
7	0x3d0d7503	0.03453542
8	0x3c13f571	0.009030686
9	0xbd1c8368	-0.038211256
10	0xbe6f7c1e	-0.2338719
11	0xbe33d592	-0.1756194
12	0x3d67ebba	0.05662129
13	0xbe364968	-0.1780144
14	0xbb924d45	-0.0044647777
15	0x3dab04d4	0.0835053
16	0xbb66bb7e	-0.003520697
17	0x3d62718c	0.055284068
18	0x3d8ce679	0.06879897
19	0x3db09881	0.08622838
20	0x3c7bc346	0.015366381
21	0xbc344cd8	-0.011004649
22	0xbd00b448	-0.03142193
23	0xbc2d39d4	-0.010572869
24	0xbe8ca692	-0.27470833
25	0xbd51fd3b	-0.05126689
26	0xbdd89a30	-0.10576284
27	0xbe68e0cb	-0.22742002
28	0xbbc636aa	-0.006048997
29	0x3cc4cb99	0.024022864
30	0x3d1f94f5	0.038960416
31	0xbb6864ec	-0.0035460545
32	0x3d996317	0.07489603
33	0xbb060e8f	-0.0020455455
34	0x3d61c7e6	0.05512228
35	0xbca7ebe9	-0.020498233
36	0xbcd593e6	-0.0260715
37	0xbeb21831	-0.34784082
38	0x3d85f0dc	0.06540081
39	0xbdc98995	-0.09840695
40	0x3cc12e3f	0.023581622
41	0xbb40e4b0	-0.0029433183
42	0xbdedd178	-0.116122186
43	0xbe42c1cd	-0.19019242
44	0xbc9f2220	-0.019425452
45	0x3e184530	0.14870143
46	0xbe9c6f7d	-0.3055381
47	0xbd7388fa	-0.059456803
48	0xbd858e75	-0.06521312
49	0x3bdf0e4d	0.0068071247
50	0xbbfc5151	-0.0077001234
51	0x3d8a7ab1	0.06761683
52	0xbd395814	-0.045250013
53	0xbd28db9a	-0.041225053
54	0x3d934aa4	0.07191971
55	0xbd9eebd8	-0.077598274
56	0x3df907c2	0.12159683
57	0x3d670930	0.056405246
58	0x3d203846	0.039116167
59	0x3d30780a	0.04308323
60	0xbd6865e0	-0.05673778
61	0x3d306d84	0.043073192
62	0xbc85f080	-0.01635003
63	0xbd15d1d9	-0.03657708
64	0x3d6f1d66	0.058377646
65	0xbb87dc00	-0.004146099
66	0xbcf41de6	-0.029799413
67	0xbf5a6421	-0.85309035
68	0xbdb497d6	-0.08818023
69	0xbdfb251a	-0.12262936
70	0xbd72c6c5	-0.059271593
71	0x3c1d9d4f	0.009620025
72	0x3d7c5a5e	0.06160962
73	0x3d0f34ed	0.034962583
74	0xbd3c9fc9	-0.04605082
75	0x3d92f630	0.07175863
76	0xbd61d97e	-0.055139057
77	0xbcc25afa	-0.023725022
78	0xbcf51ba7	-0.029920412
79	0xbdf9e84d	-0.12202511
80	0x3d8d6cd4	0.06905523
81	0x3ce2077c	0.02759146
82	0xbeeb9759	-0.46013907
83	0x3d9edc1b	0.077568255
84	0x3d5f183c	0.05446647
85	0xbf32b2de	-0.6980418
86	0x3d07ea98	0.03318271
87	0xbdd797ed	-0.105270244
88	0x3d510a0e	0.05103498
89	0xbe8b5e2c	-0.27220285
90	0x3ded59e8	0.11589414
91	0x3c3777d6	0.011198005
92	0xbd7e5454	-0.06209214
93	0xbf053bde	-0.52044475
94	0xbcefb48c	-0.029260896
95	0x3d2399b1	0.039941493
96	0xbe732897	-0.23745953
97	0xbe85d224	-0.26136887
98	0xbd0a7c0d	-0.03380971
99	0xbd809832	-0.06279029
100	0x3e2b02f9	0.16700353
101	0x3d64c9cc	0.05585651
102	0xbe28bc31	-0.1647804
103	0xbcfb4dc4	-0.03067673
104	0x3d3bafd1	0.04582197
105	0xbdb780d1	-0.08960117
106	0xbbbc0740	-0.005738169
107	0x3b67d7f5	0.0035376523
108	0xbd23d374	-0.03999658
109	0x3d9199e3	0.0710943
110	0xbcc53340	-0.02407229
111	0xbe91c03f	-0.28466985
112	0xbda905cc	-0.08253059
113	0x3aa418e8	0.001251963
114	0xbd9a04ef	-0.07520472
115	0x3d17fcc8	0.037106305
116	0xbb026dcb	-0.0019901867
117	0x3db0482e	0.08607517
118	0xbb310d6b	-0.0027016054
119	0xbe937994	-0.28803694
120	0x3d949201	0.072544105
121	0x3d7b20e0	0.06131065
122	0x3d5e586e	0.054283552
123	0xbe4a7288	-0.19770253
124	0x3d574f78	0.05256602
125	0xbf129a97	-0.57267135
126	0xbeb2c91c	-0.3491906
127	0x3d9b1231	0.07571829
128	0x3cab6d5d	0.020926172
129	0xbe55d343	-0.20881371
130	0x3d33de70	0.043913305
131	0xbd99417f	-0.074831955
132	0xbbde3a70	-0.0067818686
133	0x3da110d1	0.078645356
134	0x3e00491d	0.1252789
135	0x3b294553	0.0025828674
136	0xbd972315	-0.07379738
137	0xbc6e4be8	-0.014544465
138	0xbe5471e6	-0.20746574
139	0xbe5d5ed9	-0.21618213
140	0x3b5a43ef	0.0033304652
141	0x3db9e776	0.09077351
142	0x3dbda750	0.09260428
143	0x3e5c8702	0.21535876
144	0x3cde0ebe	0.027106639
145	0x3d736684	0.05942394
146	0xbcebe564	-0.028795905
147	0x3e1e3e0f	0.15453361
148	0xbe571af7	-0.2100638
149	0xbd878f64	-0.066191465
150	0xbe3731ea	-0.17890134
151	0x3e8186f7	0.25298283
152	0xbe192a3b	-0.14957516
153	0xbce0456c	-0.027376853
154	0xbea2fcbc	-0.31833446
155	0xbe90979c	-0.2824067
156	0xbe45ee15	-0.19329102
157	0xbdb7a105	-0.08966259
158	0x3df41885	0.11918739
159	0x3e28cffc	0.1648559
160	0x3db99c17	0.09062975
161	0x3d86b6a7	0.06577807
162	0x3d1b7a5a	0.03795848
163	0xbe121083	-0.14264111
164	0xbe027599	-0.12740172
165	0xbdf9aae6	-0.121907994
166	0x3d8a3528	0.0674842
167	0xbe252ec0	-0.16131115
168	0x3d672551	0.056432072
169	0x3da5e21e	0.08099769
170	0xbe095614	-0.13411742
171	0xbe539408	-0.20661938
172	0xbd564696	-0.05231341
173	0x3d8881ac	0.06665358
174	0x3c40f6ed	0.011777622
175	0xbd5c4dc4	-0.0537851
176	0xbd92ce0c	-0.071682066
177	0xbe9a7928	-0.3017056
178	0x3ddc3c08	0.107536376
179	0x3b6c627b	0.003606944
180	0xbdf55d2f	-0.11980664
181	0x3c64d218	0.013966106
182	0x3d4316b8	0.04762909
183	0xbdc721c5	-0.09723238
184	0x3d89a6ad	0.06721244
185	0x3e32c6b2	0.17458609
186	0x3d0ab1dc	0.033861026
187	0x3ca466bc	0.020068519
188	0xbc221a58	-0.009893976
189	0x3dae87d4	0.08522001
190	0x3e238740	0.15969563
191	0xbcac93f1	-0.021066638
192	0x3db8906b	0.090119205
193	0xbddc9065	-0.107697286
194	0x3d509463	0.050922763
195	0xbd8090c2	-0.0627761
196	0xbe72ac06	-0.23698434
197	0xbe09d857	-0.13461433
198	0xbe559a11	-0.20859553
199	0xbdf45e5e	-0.119320616
200	0xbc8e86fe	-0.017398354
201	0x3d445c8b	0.04793982
202	0xbe31a431	-0.1734779
203	0x3dc8668b	0.097851835
204	0x3c3334d0	0.010937884
205	0xbdf375cc	-0.11887702
206	0xbe2dc3a8	-0.16969168
207	0xbe088eec	-0.1333577
208	0xbe09cde5	-0.13457449
209	0xbde03c41	-0.109489925
210	0xbf1c7b7f	-0.6112594
211	0xbcf51486	-0.029917013
212	0x3bede87a	0.0072603794
213	0xbf1c3f84	-0.6103442
214	0x3d8ba7ce	0.068191156
215	0x3da9c7dc	0.08290073
216	0x3d9cc25b	0.07654258
217	0xbdac896d	-0.084246494
218	0xbbe1c0a8	-0.0068894215
219	0xbe002842	-0.12515357
220	0xbd2be344	-0.041964784
221	0xbe5e362e	-0.21700355
222	0xbd341e4e	-0.043974213
223	0xbe0222b7	-0.12708555
224	0xbe9687aa	-0.29400378
225	0xbca364a0	-0.019945443
226	0xbe87f188	-0.2655146
227	0xbdb21772	-0.08695878
228	0x3e5cca3f	0.21561526
229	0x3cb330a0	0.021873772
230	0xbcbb7e32	-0.022887323
231	0xbe8db432	-0.2767654
232	0x3bb5bf53	0.0055464893
233	0xbe33b1a2	-0.1754823
234	0xbd8cbccf	-0.0687195
235	0xbc244500	-0.0100262165
236	0xbc3f7e98	-0.011687897
237	0xbca903d0	-0.0206317
238	0xbe139675	-0.14412864
239	0xbe1c13f8	-0.15241992
240	0xbbff6d60	-0.007795021
241	0xbd9e38ad	-0.07725654
242	0x3dba0edf	0.09084868
243	0x3c89a56a	0.016802508
244	0xbc48333e	-0.012219248
245	0xbe080db3	-0.13286476
246	0x3c391077	0.011295429
247	0xbe607eb6	-0.21923336
248	0x3dd62da9	0.10457928
249	0x3dba9e77	0.09112256
250	0x3cc0592d	0.023480022
251	0xbdfe4f1b	-0.12417432
252	0x3dbb4707	0.09144407
253	0xbe872138	-0.2639253
254	0xbe1d83af	-0.15382265
255	0xbe661c4f	-0.22471736

bias f4 [128]
0	0xbc8389da	-0.016056944
1	0xbd6c7bc4	-0.05773522
2	0xbd8b420e	-0.06799708
3	0xbd47dda8	-0.048795372
4	0x3c418fb9	0.011814051
5	0xbc887d31	-0.016661258
6	0xbb2c524c	-0.002629417
7	0xbce8efe9	-0.02843471
8	0x3cf91ed9	0.030410217
9	0x3cf13785	0.02944542
10	0xbcdb1d23	-0.026747292
11	0xbc8049c1	-0.015660169
12	0x3ddbfaeb	0.10741218
13	0x3d26a749	0.04068688
14	0x3d0cd012	0.03437812
15	0x3d3621a9	0.044465695
16	0x3c908bfe	0.017644878
17	0xbd901f27	-0.07037192
18	0x3d079394	0.033099726
19	0xbb732d28	-0.0037105773
20	0x3d47baa9	0.048761997
21	0xbd345e40	-0.044035196
22	0xbc8f1e02	-0.017470364
23	0x3b1f5f1f	0.0024318171
24	0xbda16438	-0.07880443
25	0xbd172273	-0.036898088
26	0xbdb3e550	-0.08783972
27	0x3d4672a7	0.048449185
28	0xbd653607	-0.055959728
29	0xbc7ebc0c	-0.015547764
30	0xbd55317e	-0.052049153
31	0xbdbc77bd	-0.09202526
32	0xbcf00077	-0.029297097
33	0xbd989d8b	-0.07451924
34	0xbdb5fd80	-0.08886242
35	0xbc7f57ea	-0.015584925
36	0x3cf456a0	0.029826462
37	0xbd204a58	-0.0391334
38	0xbd994305	-0.07483486
39	0xbdbf4dcb	-0.0934101
40	0xbda8c2c2	-0.08240272
41	0x3caec5d3	0.021334564
42	0xbc482242	-0.012215199
43	0x3d77a8a2	0.060463555
44	0xbd9f3c16	-0.07775132
45	0x3db3e441	0.0878377
46	0xbde92891	-0.113846906
47	0xbd2bc850	-0.04193908
48	0xbc6ba2be	-0.0143820625
49	0xbd453ccc	-0.048153684
50	0x3d68cac0	0.056833982
51	0x3d61db4c	0.05514078
52	0xbcb8cc75	-0.02255843
53	0x3d1c608f	0.038178023
54	0x3d489304	0.04896833
55	0xbd01e7bb	-0.031715136
56	0xbcef8e28	-0.02924259
57	0x3d09e5d1	0.033666436
58	0xbcc8f379	-0.02453016
59	0xbc1f07ca	-0.009706447
60	0x3c6ec925	0.014574324
61	0xbdc05e41	-0.093929775
62	0xbd3bedef	-0.045881208
63	0x3c3b7600	0.011441708
64	0xbdbd186a	-0.09233172
65	0xbcda16d3	-0.026622212
66	0xbd805336	-0.06265871
67	0x3da98568	0.08277398
68	0x3da731d6	0.08163802
69	0x3caa1b2b	0.020764908
70	0xbdcaec37	-0.09908336
71	0xbcb9e779	-0.022693383
72	0x3ca9061d	0.020632798
73	0x3bbd91a2	0.005785183
74	0xbcf7317e	-0.030174967
75	0xbd76bf27	-0.06024089
76	0x3c854da7	0.01627238
77	0xbc86e17d	-0.016464943
78	0x3c4ee35b	0.012627448
79	0xbd8b1738	-0.06791538
80	0xbd473e05	-0.04864313
81	0x3c4931de	0.012279956
82	0xbc08ba5a	-0.008345211
83	0x3d4de7a7	0.05026975
84	0xbcb034fd	-0.021509642
85	0x3ca8fbea	0.020627934
86	0xbcc687c6	-0.024234664
87	0x3acb7c4d	0.0015524715
88	0xbc9b8ac1	-0.018987061
89	0xbcf30468	-0.029665187
90	0xbd8583e5	-0.065192975
91	0x3d836675	0.064160265
92	0x3d8fbb62	0.07018162
93	0x3d091513	0.033467364
94	0x3cc5c71f	0.0241428
95	0x3d637acf	0.05553704
96	0xbc08d537	-0.008351616
97	0xbdc7faaa	-0.09764607
98	0xbd17c170	-0.03704971
99	0xbd2245ed	-0.039617468
100	0x3d4a2310	0.049349844
101	0x3d744f00	0.059645653
102	0xbd0677c3	-0.032829057
103	0xbcd2c090	-0.025726587
104	0x3c8e7e2f	0.017394153
105	0xbda08b85	-0.07839111
106	0xbc1e1d4c	-0.00965054
107	0xbcb494da	-0.022043634
108	0xbdb2c491	-0.08728898
109	0x3d0573bd	0.03258108
110	0xbd63c333	-0.05560608
111	0xbda8d168	-0.08243066
112	0xbcf631b7	-0.030053003
113	0x3d11354a	0.03545121
114	0xbdc54f10	-0.096342206
115	0xbbb7ef31	-0.0056132306
116	0x3d9441cf	0.072391145
117	0x3c4519b7	0.012030057
118	0xbd4ce3ff	-0.05002212
119	0x3d275d09	0.04086021
120	0xbd95fa1f	-0.073230974
121	0x3d96b4a6	0.07358675
122	0x3dbf2e04	0.09334949
123	0x3b962377	0.0045818645
124	0xbd6cbf37	-0.057799544
125	0x3d0d6bb3	0.034526538
126	0xbcd93034	-0.026512243
127	0x3c0d3a81	0.008619905

weight f4 [64, 128]
0	0xbe2050e7	-0.15655862
1	0x3c8e0055	0.017334143
2	0xbe251df5	-0.16124709
3	0xbd9bc38e	-0.076056585
4	0xbe6c1c24	-0.2305761
5	0x3dc5e89e	0.09663509
6	0xbc389204	-0.011265282
7	0x3e9c4b31	0.30526116
8	0xbb64205c	-0.0034809327
9	0x3d09ebd0	0.033672154
10	0xbe3b0296	-0.18262705
11	0x3ecaf6bf	0.39641377
12	0x3c77face	0.01513548
13	0x3d50be7d	0.050962914
14	0xbeb8c947	-0.36091062
15	0x3c79c5d8	0.0152449235
16	0xbe8a0507	-0.2695696
17	0xbda8da1b	-0.08244725
18	0xbd9d4c10	-0.076805234
19	0xbd95cd66	-0.07314567
20	0xbd7ff5ca	-0.062490262
21	0x3d73be0f	0.059507426
22	0x3e6d0ded	0.23149844
23	0xbc8cb0de	-0.01717418
24	0xbc1d1c50	-0.00958927
25	0xbd002de2	-0.031293757
26	0x3d41c66a	0.047308363
27	0x3cee366d	0.029078687
28	0xbd0708a6	-0.032967232
29	0xbde5870e	-0.112074
30	0xbcc8f508	-0.024530903
31	0x3d624d00	0.055249214
32	0xbdd19a1c	-0.10234472
33	0x3e08b3d2	0.13349846
34	0xbd96662a	-0.07343705
35	0x3eb2ab18	0.3489616
36	0xbd70790f	-0.0587092
37	0xbd8925a3	-0.06696632
38	0x3d098b16	0.03357991
39	0x3d9c7a36	0.076404974
40	0xbe5b4cb8	-0.21415985
41	0x3dd5f2bc	0.104466885
42	0xbde94286	-0.113896415
43	0x3da0e488	0.07856089
44	0xbbec823b	-0.007217673
45	0xbcb507af	-0.02209839
46	0x3bd20594	0.0064093564
47	0xbd47bd4d	-0.048764516
48	0xbd85def7	-0.06536668
49	0x3d36e07d	0.044647682
50	0x3d4db983	0.050225746
51	0x3c023fed	0.007949811
52	0xbe0ba966	-0.13638839
53	0x3d8f2e3f	0.069912426
54	0xbc8ad549	-0.016947405
55	0x3db9a47c	0.09064576
56	0x3d93038d	0.07178412
57	0x3bf69ce9	0.0075260294
58	0xbe5c950f	-0.21541236
59	0xbd9db69e	-0.07700847
60	0xbd9ecb06	-0.077535674
61	0x3d9c5cb5	0.0763487
62	0x3d51429d	0.051088918
63	0xbd896552	-0.067087784
64	0x3d021d76	0.031766377
65	0xbc9bb9c0	-0.019009471
66	0x3ec0332a	0.37539035
67	0x3d1cab2a	0.038249172
68	0xbdb5ffad	-0.08886657
69	0xbd016124	-0.03158678
70	0xbcc2a5d9	-0.023760723
71	0xbe24064a	-0.16018024
72	0x3e181764	0.14852673
73	0xbe475b1e	-0.19468352
74	0x3d3ec297	0.046572294
75	0xbdaf4552	-0.08558144
76	0x3d92b736	0.07163851
77	0x3ce92bae	0.02846321
78	0xbd57edb6	-0.052716933
79	0x3d1e328a	0.038622417
80	0x3f0297e5	0.5101302
81	0xbe2b1df7	-0.1671065
82	0x3d71cadf	0.059031364
83	0xbe070a6e	-0.13187572
84	0x3e59e07d	0.21277042
85	0xbd2e052b	-0.042485397
86	0x3dc3f384	0.09567931
87	0x3d5865d2	0.05283148
88	0xbe92371b	-0.28557667
89	0x3c71943e	0.014744816
90	0xbcad4c90	-0.021154672
91	0xbe884a39	-0.26619127
92	0x3d07a2f4	0.03311439
93	0xbcee6026	-0.029098582
94	0x3dd5e055	0.104431786
95	0xbe32546a	-0.17415014
96	0x3d4cd230	0.050005138
97	0xbe28aa02	-0.16471103
98	0x3ddde11c	0.10833952
99	0x3e96ab8b	0.29427752
100	0x3d239725	0.039939065
101	0x3d5cb23e	0.053880922
102	0x3cc5304d	0.024070883
103	0x3d0b9100	0.03407383
104	0xbd23e928	-0.040017277
105	0x3d82106f	0.06350791
106	0xbe05dfa6	-0.13073596
107	0x3e1d5889	0.15365805
108	0xbc22bc88	-0.009932645
109	0xbc7b9da8	-0.015357412
110	0xbd6d62cc	-0.05795555
111	0xbd2e728e	-0.042589717
112	0x3e0ea2a8	0.13929236
113	0x3cef4193	0.029206073
114	0x3d8c3f4e	0.06848012
115	0x3eb77810	0.35833788
116	0x3d3cf706	0.046134017
117	0xbd54384e	-0.05181151
118	0x3ea24e57	0.31700394
119	0x3c8e6ffc	0.017387383
120	0x3da9ea07	0.0829659
121	0xbe8a2d8c	-0.26987875
122	0x3e320688	0.17385304
123	0x3d6fd7d7	0.05855545
124	0xbda39c5b	-0.07988807
125	0x3c445244	0.011982504
126	0x3d5682fa	0.052371003
127	0x3bcd1e8f	0.0062597464
128	0x3c980ece	0.018561747
129	0xbd517203	-0.05113412
130	0x3d6fca9f	0.058542844
131	0xbe134892	-0.14383152
132	0xbf476cff	-0.7790069
133	0x3d1e52e5	0.038653273
134	0x3d0cddd0	0.034391224
135	0x3c853d64	0.016264625
136	0xbc13f8dd	-0.009031502
137	0x3d24c6d5	0.040228684
138	0x3d3cb50e	0.046071105
139	0x3eaeedb0	0.34165716
140	0xbdd24dd1	-0.102687486
141	0xbdce1a08	-0.10063559
142	0x3d288a53	0.04114754
143	0xbcb2547b	-0.021768799
144	0x3e1399a3	0.14414077
145	0x3cdc9949	0.02692856
146	0x3cfd3eb4	0.030913688
147	0xbe7c4c9e	-0.24638602
148	0x3d57f0a1	0.052719716
149	0xbe75c06a	-0.23999181
150	0x3de8b9ff	0.11363601
151	0xbd241af3	-0.040064763
152	0x3d06124c	0.032732293
153	0x3c1ca3eb	0.009560565
154	0xbd73f2ee	-0.059557848
155	0x3dd049f4	0.101703554
156	0xbd2e8fc4	-0.042617574
157	0x3cdca928	0.026936129
158	0xbc9557bb	-0.01823031
159	0x3e3d7f44	0.18505579
160	0x3d895360	0.06705356
161	0xbf207cc2	-0.62690365
162	0x3dde4e53	0.10854783
163	0xbe8f7066	-0.2801544
164	0xbd0722ab	-0.032992046
165	0xbf5ccab1	-0.8624678
166	0xbad33067	-0.0016112447
167	0xbdd900e6	-0.105958745
168	0x3ec5beb5	0.3862206
169	0x3db1098e	0.086444005
170	0x3d8d64e3	0.06904008
171	0xbe967c38	-0.29391646
172	0xbd3e1867	-0.04640999
173	0xbe346df4	-0.17620069
174	0x3d789332	0.06068725
175	0x3db692f7	0.0891475
176	0x3daae021	0.083435304
177	0x3d38d3c8	0.045123845
178	0x3cf5204d	0.029922629
179	0xbc038c40	-0.008029044
180	0x3da355e9	0.079753704
181	0xbc875482	-0.016519789
182	0x3e74937b	0.23884384
183	0xbdf22ffa	-0.11825557
184	0xbd36ef33	-0.044661712
185	0xbd7739bf	-0.060357805
186	0xbd17949d	-0.037006963
187	0x3aab37a2	0.0013062845
188	0x3e4895b4	0.19588357
189	0xbdabe06c	-0.083924145
190	0xbbf92144	-0.0076028425
191	0xbdcdcdfc	-0.10049054
192	0x3cfcd8de	0.03086513
193	0xbcf4144c	-0.029794835
194	0x3ef5ce1e	0.48008817
195	0xbcd94cd3	-0.02652589
196	0xbd3f49ee	-0.046701364
197	0x3db0c04c	0.08630428
198	0x3c9cec6c	0.019155703
199	0xbd35a383	-0.04434539
200	0xbe99838b	-0.29983172
201	0x3d0422a3	0.032259595
202	0xbe3edaf3	-0.1863821
203	0xbc631670	-0.01386033
204	0xbd52619b	-0.051362615
205	0x3dc81910	0.09770405
206	0x3da7bdaf	0.08190476
207	0xbd835823	-0.06413295
208	0x3f0cd9ea	0.5502001
209	0x3e7d3f2d	0.24731131
210	0xbd6bdf6a	-0.05758611
211	0xbdabefcb	-0.08395346
212	0xbe902269	-0.28151253
213	0xbf1dcb0c	-0.6163795
214	0xbd069a35	-0.032861907
215	0xbe9b715b	-0.3035992
216	0x3e0a9f1e	0.13537261
217	0xbd81b209	-0.06332786
218	0x3c20b840	0.009809554
219	0x3da368f0	0.079789996
220	0xbd71a992	-0.058999605
221	0x3e3dd725	0.18539102
222	0xbc9b2175	-0.018936852
223	0x3e06cb07	0.13163386
224	0x3db21f48	0.08697373
225	0xbd3cbd20	-0.0460788
226	0xbe97f7c0	-0.29681206
227	0xbd561df8	-0.052274674
228	0x3cb70d4a	0.022345204
229	0xbe37d2f9	-0.17951573
230	0xbcad3717	-0.021144433
231	0xbc020a60	-0.007937044
232	0xbd0214db	-0.03175817
233	0x3d805289	0.06265742
234	0x3d30f36c	0.043200895
235	0xbdb8b515	-0.09018914
236	0xbd888ff6	-0.06668083
237	0xbc735f1a	-0.014854217
238	0x3b309534	0.00269444
239	0xbc358170	-0.011078224
240	0xbe143518	-0.14473379
241	0xbc2222be	-0.0098959785
242	0xbd3ebf46	-0.04656913
243	0x3ee42307	0.44557974
244	0xbd319031	-0.043350402
245	0xbf03cf57	-0.5148825
246	0x3e534fd7	0.20635925
247	0xbe5a6b5f	-0.21330021
248	0x3e06b1b9	0.13153733
249	0xbe37e11a	-0.17956963
250	0xbe92bce6	-0.28659743
251	0x3d6cf78c	0.057853267
252	0x3cf9d6e2	0.030497972
253	0x3d29ed3a	0.041486003
254	0x3d8ddcf1	0.06926907
255	0x3be663d1	0.007030942

bias f4 [64]
0	0xbe1088fa	-0.14114752
1	0x3b24ef2b	0.002516697
2	0x3d6c7aab	0.057734173
3	0xbcd879a7	-0.026425196
4	0xbe315c74	-0.17320424
5	0xbc8e4d38	-0.017370805
6	0xbd5e30a0	-0.05424559
7	0xbcf85f00	-0.030318737
8	0xbdcad787	-0.0990439
9	0xbd0e171f	-0.03469002
10	0xbe0f0156	-0.13965353
11	0xbd213950	-0.039361298
12	0xbe1f28bc	-0.15542883
13	0x3d06bc53	0.032894444
14	0xbdc72faf	-0.09725892
15	0xbcfdfd8f	-0.031004695
16	0x3ca5347d	0.02016663
17	0xbda954cf	-0.08268129
18	0xbd56d244	-0.05244662
19	0x3d9b2bb6	0.075766966
20	0xbc8acf7e	-0.016944643
21	0xbd45d40d	-0.04829793
22	0x3ca1a9b2	0.019734237
23	0x3c80c80c	0.01572039
24	0xbb698f5e	-0.0035638432
25	0x3e0d140a	0.13777176
26	0x3a725cca	0.0009245394
27	0xbdb3b01a	-0.08773823
28	0xbe06cd8a	-0.13164344
29	0xbcb750cc	-0.022377394
30	0xbc71a146	-0.014747923
31	0xbc05a254	-0.008156378
32	0xbe03470f	-0.12820075
33	0xbd89e86e	-0.067337856
34	0xbca1153e	-0.01966345
35	0xbdcb00a8	-0.099122345
36	0x3c7b6dcd	0.015346003
37	0xbe08bb89	-0.13352789
38	0xbdc0c18a	-0.09411915
39	0x3d6fee68	0.05857697
40	0x3d535f7b	0.05160473
41	0xbd17d4cc	-0.037068173
42	0xbd9cdcc1	-0.07659293
43	0xbe014b0d	-0.12626286
44	0xbd4ae310	-0.04953295
45	0xbd60a36b	-0.054843348
46	0xbc8eb8d1	-0.017422112
47	0x3dc504f0	0.096200824
48	0x3dc9466f	0.09827887
49	0xbc43947a	-0.011937255
50	0x3dcccd03	0.100000404
51	0xbcf4a33d	-0.029862994
52	0xbc9e5e83	-0.019332176
53	0x3d98fee1	0.07470489
54	0x3d25329c	0.040331468
55	0xbe14e2c0	-0.14539623
56	0x3ca7c62d	0.02048024
57	0x3db89a99	0.09013862
58	0x3cc0a15a	0.023514438
59	0xbd013d1c	-0.03155242
60	0x3da5f996	0.08104245
61	0xbd4e10e9	-0.050309096
62	0x3d6e3407	0.058155086
63	0xbd1e9882	-0.03871966

weight f4 [2, 64]
0	0x3ed51281	0.4161568
1	0x3e18abdd	0.1490931
2	0xbe7b1c80	-0.2452259
3	0xbe972c9a	-0.29526216
4	0xbe12b473	-0.14326648
5	0x3d5b9eb4	0.053618148
6	0x3e874830	0.26422262
7	0xbd315999	-0.043298338
8	0xbe387cfa	-0.18016425
9	0x3efeb82d	0.4974989
10	0x3f0bcb8e	0.54607475
11	0x3e5dea2f	0.21671365
12	0x3f425620	0.75912666
13	0x3d777819	0.06041727
14	0x3d2c3458	0.042042106
15	0x3de40d9e	0.1113541
16	0xbe3b9804	-0.18319708
17	0x3d0bf223	0.034166466
18	0xbd56af52	-0.052413292
19	0x3d94bc3e	0.07262467
20	0xbdce2ea2	-0.10067488
21	0x3a8a89d5	0.0010569642
22	0x3e1198cb	0.14218442
23	0x3e0e2b3f	0.13883685
24	0xbdc22c11	-0.09481061
25	0x3e7d6e0a	0.24749008
26	0x3c0bc1f9	0.008530133
27	0xbeaa922c	-0.33314645
28	0xbe0d4799	-0.13796844
29	0xbdfab15a	-0.122408584
30	0xbdc1da5b	-0.09465476
31	0x3e31e1a8	0.17371237
32	0xbe04febe	-0.12987801
33	0x3e143d0d	0.14476414
34	0x3d43ebd9	0.047832344
35	0x3d93809e	0.07202266
36	0xbe05cb7a	-0.13065901
37	0xbdafb8ca	-0.085801676
38	0x3db81e15	0.08990113
39	0x3dcb61d9	0.09930772
40	0xbe2d53a0	-0.16926432
41	0xbd52acd5	-0.051434357
42	0x3dcb6801	0.099319465
43	0xbe221cee	-0.15831348
44	0x3dc2c4fa	0.095102265
45	0xbc8508f5	-0.016239623
46	0xbd8fc0f0	-0.07019222
47	0x3db85f12	0.09002508
48	0x3eb905ae	0.36137146
49	0xbcc93aab	-0.024564108
50	0xbea705a5	-0.32621494
51	0x3cfb5c89	0.030683773
52	0xbccd8b4d	-0.025090838
53	0xbe8db7b4	-0.27679217
54	0x3e473565	0.19453962
55	0xbef321b3	-0.47486648
56	0x3df6389f	0.12022518
57	0x3d52abdb	0.051433425
58	0x3ec221b0	0.37916327
59	0xbd2fc78c	-0.042914912
60	0x3e9f0870	0.31061125
61	0x3e05bd5d	0.13060518
62	0x3eec5716	0.4616019
63	0xbd6612a7	-0.056170132
64	0xbede351e	-0.433999
65	0xbe41017a	-0.1884822
66	0x3e42a4b5	0.19008143
67	0x3e5332f3	0.20624904
68	0x3ea38221	0.31935218
69	0xbde917f3	-0.11381521
70	0xbdc2f6ae	-0.09519707
71	0x3da9f54f	0.08298742
72	0x3db57d85	0.088618316
73	0xbf309253	-0.68973273
74	0xbece4277	-0.40285084
75	0xbd7c5b82	-0.061610706
76	0xbf5a4aab	-0.85270184
77	0xbe86ad8e	-0.26304287
78	0x3ba15629	0.004923601
79	0xbe02a054	-0.12756473
80	0x3d4613d1	0.048358742
81	0xbe348b23	-0.17631201
82	0xbd99bc7b	-0.07506653
83	0xbd9f46be	-0.07777165
84	0x3d843309	0.06455047
85	0xbd802b84	-0.062583
86	0xbdfa1eaa	-0.1221288
87	0xbea47f30	-0.32128286
88	0x3e0999b8	0.13437545
89	0xbda28ed1	-0.07937396
90	0x3c0d8d00	0.008639574
91	0x3e7db1a5	0.24774797
92	0x3e416025	0.18884332
93	0xbdb5f297	-0.08884161
94	0x3d706ddd	0.058698524
95	0xbe2ffca5	-0.1718622
96	0x3e765837	0.24057089
97	0xbd9b28fc	-0.075761765
98	0xbddc4879	-0.107560106
99	0x3d9399ef	0.07207095
100	0xbbd101b9	-0.006378379
101	0x3db85fe0	0.09002662
102	0xbd895934	-0.06706467
103	0xbd0e0a35	-0.034677703
104	0x3c8686c1	0.016421678
105	0xbc0f4746	-0.00874502
106	0xbdacf0d4	-0.08444372
107	0x3ded2953	0.115801476
108	0xbe0d42f3	-0.1379507
109	0xbe27d9dc	-0.163917
110	0x3ce7adcb	0.028281113
111	0xbe57c252	-0.21070221
112	0xbe257bfa	-0.16160575
113	0xbe22b43b	-0.15889065
114	0x3e9c7b78	0.3056295
115	0x3aa18d7d	0.0012325492
116	0xbc8293f4	-0.01593969
117	0x3e2ccbe0	0.16874647
118	0xbda8f230	-0.082493186
119	0x3eebc449	0.4604819
120	0xbd6392fa	-0.05556009
121	0xbe83c5dc	-0.25736892
122	0xbe6350db	-0.22198813
123	0x3cb04c26	0.021520685
124	0xbe2fd735	-0.17171939
125	0xbe1a46e5	-0.15066107
126	0xbeda0dc5	-0.4258863
127	0xbdd2e188	-0.10296923

bias f4 [2]
0	0xbb42b152	-0.0029707742
1	0x3ddb941b	0.10721608
