models/mountaincar_2D/checkpoint_att.11.pth.tar (torch_old, 105542 bytes, 8 tensors)

weight f4 [128, 5]
000000 74 aa 1c bf 30 a3 94 be 72 fe 38 3b 34 64 96 3e
       -0.6119759 -0.29030752 0.0028227833 0.29373324
000010 eb 87 4a be f0 a9 97 bb 4f 1d 9a 3e 38 52 86 3e
       -0.19778411 -0.0046284124 0.30100486 0.26234603
000020 c4 1c cd 3e b6 1e 62 bd de 51 72 be 1d ac 74 3e
       0.4006101 -0.05520507 -0.23664042 0.23893781
000030 f5 6d 86 3e 0c d9 a9 be df 74 79 3e 38 20 22 bf
       0.26255766 -0.33173406 0.24360989 -0.6333041
000040 87 29 d1 be 3b d0 4b 3e 86 9f 45 3e 4e 69 78 be
       -0.40851995 0.19903652 0.19299135 -0.2425892
000050 d6 f0 a7 be 80 e4 68 bd d8 45 db be 76 8a 81 be
       -0.3280093 -0.05685854 -0.42826724 -0.2530095
000060 ee 66 48 be 92 f2 f7 3e 3d 65 a7 3e 8c 15 e6 be
       -0.19570515 0.48427254 0.32694426 -0.44938314
000070 00 8c 27 bd 06 4f fa 3d b8 1e a1 3d 62 8f ce 3e
       -0.040905 0.12222104 0.07867187 0.40343767
000080 8b ca 93 3d ae 50 e8 be c7 05 23 be b5 66 82 3d
       0.072163664 -0.45374054 -0.15920173 0.06367246
000090 e0 67 4e 3d aa 99 ed 3d f6 37 0e be 99 38 f0 3d
       0.05039203 0.11601575 -0.13888535 0.11729545
0000a0 24 5e aa 3e 05 58 3c be ff 65 ad 3e 40 c7 6b bc
       0.3327495 -0.18392952 0.3386688 -0.014390767
0000b0 78 f0 b8 bd 96 8c fe 3e 7b f5 a0 3d 2f cd 63 be
       -0.09030241 0.49716634 0.07859322 -0.2224624
0000c0 d0 6a b2 3e 49 16 d9 bd cb 9a 33 3c fe 91 21 bf
       0.34847116 -0.10599954 0.0109621985 -0.6311339
0000d0 63 09 0c 3c 1b c6 f3 3d 07 6b 6e bd 4b 9b 0b be
       0.00854716 0.1190302 -0.058207538 -0.13633458
0000e0 9d 21 06 3e e8 cd 24 bd 3d a7 d1 3e 10 dc f2 bc
       0.1309876 -0.04023543 0.40947905 -0.02964595
0000f0 ef 2b 1b bd 12 5a af be 7f f6 d0 be 04 1c b1 be
       -0.037883695 -0.34248406 -0.40813062 -0.34591687
000100 96 0d a7 3e b2 ef 23 3e 84 83 ec 3e a8 54 d2 be
       0.32627553 0.16009405 0.46194088 -0.41080213
000110 f0 da 00 be 26 56 3e be a5 20 c9 bd a5 23 64 bd
       -0.12583518 -0.1858755 -0.098206796 -0.055698056
000120 6a 6b 8e be b8 bd 8c 3e 59 d4 18 3e b1 59 e9 be
       -0.27816325 0.27488494 0.14924754 -0.45576242
000130 4f 9c ee 3e df 80 99 3d 2c 42 d9 bd c9 c8 d1 3d
       0.4660363 0.07495283 -0.106083244 0.10243375
000140 59 d6 c9 be e4 d4 8e 3e a4 f9 b2 be f3 53 f5 bd
       -0.39421347 0.27896798 -0.34956086 -0.11978903
000150 e0 f1 59 3e e9 94 6e 3e d2 2d 0f be 5a 5f 0f 3d
       0.21283674 0.23298992 -0.13982323 0.035003044
000160 1b e6 de be d4 99 3b 3d 9a 8a 3d be 1a 42 e0 be
       -0.43534932 0.045801 -0.18509904 -0.4380043
000170 b2 c6 71 be 1a 36 c0 be 94 6b 4b be c1 68 58 3e
       -0.23610952 -0.37541276 -0.19865257 0.2113371
000180 57 bc 87 3e fd 5a e8 3d 7a cd dc 3d f0 9e 28 3e
       0.2651088 0.1134548 0.10781379 0.1646688
000190 c3 45 44 be 91 1b 15 3e 7d 8b 67 3e d4 c6 a1 bd
       -0.19167237 0.14561297 0.22611804 -0.078992516
0001a0 2a 91 89 be 23 7c 7f be 32 73 88 be 80 52 b3 bb
       -0.26868564 -0.24949698 -0.26650387 -0.0054724813
0001b0 8a 8b 26 be 24 f1 37 3e 3b 25 2f 3d b5 bd 66 be
       -0.16264167 0.17963082 0.042760115 -0.22533305
0001c0 16 b9 72 3d 54 56 03 3e f8 38 b7 be d2 9c f0 3d
       0.059258543 0.128259 -0.3578565 0.11748661
0001d0 65 8c d7 3e 27 28 16 3d c5 da b9 bd 68 3e ef bd
       0.420993 0.036659386 -0.0907493 -0.11681825
0001e0 7c 74 b1 3d 92 41 b0 be 51 bb e5 3e e7 e0 e4 3e
       0.08664796 -0.34425026 0.44869474 0.44702837
0001f0 00 54 13 3c b8 a4 90 3d fa f7 82 3e 2c 49 64 be
       0.008992195 0.070626676 0.25579816 -0.22293538
000200 b7 cd b1 be 3d 51 4e be 52 96 c2 be de c8 3e 3e
       -0.3472726 -0.20148177 -0.3800531 0.18631312
000210 fb 88 af 3d b5 7a 07 3e 1e 7b 11 be d9 94 ff 3e
       0.08571049 0.13230403 -0.14207122 0.4991825
000220 db 36 22 3e 5c 7d 33 3e 00 5b 05 3c 09 b1 24 be
       0.15841238 0.1752829 0.008139372 -0.16083159
000230 2a eb 8a be 2c 05 f2 3e 02 17 b3 3e 04 ba 6a 3d
       -0.2713254 0.4726957 0.3497849 0.057306305
000240 4c d7 df bd 18 0f c2 3d fe 44 5c be 78 14 20 be
       -0.109297365 0.09475535 -0.21510693 -0.15632808
000250 ac ed 4b be ae f6 2f be d1 cc 4b be ce 43 63 3e
       -0.19914883 -0.17183945 -0.1990235 0.22193834
000260 11 b9 c6 bd c3 1d a0 3c 6f 84 9e 3d 7a f4 a9 3d
       -0.09703267 0.019545441 0.077401035 0.08298583
000270 37 96 a5 3e 6d 56 e2 bc 3f 2b a7 be fe 88 d9 bd
       0.32341167 -0.027629102 -0.32650182 -0.10621832
000280 9b fb c2 3e 0d 08 ab bd 6a 9f 0c 3e d2 ee a7 be
       0.38082585 -0.08351145 0.13732687 -0.32799393
000290 23 e3 9f 3d 60 13 73 be a7 69 fd 3e 98 1b 9a 3e
       0.07806995 -0.2373786 0.4949467 0.30099177
0002a0 47 9f ad 3e 44 98 81 3e 20 0a eb bc 6f ea 83 be
       0.3391058 0.25311482 -0.028691351 -0.25764796
0002b0 12 1c b1 be 6a 85 6f be 7a aa 30 be d6 7a e8 3e
       -0.34591728 -0.23390737 -0.17252532 0.45406216
0002c0 d9 f7 65 be c5 30 88 3c cd 56 a9 3e d0 c5 8a bd
       -0.22457828 0.016624818 0.33074036 -0.06776011
0002d0 55 d9 06 3e 2e 65 dd be 75 02 ba be a6 44 34 3e
       0.13168843 -0.43241256 -0.3633 0.17604312
0002e0 bd 6e a1 3e 05 8b 94 be 9b 08 95 be 7e b2 fe 3d
       0.315298 -0.29012313 -0.29108128 0.124363884
0002f0 43 a9 d9 be 91 d6 15 3e 9f 7f a8 3e 93 8d 5c 3d
       -0.4251195 0.14632632 0.32909867 0.053845953
000300 91 df 5d be 8f ae 17 be 1c 9a 0c 3e e8 2b 3a be
       -0.21667315 -0.14812683 0.13730663 -0.18180811
000310 73 f3 02 bf c9 ea ef 3c 75 e9 36 3e 2e 23 13 3e
       -0.51152724 0.029286759 0.17862494 0.14368889
000320 f4 09 96 bd 49 7a a8 3e 0b ec 4e be 12 66 d5 bd
       -0.07326117 0.32905796 -0.20207231 -0.10419859
000330 b3 10 ee 3d 4c e1 a8 3d 3f 84 f2 be 00 45 28 3e
       0.11624279 0.08246097 -0.4736652 0.16432571
000340 e5 27 af be 8a f5 82 3e 2e ce 59 be c0 ad 81 bb
       -0.34210125 0.25577956 -0.21270058 -0.00395748
000350 09 d5 cb 3d 05 f3 ad 3e b0 ac 25 be c3 bf 2e 3e
       0.099527426 0.33974472 -0.16179156 0.17065339
000360 36 2f a6 3e 03 a3 b0 bd 26 96 c7 be 2a 70 8c be
       0.32457894 -0.08624842 -0.38981742 -0.27429324
000370 76 40 62 3e 8a ea 8d be cc 09 c3 bd 1a 83 58 3e
       0.22094902 -0.27718002 -0.09523353 0.21143761
000380 a6 08 e1 be 41 af b1 be a8 18 cc 3e 21 0d f1 bd
       -0.4395191 -0.3470402 0.3986256 -0.11770082
000390 1a 29 89 bb 30 f7 65 3e 46 b1 dc 3d 96 cb 03 3f
       -0.004185808 0.22457576 0.10776 0.5148252
0003a0 20 b8 7c be 5c 2c 15 3e 31 6f 0b bc d4 d2 a8 be
       -0.24679613 0.14567703 -0.008510397 -0.3297335
0003b0 84 1b 57 3e 30 3b b1 3d d4 8b 97 bd a1 4e 93 be
       0.2100659 0.08653867 -0.07399717 -0.28770927
0003c0 e9 3a 3c 3d 89 a8 1b bf 6c cb 32 3e 28 c1 a6 bd
       0.04595462 -0.6080404 0.17460412 -0.081423104
0003d0 d2 3b f7 3d c5 34 bf 3d ea 61 d6 be 54 57 94 3e
       0.12071957 0.09336237 -0.41871578 0.28972876
0003e0 7e b6 9a bd 2d 23 c9 be 42 fd 04 be bd bb 13 bc
       -0.07554339 -0.3928465 -0.12987235 -0.009016928
0003f0 49 84 66 be 0c 07 89 3e 49 03 d6 3c 87 6e 51 3e
       -0.225114 0.2676319 0.026124613 0.20452319

bias f4 [128]
000000 24 b0 4c 3e ad e0 ae bd 11 81 4e be 2a e9 38 3e
       0.19989067 -0.08538947 -0.20166422 0.18057695
000010 e4 c0 04 be aa 89 8a be f3 2a b5 bc 47 90 1b be
       -0.12964207 -0.27058154 -0.022115206 -0.15191756
000020 da b3 a0 be 3f 80 01 3e 01 f6 cd 3e 1d d1 74 be
       -0.31387216 0.12646578 0.4022675 -0.23907895
000030 96 14 8f bd 99 9b 4b be 37 38 82 bd 52 22 8d 3d
       -0.06986348 -0.19883575 -0.063583784 0.06891312
000040 9a 09 b4 3e c6 89 ce 3c ea 28 26 be ee 5c 88 be
       0.35163575 0.02521218 -0.16226545 -0.266334
000050 1d c1 6c be 68 4e 6e be 73 12 7e 3d fe 9d b2 bd
       -0.23120542 -0.23272097 0.062029313 -0.08721541
000060 11 97 8b be 96 6b b8 be 74 d8 80 bd e2 b7 9d be
       -0.27263692 -0.36019582 -0.06291285 -0.30804354
000070 8c 6e d5 be 62 f1 79 3e 29 a1 5e 3d 56 ec 23 bd
       -0.41685903 0.24408486 0.054352913 -0.04002031
000080 eb 39 00 3d 6e f0 15 be d0 15 c5 3d f5 53 aa be
       0.031305235 -0.14642498 0.09623301 -0.3326718
000090 93 d7 13 bd 40 00 2a 3e c0 c7 17 3e 0b 59 b8 3e
       -0.03609426 0.16601658 0.14822292 0.36005434
0000a0 bb 58 b8 3d 81 41 88 3e 72 d6 b0 bd f2 f4 31 bd
       0.09001299 0.26612476 -0.08634652 -0.04344649
0000b0 3a 68 1b be 6c c8 05 3e 9a 6b b8 be 19 64 59 be
       -0.15176478 0.13064736 -0.36019593 -0.2122959
0000c0 b7 b1 9f 3e 03 5e 8a 3e 89 4b d9 3d 12 cf 81 be
       0.31190273 0.2702485 0.1061011 -0.25353295
0000d0 c7 97 80 3e 36 41 e2 be 93 52 6e 3e ea c1 67 3c
       0.25115797 -0.44190377 0.23273687 0.014145354
0000e0 3e 36 4e be 9d ee 8a bd 6e cd ed 3d cd 1f 99 be
       -0.20137879 -0.06783793 0.11611448 -0.29907075
0000f0 34 93 26 be 3e 41 56 3e d6 9d ec bd 80 2c 7a 3e
       -0.16267091 0.20923325 -0.11553542 0.24431038
000100 f0 2d be 3e 4e bc bd 3c 68 b2 54 3e 41 0f 5e 3e
       0.37144423 0.02316108 0.20771182 0.21685506
000110 cc a8 88 be 17 7a 1f be 55 51 47 3d ca eb 33 bc
       -0.26691282 -0.15573917 0.04866155 -0.010981509
000120 0e 04 99 3e fe 27 46 3e 77 a9 45 be 53 19 89 3e
       0.29885906 0.19351193 -0.19302927 0.26777133
000130 89 4b af be 0b 8a 10 3c 0a 30 3b 3e b8 76 b4 be
       -0.34237316 0.0088219745 0.18280044 -0.35246825
000140 cf 34 bd be b4 cf 5f bd f5 cb 50 be 18 81 1c 3d
       -0.36954352 -0.05464144 -0.20390303 0.03820905
000150 23 e6 cb 3e ec de bc be 3e 13 af be 40 41 b7 3e
       0.39824018 -0.36888826 -0.34194368 0.3579197
000160 32 24 40 be c7 b9 a1 3d 05 7a 64 3e a2 72 9a 3d
       -0.18763807 0.07896762 0.22312172 0.07541396
000170 9f 6d e4 be 67 5d bb 3c 8e 45 bc 3e 45 be db 3e
       -0.44614884 0.022871686 0.36771816 0.42918602
000180 cf 86 44 be 55 2b 70 3e 28 f2 75 3e 43 61 d9 be
       -0.1919205 0.2345403 0.24018157 -0.42457017
000190 d5 7d 74 be 9a 7c 5a 3e 18 a6 2f 3e 57 fc d4 be
       -0.23876126 0.21336594 0.17153203 -0.4159877
0001a0 3f 43 12 be db 3a 36 be 4c 36 be bd 2e 58 7c 3e
       -0.14283465 -0.17795889 -0.092877 0.24643013
0001b0 1e 29 d2 be e4 4c a8 be 39 d9 a2 3d 5b 8d 80 3e
       -0.41046995 -0.32871163 0.07951588 0.25107846
0001c0 88 b9 0b 3e c8 cb 5b 3d 2c 18 23 3e 86 fb 09 3d
       0.13644993 0.053661138 0.1592719 0.033687137
0001d0 26 7d 04 be b6 b8 55 be 3c 27 9d be 81 c5 8d 3e
       -0.12938365 -0.20871243 -0.30693996 0.27689746
0001e0 3f ce c2 bd 92 6b f1 bc bb fa e9 3e 4e b4 7d be
       -0.095119946 -0.029470239 0.45699105 -0.24775812
0001f0 24 31 97 3e 81 5d 5e be 44 ab bc 3e 82 2b 96 bd
       0.2952968 -0.21715356 0.36849415 -0.07332517

weight f4 [128, 128]
000000 c5 80 c5 3a b9 7b 49 be 88 4f e6 3c f7 3c 07 be
       0.0015068284 -0.19676103 0.028114095 -0.1320685
000010 28 fb c6 3c 09 7d a8 bc 9c 4e d6 bc 4e a8 f6 3c
       0.024289683 -0.020567434 -0.02616053 0.03010955
000020 71 f5 13 3c 33 b4 03 bd ae 0e 3f be 92 d5 33 be
       0.009030686 -0.032154273 -0.18657944 -0.1756194
000030 c9 b2 a2 3d c5 85 18 be 36 2f 7a 3c b7 ae ce 3d
       0.07944257 -0.14894779 0.015270045 0.10091918
000040 74 05 5b 3c f5 c0 8f 3d 79 e6 8c 3d f2 ec c1 3d
       0.013367999 0.070192255 0.06879897 0.09469022
000050 46 c3 7b 3c d8 4c 34 bc 48 b4 00 bd b1 bd a2 bc
       0.015366381 -0.011004649 -0.03142193 -0.019865843
000060 92 a6 8c be 3b fd 51 bd 30 9a d8 bd 1f df 18 be
       -0.27470833 -0.05126689 -0.10576284 -0.14928864
000070 aa 36 c6 bb 0c c9 74 3d ce ce 6e 3d 9a c1 d3 bb
       -0.006048997 0.059762046 0.058302693 -0.006462288
000080 2c 44 b3 3d 84 3f 40 3c e6 c7 61 3d e9 eb a7 bc
       0.08753237 0.011733893 0.05512228 -0.020498233
000090 ab cc 29 bc 90 be 93 be c7 96 9d 3d 95 68 97 bd
       -0.010363738 -0.28856325 0.07694774 -0.07392994
0000a0 59 d2 1e 3d 88 f7 72 3c 78 d1 ed bd b0 91 2c be
       0.038774822 0.014829524 -0.116122186 -0.1685245
0000b0 20 22 9f bc ed 99 28 3e ca e5 79 be fa 88 73 bd
       -0.019425452 0.16464968 -0.24404064 -0.059456803
0000c0 82 e7 2e bd 4d 0e df 3b 8e 61 35 3c b1 7a 8a 3d
       -0.04270125 0.0068071247 0.011070622 0.06761683
0000d0 ff d8 1d bd 9a db 28 bd 13 ba 8e 3d d8 eb 9e bd
       -0.03853702 -0.041225053 0.069690846 -0.077598274
0000e0 7b 02 04 3e a5 ad 88 3d 7e 19 7e 3d 0a 78 30 3d
       0.12891571 0.06673745 0.06203603 0.04308323
0000f0 e0 65 68 bd 4a 09 7d 3d 44 a4 3b bc ea 5a 53 bc
       -0.05673778 0.061776437 -0.011452738 -0.012900094
000100 6f cf 9c 3d 00 dc 87 bb bc 2e 79 bb f2 91 57 bf
       0.07656752 -0.004146099 -0.003802224 -0.8420707
000110 d6 97 b4 bd 1a 25 fb bd c1 b6 2a bd 4f 9d 1d 3c
       -0.08818023 -0.12262936 -0.041678194 0.009620025
000120 e2 e0 ac 3d 80 c3 6a 3d c9 9f 3c bd c7 5d c6 3d
       0.084413305 0.05731535 -0.04605082 0.09685855
000130 7e d9 61 bd fa 5a c2 bc a7 1b f5 bc 4d e8 f9 bd
       -0.055139057 -0.023725022 -0.029920412 -0.12202511
000140 62 81 9b 3d 68 b6 e2 3c 59 97 eb be 1b dc 9e 3d
       0.07593037 0.027674869 -0.46013907 0.077568255
000150 c0 12 99 3d c3 9f 21 bf 98 ea 07 3d 92 1d b1 bd
       0.074742794 -0.631344 0.03318271 -0.08648218
000160 0e 0a 51 3d 93 59 5f be e8 39 01 3e 02 7f 0f 3d
       0.05103498 -0.21811514 0.12619746 0.035033233
000170 54 54 7e bd 6a 15 03 bf bb d5 77 bb b6 a0 80 3d
       -0.06209214 -0.5120455 -0.0037816602 0.06280653
000180 97 28 73 be cb 93 4e be c8 11 c7 bc 32 98 80 bd
       -0.23745953 -0.20173566 -0.024300471 -0.06279029
000190 45 e2 24 3e 93 34 8c 3d 01 41 10 be c4 4d fb bc
       0.1610194 0.06845965 -0.14087297 -0.03067673
0001a0 21 6f 5a 3d 31 1f b8 bd 40 07 bc bb 18 9f b0 3c
       0.053328637 -0.08990324 -0.005738169 0.021560237
0001b0 74 d3 23 bd e3 99 91 3d f5 41 14 bd 21 a7 81 be
       -0.03999658 0.0710943 -0.036195714 -0.25322822
0001c0 91 77 4b bd e8 18 a4 3a 42 94 64 bd 39 aa 36 3d
       -0.049674574 0.001251963 -0.055805452 0.04459593
0001d0 d9 43 cb 3c db 0b ab 3d 1f 08 16 3c 2a 1e 6d be
       0.024812626 0.083518706 0.00915721 -0.23156038
0001e0 02 97 b4 3d 45 03 95 3d bc f4 99 3d 88 72 4a be
       0.08817865 0.07276014 0.075173825 -0.19770253
0001f0 11 5a 8e 3d fc b1 10 bf a1 8b 94 be 8e 3a 15 3d
       0.069507726 -0.5652158 -0.29012778 0.036432795
000200 a7 9a 48 3d 15 35 1e be ad 69 32 3d 32 7f f5 bc
       0.048975613 -0.15449937 0.04355781 -0.029967878
000210 70 3a de bb 64 eb 99 3d 99 6b d2 3d 80 b2 2b 3c
       -0.0067818686 0.075156 0.10274429 0.010479569
000220 15 23 97 bd dc 46 61 bc 6d 77 31 be c7 02 1c be
       -0.07379738 -0.013749804 -0.17330714 -0.15235434
000230 8e b2 90 3b 62 ea 12 3e 39 2c 90 3d ca f1 4f 3e
       0.0044158166 0.14347222 0.07039685 0.20307079
000240 1d e4 be 3c df 7c 86 3d 64 e5 eb bc 37 7d 1c 3e
       0.023302132 0.06566786 -0.028795905 0.1528214
000250 7f b6 33 be 64 8f 87 bd c4 0a eb bd 7c 3c 6d 3e
       -0.17550085 -0.066191465 -0.11476663 0.23167604
000260 3b 2a 19 be 6c 45 e0 bc 8d 19 85 be 04 03 6b be
       -0.14957516 -0.027376853 -0.25996056 -0.22950369
000270 b2 0b 20 be e4 d4 7e bd ca 58 f0 3d 91 09 12 3e
       -0.15629461 -0.062214747 0.11735685 0.14261462
000280 f7 d5 c2 3d da c2 77 3d 5a 7a 1b 3d 3e 54 a7 bd
       0.09513467 0.06048856 0.03795848 -0.08170365
000290 2c bc fd bd 03 b9 e6 bd a8 4b 84 3d a2 a2 1d be
       -0.123894066 -0.11265757 0.06459743 -0.1539407
0002a0 a6 75 57 3d aa cf ac 3d 48 46 90 bd ed 47 2c be
       0.052602433 0.08438046 -0.07044655 -0.16824313
0002b0 96 46 56 bd 31 68 7b 3d 01 11 af 3d c4 4d 5c bd
       -0.05231341 0.06137866 0.08548165 -0.0537851
0002c0 cc 0e 7a bd 93 4e 88 be 6b 51 e1 3d 7b 62 6c 3b
       -0.061049268 -0.26622447 0.11001857 0.003606944
0002d0 cb 72 b1 bd 18 d2 64 3c 6f 94 59 3d b1 2e 00 bd
       -0.08664473 0.013966106 0.053120073 -0.03129453
0002e0 8e ab 90 3d a5 09 2a 3e 8e ad 97 3c bc 66 a4 3c
       0.070639715 0.16605242 0.018515375 0.020068519
0002f0 58 1a 22 bc 89 72 98 3d 28 1e 23 3e e7 ee 66 bc
       -0.009893976 0.07443721 0.15929472 -0.014095045
000300 a4 fc b8 3d 95 d9 d1 bd 54 28 5e 3d c5 95 75 bd
       0.090325624 -0.102465786 0.05423768 -0.059957284
000310 97 7c 1d be 71 f9 0d be 43 ca ec bd 5e 5e f4 bd
       -0.15379559 -0.13864686 -0.11562016 -0.119320616
000320 90 11 b4 bc cc 76 4b 3d 31 2d fb bd 66 7a c5 3d
       -0.02198103 0.04967384 -0.12264479 0.09642486
000330 d0 34 33 3c cc 75 f3 bd 57 21 1e be d0 df 0c be
       0.010937884 -0.11887702 -0.15442406 -0.13757253
000340 be d0 cc bd 67 0b af bd 8a 2e 12 bf 86 14 f5 bc
       -0.10000752 -0.08547097 -0.5710226 -0.029917013
000350 66 33 b0 3a e7 b0 0c bf ce a7 8b 3d 1d a1 a8 3d
       0.0013443052 -0.5495743 0.068191156 0.08233855
000360 5b c2 9c 3d 9d 9e 91 bd 68 63 00 bc f4 70 f9 bd
       0.07654258 -0.07110331 -0.0078362 -0.12179747
000370 44 e3 2b bd 4d a9 2e be fb dd 2d bd e0 1c e4 bd
       -0.041964784 -0.1705677 -0.042448025 -0.1113832
000380 aa 87 96 be 1b 83 0e 3c 0f 70 67 be 72 17 b2 bd
       -0.29400378 0.00869825 -0.2260134 -0.08695878
000390 76 a9 4b 3e 80 b5 95 3c 9b f3 be bc d5 3e 65 be
       0.19888863 0.018275023 -0.02330952 -0.2238725
0003a0 e9 5e 31 3c 2d 18 21 be cf bc 8c bd a6 bc 47 bc
       0.010825851 -0.15731879 -0.0687195 -0.012190973
0003b0 98 7e 3f bc d0 03 a9 bc 0d 50 1e be 23 b0 10 be
       -0.011687897 -0.0206317 -0.15460224 -0.14129691
0003c0 25 7c 2a bd 0b 30 74 bc 09 59 b1 3d b0 d3 52 3c
       -0.0416223 -0.014904032 0.0865956 0.012867853
0003d0 16 7f 64 3c 80 f7 f1 bd 56 99 4a 3c 03 59 54 be
       0.013946315 -0.11814785 0.01236566 -0.2073708
0003e0 5c 26 be 3d 84 d4 b7 3d 48 c1 b3 3c 1b 4f fe bd
       0.0928466 0.08976081 0.02194275 -0.12417432
0003f0 81 70 b6 3d 6d 91 98 be f2 30 11 be d9 47 48 be
       0.08908177 -0.2979845 -0.14178827 -0.19558658

bias f4 [128]
000000 b6 c1 1d bb 1f 3c 6c bd 03 ea 88 bd 78 38 36 bd
       -0.002407176 -0.057674523 -0.06685259 -0.044487447
000010 30 ba ce 3b 14 cb a7 bc 7f 43 55 bb d7 4e e5 bc
       0.0063088164 -0.020482577 -0.0032541452 -0.027991695
000020 02 74 cd 3c 11 b1 15 3d 36 69 e6 bc 2f ea 4e bb
       0.02507973 0.036545817 -0.02812634 -0.003157269
000030 af 94 c8 3d 07 0d 43 3d 79 14 07 3d e8 13 43 3d
       0.09793984 0.047619846 0.03297851 0.047626406
000040 2c 53 7d 3c 86 6e 7a bd 94 93 07 3d 84 a4 fb bb
       0.015461724 -0.06114056 0.033099726 -0.007679524
000050 f9 23 50 3d 01 47 12 bd 16 84 f2 ba b4 58 62 3c
       0.050815556 -0.035712246 -0.00185025 0.013815094
000060 38 64 a1 bd 7f c9 10 bd 50 e5 b3 bd 97 84 55 3d
       -0.07880443 -0.03534841 -0.08783972 0.0521284
000070 07 36 65 bd 99 c8 01 bc 4f d7 5b bd 95 51 b5 bd
       -0.055959728 -0.007921361 -0.05367213 -0.08853451
000080 cc 07 c6 bc 41 11 82 bd 60 24 c1 bd ae a8 5c bb
       -0.02417364 -0.06350947 -0.09430766 -0.0033669877
000090 a0 56 f4 3c 1a 5a 0e bd e5 a7 93 bd 77 c2 5c bd
       0.029826462 -0.034753896 -0.07209758 -0.053896394
0000a0 52 7b 81 bd c7 92 23 3d cf f1 93 bc 92 d1 73 3d
       -0.063223496 0.0399349 -0.01805964 0.059526034
0000b0 d7 c2 9a bd 6c 3d ae 3d 96 42 da bd a8 2c 27 bd
       -0.07556694 0.08507809 -0.106572315 -0.040814072
0000c0 ac cd 7a bc f3 ba 1d bd c0 ca 68 3d 50 c9 86 3d
       -0.015307825 -0.038508367 0.056833982 0.06581366
0000d0 13 7f f7 bc bd ba 24 3d 06 ce 29 3d a3 76 05 bd
       -0.03021196 0.04021715 0.041456245 -0.032583844
0000e0 fb b1 a5 bc 17 9f f2 3c ce ad 0c bd 3f 00 a6 bb
       -0.02022647 0.029616876 -0.03434544 -0.0050659473
0000f0 fc e0 b5 3c 41 5e c0 bd bd 06 34 bd e5 ee 7f 3c
       0.022202007 -0.093929775 -0.04395174 0.015620922
000100 6a 18 bd bd d3 16 da bc a1 dd 8a bd 30 dd a9 3d
       -0.09233172 -0.026622212 -0.067805536 0.08294141
000110 4e c8 bf 3d 20 91 0a 3d 9f 11 ce bd 09 d0 b5 bc
       0.09364377 0.03382981 -0.10061955 -0.022193925
000120 d2 65 a5 3c ed a8 64 3a f4 21 e5 bc 27 bf 76 bd
       0.020190153 0.00087226817 -0.027970292 -0.06024089
000130 89 e0 3e 3c 4d 42 d5 bb 43 9a b1 3b 38 17 8b bd
       0.011650213 -0.006508148 0.0054200008 -0.06791538
000140 b1 d1 5d bd f0 e1 0f 3c a6 6a e5 bb 1b dc 5e 3d
       -0.054155055 0.008781895 -0.007001239 0.054409128
000150 1d 64 b7 bc f4 79 81 3c 85 ba 96 bc b9 6d 98 3b
       -0.022386605 0.015805222 -0.018399486 0.004651752
000160 2b 37 92 bb 9e 6b 10 3c 1b 33 5d bd b1 d5 7d 3d
       -0.004462143 0.00881472 -0.054003816 0.06197137
000170 4d 6c 95 3d 77 eb 21 3d 5c 03 aa 3c 9e 30 45 3d
       0.07296047 0.039531197 0.020753555 0.048142068
000180 e3 36 93 bb 82 b1 b7 bd 48 71 10 bd 38 c2 c6 bc
       -0.004492627 -0.08969404 -0.035264283 -0.024262533
000190 3f 67 89 3d db f3 4a 3d 91 ae ab bc 90 c0 d2 bc
       0.06709146 0.049548965 -0.020957263 -0.025726587
0001a0 a5 8f 8f 3c 85 8b a0 bd 09 d8 83 bc 69 1d 15 bc
       0.01752455 -0.07839111 -0.016094225 -0.00910125
0001b0 91 c4 b2 bd bd 73 05 3d 33 c3 63 bd 68 d1 a8 bd
       -0.08728898 0.03258108 -0.05560608 -0.08243066
0001c0 ff 98 04 bd 8c 68 d5 3c 56 21 91 bd ec 2d 70 3b
       -0.03237247 0.026050828 -0.070864365 0.0036648465
0001d0 cf 41 94 3d 5f d6 cc 3c ba 8c 19 bd ac d6 3e 3d
       0.072391145 0.025004564 -0.037487723 0.046591446
0001e0 37 ee 89 bd 6d a3 93 3d aa 4a be 3d 73 0d c2 3b
       -0.06734889 0.07208905 0.09291585 0.0059220134
0001f0 37 bf 6c bd a9 97 fe 3c 34 30 d9 bc 82 28 aa 3b
       -0.057799544 0.031078177 -0.026512243 0.005192817

weight f4 [64, 128]
000000 b9 2e c4 bd 02 4b d7 3c d0 3b c1 bd ed 5e 53 bd
       -0.09579224 0.026280884 -0.094352365 -0.0516042
000010 18 e3 1d be ed d6 82 3d f1 12 05 3c 6b 7a 2b 3e
       -0.1541866 0.0638865 0.008122192 0.16745917
000020 6e ae db 38 dc 20 6e 3c b5 dc 29 be 02 ba c1 3e
       0.00010475224 0.0145342015 -0.165881 0.37837225
000030 ec 1c 81 bb 75 82 cc bc 0b d0 7b be d8 c5 79 3c
       -0.0039402153 -0.02496455 -0.24591081 0.0152449235
000040 6e e7 ff bd de ac 88 bd 10 4c 9d bd cf fe d0 bd
       -0.124953136 -0.06673597 -0.076805234 -0.10204851
000050 27 fe bb bd df 15 87 3d 27 f0 2f 3e 6c c1 56 bd
       -0.09179335 0.065959685 0.17181455 -0.052430555
000060 50 1c 1d bc 13 f5 c3 bc 6a c6 41 3d 00 a4 3b 3d
       -0.00958927 -0.023920571 0.047308363 0.0458107
000070 a6 08 07 bd 53 f1 f5 bd 1c 33 9d bb 74 92 89 3d
       -0.032967232 -0.120089196 -0.0047973525 0.06717387
000080 99 44 e1 bd ae 64 d1 3d 58 cc 1a bd 8a ac 91 3e
       -0.10999412 0.10224281 -0.037792534 0.2845195
000090 0f 79 70 bd 7d bd b0 bc 54 52 c8 3c 73 62 0b 3c
       -0.0587092 -0.02157473 0.02445332 0.008507359
0000a0 c5 68 a3 bd 01 ff ad 3d 49 d8 cc bd 58 fe be 3d
       -0.079789676 0.08495904 -0.100021906 0.09325856
0000b0 20 80 95 bc 5f 1e c7 3c ed f1 fc bb f3 bd 47 bd
       -0.018249571 0.024306474 -0.0077192695 -0.048765134
0000c0 30 37 09 bd 59 c3 eb 3c 83 b9 4d 3d 37 61 2f bc
       -0.033499897 0.028779672 0.050225746 -0.01070433
0000d0 ed 8b 50 bd 3f 2e 8f 3d 55 b2 0d bd 8b 3d f7 3d
       -0.050914694 0.069912426 -0.0345939 0.12072285
0000e0 ea de 48 3d 49 b4 a0 3c c2 c1 ed bd 8c 3b 93 bd
       0.049040712 0.019617217 -0.11609222 -0.07189092
0000f0 48 e3 e6 bd b5 5c 9c 3d aa e5 89 3d 52 65 89 bd
       -0.11273819 0.0763487 0.06733258 -0.067087784
000100 76 1d 02 3d c0 b9 9b bc 2c f9 4e 3e 75 34 9c 3c
       0.031766377 -0.019009471 0.20212239 0.019067982
000110 dc a5 5c bd 39 c3 2b bd 4b 49 08 be dd 4a 0b be
       -0.053869113 -0.041934226 -0.13309209 -0.13602777
000120 8e fd 57 3d 90 01 b7 bd 61 da 71 bb 52 45 af bd
       0.052732043 -0.08935845 -0.0036903846 -0.08558144
000130 60 26 83 3d af a4 e5 3c 5b ae b3 bd 8a 32 1e 3d
       0.06403804 0.028032629 -0.0877349 0.038622417
000140 48 89 9c 3e 79 bc 54 be 25 12 9e 3d f2 52 31 be
       0.30573487 -0.20775022 0.077183045 -0.17316797
000150 a0 a2 39 3e eb f4 9a bd d4 6d 74 3d a3 58 5d bb
       0.18128443 -0.07566246 0.059675053 -0.0033774755
000160 ff ad 4e be d7 4d c3 3c 18 bc f6 3b 11 2d 7c be
       -0.20183562 0.023840828 0.0075297467 -0.24626566
000170 fd 25 99 bc 64 2e 80 bc f3 2c b9 3d 48 45 1d be
       -0.018694872 -0.01564712 0.090417765 -0.1535846
000180 b8 59 88 3d d1 8f 0a be 04 18 6d 3d 2d 4a 7f 3e
       0.066577375 -0.13531424 0.05788423 0.2493064
000190 9a b7 b4 3d b4 75 10 3d 85 ad f1 bc 00 91 0b 3d
       0.08824082 0.0352685 -0.029501686 0.03407383
0001a0 d3 de a9 bc 6f 10 82 3d f9 b7 06 bd 9a 2c 0b 3e
       -0.020736134 0.06350791 -0.032890294 0.13591233
0001b0 88 bc 22 bc a8 9d 7b bc cc 62 6d bd 8e 72 2e bd
       -0.009932645 -0.015357412 -0.05795555 -0.042589717
0001c0 8e c8 fc 3d 4a 7f 5d bc 17 f0 f4 3c 57 0b 92 3e
       0.1234294 -0.013519118 0.02989964 0.28524277
0001d0 06 f7 3c 3d 29 48 e7 bd 78 38 9a 3e 7a de 93 bc
       0.046134017 -0.1129306 0.30121207 -0.018050421
0001e0 db c4 c8 3d 55 41 81 be 48 73 6a 3d 02 df 71 3d
       0.09803172 -0.25245157 0.057238847 0.059050567
0001f0 5b 9c a3 bd c2 f2 9d 3c fa 82 56 3d fe fb f6 bb
       -0.07988807 0.019280795 0.052371003 -0.007537364
000200 5f 9d 5b 3b 03 be 73 bd 80 90 f0 3c eb ee 09 be
       0.0033510549 -0.05950738 0.029365778 -0.13470046
000210 8a 23 36 bf cc d4 28 3d 5d 76 15 3d 16 4b 2b 3d
       -0.7114798 0.041218564 0.036489833 0.041819654
000220 b2 f6 81 3a 57 2e 5f 3d 49 33 0a 3d d2 37 6d 3e
       0.000991544 0.054487552 0.033740316 0.23165825
000230 da 82 a7 bd f3 30 99 bd 8e a6 05 3d 7b 54 b2 bc
       -0.08179255 -0.074800394 0.032629542 -0.021768799
000240 3b fa 04 3e 59 43 56 3d b4 3e fd 3c 2c e6 9b bd
       0.1298608 0.05231032 0.030913688 -0.07612261
000250 25 ee 42 3d 1e b8 58 be 18 9f 0e 3e b2 b4 31 bd
       0.047590394 -0.21163985 0.13927877 -0.043385215
000260 4c 12 06 3d f1 a6 7c 3c ee f2 73 bd 06 4f db 3d
       0.032732293 0.015420661 -0.059557848 0.10708432
000270 c4 8f 2e bd b3 16 18 3d 13 30 91 bc 6c 9d 41 3e
       -0.042617574 0.037131023 -0.017723119 0.18907708
000280 d0 69 d5 3c c5 c4 23 bf 9c 53 bf 3d 5a ea 60 be
       0.026051432 -0.6397212 0.09342119 -0.21964398
000290 ab 22 07 bd 8d 2b 59 bf 7a 00 6c bd fa 6f a4 bd
       -0.032992046 -0.8483208 -0.057617642 -0.0802917
0002a0 66 3c 24 3e 91 a7 d3 3d f4 e6 8a 3d 2d fd 38 be
       0.16038665 0.10334695 0.06782332 -0.18065329
0002b0 a2 e2 62 bd 38 a0 3a be fb 8a a1 3d da 92 b6 3d
       -0.055391915 -0.18225181 0.078878365 0.089147285
0002c0 ff b6 b4 3d 04 80 02 3d 4d 20 f5 3c 26 b3 97 3c
       0.08823966 0.031860366 0.029922629 0.018518042
0002d0 69 1a a7 3d 82 54 87 bc 48 d8 12 3e 9e 35 f2 bd
       0.08159334 -0.016519789 0.14340317 -0.11826633
0002e0 e1 e1 10 bd d2 35 7f bd f5 39 48 bd a2 37 ab 3a
       -0.035371665 -0.062307186 -0.048883397 0.0013062845
0002f0 6b 99 23 3e 6c e0 ab bd 3a a6 20 3d fc cd cd bd
       0.15976493 -0.083924145 0.039221026 -0.10049054
000300 de d8 fc 3c 4c 14 f4 bc 87 1e e0 3e fc ac b4 bc
       0.03086513 -0.029794835 0.4377329 -0.022055142
000310 5c fb 42 bd 53 7d a1 3d 51 72 a8 3c b7 d5 3f bd
       -0.047602996 0.07885232 0.020562323 -0.046834674
000320 37 0f 3c be c5 55 16 3c cb 09 2a be 70 16 63 bc
       -0.18365179 0.0091757225 -0.16605298 -0.01386033
000330 ce eb 03 bd 5b 4a cd 3d 18 01 7e bc 23 58 83 bd
       -0.032207303 0.10023948 -0.01550319 -0.06413295
000340 bb 99 0f 3f e3 c6 50 3e 70 48 55 bd 3e 04 6d bd
       0.5609395 0.2038837 -0.052071035 -0.057865374
000350 04 4d 83 be fe 04 02 bf e4 02 11 3c 1e 32 0e be
       -0.25644696 -0.5078887 0.008850787 -0.13886306
000360 3f d5 d7 3d 37 73 68 bd 91 d2 8b bc f9 3c 57 3d
       0.1053872 -0.056750502 -0.01706818 0.052548382
000370 d9 21 91 3c 05 53 43 3e 4d 78 b2 bb 43 b2 ea 3d
       0.017716335 0.19074638 -0.00544647 0.11459782
000380 71 5f b1 3d e6 f7 db bc 7a a4 88 be 05 fb 8e bd
       0.08660782 -0.026851606 -0.26687986 -0.06981472
000390 ee 97 c7 3c b9 5e 1e be 94 c8 d4 bb 60 0a 02 bc
       0.024364438 -0.15465821 -0.0064936373 -0.007937044
0003a0 38 a0 f6 bc 89 52 80 3d 29 08 8e 3d 1f 25 c0 bd
       -0.030105695 0.06265742 0.0693515 -0.0938208
0003b0 f6 8f 88 bd 1a 5f 73 bc 34 95 30 3b 70 81 35 bc
       -0.06668083 -0.014854217 0.00269444 -0.011078224
0003c0 ef 7d 0c be b8 8e 30 bd 10 ce 1e bd 3f 6d b0 3e
       -0.13719915 -0.043104857 -0.038770735 0.34458348
0003d0 31 90 31 bd b4 f9 8d be 7a b8 49 3e ba 4e 30 be
       -0.043350402 -0.2772957 0.19699278 -0.17217532
0003e0 15 43 04 3e 9c 6b 41 be 73 05 81 be fe 7b 6c 3d
       0.12916215 -0.18888706 -0.2519947 0.057735436
0003f0 e2 d6 f9 3c 5d ad 42 3d f1 dc 8d 3d 9f 41 8e 3c
       0.030497972 0.047528613 0.06926907 0.017365275

bias f4 [64]
000000 89 e9 e9 bd e3 be be 3b 6e 95 81 3d 08 68 d8 bc
       -0.114214964 0.0058210953 0.063273296 -0.026416793
000010 5c ed 1b be 1a 6c 89 bc 24 01 32 bd a4 b9 8d bc
       -0.15227264 -0.01677518 -0.04345812 -0.017300434
000020 43 0a af bd 81 78 82 bc 85 81 0c be e9 86 be bc
       -0.08546879 -0.015926601 -0.13721283 -0.02325769
000030 0e 09 12 be 18 5a 03 3d 00 b6 9f bd 5c 36 fb bc
       -0.14261267 0.032068342 -0.077983856 -0.030665569
000040 bc 69 0d ba 2f 1d af bd 44 d2 56 bd 23 be b0 3d
       -0.0005394479 -0.08550488 -0.05244662 0.08630016
000050 79 3a 6f 3b 10 ac 50 bd 54 28 30 bb a3 9b 12 3c
       0.0036503358 -0.05094534 -0.0026879506 0.0089482395
000060 11 0e ca bc 64 b8 00 3e d4 e6 88 3c e6 79 98 bd
       -0.02466491 0.1257034 0.01671163 -0.07445125
000070 7d f2 ec bd 5d 04 be 3b 2e 53 7c bb 3c 04 d3 3c
       -0.115696885 0.00579886 -0.0038501727 0.025758855
000080 cf 66 09 be 3a 1e 38 bd 23 61 a2 bc b5 9d aa bd
       -0.13418125 -0.0449507 -0.019821709 -0.083308615
000090 4d 99 57 bc 04 d9 e5 bd 2d 57 bf bd 0a 78 8c 3d
       -0.013159108 -0.11223033 -0.09342799 0.06858833
0000a0 66 c5 54 3d 10 8a 12 bc ef 01 88 bd a5 69 f7 bd
       0.051946066 -0.0089440495 -0.06640994 -0.12080697
0000b0 65 52 42 bd c8 b6 58 bd ab 47 a3 3c 81 38 a7 3d
       -0.04744186 -0.05290869 0.019931635 0.08165074
0000c0 f0 62 b6 3d 8e c2 a5 bc 1a 2a c9 3d 90 9f 03 bd
       0.089055896 -0.020234372 0.09822483 -0.032134593
0000d0 e7 00 56 3a d9 e4 66 3d b4 cf 2c 3d 52 9d 00 be
       0.00081635866 0.05637059 0.04219027 -0.12560013
0000e0 57 85 ea 3c d7 e2 a1 3d 45 f9 21 3c a7 85 94 bc
       0.028628035 0.079045944 0.009886091 -0.018130137
0000f0 7e 7a 34 3d 5d 74 c0 bc 19 3e 88 3d ba 97 14 bd
       0.04406213 -0.023492986 0.06652469 -0.03627751

weight f4 [2, 64]
000000 a8 c2 a2 3e 0e a0 03 3e 2c 25 58 be b8 e6 8e be
       0.31789136 0.12854025 -0.2110793 -0.279104
000010 b6 11 d1 bd 23 6a 50 3d f2 a2 6a 3e 01 68 89 bd
       -0.10208456 0.05088247 0.22913721 -0.0670929
000020 8f e5 18 be 64 b3 c3 3e d2 fe 07 3f dc 79 5b 3e
       -0.1493132 0.38222802 0.531232 0.21433204
000030 c2 13 3a 3f 08 79 82 3d b6 b0 33 3d 8f 84 dd 3d
       0.726864 0.06370741 0.043869697 0.10816299
000040 02 71 45 be 5b fe 8f 3c 52 af 56 bd 60 72 57 3d
       -0.1928139 0.01757734 -0.052413292 0.05259931
000050 37 a1 b3 bd 63 fc 02 3c 9d 84 03 3e be 4c 08 3e
       -0.08770984 0.007994744 0.12843557 0.13310525
000060 22 20 c5 bd 6e 5f 83 3e 8f 19 d1 bc ed 37 a2 be
       -0.096252695 0.25658745 -0.025524883 -0.31683293
000070 24 29 e1 bd 09 0e 06 be 7f f8 e0 bd 8a 75 29 3e
       -0.10994175 -0.13091291 -0.10984897 0.16548744
000080 06 fe f4 bd e8 ea ba 3d 6d e0 25 3d 82 3e 38 3d
       -0.119625136 0.09126836 0.040497232 0.044981487
000090 91 89 d3 bd e6 9a 8e bd 46 de b0 3d 82 9f f7 3d
       -0.10328973 -0.06963138 0.08636145 0.120909706
0000a0 8a 16 31 be 91 f7 48 bd d2 f0 cf 3d e1 09 08 be
       -0.17293754 -0.049064223 0.10153355 -0.13285019
0000b0 4d 07 c2 3d e3 a1 07 bd 14 51 7c bd 3f 7b c0 3d
       0.09474049 -0.03311337 -0.06160076 0.09398507
0000c0 5a 4a b4 3e 20 89 72 bc 05 fe 9a be fe a1 88 3c
       0.35212976 -0.014803201 -0.30271927 0.016678806
0000d0 eb a5 44 bd c0 7e 8b be 86 c5 35 3e 93 ee e9 be
       -0.048009794 -0.2724514 0.1775113 -0.4568983
0000e0 5f 8d 02 3e 61 40 52 3d 7e 68 c9 3e a6 50 a1 bd
       0.12749241 0.051330928 0.39337534 -0.078767106
0000f0 c3 92 8e 3e cd a6 11 3e 16 8e f2 3e a4 4a 60 bd
       0.27846345 0.14223786 0.47374028 -0.054758683
000100 45 e5 ab be ad f5 2b be 67 ad 1f 3e 92 a7 42 3e
       -0.33573356 -0.16792937 0.15593491 0.19009236
000110 6f 6c 8e 3e 40 7d e3 bd 87 35 76 bd 91 b0 da 3d
       0.27817103 -0.11107874 -0.06010964 0.106782086
000120 0c 9d 6c 3d ba 0f 13 bf d2 a8 c6 be 45 9a 72 bd
       0.05776696 -0.5744587 -0.38800675 -0.059229154
000130 4d 08 52 bf 25 5d 88 be 4f e9 4a 3b 43 b7 fe bd
       -0.82043916 -0.26633564 0.0030961817 -0.12437298
000140 d9 78 6d 3d 52 8e 23 be 7b bc 99 bd 2d 87 6c bd
       0.057976577 -0.1597226 -0.07506653 -0.0577461
000150 e5 4a 53 3d f3 60 8e bd e8 f5 dd bd fb 8f a1 be
       0.051585097 -0.06952085 -0.108379185 -0.3155516
000160 e3 13 0b 3e 6e 2f b5 bd 66 e0 2e 3d ca fd 6c 3e
       0.13581805 -0.08846937 0.04269447 0.23143688
000170 df ac 24 3e f0 87 a4 bd 49 55 97 3d 85 90 27 be
       0.1608157 -0.080337405 0.07389314 -0.16363724
000180 f5 d8 6b 3e ec 66 b6 bc df 42 cd bd 94 fb ca 3d
       0.23031981 -0.022265874 -0.1002252 0.09911266
000190 7a 3b 0a bd 02 42 97 3d 33 19 82 bd b7 85 66 bd
       -0.033748128 0.07385637 -0.063524626 -0.056279864
0001a0 62 9b a4 3c 53 1c 36 bc a3 79 b1 bd cb 03 b9 3d
       0.020093624 -0.011115151 -0.086657785 0.090339266
0001b0 10 e4 0c be 86 92 16 be 4f 4c a1 3c 8f d0 5b be
       -0.13758874 -0.14704332 0.019689707 -0.21466278
0001c0 90 06 1c be 0d b3 2c be d9 73 90 3e ae a6 79 3c
       -0.15236878 -0.16865177 0.28213385 0.015237493
0001d0 6b b1 e4 3b a5 59 28 3e 17 13 86 bd 27 91 e2 3e
       0.0069791577 0.16440447 -0.0654661 0.44251367
0001e0 05 ac 80 bd 79 b8 83 be 4d de 71 be e2 ff 6a 3d
       -0.0628281 -0.2572668 -0.23619957 0.057372935
0001f0 15 ec 0e be 50 30 26 be c7 44 e0 be 87 c5 d5 bd
       -0.13957246 -0.16229367 -0.43802473 -0.10438066

bias f4 [2]
000000 56 a5 c2 3b 46 54 c9 3d
       0.0059401197 0.09830527
