models/mountaincar_2D/checkpoint_cl.14.pth.tar (torch_old, 143897 bytes, 12 tensors)

weight f4 [128, 5]
0	0x3e35d5f5	0.177574
1	0x3d8cba37	0.06871455
2	0xbddbf4a4	-0.10740021
3	0x3e73a464	0.23793179
4	0xbec4edd1	-0.3846269
5	0xbe7fb8f8	-0.24972904
6	0x3e02eb44	0.12785059
7	0xbdb2a324	-0.08722523
8	0xbe818fb4	-0.2530495
9	0xbe89f834	-0.26947176
10	0xbfbdcff7	-1.4829091
11	0xbe814100	-0.25244904
12	0xbd98e72b	-0.07465967
13	0xbd939fa9	-0.07208187
14	0xbe68de5b	-0.22741072
15	0xbcba90d7	-0.022774143
16	0xbdfd5d4a	-0.12371309
17	0xbd276b89	-0.040874038
18	0x3e299357	0.16560112
19	0x3e93e99b	0.28889164
20	0x3d9b501f	0.07583641
21	0xbe9da42f	-0.30789325
22	0x3eb2d0dc	0.34924972
23	0x3ccd94c0	0.025095344
24	0x3ebad07c	0.36487186
25	0x3eda8ef0	0.42687178
26	0x3e6dd931	0.23227383
27	0x3e3c8d8c	0.18413371
28	0xbe20bf66	-0.15698013
29	0xbe89df18	-0.2692802
30	0x3e18d33e	0.14924332
31	0xbeb9be0b	-0.36277804
32	0xbe31c561	-0.1736045
33	0x3e8e3f81	0.27782825
34	0x3e83f734	0.2577454
35	0xbec860e7	-0.3913643
36	0xbdd3d556	-0.10343425
37	0x3ebbe469	0.366977
38	0xbea8d903	-0.32978067
39	0x3e8a21c6	0.26978892
40	0xbed47f9a	-0.41503602
41	0x3d3c2354	0.04593213
42	0xbe92134a	-0.2853034
43	0xbe0b52ba	-0.13605776
44	0x3e9ef47b	0.310459
45	0x3db42dda	0.08797808
46	0xbe0a91fb	-0.1353225
47	0xbdaa97d0	-0.08329737
48	0xbe975945	-0.29560295
49	0xbe6084ac	-0.2192561
50	0xbee796d9	-0.45232275
51	0x3e5b0518	0.21388662
52	0xbe82a6f6	-0.25518006
53	0x3eb28d5e	0.3487348
54	0x3e6683da	0.22511235
55	0x3f0e3437	0.55548424
56	0x3e66f83c	0.22555631
57	0x3e3e2698	0.1856941
58	0x3ec0c4b3	0.3765007
59	0xbe3e6dee	-0.18596622
60	0x3ddf43c5	0.10901598
61	0xbe11d29e	-0.142405
62	0x3e952200	0.29127502
63	0x3e48235e	0.19544742
64	0x3e4fd617	0.20296513
65	0xbdb00389	-0.08594424
66	0x3ea0f9c6	0.31440562
67	0xbecdc644	-0.40190327
68	0x3d1783f0	0.03699106
69	0x3dc279cf	0.094958894
70	0xbedd77c3	-0.43255433
71	0xbe4ba666	-0.19887695
72	0x3eaf490e	0.34235424
73	0x3e565fed	0.2093503
74	0xbed307fb	-0.41217026
75	0xbea2ae32	-0.31773525
76	0x3e767c5a	0.24070874
77	0x3eb2cf42	0.3492375
78	0xbe5e51c9	-0.21710886
79	0xbe453a06	-0.19260415
80	0x3e8246ae	0.2544455
81	0x3ecceba4	0.4002353
82	0xbefa1cc8	-0.48850083
83	0xbe989b58	-0.29806018
84	0x3e9e41f9	0.30909708
85	0xbebc1e03	-0.36741647
86	0xbe213e17	-0.15746342
87	0x3ece17d2	0.40252548
88	0x3ecf940f	0.40542647
89	0x3d3d5476	0.046223126
90	0xbcb4d010	-0.022071868
91	0xbecca294	-0.39967787
92	0x3cc6ff50	0.024291664
93	0xbe91ca28	-0.28474545
94	0xbc813af0	-0.015775174
95	0xbec0ed24	-0.37680924
96	0x3e25be81	0.16185953
97	0x3dcee5b9	0.1010241
98	0x3e10c49d	0.14137502
99	0xbecaec90	-0.39633608
100	0x3e32754a	0.17427555
101	0x3cf548f3	0.029942011
102	0xbea2e96a	-0.31818706
103	0x3e0dc56c	0.13844842
104	0xbeba1c1c	-0.3634957
105	0x3ed35ace	0.41280216
106	0x3e18f66a	0.1493775
107	0x3d9cffb5	0.0766596
108	0x3e7ff4b6	0.24995694
109	0xbea95772	-0.33074528
110	0x3e0ed549	0.1394855
111	0x3ee33276	0.44374436
112	0x3d60d784	0.05489303
113	0xbd94241c	-0.0723345
114	0x3ead321c	0.33827293
115	0xbe0bb8a1	-0.13644649
116	0x3da032af	0.07822167
117	0x3e7037e4	0.2345882
118	0xbdd9c9aa	-0.106341675
119	0x3e261656	0.16219458
120	0xbe749ace	-0.23887178
121	0x3eb370fe	0.35047144
122	0x3e90d634	0.28288424
123	0x3ed0284b	0.4065574
124	0xbe6327db	-0.22183172
125	0xbe8ba96e	-0.27277702
126	0xbed06640	-0.4070301
127	0x3ea5f8f7	0.32416508
128	0x3e3a00dc	0.1816439
129	0xbe7caa79	-0.24674405
130	0xbec7f471	-0.39053681
131	0x3ebb7707	0.36614248
132	0x3e41e680	0.18935585
133	0x3e4455ef	0.19173406
134	0x3cbbccd2	0.022924814
135	0xbe1655ab	-0.14681117
136	0x3eb898d2	0.36054093
137	0x3ec9ec03	0.39437875
138	0x3ed6a561	0.4192305
139	0x3d54f422	0.051990636
140	0x3ed1c235	0.4096848
141	0xbbcd1811	-0.0062589725
142	0xbec0d0b8	-0.3765924
143	0x3eac3a03	0.3363801
144	0x3e7ed901	0.24887468
145	0x3eaa3685	0.3324472
146	0xbee6b5a7	-0.45060465
147	0x3ea1ae21	0.31578162
148	0xbc7aeb54	-0.015314896
149	0x3d387a7f	0.045038696
150	0x3ed5a236	0.4172532
151	0x3e796ed4	0.24358684
152	0xbed0c838	-0.40777755
153	0xbd49d56b	-0.049275797
154	0x3ebb5192	0.3658567
155	0x3dfe52d5	0.12418143
156	0x3e283336	0.16425785
157	0x3d7effd7	0.062255707
158	0x3e87526c	0.2643007
159	0xbe3ab4e7	-0.18233071
160	0x3e8e93bf	0.27847096
161	0x3ea5b25d	0.32362643
162	0x3e51deba	0.2049512
163	0x3e028e4f	0.12749599
164	0x3eb9c07e	0.36279672
165	0xbee00b2f	-0.43758532
166	0xbeb9e4f1	-0.3630748
167	0x3e3663dc	0.17811531
168	0xbe180170	-0.14844298
169	0x3eacc092	0.3374067
170	0xbec9a5da	-0.39384347
171	0xbea9d7fa	-0.3317259
172	0x3d93dc10	0.07219708
173	0x3d05b778	0.032645673
174	0xbdce3fb8	-0.10070747
175	0x3e34d32f	0.17658685
176	0xbe2d0be6	-0.1689907
177	0x3eaf0ca0	0.3418932
178	0xbdfc6cb9	-0.12325425
179	0x3eca9ac4	0.39571202
180	0xbe1054d4	-0.1409486
181	0x3e398d90	0.18120408
182	0xbe4faa2e	-0.20279762
183	0xbe9a5260	-0.30140972
184	0x3bce5540	0.0062967837
185	0x3ed36399	0.41286924
186	0x3d800598	0.06251067
187	0xbe8b7689	-0.27238873
188	0xbcfd15d7	-0.030894203
189	0xbeaf19ca	-0.34199363
190	0x3e880d86	0.26572818
191	0xbe965d3f	-0.29368016
192	0xbd39b2a0	-0.045336366
193	0xbe8cfb14	-0.27535307
194	0xbe1460f0	-0.14490104
195	0xbeb8f939	-0.36127642
196	0xbec6b190	-0.38807344
197	0xbe169f4f	-0.14709209
198	0x3ea95f7c	0.3308066
199	0xbed2bb3c	-0.41158473
200	0xbc44b384	-0.0120056905
201	0xbda87700	-0.082258224
202	0xbe424eb4	-0.18975335
203	0xbd136606	-0.03598597
204	0x3e7f7afc	0.24949259
205	0x3ecf1ca6	0.40451545
206	0xbe63edcf	-0.22258686
207	0xbe9377c0	-0.288023
208	0xbdd696d8	-0.1047799
209	0x3ccf22e5	0.025285194
210	0xbe0af874	-0.1357134
211	0x3e79b8e3	0.24386935
212	0xbe312186	-0.17297944
213	0xbea81001	-0.3282471
214	0x3e865cca	0.26242667
215	0xbdfdb667	-0.12388306
216	0x3e4ddb23	0.20103125
217	0xbe7f270d	-0.2491724
218	0x3eb9eb63	0.36312398
219	0xbe0c7ec6	-0.13720235
220	0xbe1a9088	-0.15094197
221	0x3ea0e22b	0.31422552
222	0xbd2892c9	-0.04115561
223	0xbbdf1766	-0.0068082092
224	0xbdc290cb	-0.09500273
225	0x3ebc8423	0.36819562
226	0x3bc2b01c	0.005941404
227	0xbe9b4b67	-0.30330965
228	0xbea37093	-0.31921825
229	0x3dfa5788	0.122237265
230	0x3ec8bc3e	0.39206117
231	0xbea7d148	-0.32776856
232	0xbec5a1ed	-0.38600102
233	0x3ec37801	0.38177493
234	0xbe4765d0	-0.19472432
235	0xbed77352	-0.4208017
236	0x3e5cb515	0.21553452
237	0x3dc463d8	0.09589356
238	0xbdb522cc	-0.088445276
239	0xbd50cb06	-0.05097487
240	0xbebc1fbf	-0.3674297
241	0x3e328def	0.17436956
242	0x3eb07812	0.34466606
243	0xbe9b5438	-0.3033769
244	0x3ec9eede	0.39440054
245	0x3ea30c9d	0.3184556
246	0x3e9c3539	0.30509356
247	0x3e6e4c53	0.23271303
248	0x3e8cc2c6	0.2749235
249	0x3e8e627f	0.27809522
250	0x3e857d06	0.26071948
251	0x3d9c6075	0.07635585
252	0x3d4ea730	0.05045241
253	0x3e793df4	0.2434004
254	0xbe94e322	-0.2907954
255	0xbdeac3a2	-0.11463095

bias f4 [128]
0	0xbed280d7	-0.41113922
1	0xbe5ddf17	-0.21667133
2	0x3e4cc0c6	0.19995412
3	0x3dfc1894	0.123093754
4	0xbe039297	-0.12848888
5	0xbdfc3464	-0.1231468
6	0x3e168c3a	0.1470193
7	0x3e236efb	0.15960304
8	0x3d81c18a	0.06335743
9	0x3e8c0e96	0.27354878
10	0x3ea66777	0.32500812
11	0xbeea05f6	-0.45707673
12	0xbdd8ffad	-0.10595641
13	0xbeb98d07	-0.36240408
14	0x3ebfaa20	0.37434483
15	0xbe3e5d1e	-0.18590209
16	0x3e9acdd3	0.30235156
17	0x3eee8774	0.46587718
18	0xbeba0815	-0.3633429
19	0x3e00bd4e	0.12572214
20	0xbe83a841	-0.25714305
21	0xbed7bfae	-0.42138427
22	0xbe8e231b	-0.27761158
23	0x3e479955	0.19492085
24	0xbebeab62	-0.3724013
25	0xbe97abdd	-0.2962331
26	0xbcc7591e	-0.024334487
27	0x3c410e45	0.011783187
28	0xbdcc2db3	-0.09969654
29	0x3ea2389b	0.31683812
30	0x3e16b347	0.14716826
31	0x3def6aa8	0.11690265
32	0xbda0aec5	-0.07845835
33	0xbea26aec	-0.317222
34	0xbe250526	-0.16115245
35	0x3e43e1bd	0.19129081
36	0xbea1537c	-0.31509006
37	0x3e77f712	0.24215344
38	0xbeb1d8f7	-0.34735844
39	0x3e9e35cb	0.30900416
40	0xbdf80eba	-0.12112184
41	0xbe490087	-0.19629107
42	0x3ed345ec	0.41264284
43	0xbebab4b0	-0.3646598
44	0x3db77e2a	0.08959611
45	0x3ebda11d	0.37036982
46	0x3ec6ff3e	0.3886661
47	0x3ebd7c5d	0.37008944
48	0xbe0bf2d0	-0.13666844
49	0xbebcdf1f	-0.36888978
50	0xbeecb030	-0.4622817
51	0xbe5135f7	-0.20430742
52	0x3e8af8c6	0.27142924
53	0x3e6ec546	0.23317441
54	0x3ed991f2	0.4249416
55	0xbc135eb5	-0.008994748
56	0xbec64de1	-0.38731292
57	0xbe9405b2	-0.28910595
58	0xbe0b4670	-0.13601089
59	0xbed5e3dc	-0.41775405
60	0x3e331beb	0.17491119
61	0xbba1ba2d	-0.004935524
62	0x3e17e0ee	0.14831898
63	0xbe15e447	-0.14637862
64	0x3e20823d	0.15674682
65	0xbe6c6aee	-0.23087665
66	0x3da1e863	0.079056524
67	0xbe3a7126	-0.18207225
68	0xbe4aa625	-0.19789942
69	0xbeb56bfe	-0.35433954
70	0x3e4b7b72	0.1987131
71	0xbc0e2a93	-0.008677143
72	0x3e062a57	0.13102089
73	0x3c2605dc	0.010133233
74	0x3dddd84b	0.1083227
75	0x3d1dcbdf	0.038524505
76	0xbed0d2cf	-0.40785834
77	0x3ef1c643	0.47221574
78	0xbe812c96	-0.2522933
79	0xbe27395f	-0.16330479
80	0xbe3535c7	-0.17696296
81	0xbe997be9	-0.29977348
82	0xbd742fb0	-0.05961579
83	0xbe74f8da	-0.23923054
84	0x3e354a3f	0.17704104
85	0xbe63a24e	-0.22229883
86	0x3ed39180	0.41321945
87	0x3e828d24	0.25498307
88	0xbe1196ec	-0.14217728
89	0xbd81aeac	-0.06332144
90	0x3e589f3b	0.21154492
91	0xbda621f6	-0.08111946
92	0x3e66da39	0.22544183
93	0x3e4df49d	0.20112844
94	0xbef25fd5	-0.4733874
95	0x3ed4a2e4	0.41530526
96	0xbe266d92	-0.16252735
97	0x3e96f96e	0.29487175
98	0x3ed749f5	0.42048612
99	0x3e1cf1c4	0.15326601
100	0x3eca0719	0.3945854
101	0x3ed03ca7	0.40671274
102	0xbde41b80	-0.11138058
103	0xbe9e4a41	-0.30916026
104	0xbe63cc34	-0.22245866
105	0xbdef1b36	-0.11675112
106	0xbdac0102	-0.0839863
107	0xbec511e6	-0.38490218
108	0xbeb06ceb	-0.34458098
109	0xbdbf014a	-0.09326418
110	0x3e0d5694	0.13802558
111	0xbe0589de	-0.13040873
112	0xbe4b06a3	-0.1982675
113	0xbe239673	-0.1597536
114	0x3e6451b4	0.22296792
115	0xbe81e5c3	-0.25370607
116	0xbe84675b	-0.25860104
117	0xbe21d790	-0.15804887
118	0xbebe489f	-0.3716478
119	0x3ecd1e1c	0.40062034
120	0xbeaf431d	-0.3423089
121	0x3ec1f77f	0.37884137
122	0xbe47d2e6	-0.19514045
123	0xbe4713e2	-0.19441178
124	0x3eaf2e18	0.34214854
125	0x3edeca64	0.43513787
126	0xbde164ed	-0.11005578
127	0xbe975a29	-0.29560974

weight f4 [128, 128]
0	0xbdd60962	-0.104510084
1	0xbc8e702c	-0.017387472
2	0xbf9e2d0e	-1.23575
3	0xbcc0787a	-0.023494948
4	0x3cc90057	0.024536295
5	0xbbfe89f8	-0.007767912
6	0x3dd9f01e	0.10641502
7	0x3d286dd6	0.041120373
8	0x3c46a0de	0.012123315
9	0x3d827207	0.06369405
10	0x3d5a9ad8	0.053370327
11	0xbdf8381c	-0.12120077
12	0xbd5464bf	-0.05185389
13	0xbd24af17	-0.04020604
14	0xbc6c0d24	-0.01440743
15	0xbc75e483	-0.015008095
16	0x3d11ad64	0.03556575
17	0xbc7a859a	-0.015290642
18	0xbd835761	-0.064131506
19	0xbdc31563	-0.095255636
20	0x3c096010	0.0083847195
21	0x3c47a786	0.012185937
22	0xbda48171	-0.080325015
23	0x3da049dd	0.07826588
24	0xbcff61e5	-0.03117461
25	0x3d999beb	0.07500442
26	0xbdb98c9b	-0.090600215
27	0x3d9caf0e	0.076505765
28	0x3ccdd6a0	0.025126755
29	0x3c8e614f	0.017380385
30	0x3d68ffa7	0.056884434
31	0x3db6ebc0	0.089316845
32	0x3c236ebf	0.009975134
33	0x3c366498	0.011132382
34	0x3d7a7dfe	0.06115531
35	0x3d99ebf8	0.075157106
36	0xbd913611	-0.070903905
37	0x3dd4d789	0.103926726
38	0xbd68561f	-0.056722756
39	0xbc356a9b	-0.01107278
40	0x3d541596	0.0517784
41	0xb982630d	-0.0002486933
42	0x3d8cc471	0.06873406
43	0xbd1a7881	-0.037712578
44	0xbad023d1	-0.0015879815
45	0xbc3436c4	-0.010999385
46	0x3d4e9a27	0.05043998
47	0x3d1d8a95	0.03846224
48	0x3d40b5d5	0.04704841
49	0x3d57f9f7	0.05272862
50	0xbdc0cbbf	-0.094138615
51	0x3d5a0de3	0.0532359
52	0x3dc53ff2	0.09631337
53	0x3cf20842	0.029544953
54	0x3d877593	0.066142224
55	0x3b853c51	0.004066028
56	0x3d1ed82c	0.038780376
57	0xbce805b2	-0.028323028
58	0x3d2afb5c	0.04174362
59	0x3d4fddd6	0.05074867
60	0x3d8aab8c	0.06771001
61	0x3dc2293a	0.094805196
62	0x3d994b5f	0.07485079
63	0x3d05f627	0.032705452
64	0xbdc3e230	-0.09564626
65	0xbc725581	-0.0147908935
66	0xbd19e904	-0.037575737
67	0x3d66ec3e	0.05637764
68	0xbd6875f6	-0.05675312
69	0x391fee00	0.00015252084
70	0x3d226677	0.0396485
71	0x3d810586	0.06299882
72	0x3dc43f7d	0.09582422
73	0xbc66ef66	-0.014095163
74	0x3d80a9c5	0.06282381
75	0x3c64c726	0.013963496
76	0x3d2ec3d6	0.042667232
77	0xbe3d0251	-0.18457915
78	0xbd3f0891	-0.04663903
79	0xbd16a4ec	-0.036778376
80	0xbc23e278	-0.010002725
81	0xbc8fa166	-0.017533015
82	0x3cc93c3c	0.024564855
83	0x3dc0486d	0.09388814
84	0xbd9d774d	-0.076887704
85	0x3c79bf4c	0.015243363
86	0xbcf22670	-0.029559344
87	0xbd9039cc	-0.07042274
88	0x3aa312ce	0.0012441517
89	0x3d1bab02	0.038004883
90	0x3cb5393b	0.022122016
91	0xbd4084ae	-0.047001533
92	0x3d890676	0.066906855
93	0x3cff623c	0.031174771
94	0xbe350f39	-0.17681588
95	0x3d2644c9	0.040592942
96	0x3d507195	0.05088957
97	0xbd027233	-0.03184719
98	0x3cbb34c5	0.02285231
99	0x3b3da282	0.0028935974
100	0xbd10d513	-0.035359453
101	0x3da44a51	0.08021987
102	0x3d6d99b2	0.058007903
103	0xbd99e898	-0.07515067
104	0x3d01c0c8	0.03167799
105	0x3cf223b8	0.029558048
106	0xbd5bc048	-0.05365017
107	0x3d04f94e	0.032464318
108	0x3d967215	0.07345978
109	0x3db3b1c7	0.08774143
110	0xbd6d20b6	-0.057892524
111	0xbd2dd0ed	-0.042435575
112	0xbd3ecc38	-0.046581477
113	0xbd86abc3	-0.0657573
114	0xbcbfc5ca	-0.023409743
115	0xbe1e1352	-0.15437058
116	0x3c541120	0.012943536
117	0x3de33bed	0.11095414
118	0x3cf58b06	0.029973518
119	0xbda2ed54	-0.07955423
120	0x3dd6f0ba	0.10495134
121	0xbd301282	-0.0429864
122	0x3db38936	0.08766405
123	0xbc63d60d	-0.013906014
124	0x3cddc432	0.027071092
125	0x3da87389	0.082251616
126	0xbeb5da10	-0.3551793
127	0x3c460880	0.0120869875
128	0x3a9ce772	0.0011970832
129	0x3c021b80	0.007941127
130	0x3dab6705	0.08369259
131	0x3cd72c58	0.026266262
132	0x3cc88ded	0.024481738
133	0xbda29bfb	-0.07939907
134	0xbd311344	-0.043231264
135	0x3d4d13f8	0.05006787
136	0x3d5cc542	0.053899057
137	0xbda7d248	-0.08194405
138	0xbd560f01	-0.052260403
139	0xbdae65d3	-0.08515515
140	0x3b075bff	0.00206542
141	0x3d0127ba	0.031532027
142	0xbd6a32bb	-0.057177287
143	0xbda1492c	-0.078752846
144	0x3d072e18	0.033002943
145	0xbd0431b9	-0.03227398
146	0xbca121cc	-0.019669436
147	0x3c84493c	0.016148202
148	0x3d1c4edf	0.038161155
149	0xbd42ae82	-0.047529705
150	0x3d351f84	0.04421951
151	0x3cd28d91	0.02570227
152	0xbd127d95	-0.035764296
153	0xbca6e324	-0.020371981
154	0xbd418d02	-0.047253616
155	0xbdbeb666	-0.093121335
156	0x3cd6e0a0	0.026230156
157	0xbd53a989	-0.051675353
158	0x3d8fa410	0.07013714
159	0x3c436a54	0.011927206
160	0x3d52d28b	0.05147032
161	0x3cb3e1dc	0.021958284
162	0xbda63da0	-0.08117223
163	0xbd6f5fcb	-0.058440965
164	0x3d994b3d	0.07485054
165	0xbd7da608	-0.061925918
166	0x3c6b0340	0.014344037
167	0xbd42ec91	-0.04758889
168	0x3d6c6560	0.057713866
169	0x3da9f19d	0.08298037
170	0x3c714178	0.014725082
171	0x3d36bb52	0.044612236
172	0x3d3b4923	0.045724045
173	0xbd3e097e	-0.04639577
174	0xbca1d1c4	-0.019753344
175	0xbda6f89a	-0.08152886
176	0xbd91e173	-0.07123079
177	0xbdb93192	-0.09042658
178	0xbd848988	-0.064715445
179	0xbd2bdc15	-0.041957933
180	0x3d356b19	0.04429159
181	0x3cb74c04	0.022375114
182	0x3d8e952f	0.06962048
183	0xbd0663cc	-0.032810017
184	0x3c802550	0.015642792
185	0x3d8d0531	0.06885756
186	0xbc803415	-0.015649835
187	0xbcc046f8	-0.02347134
188	0xbd1f258c	-0.038854167
189	0x3d8c97da	0.06864901
190	0x3d0026c6	0.031286977
191	0x3dae8580	0.08521557
192	0x3d2bb7c9	0.041923318
193	0xbd408ce1	-0.047009353
194	0xbcfc0461	-0.030763807
195	0xbd68c04c	-0.056824014
196	0xbd8a32af	-0.067479484
197	0xbc5d0a08	-0.013491161
198	0x3c455ed6	0.012046536
199	0x3da373af	0.07981049
200	0xbc98d48b	-0.018656036
201	0x3d8b845f	0.06812357
202	0xbd4dc7c1	-0.05023933
203	0x3c98766b	0.018611154
204	0xbd959ce1	-0.07305313
205	0xbc3bb362	-0.011456342
206	0xbd60ffe1	-0.054931525
207	0x3d2eec30	0.042705715
208	0x3c930f00	0.017951488
209	0x3c2e0750	0.010621861
210	0x3d08b6c8	0.03337744
211	0x3cc97c2c	0.024595343
212	0xbcf7c33e	-0.030244466
213	0x3c22e720	0.0099428
214	0x3c476364	0.012169693
215	0xbcf633f6	-0.030054074
216	0xbb7eeee2	-0.003889971
217	0x3c2eecd8	0.010676585
218	0xbd7c6621	-0.061620835
219	0xbbd18ae5	-0.0063947313
220	0x3d75652b	0.059910934
221	0xbda0ee6d	-0.07857976
222	0x3d1f3ed6	0.038878284
223	0xbcc36178	-0.023850188
224	0x3d3c3915	0.045952875
225	0xbc9b0759	-0.018924402
226	0x3d414466	0.04718437
227	0xbd83fc5d	-0.06444619
228	0x3d1e9297	0.038714018
229	0x3d19ac98	0.037518114
230	0xbd93315d	-0.0718715
231	0x3d0b5462	0.03401602
232	0xbd00b171	-0.03141922
233	0x3cf6859b	0.030093005
234	0x3d5a27c0	0.053260565
235	0x3d0153e8	0.03157416
236	0x3d434e86	0.047682308
237	0xbd5d7bd8	-0.054073185
238	0x3bf7fefe	0.0075682392
239	0xbb846807	-0.0040407213
240	0x3c88aa6f	0.016682832
241	0xbd49f091	-0.049301688
242	0x3d9780b7	0.07397597
243	0x3cce65bf	0.025195
244	0xbc5ea819	-0.013589882
245	0x3d8477ff	0.064682
246	0x3cae6857	0.021289987
247	0x3cf204b3	0.029543256
248	0xbd94877f	-0.07252406
249	0xbc860fd4	-0.01636497
250	0xbda5548d	-0.080727674
251	0x3d398f5b	0.04530273
252	0xbcf5725a	-0.029961754
253	0xb9d11a9e	-0.00039883418
254	0xbb943920	-0.0045234114
255	0x3bdcf620	0.0067432076

bias f4 [128]
0	0x3d066366	0.032809637
1	0xbdad1ef9	-0.08453173
2	0xbc950bd1	-0.018194111
3	0xbd50fb31	-0.051020805
4	0x3d49743a	0.049183108
5	0x3d88f717	0.06687754
6	0x3d8bdf41	0.06829692
7	0xbaf57214	-0.0018726015
8	0xbd65bf4c	-0.056090638
9	0x3d89f148	0.06735474
10	0xbcd1cc5c	-0.025610141
11	0xbb0fb160	-0.0021925792
12	0x3d8a6443	0.06757405
13	0x3d3b8220	0.045778394
14	0x3d98c910	0.07460225
15	0xbd85f60d	-0.06541071
16	0x3ce43b76	0.027860384
17	0xbd2d97c1	-0.042381052
18	0x3d065023	0.032791268
19	0x3db09c7d	0.08623598
20	0x3ddbdbb6	0.10735266
21	0x3d36a642	0.04459215
22	0xbcad6805	-0.021167764
23	0x3c61f301	0.013790847
24	0x3d0cc713	0.03436954
25	0xbd2e3556	-0.042531334
26	0x3d906da0	0.07052159
27	0x3cade9c1	0.021229627
28	0x3da657ba	0.08122201
29	0x3cca388c	0.024685167
30	0xbd87a059	-0.06622381
31	0x3dc25850	0.094895005
32	0x3d35698b	0.044290107
33	0xbcae8a4a	-0.021306176
34	0x3dea8956	0.11451976
35	0xba31502f	-0.00067639624
36	0x3d5917e9	0.053001318
37	0xbd2d6443	-0.042331945
38	0xbd19fa81	-0.037592415
39	0x3d755a50	0.05990058
40	0xbcc9145f	-0.024545847
41	0xbc9bf424	-0.019037314
42	0x3db9c813	0.09071364
43	0xbcf25a6e	-0.029584136
44	0x395ee00d	0.00021255035
45	0x3d6a0a1a	0.05713854
46	0x3d86a771	0.06574906
47	0x3ceb6653	0.028735315
48	0x3da9cd43	0.08291104
49	0x3de11871	0.1099099
50	0xbdac4627	-0.08411818
51	0xbd5e66d8	-0.0542973
52	0xbd825fce	-0.063659295
53	0x3d9acd49	0.07558686
54	0xbd64ae5a	-0.055830337
55	0xbd0a8fe4	-0.03382863
56	0xbc9da110	-0.01924184
57	0xbdb372f3	-0.08762159
58	0xbd99a9c0	-0.0750308
59	0x3c8c4aa4	0.017125435
60	0xbd7ed45d	-0.062214244
61	0x3d759708	0.059958488
62	0x3cca072b	0.024661621
63	0xbc2dc0a1	-0.010605008
64	0x3c2c4e8e	0.010516776
65	0xbc03a8e1	-0.008035869
66	0x3d9bd0e8	0.07608205
67	0x3d98111d	0.07425139
68	0x3d1d6313	0.038424563
69	0xbd58085e	-0.052742355
70	0xbdab6dde	-0.08370565
71	0x3c6a9ddd	0.014319864
72	0xbc77ac94	-0.015116829
73	0x3dbdbb4c	0.0926424
74	0x3d83cf97	0.06436079
75	0xbd20f7d2	-0.03929884
76	0x3dd97915	0.10618798
77	0xbd80fe5a	-0.06298514
78	0x3c9c5d10	0.019087344
79	0x3db1eaac	0.08687338
80	0xbdb4a130	-0.088198066
81	0xbd42fddf	-0.04760539
82	0x3d59343a	0.053028323
83	0x3c5848d7	0.01320096
84	0x3d87b7c5	0.06626848
85	0xbcc64664	-0.024203487
86	0xbd8d15b4	-0.06888905
87	0xbce80312	-0.028321777
88	0x3d6285f2	0.05530352
89	0x3d8080bf	0.06274556
90	0xbc467b7f	-0.012114405
91	0x3a9d165e	0.0011984815
92	0xbd67dfdc	-0.056609973
93	0x3d880a62	0.06642605
94	0x3d137124	0.03599657
95	0x3da501a4	0.080569535
96	0xbd8d6b4e	-0.06905232
97	0xbd696f4b	-0.056990903
98	0xbde51618	-0.11185855
99	0xbd384c3b	-0.044994574
100	0xbc70cb91	-0.0146969715
101	0xbd87e7a4	-0.06635979
102	0xbdecb126	-0.11557226
103	0x3c446191	0.011986152
104	0xbc97193d	-0.018444652
105	0xbd8fb38a	-0.07016666
106	0xbc8a5700	-0.016887188
107	0xbd114101	-0.035462383
108	0xbd8cc6bf	-0.06873845
109	0x3d1f6d6a	0.038922705
110	0x3cb38470	0.021913737
111	0x3b88e40b	0.0041775755
112	0x3d0cbcb2	0.03435964
113	0x3cecd0fe	0.028908249
114	0xbae6d387	-0.0017610647
115	0xbd2affb3	-0.04174776
116	0xbcbf4d91	-0.023352416
117	0xbd998915	-0.074968494
118	0xbd84c3b5	-0.06482641
119	0x3d8b951f	0.06815552
120	0x3d340f6b	0.043960016
121	0xbd9a6271	-0.075383075
122	0xbc215345	-0.009846513
123	0xbd331a85	-0.043726463
124	0xbd2c22d3	-0.0420254
125	0xbd828f1e	-0.06374954
126	0x3d2327b7	0.039832797
127	0x3d63bda0	0.055600762

weight f4 [2, 128]
0	0x3db8da89	0.09026057
1	0xbc4de544	-0.012566868
2	0xbdaac5a5	-0.08338479
3	0xbd951b6b	-0.0728062
4	0x3c00c1a8	0.007858671
5	0x3bf9ce20	0.007623449
6	0xbd7a1fd6	-0.061065517
7	0x3d2f556b	0.04280607
8	0x3cba96c8	0.022776976
9	0xbc788021	-0.015167267
10	0x3d3646aa	0.044500984
11	0xbdae1976	-0.0850095
12	0x3c321779	0.010869854
13	0xbd16edca	-0.036847867
14	0x3c9b1019	0.018928574
15	0x3df1c7bf	0.11805677
16	0x3aea79be	0.0017889065
17	0xbd5f0605	-0.0544491
18	0xbb27d9d8	-0.0025612023
19	0xbe3e5603	-0.18587498
20	0x3dc15ede	0.094419226
21	0x3da45b5d	0.08025239
22	0xbd2b2679	-0.041784737
23	0x3d5f03f8	0.054447144
24	0xbd9e72ca	-0.07736738
25	0x3d92e3ba	0.07172342
26	0xbd449f54	-0.04800351
27	0xbfe001d7	-1.7500561
28	0x3d6928a7	0.056923535
29	0xbbeac390	-0.007164426
30	0xba1ecc82	-0.0006057696
31	0xbdade790	-0.08491433
32	0x3d1b681d	0.037941087
33	0x3d141a05	0.036157627
34	0x3d84b060	0.06478953
35	0x3db6981c	0.08915731
36	0xbda0cbf8	-0.07851404
37	0xbd74b08e	-0.05973869
38	0x3da75448	0.08170372
39	0x3d3eed58	0.046613067
40	0x3ad1f884	0.0016019498
41	0x3dbda266	0.09259491
42	0xbc6923a9	-0.014229693
43	0x3b1933e0	0.0023376867
44	0x3d6c1d8b	0.057645362
45	0xbda081e0	-0.07837272
46	0xbbbf7606	-0.005842927
47	0xbc9d78f3	-0.019222712
48	0x3d98d656	0.07462756
49	0x3dc5447a	0.096322015
50	0xbc89513a	-0.016762365
51	0xbd53a592	-0.051671572
52	0xbccb35c7	-0.024805916
53	0x3d07e1b1	0.03317422
54	0x3ec0044f	0.37503287
55	0x3bf0c760	0.007347986
56	0xbc7f4821	-0.015581162
57	0xbcdffa62	-0.027341072
58	0xb994f024	-0.00028407678
59	0xbe11b251	-0.14228179
60	0xbd9a8328	-0.07544547
61	0xbd33fb53	-0.043940853
62	0xbde3d5e3	-0.1112478
63	0x3c52e9c9	0.012873122
64	0xbac65f9c	-0.0015134695
65	0x3d021dce	0.031766705
66	0x3d95f777	0.07322591
67	0xbc0dbd5a	-0.008651102
68	0x3d89f659	0.0673644
69	0x3c08a91b	0.008341099
70	0xbd979640	-0.07401705
71	0xbdb78066	-0.08960037
72	0x3de4fe24	0.11181286
73	0x3db18c0e	0.086692914
74	0xbcb0dbd3	-0.021589195
75	0x3dd8afa2	0.10580374
76	0x3d079089	0.033096824
77	0x3d5af5a6	0.053456925
78	0xbc9d3016	-0.019187968
79	0xbde76d77	-0.11300176
80	0xbc1f13b0	-0.009709284
81	0xbd8985e4	-0.06714991
82	0xbef947ad	-0.48687497
83	0xbd9090ee	-0.07058893
84	0x3dc928d5	0.09822241
85	0xbfbc4936	-1.4709842
86	0x3db0f625	0.08640698
87	0xbdaae1c9	-0.08343846
88	0x3d60f5de	0.054921977
89	0x3c566eeb	0.013087968
90	0x3ca38f00	0.019965649
91	0x3cf68f1b	0.030097535
92	0x3db0f238	0.086399496
93	0x3bdf4f71	0.00681489
94	0x3c8451f8	0.016152367
95	0x3c7523f2	0.014962183
96	0x3d24002d	0.04003923
97	0xbd56ca15	-0.052438814
98	0x3baa4247	0.005195889
99	0x3d215482	0.039387234
100	0xbd1dc869	-0.038521204
101	0xbc2953c4	-0.010334913
102	0xbfe7bd9c	-1.8104739
103	0xbd3bd234	-0.045854762
104	0x3dd59b4a	0.1043001
105	0xbdad8d55	-0.084742226
106	0xbd20e805	-0.03928377
107	0xbe575a15	-0.21030457
108	0x3d275bae	0.040858917
109	0x3dd0a484	0.10187629
110	0xbcc19b01	-0.023633482
111	0x3dc8179e	0.097701296
112	0xbd5f01d8	-0.054445118
113	0x3d30dc4c	0.04317884
114	0xbdf6795e	-0.12034868
115	0xbdb0f3f3	-0.086402796
116	0xbd81cffb	-0.06338497
117	0xbd355200	-0.044267654
118	0xbd46fc2e	-0.04858034
119	0xbccd0408	-0.025026336
120	0xbe0d03df	-0.13771008
121	0x3dd3a80a	0.10334785
122	0x3d44ade6	0.048017405
123	0xbfae0e03	-1.3598026
124	0xbe367152	-0.17816666
125	0x3d919c0b	0.07109841
126	0xb95716b9	-0.00020512463
127	0xbbd93405	-0.0066285157
128	0xbd332329	-0.043734703
129	0xbb517bf7	-0.0031964758
130	0xbcc5c58f	-0.024142055
131	0xbb73bd84	-0.0037191818
132	0x3d446fc9	0.04795817
133	0xbcd09bbc	-0.025464885
134	0xbd6aa4d9	-0.057286117
135	0xbcf7f4c4	-0.03026808
136	0xbc913214	-0.017724074
137	0xbc1d0b65	-0.009585236
138	0xbe5be7e5	-0.2147518
139	0xbd92d76d	-0.071699955
140	0x3da13d8d	0.07873068
141	0x3dae6254	0.08514848
142	0x3d74d43b	0.05977271
143	0xbd1ec07f	-0.038757797
144	0x3ba049f4	0.0048916284
145	0x3cd02ccc	0.025411986
146	0xbbee8733	-0.0072793006
147	0xbdcc50e9	-0.0997637
148	0x3ba0bb39	0.004905131
149	0xbd23915f	-0.03993356
150	0x3d86f927	0.06590491
151	0xbbb26b13	-0.005444893
152	0xbd741c40	-0.059597254
153	0xbc71585b	-0.014730538
154	0x3d86a8d7	0.065751724
155	0xbf7d000a	-0.98828185
156	0x3da9c1db	0.08288928
157	0x3c574b70	0.013140544
158	0x3c26ae39	0.010173374
159	0x3d945c41	0.072441585
160	0xbd9d255f	-0.076731436
161	0x3dbeaa1f	0.09309792
162	0x3ca21b9f	0.019788561
163	0x3cad995b	0.02119129
164	0x3d75d713	0.060019564
165	0x3dbbe64f	0.09174787
166	0x3dabd25b	0.083897315
167	0xbd085cff	-0.033291813
168	0x3d3debb9	0.04636738
169	0x3d9a7499	0.075417705
170	0x3d9a0d3e	0.07522057
171	0x3cfb75ec	0.030695878
172	0x3d294bdc	0.04133211
173	0x3d98a853	0.0745398
174	0x3d24a41e	0.040195577
175	0x3d58c8ed	0.052925993
176	0x3c8733c7	0.016504182
177	0xb97d6488	-0.00024165411
178	0xbd5c2d00	-0.053753853
179	0xbdadc290	-0.084843755
180	0x3d99b827	0.075058274
181	0x3d122982	0.035684116
182	0xbd76731c	-0.06016837
183	0x3d5cfef6	0.053954087
184	0x3d6ee9ab	0.058328312
185	0xbcb17c20	-0.021665633
186	0x3da4c01c	0.080444545
187	0x3d3e6ed4	0.046492413
188	0xbd185505	-0.037190456
189	0xbdd30c65	-0.103050984
190	0xbcf66ddd	-0.030081684
191	0x3d22c78e	0.03974109
192	0x3ba85cf8	0.005138036
193	0xbd4a0c23	-0.04932798
194	0xbd7ce5f1	-0.061742727
195	0x3ce6ca83	0.028172737
196	0x3de96c43	0.113976024
197	0x3c3db106	0.01157785
198	0x3d67d66b	0.05660097
199	0xbda699d9	-0.08134813
200	0x3df89eec	0.12139687
201	0xbab55d90	-0.0013837088
202	0xbcdd08e9	-0.026981788
203	0xbd27f70a	-0.04100708
204	0x3d0bfb8d	0.034175444
205	0x3d40326e	0.046923093
206	0xbcaea995	-0.021321097
207	0xbd496d56	-0.049176537
208	0x3d62306a	0.055221952
209	0xbd355879	-0.044273827
210	0x3f3fb567	0.74886173
211	0x3db39dde	0.08770345
212	0x3d8b2a16	0.06795137
213	0x3e029319	0.12751426
214	0x3d84e729	0.06489403
215	0xbdab4759	-0.08363218
216	0x3c466642	0.012109341
217	0x3db8cc10	0.09023297
218	0x3ca4f7bd	0.020137662
219	0x3d36e635	0.044653136
220	0xbc588a12	-0.013216512
221	0xbdae5435	-0.08512155
222	0x3dce27f1	0.10066212
223	0x3cde1b2b	0.027112564
224	0x3c970406	0.018434536
225	0x3cb80520	0.022463381
226	0xbc1dde22	-0.00963548
227	0xbd6c51c4	-0.057695165
228	0x3dc6e551	0.097117074
229	0x3d483c52	0.04888565
230	0xbf5cea84	-0.8629534
231	0xbd1adbfa	-0.037807442
232	0xbc23aa12	-0.009989278
233	0x3ca04770	0.019565314
234	0xbd53efa7	-0.051742222
235	0xbd1ae344	-0.037814394
236	0xbd2ebacd	-0.042658616
237	0xbd02bdfb	-0.03191946
238	0x3d99a135	0.07501451
239	0x3cdeb0eb	0.02718397
240	0xbe104eb7	-0.14092527
241	0x3cdb6ae0	0.02678436
242	0x3d4bc0d6	0.04974445
243	0xbb166ba0	-0.0022952333
244	0xbe36eb4e	-0.17863199
245	0x3dadcadd	0.08485959
246	0xbca7a89c	-0.020466141
247	0x3d9eff2f	0.07763516
248	0xbd06237d	-0.032748688
249	0xbe1efc89	-0.15526022
250	0x3da48ff4	0.080352694
251	0xbccfb077	-0.0253527
252	0x3cf6bcec	0.030119382
253	0xbd76a741	-0.0602181
254	0xbb56b790	-0.003276322
255	0x3d15df4c	0.036589906

bias f4 [2]
0	0x3da3bd02	0.07995035
1	0xbca997c7	-0.020702256

weight f4 [128, 5]
0	0x3e7bc7da	0.24587956
1	0x3ecd1012	0.40051323
2	0xbd6b66ab	-0.05747096
3	0x3df57df9	0.11986918
4	0xbe1bf8a6	-0.1523157
5	0xbe05a6a3	-0.13051848
6	0xbcb28060	-0.02178973
7	0xbee4961d	-0.44645777
8	0x3caec31d	0.021333272
9	0xbea027c0	-0.31280327
10	0xbec4bdc8	-0.38426042
11	0xbe4452fe	-0.19172284
12	0xbc27ad60	-0.010234207
13	0xbdf0c93c	-0.117571324
14	0x3e56ee6c	0.20989388
15	0x3ec9527c	0.39320743
16	0x3d038574	0.032109693
17	0xbdb46056	-0.08807437
18	0xbeeb1560	-0.45914745
19	0xbeeb5264	-0.45961297
20	0xbee500fb	-0.4472731
21	0xbe967069	-0.29382637
22	0x3ecb39df	0.3969259
23	0xbecde7d1	-0.40215924
24	0xbe0339e9	-0.1281506
25	0xbe59c8ae	-0.2126796
26	0xbe396586	-0.18105134
27	0xbed36394	-0.4128691
28	0x3e3f1c18	0.1866306
29	0x3e9ce6e6	0.30644912
30	0x3e59011d	0.21191831
31	0x3de889ec	0.113544315
32	0xbdb15b7d	-0.08660028
33	0x3ea13406	0.31485003
34	0x3e8e8e33	0.27842864
35	0xbeb98f40	-0.36242104
36	0x3eb1b287	0.34706518
37	0x3ea1ae42	0.3157826
38	0x3e92963e	0.2863025
39	0x3ecd8f0c	0.401482
40	0xbe5e76da	-0.21725026
41	0x3c47adf6	0.012187472
42	0x3eb231d2	0.34803635
43	0xbe54c250	-0.2077725
44	0x3d79bb00	0.060969353
45	0x3ee9f512	0.45694786
46	0xbe81f9bd	-0.25385848
47	0xbd72ff83	-0.059325706
48	0x3e54ede3	0.20793872
49	0xbe963ad0	-0.29341745
50	0xbb6ac08a	-0.0035820329
51	0x3e099159	0.13434352
52	0x3e9f2820	0.310853
53	0xbd91c085	-0.07116798
54	0x3e88adfd	0.26695243
55	0xbd33147c	-0.043720707
56	0x3e86a6fa	0.26299268
57	0xbe103728	-0.1408354
58	0x3df2a99c	0.11848757
59	0x3de6a0e3	0.112611555
60	0x3edcaa42	0.43098646
61	0x3eaa780a	0.33294708
62	0xbe0e5b2d	-0.13901968
63	0xbe1f0872	-0.15530565
64	0xbe6341a4	-0.22193009
65	0x3e4c6e30	0.19963908
66	0x3e448918	0.19192922
67	0xbe07e5fd	-0.13271327
68	0x3da7fd89	0.08202655
69	0xbebea9d2	-0.37238938
70	0xbe52b00c	-0.20574969
71	0x3e97cc8a	0.29648238
72	0x3e2d899c	0.16947025
73	0x3e7532be	0.23945138
74	0x3d3bf597	0.04588851
75	0x3e8c6b51	0.27425626
76	0xbecc5a0a	-0.39912444
77	0x3c2250a8	0.009906925
78	0x3eaf63e8	0.3425591
79	0xbe42a8c4	-0.19009691
80	0x3e0f2487	0.13978778
81	0xbee52b83	-0.4475976
82	0xbe345838	-0.17611778
83	0xbdc6638a	-0.09686954
84	0x3e8e438f	0.27785918
85	0xbec26e92	-0.37974983
86	0x3e3dd658	0.18538797
87	0xbe8d504c	-0.27600324
88	0xbca492e0	-0.020089567
89	0xbe5c42d7	-0.21509872
90	0x3ef428ee	0.47687477
91	0xbea31d97	-0.31858513
92	0x3e954d4e	0.2916054
93	0x3de7697d	0.11299417
94	0xbe97fe07	-0.29685995
95	0x3f07e88f	0.5308923
96	0xbebf51ae	-0.37367004
97	0x3e3aa70e	0.18227789
98	0x3cd48a8b	0.025944969
99	0xbece1751	-0.40252164
100	0x3e9bd20c	0.3043369
101	0xbe8bbe7f	-0.27293774
102	0x3e78d585	0.24300201
103	0x3d2936a0	0.04131186
104	0xbec26d29	-0.37973908
105	0x3e143913	0.14474897
106	0x3e3ef140	0.18646717
107	0xbe39d808	-0.18148816
108	0x3dd1261f	0.10212349
109	0x3cc988b3	0.024601316
110	0xbe8b8740	-0.27251625
111	0x3e0d70ed	0.13812609
112	0x3ed0eae8	0.4080422
113	0x3eda4a10	0.4263463
114	0x3e1bbf59	0.15209712
115	0xbe887229	-0.26649597
116	0x3d8557e0	0.065109015
117	0x3c47fcc0	0.012206256
118	0x3ea1d06a	0.3160432
119	0xbed41370	-0.4142108
120	0xbe30cdd4	-0.17266017
121	0xbe809ec1	-0.2512112
122	0x3d3c8347	0.046023633
123	0x3d8be0e8	0.06830007
124	0x3e98fb57	0.29879257
125	0xbecc043f	-0.3984699
126	0xbe3bd742	-0.18343833
127	0xbdde2404	-0.10846713
128	0xbe6b3ac3	-0.22971635
129	0xbeb574cf	-0.3544068
130	0x3ecc1a3d	0.39863768
131	0x3e2541bd	0.16138358
132	0x3be7d92a	0.0070754485
133	0xbeb4a91b	-0.35285267
134	0x3eb89516	0.36051244
135	0x3cbb2cba	0.022848476
136	0xbe749d69	-0.23888172
137	0x3eb68076	0.35644883
138	0x3eac83f4	0.33694422
139	0xbd2217c8	-0.03957346
140	0xbcacb550	-0.02108255
141	0xbed7fb9a	-0.42184144
142	0x3ed30620	0.4121561
143	0x3eaac49e	0.33353132
144	0xbec00592	-0.3750425
145	0xbe144406	-0.14479074
146	0xbc162987	-0.009165174
147	0x3ebeff95	0.3730437
148	0x3ebea2e1	0.37233642
149	0xbdff63ff	-0.124702446
150	0x3e88d97b	0.26728424
151	0xbe2ecdb5	-0.17070659
152	0xbea45698	-0.32097316
153	0x3e906d7f	0.2820854
154	0xbd35003d	-0.04418968
155	0x3ebbcb32	0.36678463
156	0x3ec5d28d	0.386372
157	0x3ec667cc	0.38751066
158	0x3ebb86ae	0.3662619
159	0xbd3f22d2	-0.046664067
160	0x3e7881bd	0.24268241
161	0xbe71808c	-0.23584193
162	0xbd9cc917	-0.07655542
163	0xbc379105	-0.011204009
164	0x3da53c61	0.08068157
165	0x3ec7e7a4	0.39043915
166	0xbd20a2bc	-0.039217696
167	0xbec887b3	-0.3916603
168	0xbea8e292	-0.3298536
169	0xbca95760	-0.020671546
170	0xbedd1003	-0.43176278
171	0x3e6abe14	0.22924072
172	0xbd28c3e1	-0.04120243
173	0xbeaae66e	-0.3337893
174	0x3e1d1773	0.15340976
175	0x3e9c61db	0.30543408
176	0x3d6d077f	0.057868477
177	0xbae911c9	-0.001778179
178	0x3d21f5ae	0.03954094
179	0x3d820f4b	0.06350573
180	0xbe9c68f3	-0.3054882
181	0xbde0281b	-0.109451495
182	0xbebc4068	-0.36767888
183	0x3ebb885c	0.3662747
184	0x3ebaf068	0.3651154
185	0x3e44a7c0	0.19204617
186	0x3e32a0ce	0.17444155
187	0xbeae33f6	-0.34024018
188	0x3c3a16d1	0.011357979
189	0xbeade028	-0.3396008
190	0x3dde8834	0.108658224
191	0xbe5444fa	-0.20729437
192	0x3cbac090	0.0227969
193	0x3ef4c234	0.47804415
194	0x3ee88097	0.45410606
195	0xbe384d86	-0.17998323
196	0xbd689840	-0.056785822
197	0xbe3bb368	-0.18330157
198	0xbe505952	-0.20346573
199	0xbeb2eaae	-0.3494467
200	0xbe9f18ec	-0.310737
201	0x3ec1e95f	0.3787336
202	0xbdaa6a74	-0.083210856
203	0xbeb37e06	-0.35057086
204	0x3e415319	0.18879355
205	0x3df00a20	0.11720681
206	0xbe5e9412	-0.21736172
207	0xbb85c640	-0.004082471
208	0x3d827898	0.06370658
209	0xbdde38bc	-0.10850665
210	0x3e7e5cf2	0.24840143
211	0x3d4db2fa	0.050219513
212	0xbe71f952	-0.23630264
213	0xbe90409f	-0.28174302
214	0xbeb118e3	-0.345893
215	0x3e14a083	0.14514355
216	0x3e96ba4a	0.29439002
217	0xbeb04d63	-0.3443404
218	0xbe4f52a6	-0.20246372
219	0xbb5cc66d	-0.0033687607
220	0xbd16776f	-0.036734995
221	0x3ef446b7	0.477102
222	0xbe5b6c1c	-0.21427959
223	0x3e54d9ca	0.20786205
224	0x3ecedf2b	0.4040464
225	0x3f0ea71e	0.5572375
226	0xbeb53f9c	-0.35400093
227	0x3ed84565	0.42240444
228	0x3e7ff837	0.2499703
229	0x3e3ba68a	0.18325248
230	0xbe382f4c	-0.17986792
231	0x3ef19f90	0.4719205
232	0xbdf2873c	-0.118422
233	0xbed85f34	-0.42260134
234	0xbe9c7d7c	-0.30564487
235	0xbee54b81	-0.44784167
236	0x3bdb38e2	0.0066901306
237	0xbdc3a2b7	-0.0955252
238	0x3d428353	0.04748852
239	0xbe55061b	-0.2080311
240	0xbdcc2ff1	-0.099700816
241	0x3d68001b	0.056640726
242	0x3ec3d69d	0.38249674
243	0x3d32c20c	0.04364209
244	0x3df96505	0.12177471
245	0x3e30e206	0.17273721
246	0xbea399d9	-0.31953314
247	0xbdb4c781	-0.08827115
248	0xbe842392	-0.25808388
249	0x3dad9657	0.08475941
250	0x3e7f2c6f	0.24919294
251	0x3e48130d	0.19538517
252	0x3e2d3daa	0.16918054
253	0xbec19adf	-0.3781347
254	0xbe0c6333	-0.13709716
255	0x3e9c3d66	0.30515593

bias f4 [128]
0	0x3e961c51	0.2931848
1	0x3cc11a23	0.023572033
2	0xbe9ae194	-0.30250227
3	0x3d75b776	0.059989415
4	0x3eb927fa	0.36163312
5	0x3d324afb	0.04352854
6	0x3e55044e	0.20802423
7	0x3d8db183	0.06918623
8	0xbe25e372	-0.16200045
9	0xbe61ab23	-0.2203794
10	0xbdf95623	-0.121746324
11	0xbe415271	-0.18879105
12	0x3d347cc0	0.044064283
13	0xbda512e8	-0.08060247
14	0xbc85d875	-0.016338566
15	0x3ecdeeae	0.4022116
16	0x3c89f603	0.01684094
17	0xbe75df78	-0.24011028
18	0x3ea80b64	0.3282119
19	0xbd317b56	-0.043330513
20	0x3e25b8e5	0.16183813
21	0xbd871363	-0.065954946
22	0x3e91aaa0	0.2845049
23	0xbe72ec98	-0.23723066
24	0x3ebd83a4	0.37014496
25	0xbec96b50	-0.39339685
26	0xbdc31aed	-0.0952662
27	0xbe2f9d82	-0.17149928
28	0xbed29c28	-0.41134763
29	0x3eb749f4	0.3579861
30	0x3dd38685	0.10328392
31	0xbc3eb60e	-0.011640085
32	0x3de72749	0.1128679
33	0x3d09458c	0.03351359
34	0x3e27c4ac	0.16383618
35	0xbe801a14	-0.25019896
36	0x3da7dce7	0.08196431
37	0x3e67865e	0.22609851
38	0xbeac0320	-0.33596134
39	0xbe0ae93a	-0.13565531
40	0xbddccad5	-0.10780875
41	0xbea24554	-0.31693518
42	0x3e6c722f	0.23090433
43	0x3cadd5d5	0.021220127
44	0xbec044ef	-0.37552592
45	0xbdc51caa	-0.09624608
46	0xbde76182	-0.11297895
47	0x3eb53286	0.3539011
48	0x3db3e986	0.087847754
49	0x3dc91acd	0.09819565
50	0x3e9a0e70	0.3008914
51	0x3ea8b683	0.32951745
52	0x3ebbdaca	0.3669036
53	0x3e898fdb	0.26867566
54	0xbe4ca4ec	-0.19984788
55	0x3ec542d5	0.3852755
56	0xbe97054a	-0.29496223
57	0x3efb22e0	0.49050045
58	0xbd225db9	-0.039640162
59	0x3b6f913a	0.0036555068
60	0x3e150b7f	0.14555167
61	0x3ec338a4	0.3812915
62	0x3ddac250	0.106815934
63	0x3def4e0a	0.11684807
64	0x3edd6894	0.4324385
65	0xbd6506d8	-0.05591473
66	0x3e41ecde	0.18938014
67	0xbe23a098	-0.1597923
68	0x3c209171	0.009800301
69	0xbe0ab168	-0.13544238
70	0x3e97da6e	0.29658836
71	0xbe294749	-0.165311
72	0xbe855b1b	-0.2604607
73	0x3df26ddb	0.118373595
74	0x3db90c9b	0.090356074
75	0x3e5fd4db	0.21858542
76	0x3e90bedf	0.28270623
77	0xbd8d4a12	-0.068988934
78	0xbe941466	-0.28921813
79	0x3ee3f67e	0.44523996
80	0x3c08731d	0.008328226
81	0x3ed2b344	0.41152394
82	0x3e1c228c	0.15247554
83	0xbecc249f	-0.3987169
84	0x3e20c478	0.15699947
85	0xbe4c292a	-0.19937578
86	0x3e5f03a2	0.2177873
87	0x3d9181a4	0.07104805
88	0x3d38f381	0.0451541
89	0x3e669681	0.2251835
90	0x3db117cb	0.08647116
91	0xbed9999c	-0.42500007
92	0x3dd571b1	0.104220755
93	0xbe3cfbee	-0.18455479
94	0x3bd5c5ba	0.006523815
95	0xbe67529f	-0.22590111
96	0xbddbe719	-0.10737438
97	0x3ed5d0a9	0.41760758
98	0x3e92a474	0.28641093
99	0xbea45166	-0.32093352
100	0xbd981587	-0.07425981
101	0xbddac6e5	-0.10682467
102	0x3e068e9b	0.13140337
103	0xbdfeef3a	-0.124479726
104	0x3e43848a	0.19093528
105	0xbe7440f8	-0.23852909
106	0xbe97437d	-0.29543677
107	0xbe67aaf7	-0.22623812
108	0x3e86a7a9	0.2629979
109	0xbe2d0b92	-0.16898945
110	0xbef0960e	-0.46989483
111	0x3e885e3f	0.26634404
112	0x3e0e4651	0.13894011
113	0x3e806bd0	0.25082254
114	0x3d0589b6	0.032602035
115	0x3e9aa88b	0.30206713
116	0x3e599888	0.21249592
117	0xbe497508	-0.1967355
118	0x3eb77941	0.35834697
119	0xbd813e4a	-0.06310709
120	0xbe07f13c	-0.13275617
121	0xbec8b89e	-0.39203352
122	0xbed660db	-0.4187077
123	0xbe89d80c	-0.26922643
124	0x3ec26004	0.3796388
125	0xbbaedc4b	-0.0053363196
126	0x3e159c14	0.1461032
127	0xbdc3a033	-0.0955204

weight f4 [128, 128]
0	0xbd690fc5	-0.056899805
1	0x3cfb6e48	0.030692235
2	0xbc713198	-0.014721297
3	0x3db2bc67	0.08727341
4	0xbc866b24	-0.01640851
5	0x3dbab268	0.091160595
6	0xbb65a933	-0.0035043478
7	0x3dbebe3c	0.09313628
8	0xbe3579ca	-0.1772224
9	0x3da04952	0.07826485
10	0x3d905117	0.07046717
11	0x3bcf462c	0.006325504
12	0x3d6db3e8	0.0580329
13	0xbcacf783	-0.021114117
14	0x3d1e0364	0.038577452
15	0xbd54f6fa	-0.051993348
16	0x3cfc26db	0.030780246
17	0xbd9f8c5c	-0.07790443
18	0x3bc8bcc0	0.0061260164
19	0x3dd9dd0c	0.106378645
20	0x3d87667d	0.06611345
21	0x3dc6ef8c	0.09713659
22	0x3c7a266c	0.01526795
23	0xbcca5c90	-0.02470234
24	0x3dd70c5d	0.10500405
25	0xbd9112dc	-0.07083675
26	0x3ce6daec	0.028180562
27	0x3d794f82	0.06086684
28	0xbc5de728	-0.0135438815
29	0x3db85703	0.09000971
30	0xbd9dcf1e	-0.0770552
31	0x3b2156dc	0.0024618423
32	0x3d881737	0.06645053
33	0xbdbb66bb	-0.09150454
34	0x3d8b649f	0.06806301
35	0xbc4677a4	-0.0121134855
36	0x3c336c21	0.010951073
37	0x3d0c853b	0.034306746
38	0x3c9e7450	0.019342571
39	0x3da77a3b	0.081776105
40	0xbb73eb25	-0.0037219014
41	0xbd06f7c1	-0.03295112
42	0xbd123ce5	-0.035702605
43	0xbb0945dc	-0.002094618
44	0x3d6764c1	0.05649257
45	0x3bc37569	0.005964924
46	0xbcd7501b	-0.026283314
47	0xbe23c83f	-0.15994357
48	0xbda16b83	-0.07881834
49	0x3c7cfa4e	0.015440537
50	0x3d1d96a6	0.038473748
51	0x3cf445ae	0.029818382
52	0x3cf79e27	0.03022678
53	0x3cec3044	0.028831609
54	0x3d3a429a	0.045473672
55	0x3d7f1d10	0.062283576
56	0x3d15ddc2	0.036588438
57	0xbd15cb7e	-0.03657102
58	0xbcaee377	-0.021348698
59	0x3d954e61	0.0729034
60	0xbd1400de	-0.03613364
61	0x3cbde079	0.023178326
62	0xbdd652a8	-0.10464984
63	0x3d68edbe	0.056867354
64	0xbdae6b7e	-0.08516596
65	0x3cc3e5d0	0.023913294
66	0xbd9a2d74	-0.07528201
67	0xbd97531e	-0.073889
68	0x3bd9e0a1	0.0066490923
69	0xbd9c91ed	-0.07645021
70	0x3bca01b4	0.006164754
71	0xbc185e68	-0.009299852
72	0xbdaafc85	-0.083489455
73	0xbdc63b15	-0.09679238
74	0x3d81aa15	0.06331269
75	0x3d8af974	0.06785861
76	0x3b18c4a0	0.0023310557
77	0xbe28bbc3	-0.16477875
78	0xbe49f255	-0.19721349
79	0xbd0784ef	-0.03308576
80	0x3c224b1a	0.009905601
81	0xbd6e6137	-0.05819818
82	0x3dcc529f	0.09976696
83	0xbc711921	-0.014715464
84	0x3db2dd54	0.08733621
85	0x3df020af	0.11724984
86	0xbc472b8f	-0.012156381
87	0xbb123296	-0.0022307984
88	0x3d542426	0.051792286
89	0x3d24de24	0.040250912
90	0x3bb26a54	0.005444804
91	0x3cecdfcc	0.028915308
92	0xbd1e417e	-0.038636677
93	0xbcfd1116	-0.030891936
94	0x3dda36da	0.10654993
95	0xbd9c19c9	-0.07622106
96	0x3c150ad2	0.009096818
97	0xbd7840c3	-0.060608637
98	0xbdcca4a1	-0.09992338
99	0x3c343858	0.0109997615
100	0x3c78192f	0.015142723
101	0x3bd2a176	0.006427939
102	0xbd19cd9e	-0.037549607
103	0xbd76563d	-0.060140837
104	0x3d219d1f	0.039456483
105	0x3da61de2	0.081111684
106	0xbd863715	-0.06553475
107	0xbd71db32	-0.05904693
108	0x3d84def7	0.0648784
109	0x3db22789	0.08698947
110	0x3b55740f	0.0032570397
111	0xbd16fd10	-0.036862433
112	0xbdc22d76	-0.09481327
113	0x3cb02647	0.021502627
114	0x3dc8dc32	0.09807624
115	0x3d0d30b7	0.034470286
116	0xbe9818fa	-0.29706556
117	0x3d9c7e71	0.07641304
118	0x3d803a11	0.06261075
119	0x3ddc721f	0.10763954
120	0x3cb7a17f	0.022415875
121	0xbd059ccf	-0.032620247
122	0xbaa13d40	-0.0012301579
123	0xbe1f13ab	-0.15534846
124	0x3dc51454	0.09623018
125	0xbdcc511c	-0.09976408
126	0xbae532d6	-0.0017486464
127	0xbd568439	-0.05237219
128	0x3d649af3	0.055811834
129	0x3d4282d5	0.047488052
130	0x3d1736be	0.03691744
131	0x3d2660fe	0.040619843
132	0x3d464655	0.048406918
133	0x3d4db77a	0.050223805
134	0xbd8de9e2	-0.06929375
135	0x3dac94c9	0.08426816
136	0x3d2adee6	0.04171648
137	0x3dc35738	0.0953812
138	0x3d806a34	0.06270257
139	0xbd3b59c5	-0.045739908
140	0x3db07aa2	0.0861714
141	0x3dc16e65	0.09444884
142	0xbc3e50f6	-0.011615982
143	0x3d857af5	0.06517593
144	0x3d524ade	0.05134093
145	0x3baf3660	0.005347058
146	0xbd92842d	-0.07154117
147	0xbdae4ba3	-0.0851052
148	0xbc50d45f	-0.012745946
149	0x3d26ceb7	0.040724482
150	0xbc769e8a	-0.015052447
151	0xbdb2e7ad	-0.08735595
152	0x3d3586a7	0.044317868
153	0xbda8a367	-0.082342915
154	0x3c03eea0	0.008052498
155	0xbcdb16a0	-0.026744187
156	0xbca63d88	-0.020293012
157	0xbc52de11	-0.012870328
158	0xbdb1e0f3	-0.08685484
159	0x3caf4fe2	0.021400396
160	0x3d9ca9b2	0.07649554
161	0xbc8b1f45	-0.016982684
162	0x3d7085e5	0.05872144
163	0x3caf6410	0.021410018
164	0x3cb8b4fd	0.02254724
165	0x3d25935a	0.04042373
166	0xbd19ade5	-0.037519354
167	0x3d3b0812	0.045661993
168	0xbd3791b8	-0.044816703
169	0xb9359800	-0.0001731813
170	0xbd6d73f0	-0.057971895
171	0xbd044c1d	-0.03229915
172	0x3d25fb94	0.040523127
173	0x3d77c480	0.06049013
174	0x3e2976d7	0.1654924
175	0xbd38bc0b	-0.045101207
176	0x3dab82f1	0.083745845
177	0xbe0a5f55	-0.13512929
178	0x3d893d80	0.06701183
179	0x3ce126f8	0.027484402
180	0x3ce1a0f1	0.027542563
181	0x3db940ee	0.090455875
182	0xbcb17f06	-0.021667015
183	0x3d2d307f	0.042282578
184	0xbd3b8194	-0.045777872
185	0x3d81e685	0.06342796
186	0x3cf83011	0.030296357
187	0x3a4689fa	0.00075736607
188	0xbd21d169	-0.03950635
189	0x3d21382b	0.039360207
190	0xbd5a4d82	-0.053296573
191	0xbd3e95d5	-0.04652961
192	0xbc287ba1	-0.010283382
193	0x3de50481	0.111825
194	0x3d9999aa	0.07500012
195	0xbcb0b7e0	-0.021572053
196	0xbd974479	-0.07386107
197	0x3d927e00	0.07152939
198	0x3da3f30a	0.080053404
199	0xbd66b5ec	-0.056325838
200	0xbd6eed3b	-0.05833171
201	0x3d020e2c	0.031751797
202	0x3c8fa4ac	0.017534576
203	0xbb430f41	-0.002976373
204	0x3d45078f	0.04810291
205	0xbdb526e8	-0.088453114
206	0xbc5aae1c	-0.013347175
207	0x3bee5edd	0.007274492
208	0xbccba055	-0.024856726
209	0xbd53b105	-0.05168249
210	0xbd1df268	-0.038561255
211	0x3d80ea95	0.06294743
212	0xbcda5e44	-0.026656277
213	0x3d16a325	0.03677668
214	0x3d7ca38f	0.06167942
215	0x3cbc97ec	0.02302166
216	0xbc54445f	-0.012955754
217	0x3d2f1bf4	0.042751268
218	0x3db3bdac	0.087764114
219	0x3c4c2060	0.012458891
220	0x3dddc37c	0.10828301
221	0xbd781a36	-0.06057187
222	0x3e0b1710	0.13583016
223	0xbd4b700f	-0.049667414
224	0x3e00d134	0.12579805
225	0xbcca2fbd	-0.024680967
226	0xbdbd01d0	-0.09228861
227	0x3d55592e	0.052087
228	0x3bdc5b25	0.0067247325
229	0x3d9d3c37	0.07677501
230	0x3dbdb15e	0.09262346
231	0xbda1f0b2	-0.07907237
232	0xbd613384	-0.05498077
233	0x3dc3d6b1	0.095624335
234	0x3d87134c	0.065954775
235	0xbb1d2260	-0.0023976788
236	0xbd017498	-0.031605333
237	0x3d820099	0.0634777
238	0xbdcad96c	-0.09904751
239	0x3c54050d	0.012940657
240	0xbd10bf26	-0.035338543
241	0xbc9235c6	-0.017847907
242	0x3c3713b2	0.011174129
243	0x3cdd1df3	0.02699182
244	0xbe0f1dff	-0.13976286
245	0x3d5a942a	0.053363957
246	0xbd20e53b	-0.03928111
247	0xbcfead8a	-0.03108861
248	0x3c348379	0.011017674
249	0xbd8603ec	-0.06543717
250	0x3cff25b0	0.0311459
251	0x3d108b43	0.03528906
252	0xbce1a023	-0.02754218
253	0x3dc7b52c	0.09751353
254	0x3d7b9dc3	0.06142975
255	0xbd9da382	-0.07697202

bias f4 [128]
0	0xbd079309	-0.033099208
1	0xbc655597	-0.013997457
2	0xbcda2052	-0.02662674
3	0x3dd617fd	0.10453794
4	0xbbed6d09	-0.007245664
5	0xbdaa6a4f	-0.08321058
6	0xbcd89a23	-0.026440686
7	0x3d5b3c9f	0.05352461
8	0x3d1bee00	0.03806877
9	0x3c23ff57	0.010009608
10	0x3cefadff	0.029257772
11	0xbcdde43b	-0.027086368
12	0xbd8036b9	-0.062604375
13	0x3d8f04fb	0.06983372
14	0x3d6bfede	0.057616107
15	0x3cb11058	0.021614239
16	0xbd5d5590	-0.054036677
17	0xbd493d1b	-0.04913054
18	0xbd93ce25	-0.07217053
19	0xbb75920e	-0.0037471089
20	0xbd229101	-0.039689068
21	0x3d669c17	0.056301203
22	0x3da38c25	0.07985715
23	0x3babc60d	0.0052421154
24	0xbc4c0673	-0.0124527095
25	0x3d6cc159	0.05780158
26	0x3d042088	0.032257587
27	0x3cbb2e59	0.022849249
28	0x3cb1f1d0	0.02172175
29	0xbd110cdd	-0.035412658
30	0xbc90ca94	-0.017674722
31	0xbba8d0e4	-0.005151855
32	0x3ca50583	0.02014423
33	0xbc9f704c	-0.019462727
34	0xbd86e758	-0.06587094
35	0xbd4a667d	-0.049414147
36	0x3cc95d20	0.024580538
37	0x3d2ffba8	0.042964607
38	0xbcd7dc40	-0.02635014
39	0xbcd638e9	-0.026150184
40	0x3d5150ca	0.051102437
41	0xbd586e45	-0.052839536
42	0x3d69fb6e	0.057124548
43	0xbdaac645	-0.08338598
44	0xbd93c147	-0.07214599
45	0x3c981c8c	0.0185683
46	0xbd4dc8c1	-0.050240282
47	0xbd2b0039	-0.04174826
48	0xbbc5e250	-0.0060389414
49	0x3d5c5fa7	0.05380216
50	0x3d9177e9	0.07102949
51	0x3b7ff90f	0.0039058363
52	0x3d094ab5	0.03351851
53	0x3d827446	0.06369834
54	0xbcbb4cfc	-0.022863857
55	0x3d27f0cd	0.04100113
56	0x3cc2ebbc	0.023794048
57	0xbca25b4d	-0.019818926
58	0x3ce27edc	0.027648382
59	0x3d38fdbf	0.045163866
60	0xbd19be1a	-0.03753481
61	0xbcb099b6	-0.02155767
62	0xbd8c0f28	-0.06838828
63	0xbcb7e0ff	-0.022446154
64	0x3bc20e87	0.005922142
65	0xbd229194	-0.039689615
66	0xbdab7480	-0.0837183
67	0xbd088c01	-0.033336643
68	0xbd7a713f	-0.061143156
69	0x3dcef606	0.10105519
70	0x3db51552	0.08841957
71	0xbd901c97	-0.07036703
72	0x3cee1e6a	0.029067237
73	0x3d06e074	0.0329289
74	0x3c2eca72	0.010668384
75	0x3d3c629f	0.04599249
76	0x3a92fce1	0.001121428
77	0xbd3b1411	-0.045673434
78	0xbd7b1e9a	-0.06130848
79	0x3d3e8964	0.046517745
80	0x3d093dbf	0.03350615
81	0xbd936f42	-0.07198955
82	0xbc8814dd	-0.01661151
83	0xbd1b8140	-0.03796506
84	0xbd05a679	-0.032629464
85	0xbd3dbd57	-0.046323147
86	0xbcfb0818	-0.030643508
87	0x3d11e920	0.035622716
88	0x3d8a84bf	0.067636006
89	0x3d33035e	0.043704383
90	0xbcfa9b4d	-0.030591631
91	0x3ad72700	0.0016414821
92	0x3d94f7c8	0.07273823
93	0xb93adedc	-0.00017821364
94	0x3d5be095	0.053680975
95	0x3da53890	0.08067429
96	0xbc9b0c5c	-0.018926792
97	0x3da0244f	0.07819425
98	0xbd8d450c	-0.06897935
99	0xbd011e19	-0.031522844
100	0x3d40d573	0.04707856
101	0x3d3eed38	0.04661295
102	0xbd14855d	-0.036259998
103	0xbd104082	-0.03521777
104	0x3d4b01e1	0.04956234
105	0x3d20fdb8	0.039304465
106	0xba1e05f9	-0.00060281117
107	0xbd57cab3	-0.052683543
108	0xbd7f651a	-0.062352277
109	0x3bebac50	0.007192172
110	0x3d37c52c	0.044865772
111	0xbbbb34ed	-0.0057130964
112	0xbd16f48a	-0.036854304
113	0xbd2ce242	-0.042207964
114	0xbca2e908	-0.019886509
115	0x3dd7b652	0.10532822
116	0xbd06dd31	-0.03292579
117	0x3d4425e2	0.04788769
118	0x3c804807	0.015659345
119	0xbd559319	-0.052142236
120	0x3d3246a8	0.043524414
121	0xbd4a65e4	-0.049413577
122	0xbd8bfdc9	-0.06835515
123	0xbcc88bc1	-0.024480702
124	0xbd943449	-0.07236535
125	0xbda3916a	-0.0798672
126	0x3ceee058	0.02915971
127	0x3d66fab2	0.056391425
