models/mountaincar_2D/checkpoint_att.18.pth.tar (torch_old, 105542 bytes, 8 tensors)

weight f4 [128, 5]
0	0xbf52a50d	-0.822831
1	0xbe978dd3	-0.2960039
2	0x3993b8c4	0.00028175686
3	0x3e887a35	0.26655737
4	0xbe4a87eb	-0.19778411
5	0xbb8e41bb	-0.004341332
6	0x3ea39e8e	0.31956905
7	0x3e5a855d	0.21339937
8	0x3ec1e211	0.37867787
9	0xbd4606b5	-0.04834624
10	0xbe7cd0fb	-0.24689095
11	0x3e7dc402	0.24781802
12	0x3e6d9977	0.23203073
13	0xbea9d90c	-0.33173406
14	0x3e7dcee2	0.24785951
15	0xbf283b84	-0.65715814
16	0xbecdb2e7	-0.40175554
17	0x3e5f5751	0.21810652
18	0x3e653fb0	0.22387576
19	0xbe78694e	-0.2425892
20	0xbea7f0d6	-0.3280093
21	0xbd68e480	-0.05685854
22	0xbedb45d8	-0.42826724
23	0xbe818a76	-0.2530095
24	0xbe4866ee	-0.19570515
25	0x3efd1fcb	0.4943832
26	0x3ea62848	0.32452607
27	0xbebd3616	-0.36955327
28	0xbd5ff4f9	-0.054676984
29	0x3e0b0410	0.13575768
30	0x3dbf6964	0.093462735
31	0x3ece3e7b	0.40282044
32	0x3ab10ac9	0.0013507243
33	0xbee850ae	-0.45374054
34	0xbe1fa032	-0.15588453
35	0x3d821269	0.06351168
36	0x3d27e36d	0.040988375
37	0x3e02b66b	0.127649
38	0xbe0e37f6	-0.13888535
39	0x3d9ef261	0.07761074
40	0x3ebd322a	0.36952335
41	0xbe3f2a27	-0.18668424
42	0x3ead8340	0.33889198
43	0xbc6bc740	-0.014390767
44	0xbdb8f078	-0.09030241
45	0x3f00757b	0.5017926
46	0x3d5ede1a	0.05441103
47	0xbe4c16c7	-0.19930564
48	0x3ea25f0d	0.31713143
49	0xbe0ef66a	-0.13961187
50	0x3be7de62	0.0070760706
51	0xbf29b358	-0.6628928
52	0x3ad548cc	0.0016272306
53	0x3e0d47d5	0.13796933
54	0xbd5b796e	-0.0535826
55	0xbe11acee	-0.14226124
56	0x3e003b28	0.12522566
57	0xbd24cde8	-0.04023543
58	0x3ec78ca8	0.389745
59	0xbcf2dc10	-0.02964595
60	0xbd645fb7	-0.055755343
61	0xbeba6d7f	-0.36411664
62	0xbed0f67f	-0.40813062
63	0xbeb11c04	-0.34591687
64	0x3ea3bde5	0.31980816
65	0x3e0b6623	0.13613181
66	0x3edd3f68	0.43212438
67	0xbed254a8	-0.41080213
68	0xbdc9ff42	-0.0986314
69	0xbe69c50c	-0.22829074
70	0xbe0dfdc5	-0.13866337
71	0xbd7d620b	-0.06186108
72	0xbe8e6b6a	-0.27816325
73	0x3e74f364	0.23920971
74	0x3e1b6991	0.15176989
75	0xbeece3dc	-0.46267593
76	0x3ef7b1d0	0.48377848
77	0x3da7d4de	0.08194898
78	0xbdbe7bee	-0.093009815
79	0x3dc0d8e2	0.09416367
80	0xbedc3c3f	-0.43014714
81	0x3e9554ac	0.29166162
82	0xbea92944	-0.33039296
83	0xbdc9f6d8	-0.09861535
84	0x3e366751	0.1781285
85	0x3e86085e	0.2617826
86	0xbe1b4ea5	-0.1516672
87	0x3d544aa3	0.05182899
88	0xbedee61b	-0.43534932
89	0x3d2c6db0	0.042096794
90	0xbe3d8a9a	-0.18509904
91	0xbee0421a	-0.4380043
92	0xbe71c6b2	-0.23610952
93	0xbec0361a	-0.37541276
94	0xbe4b6b94	-0.19865257
95	0x3e650ce2	0.22368196
96	0x3e9a5619	0.30143812
97	0x3de17fb6	0.11010687
98	0x3dd79228	0.10525924
99	0x3e22e8f0	0.15909171
100	0xbe542364	-0.20716625
101	0x3e19270d	0.14956303
102	0x3e5764b7	0.21034513
103	0xbda1c6d4	-0.078992516
104	0xbe89912a	-0.26868564
105	0xbe7f7c23	-0.24949698
106	0xbe887332	-0.26650387
107	0xbbb35280	-0.0054724813
108	0xbe268b8a	-0.16264167
109	0x3e37f124	0.17963082
110	0x3d56d4de	0.0524491
111	0xbe797b3f	-0.24363421
112	0x3d8f4563	0.06995656
113	0x3de11280	0.10989857
114	0xbeb738f8	-0.3578565
115	0x3e00ad03	0.12565999
116	0x3ee232a5	0.44179264
117	0x3c34f4f0	0.011044726
118	0xbd937684	-0.072003394
119	0xbdefae17	-0.11703127
120	0x3dd864fa	0.10566135
121	0xbebbb795	-0.366635
122	0x3ee483c8	0.4463179
123	0x3ee13b85	0.43990722
124	0x3c135400	0.008992195
125	0x3d90a4b8	0.070626676
126	0x3e82f7fa	0.25579816
127	0xbe64492c	-0.22293538
128	0xbeb1cdb7	-0.3472726
129	0xbe4e513d	-0.20148177
130	0xbecb8326	-0.39748496
131	0x3e510485	0.2041188
132	0x3dc0f932	0.0942253
133	0x3e20ebc4	0.15714937
134	0xbe117b1e	-0.14207122
135	0x3f04be94	0.518533
136	0x3e1edb5a	0.15513363
137	0x3e363e15	0.1779712
138	0xbca0162c	-0.019541822
139	0xbe351f8b	-0.17687814
140	0xbe9378fb	-0.28803238
141	0x3ef7eaa3	0.484212
142	0x3eb010ed	0.34387913
143	0x3d609c14	0.054836348
144	0xbddfd74c	-0.109297365
145	0x3dc29316	0.09500711
146	0xbe7a6ea8	-0.24456275
147	0xbe118414	-0.1421054
148	0xbe48b080	-0.1959858
149	0xbe2b8b04	-0.16752249
150	0xbe67b1af	-0.22626375
151	0x3e72dd39	0.23717202
152	0xbda62881	-0.08113194
153	0x3d43fcd2	0.04784853
154	0x3d2a8beb	0.041637342
155	0x3dc2dc33	0.09514656
156	0x3eaa6e92	0.33287483
157	0xbd7c412f	-0.0615856
158	0xbea72b3f	-0.32650182
159	0xbde12f0e	-0.10995303
160	0x3ec08175	0.37598768
161	0xbe129fa6	-0.14318714
162	0x3ddeade9	0.108730145
163	0xbeabd87d	-0.33563605
164	0x3d4b5982	0.04964591
165	0xbe850852	-0.2598291
166	0x3eff87ee	0.49908394
167	0x3e8e2b40	0.27767372
168	0x3eace4a8	0.337682
169	0x3e736eb9	0.23772706
170	0xbceb0a20	-0.028691351
171	0xbe83ea6f	-0.25764796
172	0xbeb11c12	-0.34591728
173	0xbe6f856a	-0.23390737
174	0xbe30aa7a	-0.17252532
175	0x3ef03566	0.4691574
176	0xbe59698a	-0.21231666
177	0x3d36cc60	0.0446285
178	0x3eaf9c10	0.34298754
179	0xbd8ac5d0	-0.06776011
180	0x3dfba270	0.12286842
181	0xbee5aac7	-0.44856855
182	0xbeba0275	-0.3633
183	0x3e51b1b3	0.20477943
184	0x3ea29aa2	0.317586
185	0xbe9c078d	-0.3047451
186	0xbe9c9205	-0.30580154
187	0x3dfbe09a	0.12298699
188	0xbed9a943	-0.4251195
189	0x3e1c1ed9	0.15246142
190	0x3ea2d02c	0.31799448
191	0x3d198036	0.037475787
192	0xbe3e7764	-0.18600231
193	0xbe3172db	-0.1732897
194	0x3d62658c	0.055272624
195	0xbe4f5c57	-0.20250069
196	0xbf0af767	-0.54283756
197	0x3d24fe68	0.040281683
198	0x3e482246	0.19544324
199	0x3e025049	0.12725939
200	0xbdf6ded5	-0.120542206
201	0x3ea6e4e3	0.32596502
202	0xbe2d106c	-0.16900796
203	0xbdecdbd1	-0.11565364
204	0x3d65ab23	0.05607141
205	0x3d83e413	0.06439986
206	0xbf06741b	-0.5252091
207	0x3e12eb01	0.1434746
208	0xbeaf27e5	-0.34210125
209	0x3e76a03b	0.2408456
210	0xbe7f9c12	-0.2496188
211	0xbc5fcc8c	-0.013659608
212	0x3de1fe7f	0.110348694
213	0x3ea359ce	0.31904453
214	0xbe25acb0	-0.16179156
215	0x3e300b08	0.17191708
216	0x3ea546e3	0.32280645
217	0xbdaf1879	-0.0854959
218	0xbec79626	-0.38981742
219	0xbe91df4d	-0.28490677
220	0x3e5283da	0.2055811
221	0xbe982b50	-0.29720545
222	0xbdc309cc	-0.09523353
223	0x3e569369	0.2095467
224	0xbee108a6	-0.4395191
225	0xbebd6df7	-0.3699796
226	0x3ed56db4	0.4168526
227	0xbdf2f7f1	-0.11863697
228	0x3bdd92d0	0.006761886
229	0x3e51b71c	0.20480007
230	0x3dd1cae8	0.102437794
231	0x3f041579	0.51595265
232	0xbe7cb820	-0.24679613
233	0x3e08febc	0.13378423
234	0xbbf8bbe8	-0.0075907595
235	0xbea8d2d4	-0.3297335
236	0x3e571b84	0.2100659
237	0x3db13b30	0.08653867
238	0xbd978bd4	-0.07399717
239	0xbe934ea1	-0.28770927
240	0x3c985cf2	0.018599007
241	0xbf28ae05	-0.6589053
242	0x3e1c059b	0.15236513
243	0xbce24437	-0.027620418
244	0x3dd98a0e	0.10622035
245	0x3dcff808	0.1015473
246	0xbeed175d	-0.46306887
247	0x3e7f9ea2	0.24962857
248	0xbd56acc6	-0.052410863
249	0xbec9232d	-0.3928465
250	0xbe3a37ed	-0.18185396
251	0xbc3bf8b8	-0.011472873
252	0xbe668449	-0.225114
253	0x3e569cba	0.20958224
254	0x3ca73bfe	0.020414349
255	0x3e516e87	0.20452319

bias f4 [128]
0	0x3e47b0b1	0.19500996
1	0xbdbdafe4	-0.09262064
2	0xbe5c4983	-0.21512417
3	0x3e4ab851	0.19796874
4	0xbe04c0e4	-0.12964207
5	0xbe85fe1e	-0.2617044
6	0xbd40bb17	-0.047053423
7	0xbe320c2e	-0.17387459
8	0xbea0969a	-0.313649
9	0x3ddef756	0.10887019
10	0x3ecd83aa	0.40139514
11	0xbe8483b6	-0.25881737
12	0xbd9c548e	-0.07633315
13	0xbe64a581	-0.2232876
14	0xbd87dc97	-0.06633871
15	0x3d8b78e7	0.0681017
16	0x3eb040ad	0.34424344
17	0x3cae3f43	0.0212704
18	0xbe2628ea	-0.16226545
19	0xbe83957e	-0.2569999
20	0xbe7ce73a	-0.24697581
21	0xbe6e4e68	-0.23272097
22	0x3d62dc9b	0.055386167
23	0xbdc069eb	-0.09395202
24	0xbe8f9b9f	-0.28048417
25	0xbeb86b96	-0.36019582
26	0xbd501907	-0.050805118
27	0xbea4c1ae	-0.32179016
28	0xbed875d5	-0.422774
29	0x3e7b0c73	0.24516468
30	0x3d16e200	0.036836624
31	0xbd68167c	-0.056662068
32	0xbcae47c9	-0.021274464
33	0xbe2b529e	-0.16730735
34	0x3dc515d0	0.09623301
35	0xbea4270b	-0.32061037
36	0xbd120663	-0.035650622
37	0x3e33ea16	0.17569765
38	0x3dea066e	0.114270076
39	0x3eb26933	0.34845886
40	0x3d69119c	0.05690156
41	0x3e73b398	0.23798978
42	0xbdb50227	-0.08838301
43	0xbd69527f	-0.05696344
44	0xbe1d57ee	-0.15365574
45	0x3df1c2e2	0.11804749
46	0xbeba89d4	-0.3643328
47	0xbe596419	-0.2122959
48	0x3e927252	0.28602844
49	0x3e7dc82f	0.24783395
50	0x3d97abd4	0.074058205
51	0xbe81cf12	-0.25353295
52	0x3e78275d	0.24233766
53	0xbee24136	-0.44190377
54	0x3e5ad8ea	0.21371809
55	0x3c5acaa7	0.01335398
56	0xbe4f982c	-0.20272893
57	0xbd93cc4d	-0.07216702
58	0x3dd86d2c	0.10567698
59	0xbe991fcd	-0.29907075
60	0xbe269334	-0.16267091
61	0x3e3be220	0.18347979
62	0xbde0c2bb	-0.10974642
63	0x3e67667c	0.22597688
64	0x3ebba331	0.36647943
65	0x3d30e6ea	0.043188967
66	0x3e57ee80	0.21087074
67	0x3e61832e	0.22022697
68	0xbe88fe27	-0.26756403
69	0xbe11b21b	-0.14228098
70	0x3d4e1789	0.050315414
71	0xbc73c438	-0.014878325
72	0x3e99d0ac	0.30042017
73	0x3e486b3e	0.1957216
74	0xbe5aeace	-0.21378633
75	0x3e8b4d83	0.27207574
76	0xbeaf4b89	-0.34237316
77	0x3d4a4bc4	0.049388662
78	0x3e1e2ede	0.15447566
79	0xbeb8a1e4	-0.36061013
80	0xbebe64db	-0.37186322
81	0xbd83f18c	-0.06442556
82	0xbe5cf8b5	-0.21579249
83	0x3d1c8118	0.03820905
84	0x3ed1672c	0.40899026
85	0xbebef681	-0.37297443
86	0xbeaf133e	-0.34194368
87	0x3eb37795	0.3505217
88	0xbe402432	-0.18763807
89	0x3da2b151	0.07943977
90	0x3e387752	0.18014267
91	0x3d97258f	0.073802106
92	0xbee46d9f	-0.44614884
93	0x3c646313	0.013939637
94	0x3eb89ec7	0.36058637
95	0x3eceacd6	0.40366238
96	0xbe415a0d	-0.18882008
97	0x3e6fc39c	0.23414463
98	0x3e6e6041	0.23278905
99	0xbed96143	-0.42457017
100	0xbe718ebb	-0.23589604
101	0x3e3be39c	0.18348545
102	0x3e34d297	0.17658459
103	0xbed910a2	-0.42395502
104	0xbe1666ee	-0.14687702
105	0xbe395c9a	-0.18101731
106	0xbdbe364c	-0.092877
107	0x3e729a23	0.23691611
108	0xbed2291e	-0.41046995
109	0xbea84ce4	-0.32871163
110	0x3d97b7ed	0.07408128
111	0x3e64fdd6	0.22362456
112	0x3e12dc7e	0.14341924
113	0x3d731c15	0.059352953
114	0x3e1a7b87	0.15086184
115	0x3cc3b867	0.02389164
116	0xbe0944c3	-0.13405137
117	0xbe5a96b0	-0.21346545
118	0xbe9fec8f	-0.31235167
119	0x3e91e09d	0.2849168
120	0xbdcba3b7	-0.099433355
121	0xbd79f39f	-0.06102335
122	0x3eecccbf	0.4624996
123	0xbe7b377f	-0.24532889
124	0x3e885d63	0.26633748
125	0xbe591496	-0.21199259
126	0x3ec10e45	0.377062
127	0xbdbaa24a	-0.091129854

weight f4 [128, 128]
0	0x3ac580c5	0.0015068284
1	0xbe6f2be9	-0.23356594
2	0xbcf4c518	-0.029879138
3	0xbe073cf7	-0.1320685
4	0x3cc6fb28	0.024289683
5	0xbceb3f87	-0.028716816
6	0xbd1c5623	-0.038168084
7	0x3d2f658e	0.04282146
8	0x3c13f571	0.009030686
9	0xbd18b6c9	-0.037283693
10	0xbe68c8e4	-0.22732884
11	0xbe33d592	-0.1756194
12	0x3d6443f0	0.055728853
13	0xbe668ce6	-0.22514686
14	0x3b993c59	0.0046763835
15	0x3d9e07bb	0.07716318
16	0xbbd92c0c	-0.0066275652
17	0x3d46636d	0.048434664
18	0x3d8ce679	0.06879897
19	0x3dab6e85	0.08370689
20	0x3c7bc346	0.015366381
21	0xbc344cd8	-0.011004649
22	0xbd00b448	-0.03142193
23	0xbc89da62	-0.016827766
24	0xbe8ca692	-0.27470833
25	0xbd51fd3b	-0.05126689
26	0xbdd89a30	-0.10576284
27	0xbe5b2ad9	-0.21403064
28	0xbbc636aa	-0.006048997
29	0x3a9c6376	0.0011931497
30	0x3d11b004	0.035568252
31	0xbc7321eb	-0.01483963
32	0x3d8edd95	0.06975857
33	0xbbca1f63	-0.0061682924
34	0x3d61c7e6	0.05512228
35	0xbca7ebe9	-0.020498233
36	0xbcc33378	-0.023828253
37	0xbebce218	-0.36891246
38	0x3d8306b5	0.06397764
39	0xbdcf8154	-0.10132089
40	0x3c914e48	0.017737523
41	0xbba69eaf	-0.0050848345
42	0xbdedd178	-0.116122186
43	0xbe30049a	-0.17189255
44	0xbc9f2220	-0.019425452
45	0x3e14e9e0	0.14542341
46	0xbea423cf	-0.3205857
47	0xbd7388fa	-0.059456803
48	0xbd87ab50	-0.06624472
49	0x3bdf0e4d	0.0068071247
50	0xbd14df52	-0.036345787
51	0x3d8a7ab1	0.06761683
52	0xbd639982	-0.05556632
53	0xbd28db9a	-0.041225053
54	0x3d83e792	0.06440653
55	0xbd9eebd8	-0.077598274
56	0x3dc9f78e	0.098616704
57	0x3d59d25e	0.053179137
58	0x3c1542db	0.009110178
59	0x3d30780a	0.04308323
60	0xbd6865e0	-0.05673778
61	0x3d174c30	0.036937892
62	0xbc8f7ee2	-0.017516557
63	0xbd1e05cf	-0.03857976
64	0x3d635bf1	0.055507604
65	0xbb87dc00	-0.004146099
66	0xbd0c60a0	-0.034271836
67	0xbf5a6421	-0.85309035
68	0xbdb497d6	-0.08818023
69	0xbdfb251a	-0.12262936
70	0xbc0a4e16	-0.008441469
71	0x3c1d9d4f	0.009620025
72	0x3d6ada90	0.057337344
73	0x3d019d26	0.03164401
74	0xbd3c9fc9	-0.04605082
75	0x3d894a21	0.06703592
76	0xbd61d97e	-0.055139057
77	0xbcc25afa	-0.023725022
78	0xbcf51ba7	-0.029920412
79	0xbdf9e84d	-0.12202511
80	0x3d83f0a2	0.064423814
81	0x3cc5bb9c	0.02413731
82	0xbeeb9759	-0.46013907
83	0x3d9edc1b	0.077568255
84	0x3d5a6f80	0.05332899
85	0xbf341d3d	-0.70357114
86	0x3d07ea98	0.03318271
87	0xbddc716e	-0.107638225
88	0x3d510a0e	0.05103498
89	0xbe9991bf	-0.29994008
90	0x3de87a55	0.11351458
91	0x3c29307b	0.0103265
92	0xbd7e5454	-0.06209214
93	0xbf0709e1	-0.5274945
94	0xbd12236e	-0.03567832
95	0x3d145fe7	0.036224272
96	0xbe732897	-0.23745953
97	0xbe9b00bd	-0.30274
98	0xbd1b3248	-0.03788975
99	0xbd809832	-0.06279029
100	0x3e201aa7	0.15635167
101	0x3d58e17d	0.052949417
102	0xbe2ba9ef	-0.16764043
103	0xbcfb4dc4	-0.03067673
104	0x3d313845	0.043266553
105	0xbdbf0469	-0.09327013
106	0xbbbc0740	-0.005738169
107	0xbd04d747	-0.032431867
108	0xbd23d374	-0.03999658
109	0x3d9199e3	0.0710943
110	0xbcd7a217	-0.026322408
111	0xbea3098f	-0.3184323
112	0xbe14c75f	-0.14529179
113	0x3aa418e8	0.001251963
114	0xbda24ab4	-0.07924405
115	0x3d173823	0.03691877
116	0xbc543bf9	-0.012953752
117	0x3dafe25f	0.08588099
118	0xbc10637b	-0.0088127805
119	0xbe99abb3	-0.3001381
120	0x3d8a8c41	0.067650326
121	0x3d74d29a	0.059771158
122	0x3d59579d	0.05306207
123	0xbe4a7288	-0.19770253
124	0x3d490d98	0.04908523
125	0xbf0c6937	-0.54848045
126	0xbebc9f4c	-0.36840284
127	0x3dbc932c	0.09207758
128	0x3acc51cf	0.0015588346
129	0xbe5bc4f4	-0.2146185
130	0x3d03e52b	0.032200973
131	0xbd98fc18	-0.07469958
132	0xbbde3a70	-0.0067818686
133	0x3daabefa	0.08337207
134	0x3dfec942	0.12440731
135	0x3c6e83ae	0.014557762
136	0xbd972315	-0.07379738
137	0xbc2f942f	-0.010716482
138	0xbe7620fa	-0.24036017
139	0xbe763988	-0.24045384
140	0xbc238d78	-0.009982459
141	0x3d0fdf04	0.035124794
142	0x3d96e29b	0.0736744
143	0x3e5c9170	0.21539855
144	0x3cc5044a	0.024049897
145	0x3d588a72	0.052866407
146	0xbcebe564	-0.028795905
147	0x3e22f53f	0.15913866
148	0xbe5a4d41	-0.21318533
149	0xbd878f64	-0.066191465
150	0xbe3dcd6e	-0.18535396
151	0x3e839fa3	0.2570773
152	0xbe192a3b	-0.14957516
153	0xbce0456c	-0.027376853
154	0xbeb261b6	-0.34840173
155	0xbe8d35fd	-0.27580252
156	0xbe48c441	-0.19606115
157	0xbe045693	-0.1292365
158	0x3deec90c	0.116594404
159	0x3e285769	0.16439594
160	0x3dafcbd8	0.08583802
161	0x3d8acdbf	0.06777524
162	0x3d1b7a5a	0.03795848
163	0xbe08daed	-0.13364764
164	0xbe0ac0c2	-0.13550094
165	0xbe1a8a11	-0.1509173
166	0x3d89ff0a	0.06738098
167	0xbe38e06a	-0.18054357
168	0x3d601c64	0.054714575
169	0x3d92106b	0.07132038
170	0xbe231514	-0.1592601
171	0xbe4e2b11	-0.20133616
172	0xbd564696	-0.05231341
173	0x3d858a4b	0.06520518
174	0x3b82476d	0.0039758
175	0xbd5c4dc4	-0.0537851
176	0xbdbeffd5	-0.0932614
177	0xbe9c1714	-0.30486357
178	0x3d9bc91b	0.07606717
179	0x3b6c627b	0.003606944
180	0xbe10f328	-0.14155257
181	0x3c64d218	0.013966106
182	0x3d41f7ba	0.04735539
183	0xbdfadfc9	-0.12249715
184	0x3d34ff67	0.044188883
185	0x3e369f89	0.17834295
186	0x3c80aaa2	0.015706364
187	0x3ca466bc	0.020068519
188	0xbc221a58	-0.009893976
189	0x3daaed14	0.08346
190	0x3e287feb	0.16455047
191	0xbd1da6dc	-0.038489208
192	0x3db348e0	0.08754134
193	0xbddc9065	-0.107697286
194	0x3d168ac9	0.03675345
195	0x3de87477	0.11350339
196	0xbe721bc4	-0.23643404
197	0xbe09d857	-0.13461433
198	0xbe6a902f	-0.22906564
199	0xbdf45e5e	-0.119320616
200	0xbcce55db	-0.025187423
201	0x3d18a425	0.037265915
202	0xbe4c8847	-0.1997386
203	0x3db310bc	0.08743426
204	0x3c3334d0	0.010937884
205	0xbdf375cc	-0.11887702
206	0xbe2dc3a8	-0.16969168
207	0xbe088eec	-0.1333577
208	0xbe1de396	-0.15418848
209	0xbdf15923	-0.117845796
210	0xbf1d49af	-0.6144056
211	0xbcf51486	-0.029917013
212	0x39b9e967	0.00035459848
213	0xbf1eda34	-0.620517
214	0x3d8ba7ce	0.068191156
215	0x3da237e9	0.0792082
216	0x3d9cc25b	0.07654258
217	0xbdc8fbbb	-0.09813639
218	0xbbbe81ef	-0.005813829
219	0xbe0eae05	-0.1393357
220	0xbd2be344	-0.041964784
221	0xbe6dbbcc	-0.2321617
222	0xbd868e2e	-0.065700874
223	0xbe2ab9c2	-0.16672423
224	0xbe9687aa	-0.29400378
225	0xbd2ca289	-0.042147193
226	0xbe99f448	-0.30069184
227	0xbdb21772	-0.08695878
228	0x3e5ba1ad	0.21448393
229	0x3cadc3fe	0.02121162
230	0xbd0d1e18	-0.034452528
231	0xbe8cc0db	-0.27490887
232	0x3c087f85	0.008331184
233	0xbe3b48ad	-0.18289442
234	0xbd8cbccf	-0.0687195
235	0xbd2ebf7b	-0.04266308
236	0xbc3f7e98	-0.011687897
237	0xbca903d0	-0.0206317
238	0xbe0c9ee3	-0.13732485
239	0xbe3e775e	-0.18600222
240	0xbd434a44	-0.047678247
241	0xbdd19d80	-0.10235119
242	0x3db2dabf	0.08733129
243	0x3ca17634	0.019709684
244	0xbd45166f	-0.048117097
245	0xbe0954bf	-0.13411234
246	0x3c36b4c4	0.011151496
247	0xbe797aff	-0.24363326
248	0x3dd53c8f	0.10411941
249	0x3db73f69	0.089476414
250	0x3c73bea1	0.014876992
251	0xbdfe4f1b	-0.12417432
252	0x3db45aff	0.08806419
253	0xbe804560	-0.2505293
254	0xbe38f339	-0.18061532
255	0xbe550b0b	-0.20804994

bias f4 [128]
0	0xbc8c88ce	-0.017155077
1	0xbd77091e	-0.06031143
2	0xbd8542dc	-0.06506893
3	0xbd399889	-0.045311484
4	0x3ba0c67d	0.004906474
5	0xbcd41d8d	-0.025892997
6	0xbbb38a20	-0.0054791123
7	0xbd167d2d	-0.03674047
8	0x3d0fef0a	0.035140075
9	0x3ceabda1	0.028654875
10	0xbd26ece0	-0.040753245
11	0xbcf43932	-0.02981243
12	0x3dd51ee3	0.10406282
13	0x3d5960b4	0.05307074
14	0x3d38e2b0	0.04513806
15	0x3d31507f	0.043289658
16	0x3ca0f837	0.019649608
17	0xbdb9bdd3	-0.09069409
18	0x3d079394	0.033099726
19	0xbc77ae84	-0.015117291
20	0x3d343fec	0.044006273
21	0xbd7ac72f	-0.061225113
22	0xbcf371cc	-0.029717349
23	0xbc431a50	-0.011908129
24	0xbda16438	-0.07880443
25	0xbd40ee7f	-0.047102448
26	0xbdb3e550	-0.08783972
27	0x3d5d8d52	0.05408985
28	0xbd653607	-0.055959728
29	0xbca73cd2	-0.020414744
30	0xbd5fa890	-0.054604113
31	0xbdaf2d80	-0.085536
32	0xbcaf1170	-0.02137062
33	0xbda8d5a7	-0.08243876
34	0xbda37014	-0.079803616
35	0xbbf1574d	-0.0073651434
36	0x3cf456a0	0.029826462
37	0xbd1fafd3	-0.03898604
38	0xbdcff28e	-0.101536855
39	0xbdbc4165	-0.091921605
40	0xbdc5f9c8	-0.096667826
41	0x3c72c2e1	0.014816971
42	0xbc6ee291	-0.014580385
43	0x3d72c918	0.05927381
44	0xbda4f202	-0.08053972
45	0x3db9c535	0.090708174
46	0xbdeaaa56	-0.1145827
47	0xbd37e3e5	-0.04489507
48	0xbc3dcb70	-0.011584148
49	0xbd2e64e4	-0.042576686
50	0x3d65f69b	0.056143384
51	0x3d5cbeb3	0.053892802
52	0xbc948475	-0.018129567
53	0x3d1c608f	0.038178023
54	0x3d1605a5	0.036626477
55	0xbd084922	-0.03327287
56	0xbcc696e7	-0.024241878
57	0x3cecd4a2	0.028909985
58	0xbcaa975f	-0.020824132
59	0xbc1f07ca	-0.009706447
60	0x3b6ebe4e	0.0036429348
61	0xbdc05e41	-0.093929775
62	0xbd51bf9f	-0.051208135
63	0x3c3b7600	0.011441708
64	0xbdbd186a	-0.09233172
65	0xbcda16d3	-0.026622212
66	0xbd7fc44a	-0.062443055
67	0x3da0d9c1	0.07854033
68	0x3d854138	0.0650658
69	0x3cc37012	0.02385715
70	0xbdc03c75	-0.09386531
71	0xbc761053	-0.01501854
72	0x3cc0eebe	0.023551341
73	0x3c7bc7ed	0.01536749
74	0xbcc7688f	-0.02434185
75	0xbd76bf27	-0.06024089
76	0x3c6bee42	0.014400067
77	0xbc2beb6f	-0.010493143
78	0x3c2cce03	0.010547164
79	0xbd8b1738	-0.06791538
80	0xbd6434f8	-0.055714577
81	0x3b0f0ad2	0.0021826518
82	0xbbc19712	-0.0059079016
83	0x3d400761	0.046882037
84	0xbcc2dee5	-0.023787925
85	0x3cc2fd86	0.02380253
86	0xbcd7c189	-0.026337402
87	0x3b66502c	0.0035143
88	0xbbe43cb7	-0.0069652456
89	0xbcfba3ca	-0.03071775
90	0xbd79f13e	-0.061021082
91	0x3d863485	0.06552986
92	0x3d9a3064	0.07528761
93	0x3d112979	0.035439942
94	0x3ca47277	0.020074112
95	0x3d785a51	0.060633007
96	0xbab95aad	-0.0014141403
97	0xbdbb20cb	-0.09137114
98	0xbd0a5e6a	-0.033781447
99	0xbcd09614	-0.025462188
100	0x3d588cc2	0.052868612
101	0x3d51ffa5	0.051269192
102	0xbcf8945f	-0.030344186
103	0xbcd2c090	-0.025726587
104	0x3ccf1953	0.02528063
105	0xbda08b85	-0.07839111
106	0xbc3b3467	-0.011426068
107	0xbcb9ff98	-0.022704884
108	0xbdb2c491	-0.08728898
109	0x3cf15084	0.029457338
110	0xbd63c333	-0.05560608
111	0xbda8d168	-0.08243066
112	0xbd0a1500	-0.033711433
113	0x3d11b46a	0.035572447
114	0xbdc54f10	-0.096342206
115	0xbc7f8c63	-0.015597436
116	0x3d93f66a	0.07224734
117	0x3cd1618a	0.025559206
118	0xbd32cc5d	-0.043651927
119	0x3d19cda7	0.03754964
120	0xbd87c381	-0.06629086
121	0x3d7530ed	0.059861112
122	0x3dc874c2	0.09787895
123	0x3b962377	0.0045818645
124	0xbd6cbf37	-0.057799544
125	0x3ce42c9a	0.027853299
126	0xbcf08ada	-0.029363085
127	0x3bd33592	0.006445595

weight f4 [64, 128]
0	0xbe4449bf	-0.19168757
1	0x3c17d41c	0.009266879
2	0xbe55f146	-0.2089282
3	0xbdadf869	-0.08494646
4	0xbe6491b2	-0.22321203
5	0x3dac54e9	0.08414633
6	0xbd0634d1	-0.032765213
7	0x3e9adfa4	0.3024875
8	0x3c56b317	0.013104222
9	0x3d4a2034	0.049347118
10	0xbe206329	-0.15662827
11	0x3ee0c134	0.43897402
12	0x3d032026	0.03201308
13	0x3d56f451	0.052479092
14	0xbec30e1a	-0.38096696
15	0x3c92d58f	0.017924098
16	0xbe982e16	-0.2972266
17	0xbd91d136	-0.07119982
18	0xbd9d4c10	-0.076805234
19	0xbe1ecebd	-0.15508552
20	0xbd2e95e0	-0.0426234
21	0x3da1b0f5	0.0789508
22	0x3e5aa933	0.21353607
23	0xbb7239ed	-0.0036960796
24	0xbc1d1c50	-0.00958927
25	0xbd02a895	-0.031899054
26	0x3d41c66a	0.047308363
27	0xbbba9ff8	-0.0056953393
28	0xbd0708a6	-0.032967232
29	0xbdcf6211	-0.101261266
30	0xbd1e9d5e	-0.038724296
31	0x3cb59c3c	0.022169225
32	0xbe27b3d9	-0.163772
33	0x3e22acaf	0.15886186
34	0xbda169c1	-0.07881499
35	0x3ebb2255	0.3654963
36	0xbd70790f	-0.0587092
37	0x3cfcb7a6	0.03084929
38	0x3d753576	0.059865437
39	0x3de078ea	0.109605625
40	0xbe4bc65b	-0.19899885
41	0x3deec522	0.11658694
42	0xbddcae58	-0.10775441
43	0x3d9c46bf	0.07630681
44	0xbbec823b	-0.007217673
45	0x3c66ff49	0.014098951
46	0x3cd672a8	0.02617772
47	0xbd47bd4d	-0.048764516
48	0xbd9d1fec	-0.07672104
49	0x3d5c33b9	0.053760264
50	0x3d3f83c6	0.04675653
51	0x3c9c361a	0.019068766
52	0xbdfbbd79	-0.122919984
53	0x3d8f2e3f	0.069912426
54	0x3d870aeb	0.06593879
55	0x3d988dbb	0.07448908
56	0x3da13a28	0.078724205
57	0xbcabba5b	-0.020962885
58	0xbe843fc6	-0.25829905
59	0xbd9db69e	-0.07700847
60	0xbe086560	-0.13319921
61	0x3d9c5cb5	0.0763487
62	0x3d830c72	0.06398858
63	0xbd896552	-0.067087784
64	0x3d021d76	0.031766377
65	0xbc9bb9c0	-0.019009471
66	0x3ed29d5c	0.4113568
67	0x3d80b29a	0.062840655
68	0xbdaaeeaf	-0.083463065
69	0xbc87b537	-0.016565902
70	0x3bf2db26	0.0074113784
71	0xbe3666aa	-0.178126
72	0x3e30ea15	0.17276795
73	0xbe3154f2	-0.1731756
74	0x3d87d4c2	0.06632377
75	0xbdaf4552	-0.08558144
76	0x3db59784	0.0886679
77	0x3ca1d774	0.019756056
78	0x3d1defe4	0.038558856
79	0x3d1e328a	0.038622417
80	0x3f0336a6	0.5125526
81	0xbe53a7f2	-0.20669535
82	0x3d76be68	0.06024018
83	0xbdcf4f50	-0.101225495
84	0x3e6bb3b5	0.23017772
85	0xbcb457cd	-0.022014523
86	0x3df06b66	0.117392346
87	0xbb947caf	-0.004531465
88	0xbe9e995c	-0.3097638
89	0x3c71943e	0.014744816
90	0xbab9d051	-0.0014176463
91	0xbe85f0f8	-0.26160407
92	0xbcc980f8	-0.02459763
93	0xbd8572c3	-0.0651603
94	0x3dffcf2c	0.12490687
95	0xbe1de253	-0.15418367
96	0x3d8c5d45	0.06853727
97	0xbe0e56c6	-0.13900289
98	0x3e055821	0.130219
99	0x3e9b304e	0.3031029
100	0x3ca27693	0.019831931
101	0x3d8f7959	0.07005567
102	0x3d678a56	0.05652841
103	0x3d0b9100	0.03407383
104	0xbd569141	-0.05238462
105	0x3d82106f	0.06350791
106	0xbdcd3b82	-0.10021116
107	0x3e2d7f1a	0.16943017
108	0xbc22bc88	-0.009932645
109	0xbc7b9da8	-0.015357412
110	0xbd6d62cc	-0.05795555
111	0xbd2e728e	-0.042589717
112	0x3e23b3a8	0.15986502
113	0xbc703038	-0.014659934
114	0x3d8c3f4e	0.06848012
115	0x3ecb10f3	0.3966137
116	0x3d4b8cc4	0.04969479
117	0xbc1a3ae5	-0.009413456
118	0x3edaf342	0.42763716
119	0x3d1c026a	0.03808824
120	0x3d8b5a77	0.06804364
121	0xbe918d71	-0.28428224
122	0x3e4d3bfb	0.20042412
123	0x3d6fd7d7	0.05855545
124	0xbda39c5b	-0.07988807
125	0x3ccd152e	0.025034513
126	0x3d552267	0.05203476
127	0x3cc13656	0.02358548
128	0x3d02c282	0.03192378
129	0xbd4f08e9	-0.050545607
130	0x3d6ed0e2	0.058304675
131	0xbe3f9b4c	-0.18711585
132	0xbf573e4e	-0.84079444
133	0x3d03cd34	0.03217812
134	0x3d172152	0.03689701
135	0xbcdca12e	-0.026932325
136	0xbc4b6c5c	-0.012415972
137	0x3c9976f2	0.018733475
138	0x3d7bcd1e	0.061474912
139	0x3eae3ae4	0.34029305
140	0xbde3393a	-0.110948995
141	0xbdcdbc2e	-0.10045658
142	0x3d0ef6d7	0.034903374
143	0xbc854b9d	-0.016271407
144	0x3e150037	0.14550863
145	0x3cfd621c	0.030930571
146	0x3cfd3eb4	0.030913688
147	0xbeba932e	-0.36440414
148	0x3d670e9d	0.05641042
149	0xbe871166	-0.2638046
150	0x3d9c6e32	0.076382056
151	0xbd9adad2	-0.07561268
152	0x3d06124c	0.032732293
153	0x3bc41335	0.005983735
154	0xbd73f2ee	-0.059557848
155	0x3dd83f41	0.1055894
156	0xbd2e8fc4	-0.042617574
157	0xbbccf983	-0.00625533
158	0xbc85e5bb	-0.016344896
159	0x3e425b58	0.18980157
160	0x3d97ab50	0.07405722
161	0xbf262706	-0.64903295
162	0x3dfe3f3f	0.12414407
163	0xbeb6e016	-0.3571784
164	0xbd0722ab	-0.032992046
165	0xbf62d8dd	-0.8861216
166	0x3cbb4218	0.022858664
167	0xbd78f280	-0.06077814
168	0x3ebddfd3	0.37084827
169	0x3d55bf9d	0.05218469
170	0x3d8af94c	0.06785831
171	0xbec39fbd	-0.38207808
172	0xbd3e1867	-0.04640999
173	0xbdfcd646	-0.12345557
174	0x3d2165c8	0.039403707
175	0x3db68ce5	0.08913592
176	0x3dc98e24	0.09841564
177	0x3cd07b5c	0.025449447
178	0x3cf5204d	0.029922629
179	0xbcf8b8bb	-0.030361524
180	0x3d968d2c	0.07351145
181	0xbc875482	-0.016519789
182	0x3e655134	0.22394258
183	0xbded41df	-0.115848295
184	0xbd42c5cd	-0.04755192
185	0xbd6f82e2	-0.05847443
186	0xbd0278e2	-0.031853564
187	0x3aab37a2	0.0013062845
188	0x3e354ab0	0.17704272
189	0xbdabe06c	-0.083924145
190	0xbc924f0e	-0.017859962
191	0xbdcdcdfc	-0.10049054
192	0x3cfcd8de	0.03086513
193	0xbcf4144c	-0.029794835
194	0x3ef539b9	0.478956
195	0xbce1bba9	-0.027555304
196	0xbd4651c4	-0.04841782
197	0x3d53af0d	0.051680613
198	0x3bc07748	0.0058735944
199	0xbd2e2204	-0.04251291
200	0xbea9fcd1	-0.33200696
201	0x3d29a3b5	0.04141589
202	0xbe39b4e4	-0.1813541
203	0xbc631670	-0.01386033
204	0xbd7a77b8	-0.06114933
205	0x3dc76302	0.09735681
206	0x3e1c2288	0.15247548
207	0xbd835823	-0.06413295
208	0x3f05fbc1	0.5233727
209	0x3e77d62f	0.24202798
210	0xbd3047e6	-0.043037318
211	0xbda59a7f	-0.080861084
212	0xbea809c9	-0.32819965
213	0xbf2e651d	-0.68123037
214	0xbd6c059c	-0.057622537
215	0xbec79879	-0.38983515
216	0x3e4e5ff0	0.20153785
217	0xbd81b209	-0.06332786
218	0x3d991d14	0.07476249
219	0x3dd53c42	0.10411884
220	0xbd4ae3c6	-0.049533628
221	0x3e43ce13	0.1912158
222	0xbcee2880	-0.029072046
223	0x3e2190e9	0.15777935
224	0x3db451bd	0.08804653
225	0xbd8be0b2	-0.068299666
226	0xbe97d891	-0.29657415
227	0xbd354c27	-0.044262078
228	0x3c965d0e	0.018354919
229	0xbe3e5586	-0.18587312
230	0xbd956fdf	-0.07296728
231	0xbc020a60	-0.007937044
232	0xbcbe139f	-0.023202715
233	0x3d805289	0.06265742
234	0x3d4978e7	0.049187567
235	0xbda48f48	-0.08035141
236	0xbd888ff6	-0.06668083
237	0xbc735f1a	-0.014854217
238	0x3b309534	0.00269444
239	0xbc358170	-0.011078224
240	0xbe1a7a3b	-0.1508569
241	0xbbd2e822	-0.006436364
242	0xbd3ebf46	-0.04656913
243	0x3ee8b5af	0.45451114
244	0xbd2d4f69	-0.04231206
245	0xbf181794	-0.5941098
246	0x3e669613	0.22518186
247	0xbe679188	-0.2261411
248	0x3e0b34ab	0.1359431
249	0xbe48431c	-0.1955685
250	0xbe7d0911	-0.2471049
251	0x3d6cf78c	0.057853267
252	0x3cf9d6e2	0.030497972
253	0x3d16d23b	0.036821585
254	0x3d8d8781	0.06910611
255	0xbb5dbb83	-0.003383369

bias f4 [64]
0	0xbe13025d	-0.1435637
1	0x3c59e49d	0.013299135
2	0x3d9dd7e9	0.07707197
3	0xbc5951ae	-0.013264103
4	0xbe3cda49	-0.18442644
5	0xbca9fe0a	-0.020751018
6	0xbd888929	-0.06666786
7	0xbd2cb660	-0.042166114
8	0xbdce0b45	-0.10060743
9	0xbce99388	-0.028512731
10	0xbe1e9356	-0.15485892
11	0xbd67de87	-0.056608703
12	0xbe1d0b6f	-0.15336393
13	0x3d1cbe65	0.038267512
14	0xbdc02baa	-0.09383328
15	0xbc45af0a	-0.012065658
16	0x3cc80b33	0.024419403
17	0xbd9d26aa	-0.0767339
18	0xbd56d244	-0.05244662
19	0x3db81e20	0.08990121
20	0xbcce158b	-0.025156757
21	0xbd4baa3f	-0.049722906
22	0x3c3005d7	0.01074358
23	0x3ce03943	0.027371055
24	0xbbbba47b	-0.0057263947
25	0x3e1332a1	0.14374782
26	0x3ba15e39	0.0049245623
27	0xbdbb0cf0	-0.09133327
28	0xbe08e45a	-0.13368359
29	0xbd4325f7	-0.047643628
30	0xbc8a5edb	-0.016890934
31	0xbcb22c87	-0.021749748
32	0xbdeb051a	-0.114755824
33	0xbdb45d52	-0.08806862
34	0xbc8f423f	-0.017487643
35	0xbde122ec	-0.10992989
36	0x3cc6e5a0	0.024279416
37	0xbe0ee24c	-0.13953513
38	0xbdd904b0	-0.10596597
39	0x3d3e63a0	0.04648173
40	0x3d2793ab	0.04091231
41	0xbd772adf	-0.06034362
42	0xbd90f0a5	-0.07077149
43	0xbe0aa0e8	-0.13537943
44	0xbd3ed55f	-0.046590205
45	0xbd37636a	-0.044772543
46	0xbd35d437	-0.044391837
47	0x3dcb4d1d	0.099268176
48	0x3db3931e	0.08768295
49	0xbbc968f6	-0.0061465455
50	0x3dc22516	0.0947973
51	0xbd092dca	-0.033490933
52	0xbd25b711	-0.04045779
53	0x3d717f89	0.058959518
54	0x3d608673	0.05481572
55	0xbe108bbb	-0.14115803
56	0x3c7ee307	0.015557057
57	0x3db43f45	0.0880113
58	0x3c25f04a	0.01012809
59	0xbd830c72	-0.06398858
60	0x3d965f5e	0.073424086
61	0xbd9e04f2	-0.07715787
62	0x3d135ccb	0.035977166
63	0xbd326df0	-0.043561876

weight f4 [2, 64]
0	0x3edf6fb6	0.43639916
1	0x3e48a56f	0.19594358
2	0xbe978428	-0.29593015
3	0xbea06488	-0.313267
4	0xbe15a567	-0.14613877
5	0x3d8059d3	0.062671326
6	0x3e87ecd4	0.26547873
7	0xbb4a2c51	-0.0030849169
8	0xbe468e93	-0.19390325
9	0x3f01096a	0.5040499
10	0x3f0c7e18	0.54879904
11	0x3e49829b	0.19678728
12	0x3f5e3fad	0.8681591
13	0x3d5f1d1a	0.054471113
14	0x3ce8a628	0.028399542
15	0x3e0a582a	0.13510194
16	0xbe341b2c	-0.1758849
17	0x3d8561d5	0.065128006
18	0xbd56af52	-0.052413292
19	0x3dca4dac	0.09878096
20	0xbdd4f667	-0.1039856
21	0x3c1edeb5	0.009696652
22	0x3e28dfb1	0.16491581
23	0x3e04dfae	0.12975952
24	0xbdb743eb	-0.08948501
25	0x3e6f9049	0.23394884
26	0x3c09afd4	0.008403737
27	0xbeb3d506	-0.3512346
28	0xbe1f4614	-0.15554076
29	0xbdf98570	-0.12183654
30	0xbda535d4	-0.080669075
31	0x3e0b5f0e	0.13610479
32	0xbe037d8c	-0.12840861
33	0x3e3bb5bb	0.18331043
34	0x3d92791d	0.07152007
35	0x3db23912	0.087022915
36	0xbdc78d1e	-0.09743713
37	0xbda6d067	-0.08145218
38	0x3df1268e	0.11774932
39	0x3dfb919d	0.12283633
40	0xbe2983a9	-0.1655413
41	0xbd604e6d	-0.054762293
42	0x3de6400e	0.11242686
43	0xbe2c21c4	-0.16809756
44	0x3de9f5c4	0.11423829
45	0x3bc22db0	0.0059258565
46	0xbd95afc6	-0.07308917
47	0x3da25783	0.07926848
48	0x3eb9192f	0.36152026
49	0xbd23412f	-0.039857086
50	0xbead163f	-0.33806035
51	0x3cea5a94	0.028607644
52	0xbc94a005	-0.01814271
53	0xbe8e7db5	-0.27830282
54	0x3e68d79e	0.22738501
55	0xbef79464	-0.483554
56	0x3e0f9cb2	0.14024618
57	0x3d1eb955	0.038750965
58	0x3ebe9b54	0.3722788
59	0xbcca112e	-0.024666395
60	0x3ea66435	0.32498327
61	0x3dfb9319	0.12283916
62	0x3edf41b8	0.43604827
63	0xbd80155a	-0.062540725
64	0xbee89254	-0.4542414
65	0xbe70fb0c	-0.23533267
66	0x3e7690bf	0.24078654
67	0x3e65a245	0.22425182
68	0x3ea4fa5b	0.32222256
69	0xbdfba279	-0.122868486
70	0xbdc588c3	-0.09645226
71	0x3d2f33a9	0.042773876
72	0x3dd1a107	0.10235792
73	0xbf323f5e	-0.6962794
74	0xbecfa816	-0.40557927
75	0xbd2abd94	-0.041684702
76	0xbf763438	-0.9617343
77	0xbe83a249	-0.2570975
78	0x3c9817e2	0.018566076
79	0xbe1af1b7	-0.1513127
80	0x3d281fe2	0.04104603
81	0xbe543f59	-0.2072729
82	0xbd99bc7b	-0.07506653
83	0xbdd4d82d	-0.10392795
84	0x3d8afae8	0.06786138
85	0xbd91dd64	-0.07122305
86	0xbe145647	-0.14486037
87	0xbe9fd94d	-0.31220475
88	0x3e042561	0.12904884
89	0xbd86d1a9	-0.06582958
90	0x3c0f9f59	0.008766019
91	0x3e881ba1	0.2658358
92	0x3e535ea2	0.20641568
93	0xbdb71e81	-0.08941365
94	0x3d372561	0.04471338
95	0xbe097a0c	-0.13425463
96	0x3e74d6fe	0.23910138
97	0xbdea1ba1	-0.11431051
98	0xbe0665d1	-0.13124777
99	0x3d69c2e3	0.057070624
100	0xbd2232c7	-0.039599206
101	0x3daf777f	0.08567714
102	0xbdc2619c	-0.09491274
103	0xbd6e69a6	-0.058206223
104	0x3c500ea2	0.012698801
105	0xbbb1860c	-0.005417591
106	0xbdc7c8e2	-0.09755112
107	0x3e009977	0.12558542
108	0xbe20db41	-0.15708639
109	0xbe3e8c3b	-0.18608181
110	0x3cff69b0	0.031178325
111	0xbe4cbe86	-0.19994554
112	0xbe25a353	-0.16175584
113	0xbe130b8e	-0.14359877
114	0x3ea28c13	0.31747493
115	0x3b58d656	0.0033086739
116	0xbcbb7ed6	-0.022887629
117	0x3e2e5745	0.17025478
118	0xbdec3747	-0.11533981
119	0x3ef036fb	0.46916947
120	0xbd9aca50	-0.07558119
121	0xbe7a8fa0	-0.24468851
122	0xbe5c4500	-0.21510696
123	0x3b566e44	0.0032719532
124	0xbe3e8f80	-0.18609428
125	0xbe1252f9	-0.14289464
126	0xbeccf866	-0.40033263
127	0xbdc5d586	-0.09659867

bias f4 [2]
0	0xbbb535e9	-0.005530108
1	0x3de0d201	0.10977555
