models/mountaincar_2D/checkpoint_cl.18.pth.tar (torch_old, 143897 bytes, 12 tensors)

weight f4 [128, 5]
00000000: 36bc 363e 64a7 863d a4f4 dbbd 074b 6f3e
00000010: d1ed c4be f8b8 7fbe 44eb 023e 24a3 b2bd
00000020: b48f 81be 34f8 89be 4f45 c6bf 855a 89be
00000030: 253d 8abd 97e6 8abd 5bde 68be 9e4c 00bd
00000040: 2b1c 05be 2529 c5bc 64c6 283e 5d9d 8f3e
00000050: 24c9 793d 0f2b a3be 512a b03e c094 cd3c
00000060: 3834 b63e 12bb dc3e 7b91 6b3e 4b6a 333e
00000070: 06ff 24be 7726 8abe 43d6 103e 9239 bcbe
00000080: 604c 2ebe df66 8d3e 9355 823e 9761 cabe
00000090: 2275 cdbd 6956 bd3e 03d9 a8be 1e5c 8c3e
000000a0: 43c5 d5be 797a 413d 4a13 92be ba52 0bbe
000000b0: c7ac 9f3e e427 b43d b838 0dbe 2060 debd
000000c0: db9e 89be 7177 59be d82f ebbe de02 593e
000000d0: 9fab 86be 0900 b23e 59a9 663e 3d83 0f3f
000000e0: 8996 5a3e 821c 3e3e b651 bf3e 65b9 42be
000000f0: 864c d53d ef60 11be 6c2e 8e3e b325 463e
00000100: 22a0 523e 8903 b0bd c6f9 a03e 44c6 cdbe
00000110: f083 173d cf79 c23d ed26 e0be a8b7 4fbe
00000120: c7ea af3e 23f2 553e fb07 d3be a71a a2be
00000130: 3a94 723e f2ae b23e c951 5ebe 063a 45be
00000140: ec58 833e 9a99 cc3e 2c48 fcbe 8ec6 99be
00000150: 1714 9a3e 684f bfbe b1ab 23be 29f8 cd3e
00000160: 13f3 ce3e 92c4 463d 10d0 b4bc 94a2 ccbe
00000170: 50ff c63c 28ca 91be f03a 81bc 7e36 c2be
00000180: f59a 253e e627 db3d 3970 123e 90ec cabe
00000190: 5c11 343e 5e8e fb3c 6ae9 a2be 159a 0c3e
000001a0: 1c1c babe 7c62 d73e a602 1c3e f50a 883d
000001b0: 2dd5 7e3e 7257 a9be fd00 123e a08c e53e
000001c0: a38f 783d 72c9 95bd 8f40 aa3e acd2 0fbe
000001d0: 72b9 9a3d c3b2 683e 5109 c3bd 82b8 1e3e
000001e0: 6f0d 74be ef08 b53e 8fa2 8f3e a2b8 d03e
000001f0: db27 63be 6ea9 8bbe 4066 d0be f7f8 a53e
00000200: dc00 3a3e 79aa 7cbe 9da3 c8be ba63 bc3e
00000210: 9817 473e eab6 473e ee4c c13c 4597 1ebe
00000220: 14ae b43e 4211 c43e 44ae d13e 1764 5b3d
00000230: e9d6 ce3e 488d 74bc b8d0 c0be 2d81 a43e
00000240: cb01 7b3e 2e19 a33e 3f3e ecbe 3491 993e
00000250: 0424 95bc 2435 263d 6135 d63e dab9 783e
00000260: 7e92 cbbe 6c3c 63bd f338 b63e 912c 003e
00000270: 4c25 213e 6c83 5b3d b5f8 7b3e 7b3b 3dbe
00000280: 3c3d 8b3e bea0 a23e ef4a 4d3e 070c 003e
00000290: 827c b63e 2f0b e0be f1e4 b9be dc63 363e
000002a0: 7001 18be 92c0 ac3e daa5 c9be fad7 a9be
000002b0: 10dc 933d 78b7 053d b83f cebd 7823 2a3e
000002c0: abf0 38be 3b2f aa3e 92ea f8bd ab21 c63e
000002d0: d454 10be 908d 393e 2eaa 4fbe 6052 9abe
000002e0: 4055 ce3b fb04 d63e 8236 853d 7b91 8bbe
000002f0: 39cd 1bbd 4e90 aebe 860d 883e 3f5d 96be
00000300: a0b2 39bd 14fb 8cbe f060 14be e480 babe
00000310: 0e51 c6be c805 13be 8174 aa3e 3cbb d2be
00000320: 577b b7bc c76b b6bd b44e 42be 0666 13bd
00000330: 05ae 6b3e d14a d03e c939 66be c077 93be
00000340: d896 d6bd cd8d c33c 8a36 11be d0b7 753e
00000350: 9001 31be 7749 a7be e22b 823e b6f0 00be
00000360: 2c3e 4d3e 0d27 7fbe c889 b93e c67e 0cbe
00000370: 4fc6 22be 0241 9e3e 3c0f 28bd c589 82bc
00000380: 6968 c2bd 24a2 b83e ff5b abba 047f 9cbe
00000390: 4c3e a4be b2bc e23d 0b41 c53e 5c6a a4be
000003a0: f416 bcbe 4437 b03e aace 41be 348c d9be
000003b0: 6724 5d3e b6c2 c83d 2dac aebd d6de 4bbd
000003c0: 0806 bdbe caab 333e 2636 b13e 3854 9bbe
000003d0: 9d8f ca3e ed4b a63e ce55 9c3e b5eb 6b3e
000003e0: b78b 8b3e a1b1 8e3e d6f7 863e 66ea 983d
000003f0: 30a7 4e3d e6c5 763e 22e3 94be ae37 02be
0.17845234 0.06574896 -0.10740021 0.23368464 -0.3846269 -0.24972904 0.12785059 -0.08722523
-0.2530495 -0.26947176 -1.5489901 -0.26826873 -0.06749944 -0.06782263 -0.22741072 -0.031323068
-0.12999026 -0.02406747 0.1648193 0.28049746 0.06098284 -0.3186879 0.34407285 0.025095344
0.35586715 0.43111473 0.23004715 0.17521016 -0.16112909 -0.2698247 0.14144234 -0.36762673
-0.17021322 0.27617547 0.25455913 -0.3952758 -0.10032107 0.36979988 -0.32978067 0.2741403
-0.4175206 0.04723594 -0.2853034 -0.13605776 0.31186506 0.08796671 -0.13791168 -0.10858178
-0.2687901 -0.2123697 -0.4593494 0.211925 -0.26302812 0.34765652 0.22525539 0.5605963
0.21346487 0.18565562 0.37367028 -0.19016035 0.10414986 -0.14197133 0.27769792 0.19350319
0.20568898 -0.08594424 0.31440562 -0.40190327 0.03699106 0.094958894 -0.43779698 -0.20284903
0.34358808 0.20893149 -0.41217026 -0.3166096 0.23689356 0.34899098 -0.21710886 -0.19260415
0.2565378 0.3996094 -0.49273813 -0.30034298 0.30093452 -0.3736527 -0.15983464 0.40228394
0.40419826 0.048527308 -0.022071868 -0.39967787 0.024291664 -0.28474545 -0.015775174 -0.379322
0.16172393 0.107009694 0.14300622 -0.39633608 0.17584747 0.030707534 -0.31818706 0.13730653
-0.3634957 0.42067325 0.15235385 0.06642715 0.24886008 -0.33074528 0.1425819 0.4483385
0.060683858 -0.07313813 0.3325238 -0.14045209 0.07554902 0.22724442 -0.09523261 0.15500072
-0.2383325 0.35358378 0.2805371 0.40765864 -0.22183172 -0.27277702 -0.4070301 0.32416508
0.1816439 -0.24674405 -0.39187327 0.36794835 0.19442594 0.1950337 0.023596253 -0.15487392
0.3528906 0.38294417 0.40953267 0.05356225 0.40398338 -0.014926262 -0.3765924 0.32129803
0.24512403 0.31855148 -0.4614124 0.29993594 -0.01820565 0.040578023 0.418376 0.24289647
-0.39760202 -0.055477545 0.35590324 0.12517 0.15736884 0.05359213 0.24606593 -0.18479721
0.27195156 0.31763262 0.20048116 0.12504588 0.35641867 -0.43758532 -0.3630748 0.17811531
-0.14844298 0.3374067 -0.39384347 -0.3317259 0.07219708 0.032645673 -0.10070747 0.16615093
-0.18060558 0.3323916 -0.12154116 0.38697562 -0.1409486 0.18120408 -0.20279762 -0.30140972
0.0062967837 0.41800675 0.06504537 -0.2725943 -0.038037512 -0.3409447 0.26572818 -0.29368016
-0.045336366 -0.27535307 -0.14490104 -0.3642646 -0.38733715 -0.14357674 0.3329201 -0.41158473
-0.02239768 -0.08907276 -0.18975335 -0.03598597 0.23015602 0.4068208 -0.22482981 -0.288023
-0.1047799 0.023871327 -0.14180961 0.239959 -0.17285752 -0.32673237 0.25424105 -0.12591824
0.20043248 -0.2491724 0.3623793 -0.13720235 -0.15895961 0.30908972 -0.041030154 -0.015934834
-0.09492571 0.36061203 -0.0013073682 -0.30565655 -0.3207878 0.11071147 0.38526186 -0.32112396
-0.36736262 0.34417164 -0.18926492 -0.4248978 0.21595918 0.09802763 -0.08528934 -0.04977306
-0.36918664 0.17546001 0.34611624 -0.3033769 0.39562693 0.32479802 0.30534214 0.23039134
0.2725503 0.27869895 0.2636096 0.07466583 0.05045241 0.2409893 -0.2907954 -0.12716553

bias f4 [128]
00000000: b6ad d4be 17df 5dbe 80fa 4e3e 2906 f33d
00000010: 68ca 0fbe bdac 03be 8047 133e 503c 273e
00000020: c9a2 843d 5b52 873e a0a4 a53e 0c98 ebbe
00000030: 92c0 dcbd 078d b9be 9353 bf3e 2b9d 3ebe
00000040: 7425 973e e936 ee3e 1508 babe dd6f 043e
00000050: 403e 84be 0253 dbbe 1ba9 8ebe b4cd 403e
00000060: 2410 bdbe ddab 97be a0bd a3bc 697b 573b
00000070: b566 ddbd aaf3 9b3e 8cdf 0e3e 6667 d53d
00000080: 79a0 adbd ec6a a2be 2605 25be d9f3 393e
00000090: 7c53 a1be 4392 753e f7d8 b1be 6e49 9f3e
000000a0: 3ed4 0fbe 4d73 4abe d42f d03e 4916 bbbe
000000b0: cd12 ae3d c462 b93e 2715 c33e f9fa be3e
000000c0: 0c58 09be 8369 bdbe b5eb edbe 6ee0 60be
000000d0: e8b6 863e f748 6c3e e7c2 d93e 1598 90bc
000000e0: d124 c9be b205 94be 7a0a 0ebe dce3 d5be
000000f0: b5ec 2f3e 7372 6a3b d909 173e af1a 21be
00000100: 142e 233e b9f5 65be 126d 9a3d 2671 3abe
00000110: 25a6 4abe fe6b b5be 1c12 413e 6c11 8ebc
00000120: 0e08 f33d 7f7e 4b3c b207 df3d 91cb e43c
00000130: cfd2 d0be 57b5 f43e 962c 81be 8289 2cbe
00000140: b1af 34be 575c 9cbe b02f 74bd 8aab 76be
00000150: 8a09 383e cc40 62be 85cb d43e 248d 823e
00000160: 4b7e 12be acae 81bd a439 433e 6ada b9bd
00000170: 051d 673e ca56 4a3e d0af f3be 587c d33e
00000180: 6e7b 23be 2e7e 953e cbfd d63e 5791 193e
00000190: f4de c63e 05ac ce3e 24fe edbd 02a5 9dbe
000001a0: 34cc 63be 822f febd db37 b5bd e611 c5be
000001b0: eb6c b0be 2c00 c1bd 3d39 083e 5567 15be
000001c0: 9eb5 50be efd4 21be a4ba 683e f65f 81be
000001d0: 3ff1 83be dca7 29be b058 c0be 79bd cd3e
000001e0: 4dcd aebe a874 c13e ae63 4cbe 01e7 4dbe
000001f0: 6895 ac3e 8236 dd3e 51b4 e6bd 295a 97be
-0.4153878 -0.21667133 0.20212746 0.11866409 -0.14042056 -0.12858863 0.14382744 0.16331601
0.06476361 0.2643002 0.3235216 -0.4601444 -0.10778917 -0.36240408 0.3736845 -0.18614642
0.29520762 0.46526268 -0.3633429 0.12933297 -0.25828743 -0.42836767 -0.27863392 0.1882847
-0.36926377 -0.2962331 -0.019987881 0.0032879955 -0.108106054 0.30459338 0.13952464 0.10420112
-0.08477873 -0.317222 -0.16115245 0.18159427 -0.31509006 0.23981576 -0.34735844 0.3111071
-0.14045808 -0.19770546 0.4066149 -0.3654044 0.0849968 0.36208165 0.38102075 0.37300852
-0.13412493 -0.36994562 -0.46468893 -0.21960613 0.2631142 0.23074709 0.4253151 -0.017650643
-0.392859 -0.28910595 -0.13871184 -0.41775405 0.1718014 0.0035773783 0.1474985 -0.15732835
0.15935546 -0.22457017 0.07540335 -0.18207225 -0.19789942 -0.35433954 0.18854564 -0.017342292
0.11866771 0.012420296 0.1089014 0.0279291 -0.40785834 0.477946 -0.2522933 -0.1684933
-0.17645146 -0.305392 -0.05961579 -0.24088874 0.17972389 -0.2209503 0.41561523 0.25498307
-0.1430599 -0.06332144 0.19064957 -0.09074862 0.22569664 0.1975967 -0.47595072 0.41305804
-0.15965053 0.2919783 0.41990504 0.14996849 0.38841975 0.40365615 -0.11620739 -0.30789953
-0.22245866 -0.12411405 -0.08848544 -0.38490218 -0.34458098 -0.09423861 0.13303085 -0.145902
-0.20381781 -0.15803884 0.22727448 -0.25268525 -0.25769994 -0.1656794 -0.37567663 0.4018362
-0.34141007 0.37784314 -0.199599 -0.20107652 0.33707738 0.4320565 -0.112648614 -0.29560974

weight f4 [128, 128]
00000000: dc32 e6bd 2c70 8ebc b6dd aabf 0b5c c0bc
00000010: 289f aa3c 6b4c bdbb cc76 dd3d 982e 1e3d
00000020: 2e41 113c be85 823d e1c2 533d 5cee e9bd
00000030: 4dce 58bd 17af 24bd 9285 76bc 2d17 55bc
00000040: a859 183d 17ba 84bc 6157 83bd 71f4 c4bd
00000050: da54 023c 1d9b a83c 41e2 a1bd 4080 9e3d
00000060: dfbe d1bc eb9b 993d 138b bebd 02c3 9a3d
00000070: 33e7 d33c 8c29 953c dd75 6e3d 05fe b93d
00000080: 7a46 323c 9864 363c fe7d 7a3d 133b 9a3d
00000090: 1136 91bd ea83 dd3d 1f56 68bd 1632 99bb
000000a0: 8616 4a3d f6f7 173a b31c 8c3d 92aa 23bd
000000b0: f140 6cbb 6756 1cbc 9d8e 533d 9e22 173d
000000c0: da6f 2e3d b105 663d 4dcd cabd eae3 573d
000000d0: e7a9 c33d 1bff 013d 1919 863d 7611 d43a
000000e0: b793 453d b205 e8bc 8324 453d d6dd 4f3d
000000f0: c707 863d 8ca3 b03d 4c28 963d 3c14 303d
00000100: 8855 c3bd 12a8 95bd 0c97 19bd 3eec 663d
00000110: f675 68bd 00ee 1f39 1cb1 1d3d 5e63 7f3d
00000120: dc8a cb3d 076e 9abc 4afc 743d bd06 7f3c
00000130: d6c3 2e3d d174 3bbe 9108 3fbd d154 02bd
00000140: 3c5f 20bc 3f92 e0bc 3c3c c93c 2588 c83d
00000150: 98e4 a6bd 3d26 993c 7ec8 edbc cc39 90bd
00000160: c16f 2f3b 02ab 1b3d db10 b53c ac25 27bd
00000170: f11d 863d d369 fb3c 1e24 3cbe f123 283d
00000180: 3fe0 5e3d b36e 07bd 6797 b93c 70a1 a23b
00000190: 6e12 0fbd a228 a33d 5c3d 623d 1c46 9ebd
000001a0: c8c0 013d 40b5 ed3c df49 49bd 4ef9 043d
000001b0: 1572 963d a399 af3d 27fb 64bd dc9d 32bd
000001c0: b3b3 44bd 3815 86bd d347 cebc 57bb 1ebe
000001d0: d027 723c 07c5 e63d a059 fd3c ebd2 a4bd
000001e0: 1279 db3d 2f25 2dbd e2d0 b63d bd30 43bc
000001f0: b5b4 e43c 7451 ac3d 6e22 b8be 8008 463c
00000200: 72e7 9c3a 801b 023c 0567 ab3d 582c d73c
00000210: ed8d c83c fb9b a2bd 4413 31bd f813 4d3d
00000220: 42c5 5c3d 48d2 a7bd 010f 56bd d365 aebd
00000230: ff5b 073b ba27 013d bb32 6abd 2c49 a1bd
00000240: 182e 073d b931 04bd cc21 a1bc 3c49 843c
00000250: df4e 1c3d 82ae 42bd 841f 353d 918d d23c
00000260: 957d 12bd 24e3 a6bc 028d 41bd 66b6 bebd
00000270: a0e0 d63c 89a9 53bd 10a4 8f3d 546a 433c
00000280: 8bd2 523d dce1 b33c a03d a6bd cb5f 6fbd
00000290: 3d4b 993d 08a6 7dbd 4003 6b3c 91ec 42bd
000002a0: 6065 6c3d 9df1 a93d 7841 713c 52bb 363d
000002b0: 2349 3b3d 7e09 3ebd c4d1 a1bc 9af8 a6bd
000002c0: 73e1 91bd 9231 b9bd 8889 84bd 15dc 2bbd
000002d0: 196b 353d 044c b73c 2f95 8e3d cc63 06bd
000002e0: 5025 803c 3105 8d3d 1534 80bc f846 c0bc
000002f0: 8c25 1fbd da97 8c3d c626 003d 8085 ae3d
00000300: c9b7 2b3d e18c 40bd 6104 fcbc 4cc0 68bd
00000310: af32 8abd 080a 5dbc d65e 453c af73 a33d
00000320: 8bd4 98bc 5f84 8b3d c1c7 4dbd 6b76 983c
00000330: e19c 95bd 62b3 3bbc e1ff 60bd 30ec 2e3d
00000340: 000f 933c 5007 2e3c c8b6 083d 2c7c c93c
00000350: 3ec3 f7bc 20e7 223c 6463 473c f633 f6bc
00000360: e2ee 7ebb d8ec 2e3c 2166 7cbd e58a d1bb
00000370: 2b65 753d 6dee a0bd d63e 1f3d 7861 c3bc
00000380: 1539 3c3d 5907 9bbc 6644 413d 5dfc 83bd
00000390: 9792 1e3d 98ac 193d 5d31 93bd 6254 0b3d
000003a0: 71b1 00bd 9b85 f63c c027 5a3d e853 013d
000003b0: 864e 433d d87b 5dbd fefe f73b 0768 84bb
000003c0: 6faa 883c 91f0 49bd b780 973d bf65 ce3c
000003d0: 19a8 5ebc ff77 843d 5768 ae3c b304 f23c
000003e0: 7f87 94bd d40f 86bc 8d54 a5bd 5b8f 393d
000003f0: 5a72 f5bc 9e1a d1b9 2039 94bb 20f6 dc3b
-0.112401694 -0.017387472 -1.3348911 -0.02348139 0.020827845 -0.005776932 0.10813674 0.038618654
0.008865638 0.063731655 0.051699523 -0.114224166 -0.05293112 -0.04020604 -0.015046494 -0.013006014
0.037194878 -0.016202016 -0.064131506 -0.09616936 0.0079548005 0.020581776 -0.07904483 0.077393055
-0.02560371 0.07500442 -0.0930387 0.07556726 0.02586708 0.018208288 0.058217872 0.090816535
0.010881061 0.011132382 0.06115531 0.07530799 -0.070903905 0.10816176 -0.056722756 -0.00467516
0.049337886 0.0005797142 0.068414114 -0.03995759 -0.003604945 -0.009542084 0.05164968 0.036898248
0.04258714 0.05615777 -0.09902439 0.05270759 0.09553891 0.03173743 0.06547756 0.001617952
0.048236575 -0.028323028 0.048130523 0.05074867 0.06544452 0.08624944 0.07331905 0.042988047
-0.09537798 -0.073074475 -0.037497565 0.05637764 -0.05675312 0.00015252084 0.038498983 0.062350623
0.09938595 -0.018851293 0.059810914 0.015565571 0.042667232 -0.1830628 -0.04663903 -0.03181917
-0.009788331 -0.027413486 0.024564855 0.097915925 -0.081490695 0.018694991 -0.029026266 -0.07042274
0.0026769491 0.038004883 0.022102764 -0.04080741 0.065486796 0.03069011 -0.18373153 0.0410499
0.054413076 -0.033064555 0.022655202 0.0049630925 -0.034929685 0.079667345 0.055234298 -0.07728216
0.03167799 0.02901709 -0.049142715 0.032464318 0.07345978 0.08574226 -0.05590358 -0.043607578
-0.048022937 -0.06547016 -0.025180733 -0.15501152 0.01478 0.11268049 0.030926526 -0.08048042
0.10716452 -0.04227179 0.0892656 -0.011913476 0.0279182 0.084139735 -0.35963768 0.0120869875
0.0011970832 0.007941127 0.08369259 0.026266262 0.024481738 -0.07939907 -0.043231264 0.05006787
0.053899057 -0.08194405 -0.052260403 -0.08515515 0.00206542 0.031532027 -0.057177287 -0.078752846
0.033002943 -0.03227398 -0.019669436 0.016148202 0.038161155 -0.047529705 0.04421951 0.02570227
-0.035764296 -0.020371981 -0.047253616 -0.093121335 0.026230156 -0.051675353 0.07013714 0.011927206
0.05147032 0.021958284 -0.08117223 -0.058440965 0.07485054 -0.061925918 0.014344037 -0.04758889
0.057713866 0.08298037 0.014725082 0.044612236 0.045724045 -0.04639577 -0.019753344 -0.08152886
-0.07123079 -0.09042658 -0.064715445 -0.041957933 0.04429159 0.022375114 0.06962048 -0.032810017
0.015642792 0.06885756 -0.015649835 -0.02347134 -0.038854167 0.06864901 0.031286977 0.08521557
0.041923318 -0.047009353 -0.030763807 -0.056824014 -0.067479484 -0.013491161 0.012046536 0.07981049
-0.018656036 0.06812357 -0.05023933 0.018611154 -0.07305313 -0.011456342 -0.054931525 0.042705715
0.017951488 0.010621861 0.03337744 0.024595343 -0.030244466 0.0099428 0.012169693 -0.030054074
-0.003889971 0.010676585 -0.061620835 -0.0063947313 0.059910934 -0.07857976 0.038878284 -0.023850188
0.045952875 -0.018924402 0.04718437 -0.06444619 0.038714018 0.037518114 -0.0718715 0.03401602
-0.03141922 0.030093005 0.053260565 0.03157416 0.047682308 -0.054073185 0.0075682392 -0.0040407213
0.016682832 -0.049301688 0.07397597 0.025195 -0.013589882 0.064682 0.021289987 0.029543256
-0.07252406 -0.01636497 -0.080727674 0.04530273 -0.029961754 -0.00039883418 -0.0045234114 0.0067432076

bias f4 [128]
00000000: 94e3 083d f91e adbd d62c 93bc 31fb 50bd
00000010: ee25 483d 17f7 883d c807 8b3d fd6b 1dbb
00000020: 4cbf 65bd 70a2 803d d9fe c7bc 50b7 ebba
00000030: d78a 883d ab7f 393d 5750 9a3d 8188 83bd
00000040: c8ed aa3c c197 2dbd 2350 063d 79f6 b13d
00000050: 6f75 df3d 42a6 363d 72e8 b8bc ddf9 653c
00000060: 25ed 023d d4fd 2abd 486a 8f3d 4bbd 9b3c
00000070: 438a aa3d 8c38 ca3c 6aac 9ebd 3261 c23d
00000080: aeac 343d 3668 a0bc 0268 ed3d 2a0c aa3a
00000090: f93d 4c3d e5db 2abd b534 10bd 530a 6f3d
000000a0: f209 d2bc 926a 87bc a1da b83d 6e5a f2bc
000000b0: 1bde ee3a 1a0a 6a3d c72a 813d b17b e43c
000000c0: cf59 aa3d ac91 e43d 2746 acbd d866 5ebd
000000d0: 1489 83bd e122 9c3d be9a 63bd e48f 0abd
000000e0: 5658 a8bc f372 b3bd 6137 98bd fa06 833c
000000f0: 5dd4 7ebd 3faf 7e3d c7d0 ca3c 36b3 37bc
00000100: 1257 073c e1a8 03bc ccfe 9e3d 4151 8c3d
00000110: ef05 203d 0564 88bd de6d abbd 09d6 2f3c
00000120: 466f 36bc 6caf c03d 7764 813d 402f 1cbd
00000130: 2192 da3d 5afe 80bd 9d2f 6a3c 76d7 b03d
00000140: 30a1 b4bd dffd 42bd f105 4a3d 2565 3f3c
00000150: e7d4 8c3d 5755 d0bc b415 8dbd 1203 e8bc
00000160: 1198 663d 3ccc 823d c382 69bc ab38 f73a
00000170: 1979 62bd 8eaf 873d 7f53 133d 34f2 a13d
00000180: 4e6b 8dbd 4b6f 69bd b4ef eabd 3b4c 38bd
00000190: 1220 79bc c931 89bd d860 f0bd 1ae2 5c3c
000001a0: a34d 89bc 8ab3 8fbd 0057 8abc 0141 11bd
000001b0: bfc6 8cbd 5920 243d 9045 b13c cabe ce3b
000001c0: 983c 0a3d fbfa f23c 7850 1dbb b3ff 2abd
000001d0: 8a29 b6bc 1589 99bd b5c3 84bd 648b 8a3d
000001e0: ec4f 363d 51f0 94bd 749b 03bc cb5b 39bd
000001f0: 5c69 29bd 1e8f 82bd b727 233d 2421 623d
0.03342016 -0.08453173 -0.017965715 -0.051020805 0.048864298 0.06687754 0.067885935 -0.0024020665
-0.056090638 0.062809825 -0.024413513 -0.0017983709 0.066671066 0.04528777 0.07534855 -0.064225204
0.020865336 -0.042381052 0.032791268 0.08689589 0.109110706 0.04459215 -0.022571776 0.014036623
0.03196444 -0.041745976 0.070026934 0.01901116 0.083271526 0.024685167 -0.07747729 0.09491195
0.044109993 -0.019580942 0.115921035 0.0012973596 0.04986379 -0.041713614 -0.035206515 0.058359455
-0.025639508 -0.016530309 0.09026075 -0.029584136 0.0018224152 0.05713854 0.06306987 0.027891012
0.08317911 0.11160597 -0.08411818 -0.0542973 -0.0642263 0.0762384 -0.055567496 -0.03382863
-0.020549934 -0.08762159 -0.07432438 0.015994538 -0.062214244 0.062178846 0.024757756 -0.011212161
0.008260505 -0.008035869 0.077634424 0.068514355 0.03906816 -0.06659702 -0.08370565 0.010732182
-0.011134928 0.09408459 0.0631799 -0.038131 0.10672403 -0.06298514 0.014293578 0.08634846
-0.088198066 -0.04760539 0.049322072 0.01168183 0.068765454 -0.025431318 -0.06888905 -0.028321777
0.056297366 0.06386611 -0.014252367 0.0018861493 -0.05529127 0.06625281 0.0359683 0.07907525
-0.06905232 -0.056990903 -0.11471501 -0.044994574 -0.0152054 -0.06698949 -0.117372215 0.013481641
-0.016760653 -0.07016666 -0.016887188 -0.035462383 -0.06873845 0.04006991 0.021639615 0.006309365
0.033749193 0.029660692 -0.0024004262 -0.04174776 -0.022236604 -0.074968494 -0.06482641 0.06764868
0.044509813 -0.07272399 -0.008032668 -0.045253556 -0.041360244 -0.06374954 0.039832797 0.055207387

weight f4 [2, 128]
00000000: 2dca b33d 44e5 4dbc db82 a2bd 6b1b 95bd
00000010: c895 e63b 20ce f93b fb0b 5dbd af70 083d
00000020: c896 ba3c c36c e6bc 5da4 313d 3398 a3bd
00000030: 96dd 2c3c 2ba9 05bd fee6 913c 527a eb3d
00000040: 7fc0 09bc 0506 5fbd d8d9 27bb c29b 3bbe
00000050: c1f8 b83d 5d5b a43d 964c 07bd 375e 4c3d
00000060: 6580 9ebd acec 8b3d cd32 21bd a20b f8bf
00000070: 84ca 5d3d 90c3 eabb e00c 9b39 3995 a3bd
00000080: 4e0a 843c 60b7 113d af4d 7c3d 82fc b33d
00000090: 350b 9ebd f722 60bd 9b6f a43d 5c64 283d
000000a0: 1e46 caba 3b27 b73d d8ec 51bc e033 193b
000000b0: 8224 5f3d e081 a0bd 9d6f e7bb e3d8 90bc
000000c0: 05a1 8d3d 34bb bc3d 3a51 89bc 92a5 53bd
000000d0: e1ba b2bc 825f 003d 62e2 a93e 60c7 f03b
000000e0: 76e0 56bc 62fa dfbc 8325 08b9 6e96 04be
000000f0: 2883 9abd 010a c8bc 5b14 dcbd 8b45 333c
00000100: d679 cc38 ce1d 023d 54c1 8f3d ba2a 41bc
00000110: e776 863d 0f9a 89ba 4096 97bd c750 0dbe
00000120: ac86 ee3d 6c20 a83d 7dd3 58bc dbfe d23d
00000130: bcdd ff3c a6f5 5a3d 7156 11bc fe30 d9bd
00000140: b013 1fbc e485 89bd 0288 0ebf 1183 46bd
00000150: 8c8b c43d 406d d9bf 25f6 b03d c9e1 aabd
00000160: 620e 553d 90e4 5c3c 0ee3 443c 0536 d23c
00000170: b87a ab3d 65d7 373c 7daa 7e3c 815c 523c
00000180: 2d00 243d 15ca 56bd 4dd9 d63d 8254 213d
00000190: 5f0d 0ebd 6a93 ecbb b440 00c0 3cac 3ebd
000001a0: f38f cd3d 558d adbd 05e8 20bd 155a 57be
000001b0: ae5b 273d 1551 c93d 0fca 9dbc 1cbe c23d
000001c0: 6af9 95bd 0302 1e3d b8e7 e5bd f3f3 b0bd
000001d0: 69ff afbd 0052 35bd 2efc 46bd 1741 b3bc
000001e0: 93d6 0abe 2756 b63d f9d0 3a3d 942e c3bf
000001f0: 3ead 34be 0b9c 913d b916 57b9 2473 bfbb
00000200: e6bd 25bd f77b 51bb 4e32 b8bc 84bd 73bb
00000210: 631e 393d bc9b d0bc c520 63bd cfdd c3bc
00000220: 1432 91bc 2ea6 0fbd 9a23 7abe cf8a 93bd
00000230: a92c a13d 9dd7 a63d 5c3b 703d e654 18bd
00000240: 450d 26bd cc2c d03c 3387 eebb 6c19 c8bd
00000250: c26c a13b 5f91 23bd 709a 853d 64c0 79bb
00000260: c10f 6ebd 0bb5 62bc b5af 703d 2789 92bf
00000270: 4c6e a73d 704b 573c e58e b7ba 1d05 923d
00000280: bb5f 65bd 3174 bb3d 8deb 9c3c 36bd b43c
00000290: abe0 773d fa17 bd3d 08f6 aa3d d5ee e4bc
000002a0: e81f 183d 1af2 983d 19ae 8e3d ec75 fb3c
000002b0: f2ea 233d 53a8 983d 5653 e13c e18d 413d
000002c0: 1232 723c 891e 9db9 002d 5cbd 90c2 adbd
000002d0: 3ab1 933d 41ad 0e3d 5e4d 8fbd f6fe 5c3d
000002e0: 0c14 5d3d 207c b1bc 74c0 9b3d b96b 433d
000002f0: 0555 18bd 7cb6 e1bd 7872 e2bc 20ab 163d
00000300: 4c5a 913b 230c 4abd 5c63 7bbd bfcd 433d
00000310: 722f e93d af9c f1bb 6bd6 673d 2536 09be
00000320: 8790 073e 06a7 7dba bf70 a5bc c8a2 1dbd
00000330: f4b8 093d 6e32 403d 6b7d 6cbc 243d 3ebd
00000340: 6a30 623d 7958 35bd 8f7a 693f 2aae 923d
00000350: 9a1d 8b3d e2ea 9c3d 29e7 843d 5947 abbd
00000360: 4be0 463c fe67 b33d 02c0 723c ee60 273d
00000370: b0c9 44bc 08f9 96bd 416c cf3d 56f4 cb3c
00000380: 0604 973c 2005 b83c 0101 abbe c451 6cbd
00000390: ef54 be3d 00c1 313d 6df2 80bf 7c25 2bbd
000003a0: a1b6 19bc 7047 a03c a7ef 53bd 44e3 1abd
000003b0: cdba 2ebd 53dc f8bc 8807 923d 6bea e53c
000003c0: e4fb 1ebe 8303 cd3c d9b1 2d3d a06b 16bb
000003d0: d7bc 36be ddca ad3d 9ca8 a7bc dc9d 933d
000003e0: 60f8 01bd e09b 21be b690 a03d 7bb2 a3bd
000003f0: 6953 fe3c 41a7 76bd 90b7 56bb a544 083d
0.08778796 -0.012566868 -0.07935115 -0.0728062 0.0070368983 0.007623449 -0.053966504 0.03331059
0.022776976 -0.028128034 0.04336964 -0.07988014 0.010550877 -0.032632034 0.017810341 0.1149794
-0.008407711 -0.0544491 -0.0025612023 -0.18321136 0.09031821 0.08025239 -0.033032022 0.049894538
-0.07739333 0.06832251 -0.039355088 -1.937855 0.054148212 -0.007164426 0.00029573496 -0.07987446
0.016118195 0.03557527 0.061597522 0.087883964 -0.07716981 -0.054720845 0.080290996 0.041111335
-0.0015432274 0.089430295 -0.012812816 0.0023376867 0.054478176 -0.07837272 -0.007062866 -0.017681545
0.06915478 0.09215394 -0.016762365 -0.051671572 -0.021817626 0.031341083 0.3318053 0.007347986
-0.013115039 -0.027341072 -0.00012983945 -0.1294801 -0.07544547 -0.024418833 -0.1074607 0.010941873
9.750172e-05 0.031766705 0.07019296 -0.011789972 0.065656476 -0.0010498184 -0.07401705 -0.13800345
0.1164678 0.08209309 -0.0132340165 0.10302516 0.03123366 0.053456925 -0.008870707 -0.10605048
-0.009709284 -0.06714991 -0.5567628 -0.04846484 0.09596929 -1.6986465 0.08640698 -0.08343846
0.05201567 0.013482228 0.012017025 0.025660524 0.08373016 0.011220788 0.015543577 0.012839437
0.04003923 -0.052438814 0.104906656 0.039387234 -0.03468072 -0.0072197216 -2.0039492 -0.046550974
0.10037222 -0.084742226 -0.03928377 -0.21030457 0.040858917 0.09829918 -0.019261388 0.09508917
-0.073229626 0.038576137 -0.112258375 -0.086402796 -0.085936375 -0.044267654 -0.04858034 -0.021881623
-0.13558416 0.08903151 0.045609448 -1.524859 -0.17644212 0.07109841 -0.00020512463 -0.0058425833
-0.040464304 -0.0031964758 -0.022484925 -0.0037191818 0.045194995 -0.025464885 -0.055451173 -0.023909478
-0.017724074 -0.03507059 -0.24427643 -0.0720421 0.078698464 0.08146594 0.05865036 -0.03719034
-0.04054 0.025411986 -0.0072793006 -0.09770474 0.004926295 -0.03993356 0.06523597 -0.0038109059
-0.058120493 -0.013837109 0.058761317 -1.1448106 0.08175334 0.013140544 -0.0014004378 0.071298815
-0.0559995 0.09153021 0.019155288 0.022062879 0.060516994 0.09233089 0.08347708 -0.027945915
0.037139803 0.07468052 0.069668 0.030695878 0.040018983 0.0745398 0.027505558 0.047254447
0.0147824455 -0.00029968124 -0.053753853 -0.084843755 0.07211538 0.034833197 -0.069971785 0.053954087
0.053974196 -0.021665633 0.07605067 0.047710154 -0.037190456 -0.11021134 -0.027642474 0.03678429
0.004435813 -0.04932798 -0.061374053 0.047803637 0.113860026 -0.0073734145 0.05660097 -0.13399561
0.13238727 -0.00096760725 -0.020195363 -0.03848532 0.03362365 0.046923093 -0.014434199 -0.046445027
0.055221952 -0.044273827 0.91202635 0.071621254 0.067927554 0.07661988 0.06489403 -0.08363218
0.012138437 0.08760069 0.014816286 0.040863924 -0.012010977 -0.07371718 0.1012807 0.024896782
0.018434536 0.022463381 -0.33399203 -0.057695165 0.092935435 0.04339695 -1.0073982 -0.041783795
-0.009381921 0.019565314 -0.051742222 -0.037814394 -0.042658616 -0.030378496 0.07130343 0.02806588
-0.15525776 0.025026089 0.042405937 -0.0022952333 -0.17845474 0.08485959 -0.020466141 0.07207844
-0.03173101 -0.15782118 0.078401014 -0.07993027 0.031045632 -0.0602181 -0.003276322 0.03326859

bias f4 [2]
00000000: fa81 aa3d b572 95bc
0.08325572 -0.018243173

weight f4 [128, 5]
00000000: 7d27 753e 92cf cb3e 31ab 7dbd ceda e23d
00000010: 8ca1 27be 5b25 3ebe 16ae 8ebc 1d96 e4be
00000020: 300d fd3c c027 a0be c8bd c4be fe52 44be
00000030: 60ad 27bc 3cc9 f0bd 6cee 563e 5930 ce3e
00000040: 7299 2c3d b1a5 b3bd cb61 f3be 5f05 f5be
00000050: 1d2a ebbe 12aa 97be 2e77 ca3e d1e7 cdbe
00000060: e511 e0bd 95e4 5fbe 994d 43be 9463 d3be
00000070: f2d1 463e eb64 a03e 9a5c 4b3e 5da5 c03d
00000080: acf8 a9bd 7cc1 9e3e c2da 8b3e a81e bfbe
00000090: 49cb a93e 57df a43e c01c 953e 3adb cc3e
000000a0: f1ef 5bbe 22af a93c 14d3 b53e 50c2 54be
000000b0: 00bb 793d cc73 e53e 8adf 87be 7b3f 37bd
000000c0: db0c 593e d03a 96be 3612 bfbc e679 d13d
000000d0: a5e8 983e 85c0 91bd 33e3 823e e3aa 15bd
000000e0: c9e3 8e3e 2837 10be 63eb d63d 8cad de3d
000000f0: 35f9 e03e ab34 b23e b71b 11be 76d0 22be
00000100: 4d39 60be 8649 453e 7809 463e 1c5c 00be
00000110: e087 993d d2a9 bebe 9739 6dbe b47f 8a3e
00000120: 7e20 323e b8de 753e fa37 b03c f590 893e
00000130: 384d cebe 3189 8e3b 64aa a43e ab65 39be
00000140: 119d 163e 9aae dbbe 3858 34be 8a63 c6bd
00000150: fa44 883e 926e c2be 58d6 3d3e 4c50 8dbe
00000160: e092 a4bc d742 5cbe 0a70 f63e 57e7 9dbe
00000170: 1693 8f3e 793a d43d df7d 95be 0d44 083f
00000180: e9e1 bbbe f3de 443e 657c 963c 5117 cebe
00000190: d62b 993e f2ef 8ebe 7b7a 733e c4a0 2e3d
000001a0: 296d c2be a8a2 193e d839 4c3e dad5 35be
000001b0: 034a ab3d 2578 893c b272 90be 6e49 fb3d
000001c0: 25b2 d13e 9077 dc3e 40d3 1a3e 22aa 86be
000001d0: 7f5a 783d c0fc 473c 7f6a a73e 7013 d4be
000001e0: 93a5 3cbe 9e28 87be eb83 443d 5825 943d
000001f0: 7a49 963e 3f04 ccbe 42d7 3bbe 0424 debd
00000200: c33a 6bbe cf74 b5be dc2e cf3e 2502 383e
00000210: f4df 413c 7aab b5be c5f0 b43e 554a 993c
00000220: 3dee 78be 9def b73e ca4b ac3e c817 22bd
00000230: 50b5 acbc 9afb d7be 2006 d33e 9ec4 aa3e
00000240: 9205 c0be 031a 21be e7c3 d1bc 76ee ba3e
00000250: ebbc ba3e e2c6 efbd ce0e 8b3e d5bf 1dbe
00000260: 9856 a4be ffb3 813e efd8 1fbd 3a66 b83e
00000270: 2176 c03e 6be8 c43e bfea b73e 3a2a 21bd
00000280: bdc1 7c3e bcfa 5fbe b149 8cbd b6c7 a8bc
00000290: a6b5 853d d74a cd3e 3fa2 7ebc e4bd ccbe
000002a0: 6896 adbe 054a adbc d6c7 e4be f405 513e
000002b0: 4789 15bd 6ee6 aabe aed3 1a3e 36ba a13e
000002c0: 8534 953d acdc 90bc 01e8 f83c 4157 793d
000002d0: 57af a3be f96c 0abe 6840 bcbe fcb7 bc3e
000002e0: 9f66 ba3e 0d88 4a3e f446 423e 3832 acbe
000002f0: b14e 84bc a2fb aebe 4b1a e83d 9546 46be
00000300: 90c0 ba3c 3667 f23e d4e5 e73e 864d 38be
00000310: 4098 68bd 68b3 3bbe 5259 50be aeea b2be
00000320: 87d2 b0be f787 aa3e 1420 d4bd 067e b3be
00000330: 0701 133e 200a f03d 1294 5ebe 40c6 85bb
00000340: 9878 823d bc38 debd de50 813e 1c54 6a3d
00000350: 1b3b 82be e17d 9cbe 8a76 b6be cebd 053e
00000360: 03ad 993e d2cc 9dbe bdcf 49be 6eb2 33bd
00000370: 87e9 73bd d18b e93e 1c6c 5bbe 9bb5 6b3e
00000380: 9641 c73e ea2e 103f 999a acbe cab2 d23e
00000390: e7a8 783e 4a30 413e c091 29be 43dd f63e
000003a0: 964a eabd 345f d8be 7c7d 9cbe be42 e7be
000003b0: 68c0 dcbb dcae cabd d4b8 683d 2de6 25be
000003c0: c35e e1bd 2757 263d e6e7 c43e d82b 473d
000003d0: b47e f83d 3e11 3b3e a425 9bbe 050e ccbd
000003e0: 9223 84be 91d2 a63d 7ab3 703e 91c2 473e
000003f0: 211f 273e 71e2 c1be 7e76 17be 44ef 983e
0.23940845 0.398068 -0.06193084 0.1107689 -0.16370219 -0.18568937 -0.017416995 -0.44645777
0.030890077 -0.31280327 -0.38426042 -0.19172284 -0.010234207 -0.117571324 0.20989388 0.4027126
0.042138524 -0.087718375 -0.47535548 -0.4785566 -0.45930567 -0.2962194 0.39544052 -0.40215924
-0.10940913 -0.21864541 -0.1907257 -0.4128691 0.19416025 0.31326994 0.19859543 0.094065405
-0.082993835 0.31006992 0.27315336 -0.37328076 0.33162907 0.32201645 0.29123497 0.40011007
-0.21478249 0.020713393 0.35512602 -0.2077725 0.060969353 0.44814909 -0.26537734 -0.044738274
0.2119631 -0.29341745 -0.023324113 0.102283284 0.29864994 -0.07116798 0.25563964 -0.036539923
0.2790816 -0.1408354 0.10494115 0.10872945 0.4394013 0.34805807 -0.14170729 -0.15899834
-0.21896859 0.19266328 0.1933955 -0.12535137 0.07496619 -0.37238938 -0.231665 0.27050555
0.17395207 0.24010742 0.021511067 0.26868406 -0.40293288 0.0043498506 0.32161248 -0.1810519
0.14708354 -0.42906648 -0.17611778 -0.09686954 0.26615125 -0.37974983 0.18538797 -0.27600324
-0.020089567 -0.21509872 0.48132354 -0.3084056 0.28041905 0.10362715 -0.29197595 0.5322884
-0.36695793 0.19225673 0.018369863 -0.40252164 0.29916257 -0.2791744 0.23777191 0.042633787
-0.37973908 0.15003455 0.1994394 -0.17757359 0.08363726 0.016780922 -0.28212506 0.12269865
0.40956226 0.4305997 0.15119648 -0.26301676 0.06063318 0.012206256 0.32698438 -0.4142108
-0.18422537 -0.26398176 0.04797737 0.07233685 0.29352933 -0.3984699 -0.18343833 -0.10846713
-0.22971635 -0.3544068 0.40465438 0.17969568 0.01183318 -0.3548239 0.35339943 0.018712202
-0.2430963 0.35924998 0.33651572 -0.03957346 -0.02108255 -0.42184144 0.4121561 0.33353132
-0.3750425 -0.15732579 -0.025606109 0.36510056 0.36472258 -0.11707856 0.27159733 -0.1540521
-0.32097316 0.2533264 -0.039025243 0.36015493 0.37590125 0.3845857 0.35921285 -0.03934691
0.2468328 -0.21872991 -0.06849993 -0.020603042 0.06528787 0.4009616 -0.015541612 -0.39988625
-0.33903813 -0.02115346 -0.44683713 0.20412427 -0.03650787 -0.3337893 0.15119812 0.3158738
0.07285408 -0.01768335 0.030384066 0.060874227 -0.3196971 -0.13518132 -0.36767888 0.3685912
0.3640642 0.19778462 0.18972379 -0.33632064 -0.016150804 -0.34176356 0.1133314 -0.19362862
0.0227969 0.4734437 0.45292532 -0.17998323 -0.056785822 -0.18330157 -0.20346573 -0.3494467
-0.3453562 0.33306858 -0.10357681 -0.35057086 0.1435586 0.11720681 -0.21736172 -0.004082471
0.06370658 -0.10850665 0.2525701 0.05720912 -0.2543572 -0.30564788 -0.35637313 0.13060686
0.3001481 -0.30820328 -0.19708152 -0.043871336 -0.05954888 0.45614484 -0.21427959 0.23018496
0.38917226 0.56321585 -0.337117 0.4115203 0.24283181 0.18866077 -0.16559505 0.48215684
-0.114400074 -0.42260134 -0.30564487 -0.45168108 -0.006736804 -0.09896633 0.05681689 -0.16201086
-0.110044025 0.04061046 0.38458174 0.048625797 0.12133542 0.18268296 -0.30302155 -0.099636115
-0.25808388 0.08145631 0.23505965 0.19507815 0.16320468 -0.37868074 -0.14791295 0.29870045

bias f4 [128]
00000000: 86b2 903e fcb1 073d 94e1 9abe 823a 733d
00000010: f0d0 b93e 4650 523d c150 553e 8c7d 993d
00000020: 77a1 1ebe b49b 5dbe 7792 0bbe 47eb 4cbe
00000030: 1bf9 2c3d 22b3 a4bd badf d2bc 4694 cc3e
00000040: 7545 a83b 78df 75be 277e a33e 27dd 1fbd
00000050: 4b1a 253e 1eab acbd b674 943e aab7 67be
00000060: 72a5 bd3e 506b c9be cb56 d9bd 49d1 2dbe
00000070: 289c d2be 6415 b93e 2f58 be3d 6434 16bc
00000080: f5be c33d 71e5 d53c e04f 263e b23f 87be
00000090: 4cee ad3d e1ce 5a3e 2011 aebe 3ae9 0abe
000000a0: beef 1cbe 5445 a2be 35e7 513e 713c 91bb
000000b0: ef32 c3be 7385 d0bd de24 dfbd 0bc7 b93e
000000c0: 0dad be3d 325f c03d d3a4 943e ec65 a63e
000000d0: 6133 c33e 665e 7f3e 996c 5fbe ac07 c33e
000000e0: 4a05 97be 0900 003f fd62 51bd aabc 3ebc
000000f0: f23f 213e 7dff c33e a685 ea3d 163e df3d
00000100: 3b8c e13e 1b41 66bd 732b 373e 98a0 23be
00000110: 21f7 283c c308 12be 63e5 923e 576a 2ebe
00000120: 3356 8ebe c15f ff3d 22be bd3d d7fd 623e
00000130: 32a7 8d3e d419 7cbd ed10 94be 5ccd e03e
00000140: d527 c3bc b66a d63e e563 063e 44d0 d3be
00000150: cb02 1f3e 455e 48be 8cee 473e d4a7 453d
00000160: 674a 4f3d 309d 573e 25bd 893d 9c99 d9be
00000170: 0902 ce3d 475f 3abe 1073 463c 5b25 72be
00000180: c64d d1bd a34b d53e 6828 923e 6651 a4be
00000190: 3bb1 94bd 80c4 e9bd 8578 093e e208 04be
000001a0: 830e 3c3e 1486 77be d687 9ebe f7aa 67be
000001b0: 93a1 893e 19e0 3ebe a4c0 f4be 3071 863e
000001c0: 0c97 013e 1ee2 7a3e b331 053d 0650 9f3e
000001d0: 5760 633e 0875 49be 5b47 ba3e 9f19 81bd
000001e0: b2ad 08be 9eb8 c8be db60 d6be 66b3 84be
000001f0: 8537 c83e 952d 3bbc 3ba4 163e 2fe9 a0bd
0.28261203 0.033128724 -0.30250227 0.05938197 0.3629222 0.051346086 0.20831586 0.07494649
-0.15491281 -0.21641427 -0.1363009 -0.20011626 0.042229753 -0.08041979 -0.025741447 0.39956874
0.005135233 -0.24011028 0.31932184 -0.039029267 0.16123311 -0.084310755 0.28995293 -0.22628656
0.37040287 -0.39339685 -0.106122576 -0.16974367 -0.41134763 0.36149132 0.092941634 -0.009167764
0.095579065 0.026110383 0.16241407 -0.26415783 0.08492717 0.2136798 -0.3399744 -0.13565531
-0.1532583 -0.31693518 0.20498355 -0.004432254 -0.38124797 -0.101817034 -0.10895704 0.3628467
0.093103506 0.09393157 0.29032 0.32499635 0.38125136 0.24938354 -0.2181877 0.3809179
-0.29496223 0.50000054 -0.051119793 -0.011641661 0.1574705 0.3828086 0.11451273 0.10900514
0.440523 -0.056214433 0.17887668 -0.1597923 0.010312826 -0.14261155 0.28690633 -0.17032753
-0.2780014 0.124694355 0.092647806 0.22167145 0.27666622 -0.06154807 -0.28919163 0.43906677
-0.023822704 0.4187829 0.13124044 -0.41369832 0.15528409 -0.19567211 0.19524592 0.048255756
0.050608065 0.21056056 0.067255296 -0.42500007 0.10058982 -0.18200408 0.012112394 -0.23647062
-0.10219912 0.4165927 0.28546453 -0.32093352 -0.072603665 -0.114144325 0.13424881 -0.12894014
0.18364911 -0.2417224 -0.3096301 -0.22623812 0.26881084 -0.18640174 -0.47803223 0.2625823
0.12655276 0.2450032 0.0325181 0.3111574 0.2220472 -0.1967355 0.36382565 -0.06303715
-0.1334751 -0.39203352 -0.4187077 -0.2591812 0.39104858 -0.011424442 0.14711086 -0.07856976

weight f4 [128, 128]
00000000: 4631 63bd 486e fb3c 9831 71bc 21bb ba3d
00000010: b8cf b2bc c9a6 c83d 624c d2ba c4f5 be3d
00000020: b70e 39be b216 ae3d a5e2 8c3d d83e 4f39
00000030: 04e6 723d a3bd 6bbc 5d47 103d fe54 44bd
00000040: ad96 1f3d 5c8c 9fbd 4399 133c e2a9 e13d
00000050: c479 893d 59c6 ca3d 2132 803c e82a c1bc
00000060: 1938 da3d dc12 91bd 5d59 da3c d7f9 6e3d
00000070: 28e7 5dbc 3130 b93d c400 91bd 872f 413b
00000080: 02c9 923d d644 c6bd 6557 843d f0ea 91bc
00000090: f6da 933c 259e 203d 1aad 0b3d 3b7a a73d
000000a0: 146a 0dbb c1f7 06bd bd69 08bd 0f14 45bb
000000b0: 8518 4c3d 91f6 153c 1570 0fbd 6c2a 35be
000000c0: 673c a4bd 2ad6 bf3c 0de0 1e3d fe26 fa3c
000000d0: 4da1 273d 9328 ee3c e833 3a3d 8cfc 803d
000000e0: c2dd 153d 47f5 dabc 4ff5 f5bc 7891 9c3d
000000f0: 2745 e6bc efb1 bc3c 5ca2 c4bd b6d3 753d
00000100: 3cec c9bd 04b0 dc3c 0314 93bd 1e53 97bd
00000110: ec01 793b 1df6 9ebd dd9c 603c fc23 8cbb
00000120: 2bbe c1bd d8c7 c8bd b261 8b3d a17d 853d
00000130: 451b 773b 70df 3dbe d09c 4ebe 3761 0cbd
00000140: 3365 543c f73c 6abd b88f c93d d412 64bc
00000150: 344f af3d 89ad ff3d f842 debb 8585 223b
00000160: c24d 933d b9ea 1b3d f0a3 ff3b ccdf ec3c
00000170: c601 1cbd a463 f7bc 8b84 e53d a9bc 9ebd
00000180: 75d0 603c 2f12 70bd 5b03 d4bd 5838 343c
00000190: 8adb 453c 07b3 ed3b 7294 10bd 0415 44bd
000001a0: 1ff2 273d 8350 a53d d27c 87bd 32db 71bd
000001b0: 56f1 903d 90c6 ac3d e25e b8bb 9ffd 10bd
000001c0: 20f9 b2bd d845 ae3c 8d49 c93d 7260 133d
000001d0: 28a2 f7be 717e 9c3d 8171 803d 8bad dc3d
000001e0: 5c24 303c cf9c 05bd 403d a1ba 0207 1dbe
000001f0: 35db c43d 6b8f cdbd af9a 94ba d220 35bd
00000200: 3dfb 713d d4c5 e43c be36 173d 798d 363d
00000210: 9569 343d d9b3 613d 658e 88bd 1679 b43d
00000220: bd2e 373d 83f1 be3d 61f6 833d 7fc8 44bd
00000230: 3b9d b53d f1e5 c33d 3ac7 25bc 8f9c 853d
00000240: 3dd6 6e3d 6036 af3b f3f1 8bbd e344 b6bd
00000250: 666a 5dbc 39e4 343d 9ea7 46bc eef8 cbbd
00000260: ae1c 3c3d 67a3 a8bd 96a5 1d3c 323b 09bd
00000270: 883d a6bc b4d6 31bc f079 abbd 3dc2 c53c
00000280: ab0e a33d c5bd 87bc 756d 5a3d 112d f53c
00000290: 4c7c d73c c067 243d 587e e2bc 1208 3b3d
000002a0: caa2 75bd 0098 35b9 f84b 63bd dd2e 05bd
000002b0: eac7 1c3d a88b 803d d9c9 333e 4d60 38bd
000002c0: 23e0 ae3d 6d04 04be 53cb 8d3d 3f87 f63c
000002d0: 63a7 033d fe55 be3d 4067 50bc ab0f 343d
000002e0: 9481 3bbd aff4 883d bebf d33c 4a7c a13b
000002f0: 1407 06bd 62ab 2d3d b11c 61bd 2501 35bd
00000300: 9f46 a0bc e3c4 ea3d b3f6 9a3d e0b7 b0bc
00000310: 7e09 a1bd 814e 983d 6d6f a73d 5761 50bd
00000320: ee0a 8fbd d082 073d 8af0 603c b6af 05bb
00000330: a3c2 523d 8920 d6bd 245f 903a 2c22 423c
00000340: 5b7a adbc 5ba3 45bd 5e37 1dbd 6b1b 923d
00000350: c684 cdbc f213 103d 9f04 8b3d f0fd dd3c
00000360: 6104 9bbc 90f6 2b3d 74e4 b43d 6020 4c3c
00000370: 1919 e23d 4201 80bd db0f 0d3e b3d7 5cbd
00000380: 5fd5 033e 4dbc aebc bef7 b6bd 2e59 553d
00000390: 3809 1d3b 9e16 a33d f6a4 c03d 4dd8 a1bd
000003a0: c909 6ebd bca7 bc3d 491f 853d 6022 1dbb
000003b0: 6763 f5bc e3df 823d 15bd dabd f065 863c
000003c0: 915a fbbc 3406 bbbc e2f7 643c bec0 f93c
000003d0: 3d05 1ebe 2a94 5a3d 8617 13bd c744 ffbc
000003e0: 32b6 83bd ec03 86bd b025 ff3c 7b6e 283d
000003f0: 37ea 05bd 9cfe ce3d 8e64 823d 73ca 8ebd
-0.055466913 0.030692235 -0.014721297 0.09117723 -0.021827564 0.09797437 -0.0016044492 0.0932422
-0.1807202 0.085004225 0.068791665 0.0001976447 0.05930139 -0.014388475 0.035224307 -0.047932617
0.038962055 -0.07790443 0.009008708 0.11018731 0.06712678 0.09901113 0.015648903 -0.02358003
0.10655231 -0.07083675 0.02665394 0.058343735 -0.0135438815 0.09042395 -0.07080224 0.0029477791
0.071672454 -0.09681098 0.06461982 -0.017812222 0.018048745 0.03921332 0.03410063 0.081776105
-0.002157812 -0.03295112 -0.033303965 -0.003007177 0.04982807 0.009153024 -0.035019 -0.17691964
-0.08019333 0.023417551 0.03878789 0.030536171 0.040925313 0.029072082 0.045459658 0.062981695
0.036588438 -0.026728285 -0.030024199 0.076449335 -0.028109146 0.023034064 -0.0960128 0.060016356
-0.09859511 0.0269394 -0.07181551 -0.073889 0.003799553 -0.07761786 0.013709274 -0.0042767506
-0.094601 -0.09803742 0.06805743 0.065181024 0.0037705463 -0.18542266 -0.20177007 -0.0342724
0.012963581 -0.057187047 0.09841865 -0.013920505 0.08560029 0.12484271 -0.0067828856 0.0024798822
0.071925655 0.038065646 0.0078015253 0.028915308 -0.03808763 -0.03019888 0.11206921 -0.07750828
0.013721575 -0.05861109 -0.103522025 0.0109997615 0.012076268 0.0072540077 -0.03529782 -0.047871605
0.04100239 0.08071997 -0.066156045 -0.05904693 0.07077281 0.0843631 -0.0056265453 -0.035398122
-0.08738923 0.021273538 0.09828482 0.03598065 -0.48365903 0.07641304 0.06271649 0.10775288
0.010750856 -0.032620247 -0.0012301579 -0.15334705 0.09612123 -0.100371204 -0.0011337603 -0.044220753
0.05907749 0.027926363 0.03691744 0.044568513 0.044046003 0.055103157 -0.066677846 0.08812158
0.044722307 0.093234085 0.064434774 -0.04804277 0.0886788 0.09565342 -0.0101183 0.06524002
0.058309782 0.005347058 -0.068332575 -0.08899858 -0.013514137 0.044162963 -0.012124924 -0.09959589
0.04592579 -0.082342915 0.009621998 -0.03350372 -0.020293012 -0.010854412 -0.08372867 0.024140472
0.07961782 -0.016569981 0.053327043 0.029928716 0.026304387 0.040138006 -0.027648136 0.045661993
-0.0599697 -0.0001731813 -0.05549237 -0.032515395 0.03827659 0.06276637 0.17557468 -0.045013715
0.085388444 -0.12892313 0.06923547 0.030093787 0.032142054 0.092937455 -0.012719929 0.043960255
-0.045777872 0.06687295 0.025848266 0.0049281465 -0.032721594 0.04239977 -0.054959003 -0.044190545
-0.019564925 0.114633344 0.075665854 -0.021572053 -0.078631386 0.074368484 0.0817555 -0.05087408
-0.069845065 0.033083737 0.013729224 -0.0020398921 0.05145515 -0.10455424 0.0011014682 0.0118489675
-0.021176508 -0.04825149 -0.03838288 0.07134136 -0.025087725 0.03517527 0.06787991 0.027098626
-0.018922986 0.041983187 0.088326365 0.012458891 0.11039943 -0.0625024 0.1377558 -0.053916644
0.12874363 -0.021330023 -0.08933972 0.052087 0.0023961794 0.07963298 0.09406464 -0.07902584
-0.0581148 0.0921168 0.06500108 -0.0023976788 -0.029954625 0.06390359 -0.10680596 0.01640603
-0.030682834 -0.022830106 0.0139751155 0.030487414 -0.15431686 0.053363957 -0.035911106 -0.031160725
-0.064312354 -0.06543717 0.0311459 0.041120987 -0.032694068 0.10107157 0.063668355 -0.06972208

bias f4 [128]
00000000: edc3 fdbc 85b3 2fbc 3bce d7bc 6e93 dd3d
00000010: cef7 d0bb a18f aabd b753 b6bc 9f3c 5b3d
00000020: 1cc7 2b3d 57ff 233c 1255 f43c 9446 13bd
00000030: b936 80bd 4e21 973d 9f2d 643d 3721 a73c
00000040: 725f 4cbd 181a 3bbd 5524 8fbd 0e92 75bb
00000050: 0191 22bd 179c 663d 258c a33d 2df9 87bb
00000060: 7306 4cbc 3ddd 6c3d 8820 043d 0b82 d33c
00000070: be0c d63c 7b0c 44bd 94ca 90bc 659b 18bb
00000080: a518 9b3c ada1 97bc 371e 9cbd 7d66 4abd
00000090: 6f94 ea3c a8fb 2f3d 40dc d7bc dde2 bfbc
000000a0: 3b50 513d c774 52bd 6efb 693d 45c6 aabd
000000b0: cf79 96bd 8c1c 983c b453 4ebd 8e2d 20bd
000000c0: cce8 12bc 311e 3c3d 22d5 923d 374b 3b3b
000000d0: be1d 123d 4674 823d 5533 9dbc 5479 293d
000000e0: bceb c23c 46cc babc 615b 053d 77cd 3b3d
000000f0: 5332 1dbd 5099 b7bc 280f 8cbd db73 abbc
00000100: f6c5 0c3c b8bd 10bd 8074 abbd 3716 15bd
00000110: 18de 84bd 941b d73d cdd8 b63d 971c 90bd
00000120: 19b1 003d ad16 0d3d 678b 3e3c ebdb 443d
00000130: 2137 8a3b 0e26 29bd 9a1e 7bbd 6489 3e3d
00000140: 7a01 0e3d db2a 9ebd 3dec 64bc 132a 32bd
00000150: d380 eabc c17b 4dbd 0fac e1bc 20e9 113d
00000160: bf84 8a3d 5e03 333d 1352 25bd 3e3c b139
00000170: 8359 973d 0025 653a 95e0 5b3d 9170 ab3d
00000180: 5c0c 9bbc 4e72 a33d 0c45 8dbd 191e 01bd
00000190: 211d 443d 38ed 3e3d d90f 0ebd 8240 10bd
000001a0: bf32 583d b8fd 203d f905 1eba ab0b 51bd
000001b0: 3ae6 7fbd 50ac eb3b 7380 343d ed34 bbbb
000001c0: c648 08bd c63e 1ebd 08e9 a2bc 36e8 dd3d
000001d0: 31dd 06bd c581 463d 7d7d a83c 1993 55bd
000001e0: a846 323d d50b 58bd c9fd 8bbd c18b c8bc
000001f0: ed6d a5bd 6a91 a3bd 6bbb 023d b2fa 663d
-0.030977214 -0.010723953 -0.026343456 0.108191356 -0.006377197 -0.08328176 -0.022256715 0.05352461
0.041937932 0.010009608 0.029825721 -0.03595598 -0.062604375 0.07379399 0.05570757 0.02040158
-0.04989571 -0.04567918 -0.06989352 -0.0037471089 -0.039689068 0.056301203 0.07985715 -0.004149577
-0.0124527095 0.057828177 0.032257587 0.025818845 0.026129123 -0.047863465 -0.017674722 -0.0023285982
0.01893265 -0.01850971 -0.076229505 -0.049414147 0.028635232 0.042964607 -0.02635014 -0.023423607
0.051101904 -0.0513809 0.057124548 -0.08338598 -0.07347452 0.0185683 -0.050372794 -0.039105944
-0.008966636 0.04592723 0.07169558 0.0028578767 0.035672896 0.06369834 -0.019189516 0.041375473
0.023794048 -0.022802483 0.03255785 0.045850243 -0.03837807 -0.022411972 -0.06838828 -0.020929268
0.008592119 -0.03533718 -0.0837183 -0.03639814 -0.064876735 0.10503307 0.0892807 -0.07036703
0.031418893 0.034445453 0.011629916 0.048061293 0.0042179977 -0.041296057 -0.06130848 0.046517745
0.034669377 -0.07723018 -0.013972339 -0.043497156 -0.028625881 -0.05016685 -0.027547864 0.035622716
0.067636006 0.043704383 -0.040361475 0.00033804955 0.0739012 0.000874117 0.053680975 0.0837108
-0.018926792 0.07980786 -0.06897935 -0.031522844 0.047879342 0.04661295 -0.034683082 -0.03521777
0.05278277 0.039304465 -0.00060281117 -0.051036518 -0.06247542 0.007192172 0.04406781 -0.0057130964
-0.033272527 -0.038634084 -0.019886509 0.10835306 -0.03292579 0.0484636 0.02056765 -0.052142236
0.043524414 -0.05274566 -0.06835515 -0.024480702 -0.08077607 -0.0798672 0.031917017 0.056391425

weight f4 [2, 128]
00000000: eed1 053d 9478 003d 4bd9 c7bc 1099 4c3d
00000010: 8bbd f7ba 7f69 95bd e58a c83d bd8a 7c3d
00000020: 64ad a33d 5292 81bd 6fa2 1f3d 6052 f03a
00000030: b46e 423d 9df3 b73d d4b4 403a 9798 3f3c
00000040: 064d b13d 0e1b 8f3d 6dda b7bc 0e18 85be
00000050: e032 8cbd 9fca a43b 25fc 01bd 16a8 653b
00000060: 54f8 063d d167 3a3d 7027 febc d849 a53c
00000070: eed1 c43d 7f0d 0fbc 0483 cbbc f33c a03c
00000080: 2a2f 12bc ee0d b73c 6193 c7bf 86f9 7cbd
00000090: 29f3 983d 53a8 eabc ba77 95bb 7de9 6c3d
000000a0: 3b20 2cbd 1e5b 613d 61f8 adbd b006 a0bc
000000b0: 919e 21bd e905 72bd fc30 93bc 3cee 5b3d
000000c0: e0ff 3cbd 79a0 d03a 28d3 5ebc 982f 44b9
000000d0: dab1 213d 7e63 9d3c 97ee b73d 2e8c 58bc
000000e0: e349 963d f029 2dbf 98b6 f6bd b9ba aabb
000000f0: 87f9 923a 4fd7 e9bc 1277 20bd 2e31 61b9
00000100: 9ef6 b63c 3c0c d43d 1854 5e3c d6c1 8cbd
00000110: dd97 cbb9 15a2 db3d 3efd e6bc 6f30 1abd
00000120: 9f5c bd3d 1e69 3fbd db63 e7bb 386b 903d
00000130: 2969 87bd 8aa6 ee39 ac0a f33c 3ba7 093a
00000140: a910 083d e996 d13c a723 423c 676f 4dbc
00000150: 1f98 00be 0fd5 11bd a3b2 cd3c 6a02 81bb
00000160: b019 02bc 574e 03bb 5b9f b6bb 32fd 86bb
00000170: 1755 b7bb c6b0 593d 9541 6ebd ea83 cf3c
00000180: a545 43bc 973c dcbd b2c1 b93b 4035 f7bc
00000190: 0f03 543d 4525 ee3b 46b3 fdbd a92f 663d
000001a0: c70d ae3d d38f 873d a57a e33a e8ea b23d
000001b0: 9601 113d daf8 543d 7ef6 88bb e497 69bd
000001c0: a00b 7d3d a86d 3d3d a37e 97bd 3041 0f3d
000001d0: 83ef bebc 11e0 6d3d a608 39be 19d3 ac3d
000001e0: d0b7 b3bc a3f7 fdbd 673f 9b3d 45b6 a0bd
000001f0: 8f64 3ebf cef6 a6bd 7321 c33d c750 9bbb
00000200: ca1a d0bb 48ed 9d3d 223a 753d 05d8 853d
00000210: bf93 133c 7f06 173d 9d86 2f3d 497b 24bd
00000220: a797 0f3d f8c2 953d c51f 9cbd 10a3 d23a
00000230: 1b8a 213b 89ec 143d 55c5 eb3c 2a7e 183b
00000240: a83f 723d 2703 e53d 051f ad3d 88a7 313d
00000250: f112 293d e2d6 c5bc be49 f0bb b5f2 123c
00000260: bd56 aa3d 1cd7 15bd 05bf aebd 0cdb bd3d
00000270: dc78 af3d 5358 04bd 4589 2ebd 391c 9c3d
00000280: 0836 0c3d 9a33 ff3b e6c2 1dbf 2fb0 0e3c
00000290: 912e 7b3d 44fd a63d 1e5a 1dbd d9bf 85b9
000002a0: 95a0 b73d e7ad e5bd 303c 5d3d dae7 84bd
000002b0: 5178 dcbd dd0e 8d3d c5ff 823d de09 46b9
000002c0: cf3f ebbc e6c5 133b 9bde 8d3d a069 3e3c
000002d0: bbea bf3d 0b14 98bc 6cd0 433c 2ee2 883d
000002e0: e0dd 84bb b099 83bd ef33 2abd bc53 373d
000002f0: 488e 133d 597a 993d 92ac 573d b5e1 45bc
00000300: ecc5 4a3d 6230 7b3d d18f 863d 831f a2bd
00000310: bae5 65bb 537c 8f3c ff2a 4d3d ece1 8abc
00000320: 5d20 3dbd 5e5a 803d ec30 083d 8b56 f9bc
00000330: 2fb3 8fbd d5c4 823d c506 b0bd ee44 b33b
00000340: f354 46bd a406 1d3c f877 58bd 6bfd 2e3c
00000350: aeed a4bd aeb0 b43c b06c a23d 2bdd aaba
00000360: b2a2 21bb dfcb 83ba e7a4 2a3f 487c 72bd
00000370: 94c4 d5bc 78f9 4abd 5efd e9bc 000e 9d3d
00000380: 4476 a7bd a7fd aa3d 8dba 78bd 0fa1 90bd
00000390: 1aa0 1a3d 2fcb 44bc d310 54bc 4bfb 7ebd
000003a0: 873e 08bc 6152 a83c 99a0 d3ba e77e 10bd
000003b0: 0adb 77bd 1366 ae3d 82ab 4fbc a86c a0bd
000003c0: abcc 083d 2107 7a3d cd66 ae3d fe1c 423d
000003d0: 581f 89bc 8495 0d3d 6bae 413c ca00 143d
000003e0: f16e 863d b2df 0dbc df7b ac3d 0c4f 31bc
000003f0: 6cf9 35be ea02 55bd 2c57 943c 8614 5b3b
0.032670908 0.031364992 -0.024395606 0.04995066 -0.0018901093 -0.072955124 0.09792117 0.06165575
0.07992056 -0.063267365 0.038973268 0.0018335097 0.047468856 0.089820124 0.0007351164 0.011694095
0.08657269 0.06987582 -0.02244302 -0.25994915 -0.06845641 0.005029037 -0.031734604 0.0035042814
0.032951668 0.045509163 -0.031024665 0.020176813 0.096103534 -0.008731245 -0.024842747 0.019560313
-0.008922378 0.02234551 -1.5591851 -0.0617614 0.07468254 -0.028644716 -0.0045613917 0.05783986
-0.042022925 0.055018537 -0.0849464 -0.019534439 -0.03945786 -0.059087668 -0.017967694 0.053693995
-0.04614246 0.0015916965 -0.013600148 -0.00018709747 0.039476253 0.01921248 0.08981054 -0.013217015
0.073383115 -0.67642117 -0.12046546 -0.0052102474 0.0011213281 -0.02854505 -0.039176054 -0.00021475993
0.022334393 0.10353896 0.013569854 -0.06872909 -0.00038832324 0.10724274 -0.028196927 -0.037643846
0.09246182 -0.046731107 -0.0070614642 0.070517 -0.066118546 0.0004551898 0.029668175 0.00052510545
0.033219013 0.025584655 0.0118493205 -0.012538767 -0.1255803 -0.03560358 0.025109595 -0.0039370554
-0.007940695 -0.0020035708 -0.005573196 -0.0041195387 -0.0055948603 0.0531471 -0.058168013 0.025331456
-0.01191846 -0.10753744 0.0056688422 -0.030176759 0.05176073 0.0072676265 -0.12387709 0.056197796
0.084987216 0.06619229 0.0017355277 0.08736211 0.035401903 0.051995136 -0.004179775 -0.05702962
0.061778665 0.046247154 -0.07397201 0.034974277 -0.023307567 0.058075015 -0.18069705 0.08438701
-0.021938235 -0.124007486 0.075804524 -0.07847265 -0.7437219 -0.08152543 0.09527864 -0.004739854
-0.0063508498 0.077112734 0.059869893 0.06535343 0.009007393 0.03687143 0.042852987 -0.040156636
0.035056736 0.07312578 -0.07623247 0.0016070325 0.0024648968 0.03635839 0.028780619 0.002326856
0.05914274 0.11182242 0.08453182 0.04337266 0.04127783 -0.024150316 -0.0073330095 0.008968999
0.08317325 -0.036582097 -0.08532528 0.092702955 0.08567974 -0.032310795 -0.04261138 0.076225705
0.034231216 0.007788134 -0.61625516 0.008708998 0.061323706 0.08153775 -0.03841602 -0.00025510674
0.089661755 -0.1121481 0.054012477 -0.06489535 -0.10765136 0.068876006 0.063964404 -0.00018886427
-0.02871695 0.0022548377 0.06927224 0.011621863 0.09370943 -0.018564245 0.011951547 0.06683765
-0.00405477 -0.06425798 -0.041553434 0.04475759 0.03602436 0.07494039 0.05265481 -0.0120777385
0.04950516 0.06132544 0.065703996 -0.07916167 -0.0035079555 0.017515337 0.050089832 -0.016953431
-0.046173442 0.06267236 0.03324978 -0.030436775 -0.070165984 0.06385199 -0.08595041 0.0054708635
-0.048420858 0.009584103 -0.052848786 0.010680537 -0.08053146 0.022056904 0.07930887 -0.0013035884
-0.0024663624 -0.0010055265 0.6665787 -0.059200555 -0.026094712 -0.04955432 -0.028563198 0.07668686
-0.08176854 0.083491616 -0.060724784 -0.070619695 0.03775034 -0.012011333 -0.012943464 -0.06225137
-0.008315689 0.020547094 -0.0016145884 -0.035277274 -0.060511626 0.08515563 -0.012675168 -0.078332245
0.03339831 0.061041955 0.085157014 0.04739093 -0.016738579 0.034566417 0.01182137 0.036133565
0.06564129 -0.00865929 0.08422064 -0.010822069 -0.17770928 -0.052004732 0.018107973 0.003342898

bias f4 [2]
00000000: c28a 8bbc 925d 5dbc
-0.017033938 -0.013511078
