models/mountaincar_2D/checkpoint_cl.17.pth.tar (torch_old, 143897 bytes, 12 tensors)

weight f4 [128, 5]
00000000: 2fbd 353e f1d5 863d a4f4 dbbd 51c1 6f3e
00000010: d1ed c4be f8b8 7fbe 44eb 023e 24a3 b2bd
00000020: b48f 81be 34f8 89be 1fc8 c5bf 4557 86be
00000030: 59d9 91bd 94fd 8fbd 5bde 68be 6e55 eabc
00000040: 28a1 03be 3933 dbbc dbb6 293e 1c8f 903e
00000050: d0dd 883d 9763 a1be 9dd8 b03e c094 cd3c
00000060: 2dc3 b83e c5e8 db3e 8dc9 6c3e 29ac 353e
00000070: 76c8 24be 1fff 89be 0f99 133e a3d5 bbbe
00000080: d792 32be eae9 8d3e c1cb 823e 02be c9be
00000090: f4c7 cdbd 06e7 bc3e 03d9 a8be a73d 8c3e
000000a0: 7f54 d5be 8dab 3c3d 4a13 92be ba52 0bbe
000000b0: 5f8a 9f3e 26c4 b43d 572b 0cbe a317 cfbd
000000c0: 30fb 91be 72ba 59be 38e9 e9be da1f 593e
000000d0: 3c20 85be e76d b23e eb9a 663e 3cd5 0e3f
000000e0: 945c 5c3e 4d83 3e3e e056 bf3e 67fb 42be
000000f0: 8cfe d73d 2250 11be ef99 8f3e df55 473e
00000100: a5ba 513e 8903 b0bd c6f9 a03e 44c6 cdbe
00000110: f083 173d cf79 c23d 793f dfbe bb6a 4ebe
00000120: 5d94 af3e afc9 563e fb07 d3be 5961 a2be
00000130: 8cc1 733e 80b5 b23e c951 5ebe 063a 45be
00000140: aed0 823e 4f07 cd3e 8637 fbbe 36e0 99be
00000150: c318 9b3e ea47 bebe 11a8 23be 7aeb cd3e
00000160: 7974 cf3e 97f7 433d 10d0 b4bc 94a2 ccbe
00000170: 50ff c63c 28ca 91be f03a 81bc 434e c1be
00000180: 03d8 263e d6c7 de3d e44d 123e 90ec cabe
00000190: 3919 323e 98fb ef3c 6ae9 a2be 5e61 0b3e
000001a0: 1c1c babe 840f d63e 91be 1a3e df8b 8c3d
000001b0: 8977 7e3e 7257 a9be 27f6 103e 1621 e53e
000001c0: 1942 763d cb06 97bd 9a17 ab3e 860e 0ebe
000001d0: 614a 9a3d 0c08 6a3e 4459 cabd 462d 213e
000001e0: 97d5 74be 2828 b43e bb8d 8f3e 5933 d03e
000001f0: db27 63be 6ea9 8bbe 4066 d0be f7f8 a53e
00000200: dc00 3a3e 79aa 7cbe 4d73 c8be f92c bc3e
00000210: 0476 463e fb0f 463e dfd2 bf3c af8c 1cbe
00000220: 2fa8 b53e e16a c53e dc3a d33e fe88 563d
00000230: 8e02 cf3e c582 4ebc b8d0 c0be ac1f a63e
00000240: 6f94 7b3e 2531 a53e a010 ebbe 1745 9b3e
00000250: cd04 8bbc 0b03 2b3d 771a d63e 2ed4 793e
00000260: a52e cbbe dbb8 63bd 1adc b73e 950f fd3d
00000270: 440d 233e 2ab5 653d afb5 7f3e e697 3dbe
00000280: 4446 8c3e 3399 a33e 9f71 4e3e 313a 013e
00000290: 5231 b73e 2f0b e0be f1e4 b9be dc63 363e
000002a0: 7001 18be 92c0 ac3e daa5 c9be fad7 a9be
000002b0: 10dc 933d 78b7 053d b83f cebd e04b 2d3e
000002c0: 2254 35be 3281 ab3e c5d2 f7bd 2a08 c73e
000002d0: d454 10be 908d 393e 2eaa 4fbe 6052 9abe
000002e0: 4055 ce3b b800 d53e 4be6 843d e0c5 8bbe
000002f0: a093 17bd a892 aebe 860d 883e 3f5d 96be
00000300: a0b2 39bd 14fb 8cbe f060 14be c5ca b9be
00000310: e840 c6be 851a 10be 6674 aa3e 3cbb d2be
00000320: 4983 b6bc c683 bdbd b44e 42be 0666 13bd
00000330: 4c47 703e cae0 cf3e a1e6 64be c077 93be
00000340: d896 d6bd 2a6c c63c 9be8 0ebe 0404 763e
00000350: 4a93 31be b90e a7be 065e 833e 0a39 01be
00000360: ac83 4d3e 0d27 7fbe 954b b93e c67e 0cbe
00000370: 4350 20be ebbd 9e3e b897 2dbd 03f1 55bc
00000380: 00a4 c1bd bbb3 b93e 0338 463a 975f 9cbe
00000390: 21e2 a3be 741a e93d 2a3c c63e 454d a5be
000003a0: 927e bdbe f02e b43e 60c8 41be dcb6 d8be
000003b0: b1de 5c3e 665d c73d 7816 aebd 16fc 4dbd
000003c0: c6b2 bcbe a799 323e 7f25 b13e 3854 9bbe
000003d0: 7773 ca3e 9835 a53e cbab 9c3e 1e75 6d3e
000003e0: 699d 8b3e c3af 8e3e 204f 863e 4eea 983d
000003f0: 30a7 4e3d f411 773e 22e3 94be 6681 fcbd
0.17747949 0.06583775 -0.10740021 0.23413588 -0.3846269 -0.24972904 0.12785059 -0.08722523
-0.2530495 -0.26947176 -1.5451697 -0.26238456 -0.07121534 -0.07030788 -0.22741072 -0.02860519
-0.12854445 -0.026757823 0.1657366 0.28234184 0.066829324 -0.31521294 0.34540263 0.025095344
0.36086407 0.42951027 0.2312376 0.17741455 -0.16092095 -0.26952454 0.14413856 -0.3668643
-0.17438827 0.27717525 0.25546077 -0.39402777 -0.10047904 0.36895007 -0.32978067 0.27390787
-0.41666028 0.04606204 -0.2853034 -0.13605776 0.31160256 0.08826475 -0.13688408 -0.1011193
-0.28511953 -0.2126253 -0.45685744 0.21203557 -0.26001155 0.34849474 0.22520034 0.5579412
0.21519691 0.18604775 0.37370968 -0.19041215 0.10546598 -0.14190724 0.2804713 0.19466351
0.20481355 -0.08594424 0.31440562 -0.40190327 0.03699106 0.094958894 -0.43603113 -0.20157902
0.3429288 0.20975374 -0.41217026 -0.31714895 0.23804301 0.349041 -0.21710886 -0.19260415
0.25549835 0.4004464 -0.490658 -0.30053872 0.3029233 -0.3716424 -0.15982081 0.40218717
0.4051855 0.047843542 -0.022071868 -0.39967787 0.024291664 -0.28474545 -0.015775174 -0.3775502
0.1629334 0.108779594 0.14287525 -0.39633608 0.17392434 0.029294774 -0.31818706 0.13611361
-0.3634957 0.41808712 0.15111758 0.06862616 0.24850287 -0.33074528 0.141564 0.44751805
0.06012163 -0.073743425 0.33416444 -0.13872728 0.07533718 0.22854632 -0.09880307 0.15739927
-0.23909603 0.35186887 0.2803782 0.40664175 -0.22183172 -0.27277702 -0.4070301 0.32416508
0.1816439 -0.24674405 -0.39150468 0.3675306 0.19380957 0.19342034 0.02341598 -0.15288042
0.35479876 0.38558105 0.41255844 0.05237674 0.40431637 -0.01260442 -0.3765924 0.3244604
0.24568342 0.32264057 -0.4591112 0.3032615 -0.016970063 0.04175095 0.41817066 0.24397346
-0.39684024 -0.055596214 0.35910112 0.12356488 0.15923029 0.056080975 0.2497165 -0.18514976
0.27397358 0.3195282 0.2016053 0.12619855 0.35779816 -0.43758532 -0.3630748 0.17811531
-0.14844298 0.3374067 -0.39384347 -0.3317259 0.07219708 0.032645673 -0.10070747 0.16923475
-0.17707875 0.33497006 -0.12100748 0.38873416 -0.1409486 0.18120408 -0.20279762 -0.30140972
0.0062967837 0.4160211 0.064892374 -0.27299404 -0.03700602 -0.34096265 0.26572818 -0.29368016
-0.045336366 -0.27535307 -0.14490104 -0.36287513 -0.38721395 -0.14072616 0.3329193 -0.41158473
-0.022279399 -0.092536494 -0.18975335 -0.03598597 0.23464698 0.40601188 -0.22353603 -0.288023
-0.1047799 0.024221499 -0.1395592 0.2402497 -0.17341343 -0.3262842 0.25657672 -0.12619415
0.2006976 -0.2491724 0.36190477 -0.13720235 -0.15655617 0.3100427 -0.04238102 -0.01305795
-0.09455109 0.36269936 0.0007561447 -0.3054168 -0.3200846 0.11381999 0.38717777 -0.32285514
-0.37010628 0.3519206 -0.18924093 -0.4232701 0.21569325 0.09734611 -0.08500379 -0.050289236
-0.36855143 0.17441426 0.3459892 -0.3033769 0.39541218 0.3226745 0.30599818 0.23189208
0.27268532 0.2786847 0.26232243 0.07466565 0.05045241 0.24127942 -0.2907954 -0.12329368

bias f4 [128]
00000000: 8a72 d4be 17df 5dbe 15ba 4c3e 9359 f63d
00000010: 0f80 0abe e87c 02be 2a95 143e 4cbd 263e
00000020: de18 843d 8603 893e 9e16 a63e fad9 ebbe
00000030: 7638 dcbd 078d b9be c092 bf3e 2d90 3ebe
00000040: 1315 983e 8a64 ee3e 1508 babe 9da1 043e
00000050: 7dda 84be 6492 dabe 9a96 8ebe a799 423e
00000060: 63da bdbe ddab 97be abb4 adbc 79ac ac3b
00000070: 2b29 dabd 52af 9d3e 738a 113e 9364 da3d
00000080: 730e aabd ec6a a2be 2605 25be 83dd 3c3e
00000090: 7c53 a1be 9fbe 753e f7d8 b1be 644e 9f3e
000000a0: f73a 0bbe 8c17 4abe 3222 d13e 7c54 bbbe
000000b0: 6220 b03d 1174 ba3e b69f c43e 60c6 be3e
000000c0: 27fe 09be 491d bdbe b8c5 edbe f3cf 5cbe
000000d0: 58a6 873e a4eb 6d3e 1705 da3e 9362 84bc
000000e0: da72 c8be b205 94be 93fe 0dbe dce3 d5be
000000f0: da39 2f3e 7437 c13b 2420 173e d0c3 1cbe
00000100: 1dc0 223e 0c15 6dbe 3fc5 9c3d 2671 3abe
00000110: 25a6 4abe fe6b b5be 69bf 3f3e 5ddf 72bc
00000120: 8df0 f73d c571 3c3c ec55 df3d f4c7 023d
00000130: cfd2 d0be 0277 f43e 962c 81be eea2 2bbe
00000140: 3d82 34be b29b 9dbe b02f 74bd 0980 76be
00000150: 9024 373e 18bd 60be 7789 d43e 248d 823e
00000160: c058 12be acae 81bd 7db1 483e afad a1bd
00000170: fd56 673e 3111 4b3e a3ad f3be 72a4 d33e
00000180: 5ebe 23be d7db 953e bb2a d73e 6332 1a3e
00000190: 1995 c73e 3428 cf3e 27db ebbd a80b 9ebe
000001a0: 34cc 63be 6930 fcbd d0be b0bd e611 c5be
000001b0: eb6c b0be b045 bfbd eb8a 083e 5e64 11be
000001c0: 356f 4ebe ff8f 22be 517d 683e 92ff 80be
000001d0: 3c83 83be 833d 27be 7508 c0be 8077 cd3e
000001e0: 782b afbe 34c6 c13e 810d 4bbe 7836 4cbe
000001f0: e713 ad3e 9c40 dd3e ce74 e7bd 295a 97be
-0.41493636 -0.21667133 0.1999286 0.12028804 -0.13525413 -0.1274296 0.14510027 0.16283149
0.064500555 0.267605 0.3243913 -0.4606474 -0.107529566 -0.36240408 0.3741665 -0.18609686
0.29703578 0.4656108 -0.3633429 0.12952276 -0.25947943 -0.42689812 -0.27849275 0.19003926
-0.37080678 -0.2962331 -0.021204313 0.005269584 -0.106523834 0.3079782 0.1421297 0.10663714
-0.08303537 -0.317222 -0.16115245 0.18443875 -0.31509006 0.23998497 -0.34735844 0.31114495
-0.13596712 -0.19735545 0.408464 -0.36587894 0.085999265 0.36416677 0.384031 0.37260723
-0.13475858 -0.36936405 -0.4643991 -0.21563701 0.26494098 0.23234421 0.42582008 -0.016160285
-0.39150125 -0.28910595 -0.13866644 -0.41775405 0.17111912 0.005896503 0.14758354 -0.15309072
0.15893598 -0.2315256 0.07654809 -0.18207225 -0.19789942 -0.35433954 0.18725361 -0.014823762
0.12106428 0.011501734 0.1090506 0.03192897 -0.40785834 0.47747046 -0.2522933 -0.16761371
-0.17627807 -0.3078285 -0.05961579 -0.24072279 0.17885041 -0.21947134 0.41511127 0.25498307
-0.14291668 -0.06332144 0.19598956 -0.07894456 0.22591777 0.19830777 -0.47593412 0.413364
-0.15990588 0.29269287 0.42024788 0.15058284 0.3898094 0.4046036 -0.11516409 -0.30868268
-0.22245866 -0.12313921 -0.086301446 -0.38490218 -0.34458098 -0.09339464 0.13334243 -0.14198443
-0.2015961 -0.15875243 0.22704054 -0.25194985 -0.2568606 -0.16332059 -0.37506452 0.40130234
-0.34212852 0.3784653 -0.1982937 -0.19942653 0.33804247 0.43213356 -0.113015756 -0.29560974

weight f4 [128, 128]
00000000: 185d e0bd 2c70 8ebc 53ff a7bf bf37 c1bc
00000010: 7ce0 af3c ddc0 c1bb a270 dc3d bb39 213d
00000020: ff9e 1f3c 0484 823d e157 553d 3297 ebbd
00000030: a9d9 56bd 17af 24bd 7209 74bc d11f 65bc
00000040: f60a 163d 191f 82bc 6157 83bd b99e c5bd
00000050: 3e1c 113c 6514 9d3c f83f a3bd 7fb2 9e3d
00000060: a02f eabc eb9b 993d 6c99 bebd 285f 9b3d
00000070: 3468 d23c be29 953c b9a0 6c3d 3686 b93d
00000080: 0b0e 2d3c 9864 363c fe7d 7a3d 08e3 993d
00000090: 1136 91bd aab6 db3d 1f56 68bd 906a c5bb
000000a0: 9cea 4a3d 962b 52ba 4bd3 8b3d 0379 21bd
000000b0: ebfa 57bb 744a 24bc c815 533d f448 183d
000000c0: 83a9 323d 9175 623d 6d5e c7bd fbd6 573d
000000d0: 1c94 c43d ed2f fb3c 650f 863d b15f 203b
000000e0: 122d 403d b205 e8bc de3e 403d d6dd 4f3d
000000f0: 9a46 873d d85c b33d 8de0 963d f12a 273d
00000100: 7b32 c3bd e6b7 6abd 1f21 17bd 3eec 663d
00000110: f675 68bd 00ee 1f39 938b 233d 8e26 803d
00000120: 6318 c93d 2a1f 93bc a111 783d b215 773c
00000130: d6c3 2e3d 9e50 3bbe 9108 3fbd 9aed 06bd
00000140: a02e 0dbc 27da c5bc 3c3c c93c 21e5 c73d
00000150: a51a a5bd 498a 923c f24f ecbc cc39 90bd
00000160: a963 de3a 02ab 1b3d bbca b43c 2378 2dbd
00000170: d5d6 863d 2d3c fd3c 190e 3abe cd32 283d
00000180: d348 5a3d 00b2 07bd 104c bb3c 7e72 8b3b
00000190: 05b2 0fbd 7f8e a33d e3a5 653d d89f 9dbd
000001a0: c8c0 013d 375b ee3c d4a2 4abd 4ef9 043d
000001b0: 1572 963d 28b5 b03d b0d5 65bd a5c0 2fbd
000001c0: 29d1 45bd 28bc 87bd bfcd c8bc 3a90 1ebe
000001d0: 6122 623c 2a2f e63d f049 fb3c 2e8c a4bd
000001e0: 1f8b de3d b090 2dbd b688 b53d a60a 54bc
000001f0: 6686 e33c 59a0 ab3d 27f3 b6be 8008 463c
00000200: 72e7 9c3a 801b 023c 0567 ab3d 582c d73c
00000210: ed8d c83c fb9b a2bd 4413 31bd f813 4d3d
00000220: 42c5 5c3d 48d2 a7bd 010f 56bd d365 aebd
00000230: ff5b 073b ba27 013d bb32 6abd 2c49 a1bd
00000240: 182e 073d b931 04bd cc21 a1bc 3c49 843c
00000250: df4e 1c3d 82ae 42bd 841f 353d 918d d23c
00000260: 957d 12bd 24e3 a6bc 028d 41bd 66b6 bebd
00000270: a0e0 d63c 89a9 53bd 10a4 8f3d 546a 433c
00000280: 8bd2 523d dce1 b33c a03d a6bd cb5f 6fbd
00000290: 3d4b 993d 08a6 7dbd 4003 6b3c 91ec 42bd
000002a0: 6065 6c3d 9df1 a93d 7841 713c 52bb 363d
000002b0: 2349 3b3d 7e09 3ebd c4d1 a1bc 9af8 a6bd
000002c0: 73e1 91bd 9231 b9bd 8889 84bd 15dc 2bbd
000002d0: 196b 353d 044c b73c 2f95 8e3d cc63 06bd
000002e0: 5025 803c 3105 8d3d 1534 80bc f846 c0bc
000002f0: 8c25 1fbd da97 8c3d c626 003d 8085 ae3d
00000300: c9b7 2b3d e18c 40bd 6104 fcbc 4cc0 68bd
00000310: af32 8abd 080a 5dbc d65e 453c af73 a33d
00000320: 8bd4 98bc 5f84 8b3d c1c7 4dbd 6b76 983c
00000330: e19c 95bd 62b3 3bbc e1ff 60bd 30ec 2e3d
00000340: 000f 933c 5007 2e3c c8b6 083d 2c7c c93c
00000350: 3ec3 f7bc 20e7 223c 6463 473c f633 f6bc
00000360: e2ee 7ebb d8ec 2e3c 2166 7cbd e58a d1bb
00000370: 2b65 753d 6dee a0bd d63e 1f3d 7861 c3bc
00000380: 1539 3c3d 5907 9bbc 6644 413d 5dfc 83bd
00000390: 9792 1e3d 98ac 193d 5d31 93bd 6254 0b3d
000003a0: 71b1 00bd 9b85 f63c c027 5a3d e853 013d
000003b0: 864e 433d d87b 5dbd fefe f73b 0768 84bb
000003c0: 6faa 883c 91f0 49bd b780 973d bf65 ce3c
000003d0: 19a8 5ebc ff77 843d 5768 ae3c b304 f23c
000003e0: 7f87 94bd d40f 86bc 8d54 a5bd 5b8f 393d
000003f0: 5a72 f5bc 9e1a d1b9 2039 94bb 20f6 dc3b
-0.10955256 -0.017387472 -1.3124794 -0.023586152 0.021469347 -0.0059128837 0.107636705 0.039361697
0.0097424975 0.06372836 0.05208576 -0.115034476 -0.05245367 -0.04020604 -0.01489483 -0.013984636
0.036631547 -0.01588397 -0.064131506 -0.096494146 0.008856831 0.019174764 -0.079711854 0.07748889
-0.028587162 0.07500442 -0.09306607 0.07586509 0.025684454 0.01820838 0.057770465 0.09058802
0.01056243 0.011132382 0.06115531 0.07514006 -0.070903905 0.107282 -0.056722756 -0.006024666
0.049540147 -0.0008017359 0.0682741 -0.039422046 -0.0032955955 -0.010027517 0.051534444 0.03717895
0.04361869 0.0552879 -0.09734807 0.052695256 0.09598562 0.030662501 0.06545905 0.00244711
0.046917982 -0.028323028 0.046934955 0.05074867 0.06605263 0.08757943 0.073670484 0.040812436
-0.09531113 -0.057304285 -0.03689682 0.05637764 -0.05675312 0.00015252084 0.03992803 0.06257354
0.098191045 -0.017959196 0.060563687 0.015080856 0.042667232 -0.18292472 -0.04663903 -0.03294144
-0.008617073 -0.024151875 0.024564855 0.097605 -0.08061723 0.017888205 -0.028846715 -0.07042274
0.0016966957 0.038004883 0.022069326 -0.0423509 0.06583945 0.030912483 -0.1816944 0.041064072
0.053292107 -0.03312874 0.022863418 0.004255592 -0.035081882 0.07986163 0.056066405 -0.076965034
0.03167799 0.029096229 -0.04947169 0.032464318 0.07345978 0.08628303 -0.05611199 -0.04290833
-0.048295174 -0.06627685 -0.02451217 -0.15484706 0.013802142 0.112394646 0.030674905 -0.0803455
0.10866379 -0.042374313 0.08863966 -0.012941992 0.027774047 0.08380193 -0.35732386 0.0120869875
0.0011970832 0.007941127 0.08369259 0.026266262 0.024481738 -0.07939907 -0.043231264 0.05006787
0.053899057 -0.08194405 -0.052260403 -0.08515515 0.00206542 0.031532027 -0.057177287 -0.078752846
0.033002943 -0.03227398 -0.019669436 0.016148202 0.038161155 -0.047529705 0.04421951 0.02570227
-0.035764296 -0.020371981 -0.047253616 -0.093121335 0.026230156 -0.051675353 0.07013714 0.011927206
0.05147032 0.021958284 -0.08117223 -0.058440965 0.07485054 -0.061925918 0.014344037 -0.04758889
0.057713866 0.08298037 0.014725082 0.044612236 0.045724045 -0.04639577 -0.019753344 -0.08152886
-0.07123079 -0.09042658 -0.064715445 -0.041957933 0.04429159 0.022375114 0.06962048 -0.032810017
0.015642792 0.06885756 -0.015649835 -0.02347134 -0.038854167 0.06864901 0.031286977 0.08521557
0.041923318 -0.047009353 -0.030763807 -0.056824014 -0.067479484 -0.013491161 0.012046536 0.07981049
-0.018656036 0.06812357 -0.05023933 0.018611154 -0.07305313 -0.011456342 -0.054931525 0.042705715
0.017951488 0.010621861 0.03337744 0.024595343 -0.030244466 0.0099428 0.012169693 -0.030054074
-0.003889971 0.010676585 -0.061620835 -0.0063947313 0.059910934 -0.07857976 0.038878284 -0.023850188
0.045952875 -0.018924402 0.04718437 -0.06444619 0.038714018 0.037518114 -0.0718715 0.03401602
-0.03141922 0.030093005 0.053260565 0.03157416 0.047682308 -0.054073185 0.0075682392 -0.0040407213
0.016682832 -0.049301688 0.07397597 0.025195 -0.013589882 0.064682 0.021289987 0.029543256
-0.07252406 -0.01636497 -0.080727674 0.04530273 -0.029961754 -0.00039883418 -0.0045234114 0.0067432076

bias f4 [128]
00000000: 3938 083d f91e adbd 4292 93bc 31fb 50bd
00000010: b70c 483d 17f7 883d 8295 8a3d 0e39 16bb
00000020: 4cbf 65bd 5767 883d a2cd cfbc b27b 05bb
00000030: 0e5a 8a3d afbe 393d e3b9 993d 9306 83bd
00000040: a02a ac3c c197 2dbd 2350 063d 8f1a b23d
00000050: 0c79 de3d 42a6 363d ae96 b5bc 795a 643c
00000060: 25ed 023d ffeb 2bbd 0e5e 8f3d 245c 9c3c
00000070: fb51 a93d 8c38 ca3c 49b7 8cbd f77b c03d
00000080: d2f2 343d 29b3 a4bc 8a93 ec3d 5807 433a
00000090: f93d 4c3d 0903 2bbd 94fc 12bd 0da5 703d
000000a0: bffe d0bc 9d36 8dbc 1ee9 b83d 6e5a f2bc
000000b0: 84c0 b03a 1a0a 6a3d ac72 823d 23a6 e53c
000000c0: 675c aa3d a39f e33d 2746 acbd d866 5ebd
000000d0: b5b3 83bd e89e 9b3d bfca 63bd e48f 0abd
000000e0: 0449 a4bc f372 b3bd c6c9 98bd 6edd 823c
000000f0: 5dd4 7ebd 0cfe 7d3d 25cd ca3c a18c 36bc
00000100: 1257 073c e1a8 03bc c683 9e3d 830c 8e3d
00000110: 0ad0 223d b44c 7cbd de6d abbd e20a 803c
00000120: 1c32 4abc 04e2 bf3d 8122 823d e073 1dbd
00000130: a822 da3d 5afe 80bd 577e 853c cc7a b13d
00000140: 30a1 b4bd dffd 42bd 1394 4d3d 4a86 433c
00000150: 9265 8b3d 8e2a cabc b415 8dbd 1203 e8bc
00000160: 7552 653d 5406 823d dc61 5fbc 44c2 d83a
00000170: 63fa 63bd 1c26 883d c729 163d 2f8e a23d
00000180: 4e6b 8dbd 4b6f 69bd 35f8 e9bd 3b4c 38bd
00000190: 72ae 78bc 662c 89bd 0b5c f0bd 06f4 623c
000001a0: 9906 8dbc 8ab3 8fbd 0057 8abc 0141 11bd
000001b0: bfc6 8cbd 85e6 223d baa0 b13c c359 bb3b
000001c0: 7248 0b3d f5f6 f03c d72d 08bb b3ff 2abd
000001d0: e175 b4bc 1589 99bd b5c3 84bd 15c8 8a3d
000001e0: 1697 353d 107e 96bd 7963 0cbc eed8 37bd
000001f0: 2f64 2abd 1e8f 82bd b727 233d 5210 643d
0.033256743 -0.08453173 -0.018014077 -0.051020805 0.04884025 0.06687754 0.067667976 -0.002292219
-0.056090638 0.066603355 -0.025366608 -0.0020367918 0.06755458 0.045347866 0.07506158 -0.06397738
0.021016419 -0.042381052 0.032791268 0.08696472 0.108629316 0.04459215 -0.022166576 0.013937586
0.03196444 -0.04197311 0.070003614 0.019086905 0.0826759 0.024685167 -0.06870896 0.093986444
0.044176884 -0.020104961 0.11551578 0.0007439754 0.04986379 -0.04175094 -0.03588541 0.058751155
-0.025512097 -0.017237956 0.090288386 -0.029584136 0.0013485109 0.05713854 0.06369528 0.028033322
0.083184056 0.11114433 -0.08411818 -0.0542973 -0.06430761 0.07598668 -0.055613276 -0.03382863
-0.020054348 -0.08762159 -0.0746036 0.015974727 -0.062214244 0.062009856 0.024756024 -0.011141927
0.008260505 -0.008035869 0.077399775 0.0693598 0.039749183 -0.061596587 -0.08370565 0.01563019
-0.012341049 0.09369281 0.06354237 -0.038440585 0.106511414 -0.06298514 0.016295595 0.08666
-0.088198066 -0.04760539 0.050190043 0.0119338725 0.068064824 -0.024678495 -0.06888905 -0.028321777
0.05598684 0.06348863 -0.013634171 0.0016537388 -0.05565871 0.06647894 0.036660936 0.079372756
-0.06905232 -0.056990903 -0.11424295 -0.044994574 -0.01517831 -0.066979215 -0.11736306 0.013852125
-0.01721506 -0.07016666 -0.016887188 -0.035462383 -0.06873845 0.03977062 0.021683086 0.0057174875
0.034004636 0.029414633 -0.0020779276 -0.04174776 -0.022028865 -0.074968494 -0.06482641 0.06776444
0.04433354 -0.07348263 -0.008568638 -0.044884615 -0.04159945 -0.06374954 0.039832797 0.055679627

weight f4 [2, 128]
00000000: 61be b43d 44e5 4dbc a04f a4bd 6b1b 95bd
00000010: 70b7 ea3b 20ce f93b b688 64bd 8f55 113d
00000020: c896 ba3c 419b c1bc aa18 373d 7360 a6bd
00000030: 45a6 313c e2db 09bd 63cb 933c d03b ed3d
00000040: 5e8a 01bc 0506 5fbd d8d9 27bb 7024 3cbe
00000050: adc8 ba3d 5d5b a43d 9f3c 0ebd 03da 503d
00000060: 6580 9ebd 80a9 8d3d a902 28bd 961c f0bf
00000070: 7619 603d 90c3 eabb bd9f 9b39 1427 a6bd
00000080: 3034 b03c 651b 123d d36b 7f3d 5a66 b43d
00000090: 350b 9ebd ffc8 63bd c4ec a43d fc9b 2d3d
000000a0: 476a 6dba 5870 b83d dc7a 58bc e033 193b
000000b0: 371f 623d e081 a0bd 23ff e5bb bd26 94bc
000000c0: a27d 903d c6a4 be3d 3a51 89bc 92a5 53bd
000000d0: 3eaa b9bc d44c 023d 70b8 b13e 60c7 f03b
000000e0: d9e7 61bc 62fa dfbc cfc7 82b9 ef2f 08be
000000f0: 2883 9abd 1191 03bd 8ab0 ddbd ccaa 393c
00000100: d679 cc38 ce1d 023d a1a4 913d 2442 2fbc
00000110: ea52 873d 8400 b039 4096 97bd d376 06be
00000120: 2726 ed3d 3a37 aa3d 91a3 7dbc dd0f d43d
00000130: 5690 013d a6f5 5a3d 1531 42bc 836d ddbd
00000140: b013 1fbc e485 89bd b99d 07bf 2dbb 53bd
00000150: f492 c53d 7a23 d0bf 25f6 b03d c9e1 aabd
00000160: 56ad 573d e372 5a3c 1009 663c 676b da3c
00000170: 8abd ac3d 8e83 2b3c 28d3 803c 2ed6 5a3c
00000180: 2d00 243d 15ca 56bd 618a d23d 8254 213d
00000190: f228 12bd 82cc 09bc 0162 f8bf 7901 40bd
000001a0: 5656 cf3d 558d adbd 05e8 20bd 155a 57be
000001b0: ae5b 273d 0804 cb3d ce23 a7bc f0d4 c33d
000001c0: a86c 96bd b8a5 223d d97c e7bd f3f3 b0bd
000001d0: 037a b1bd 0052 35bd 2efc 46bd 5f3c b9bc
000001e0: e23e 0bbe 343e c03d 1259 3d3d be80 bcbf
000001f0: 01f8 34be 0b9c 913d b916 57b9 24cb c1bb
00000200: 58db 29bd f77b 51bb 6be2 bcbc 84bd 73bb
00000210: a854 3c3d bc9b d0bc f3ab 63bd 4c7c d5bc
00000220: 1432 91bc ea08 c0bc 034a 75be 741c 93bd
00000230: b28d a13d 81ba a83d ca82 713d 8cda 18bd
00000240: e832 e8bc cc2c d03c 3387 eebb 005f c9bd
00000250: 01bf 9e3b 5f91 23bd 9f44 863d b306 8dbb
00000260: c10f 6ebd b57a 65bc dd0c 763d cf36 8ebf
00000270: b6ff a73d 704b 573c f2e0 923b b309 933d
00000280: 9193 70bd 135f bc3d 6e46 9d3c 5959 b23c
00000290: abe0 773d 2629 bd3d 4c03 ab3d 7621 f3bc
000002a0: a088 233d d767 993d 0883 913d ec75 fb3c
000002b0: e062 243d 53a8 983d f362 013d add2 473d
000002c0: a090 7d3c 6bab d6b9 002d 5cbd 90c2 adbd
000002d0: 3d34 953d 239c 0f3d 699a 86bd f6fe 5c3d
000002e0: ab28 623d 207c b1bc eef7 9d3d c85a 423d
000002f0: 0555 18bd c791 e1bd 292f e8bc d311 1a3d
00000300: 4c5a 913b 230c 4abd b594 7abd 7559 4b3d
00000310: 5798 e93d e55b ed3a 6bd6 673d 5689 01be
00000320: 7b55 043e 5377 9eba 2b50 b8bc 9d67 20bd
00000330: d0e3 093d 6e32 403d b698 88bc a939 42bd
00000340: 6a30 623d 7958 35bd 71fc 623f 17d9 9f3d
00000350: 213a 8b3d f45f c33d 29e7 843d 5947 abbd
00000360: ca5a 483c 9fca b43d bfd2 853c 538f 2b3d
00000370: dcdf 49bc 752c 9dbd ca21 cf3d e53b d13c
00000380: 0604 973c 2005 b83c f5dc 6cbe c451 6cbd
00000390: 8234 c13d d2f5 373d 8d9b 79bf 27e5 27bd
000003a0: 96d1 1cbc 7047 a03c a7ef 53bd 44e3 1abd
000003b0: cdba 2ebd 563e febc 1b07 943d a123 e43c
000003c0: 081b 1bbe ccd2 d03c 6549 373d a06b 16bb
000003d0: 3ba5 31be ddca ad3d 9ca8 a7bc ebc6 963d
000003e0: 3d6b 03bd 5b1f 23be 5165 a13d 9583 88bd
000003f0: cfb1 fc3c 41a7 76bd 90b7 56bb dfff 103d
0.088253744 -0.012566868 -0.08023 -0.0728062 0.0071629807 0.007623449 -0.05579444 0.035481986
0.022776976 -0.023633601 0.044701256 -0.08123865 0.010842864 -0.033656962 0.018041318 0.11583674
-0.007906524 -0.0544491 -0.0025612023 -0.18373275 0.09120307 0.08025239 -0.03472578 0.050989162
-0.07739333 0.06917095 -0.041018162 -1.8758724 0.05471178 -0.007164426 0.00029682918 -0.08112922
0.02150926 0.035670657 0.06235869 0.088085845 -0.07716981 -0.055611607 0.08052972 0.042385086
-0.0009056669 0.09005803 -0.013212886 0.0023376867 0.05520555 -0.07837272 -0.00701894 -0.018084878
0.070552126 0.09308772 -0.016762365 -0.051671572 -0.022664186 0.03181155 0.34711027 0.007347986
-0.013788187 -0.027341072 -0.000249444 -0.13299535 -0.07544547 -0.032120768 -0.10824688 0.011332225
9.750172e-05 0.031766705 0.071114786 -0.0106969215 0.066076115 0.0003356972 -0.07401705 -0.13131265
0.115795426 0.08311315 -0.015480892 0.10354588 0.03163179 0.053456925 -0.011852522 -0.10811903
-0.009709284 -0.06714991 -0.5297504 -0.051692177 0.0964717 -1.6260827 0.08640698 -0.08343846
0.05265554 0.013333055 0.014040247 0.026662542 0.08434589 0.010468377 0.015725687 0.0133567285
0.04003923 -0.052438814 0.102803 0.039387234 -0.03568358 -0.008410575 -1.9404908 -0.046876404
0.10123889 -0.084742226 -0.03928377 -0.21030457 0.040858917 0.09912878 -0.020402815 0.09562099
-0.07344943 0.039708823 -0.1130311 -0.086402796 -0.0866585 -0.044267654 -0.04858034 -0.022611795
-0.13598207 0.09386864 0.046227522 -1.4726789 -0.17672731 0.07109841 -0.00020512463 -0.005914109
-0.041468948 -0.0031964758 -0.023057183 -0.0037191818 0.045979172 -0.025464885 -0.055583905 -0.026060246
-0.017724074 -0.02344175 -0.23954014 -0.071831614 0.07888354 0.08238698 0.05896262 -0.037317798
-0.028344586 0.025411986 -0.0072793006 -0.09832573 0.004844547 -0.03993356 0.06556057 -0.004303777
-0.058120493 -0.014006306 0.06007086 -1.1110476 0.0820307 0.013140544 0.004482382 0.07179584
-0.05873448 0.091978215 0.019198623 0.02177112 0.060516994 0.09236364 0.08350238 -0.029679041
0.039925218 0.07490509 0.0710507 0.030695878 0.040133357 0.0745398 0.031588506 0.0487849
0.015476376 -0.00040944977 -0.053753853 -0.084843755 0.07285354 0.035061013 -0.0657242 0.053954087
0.055214565 -0.021665633 0.077133045 0.047449857 -0.037190456 -0.11014133 -0.0283428 0.037614655
0.004435813 -0.04932798 -0.061176974 0.04964586 0.1140601 0.0018109052 0.05660097 -0.12650046
0.12923233 -0.0012090005 -0.022499165 -0.039161313 0.033664525 0.046923093 -0.01667438 -0.04741827
0.055221952 -0.044273827 0.88666445 0.078050785 0.067981966 0.09539786 0.06489403 -0.08363218
0.012228677 0.088277094 0.016335843 0.04188473 -0.012321439 -0.07674495 0.101138666 0.025541255
0.018434536 0.022463381 -0.23131163 -0.057695165 0.09433843 0.044912167 -0.97502977 -0.04099002
-0.009571454 0.019565314 -0.051742222 -0.037814394 -0.042658616 -0.031035583 0.07227918 0.02784902
-0.1514703 0.02549114 0.04474773 -0.0022952333 -0.17348187 0.08485959 -0.020466141 0.07362159
-0.032084692 -0.1592993 0.07880653 -0.06665722 0.030846504 -0.0602181 -0.003276322 0.035400268

bias f4 [2]
00000000: 4dc1 a83d fe0d 9bbc
0.08239994 -0.01892757

weight f4 [128, 5]
00000000: b8db 763e a694 cc3e 1df6 79bd 0972 e93d
00000010: fcc0 24be 44a4 36be fde1 bebc 1d96 e4be
00000020: 6fe4 f23c c027 a0be c8bd c4be fe52 44be
00000030: 60ad 27bc 3cc9 f0bd 6cee 563e 1a89 cd3e
00000040: e9ec 1e3d 57e1 b3bd f0ea efbe b8c7 f1be
00000050: e452 e9be 463b 97be 4a8a ca3e d1e7 cdbe
00000060: 484f e0bd 366b 5fbe 1eff 41be 9463 d3be
00000070: 76e1 433e fd26 9f3e 43f4 4d3e 3930 c73d
00000080: 7427 abbd 258b 9f3e c9c0 8b3e ae23 bebe
00000090: 72e0 aa3e fb0f a43e 37dd 943e 4e37 cc3e
000000a0: ac09 5abe d263 953c 7722 b53e 50c2 54be
000000b0: 00bb 793d 61c6 e63e abb5 85be 3248 5cbd
000000c0: 7660 593e d03a 96be c73d a2bc 22da dc3d
000000d0: 6373 9a3e 85c0 91bd 2c7f 833e a81d 1abd
000000e0: 1d0d 8d3e 2837 10be 9024 d83d 752f e43d
000000f0: ef46 e03e 1a1c b13e 7545 10be e50d 22be
00000100: eb8d 60be 8de5 473e 69cb 463e 1888 00be
00000110: 4bee 9c3d d2a9 bebe bec9 6bbe a36a 8a3e
00000120: 961e 313e 544d 763e e4f4 8d3c d481 8a3e
00000130: ae89 ccbe f24f bb3b 83b5 a63e 53a1 38be
00000140: b789 163e b5e1 dcbe 3858 34be 8a63 c6bd
00000150: 85a6 8a3e 926e c2be 58d6 3d3e 4c50 8dbe
00000160: e092 a4bc d742 5cbe 0f28 f63e 85c5 9ebe
00000170: eac4 903e e308 d83d a6a1 96be 077a 083f
00000180: 685a bcbe dae7 433e 9774 953c 5117 cebe
00000190: 3688 9a3e d2ed 8dbe fdbe 743e ad53 2f3d
000001a0: 296d c2be 93d1 183e 98e4 4a3e 3380 37be
000001b0: af99 b13d 5a0a a73c 5696 8fbe 5001 003e
000001c0: 9285 d13e 534e dc3e 2868 193e c268 89be
000001d0: 7e69 733d c0fc 473c 12bd a43e 7013 d4be
000001e0: 1520 3abe 59fc 85be a206 413d dddb 933d
000001f0: 9c47 963e 3f04 ccbe 42d7 3bbe 0424 debd
00000200: c33a 6bbe cf74 b5be e904 cf3e 3aeb 353e
00000210: 40fd 2a3c 81d7 b4be 416b b63e 8586 ad3c
00000220: ac6d 77be 6512 b83e c752 ac3e c817 22bd
00000230: 50b5 acbc 9afb d7be 2006 d33e 9ec4 aa3e
00000240: 9205 c0be 7fc3 1ebe cfc7 bebc 6dc2 bb3e
00000250: 32c9 bb3e f371 f5bd bf18 8b3e e227 20be
00000260: 9856 a4be 0cdc 843e d1a4 1ebd 70fe b83e
00000270: 0496 c13e 4738 c53e 7ff0 b83e ebe8 2ebd
00000280: 181b 7d3e a03e 62be addf 94bd b611 87bc
00000290: 539e 8f3d 6886 cc3e 6c54 a1bc e4bd ccbe
000002a0: fab2 acbe c28d a2bc ae1b e3be 7717 563e
000002b0: 72ae 1abd 6ee6 aabe 741f 1b3e 9aac a03e
000002c0: d222 913d 3123 7bbc ddae ff3c 93d4 803d
000002d0: 9c82 a2be c4bd 05be 6840 bcbe 6b9c bc3e
000002e0: e1b2 b93e 56d1 493e c72a 403e 6bca acbe
000002f0: 9664 2cbc b886 aebe b123 e83d 2370 47be
00000300: 90c0 ba3c cf20 f33e 3d27 e93e 864d 38be
00000310: 4098 68bd 68b3 3bbe 5259 50be aeea b2be
00000320: e657 b2be 4ca5 aa3e 1420 d4bd 067e b3be
00000330: c3cf 183e 200a f03d 1294 5ebe 40c6 85bb
00000340: 9878 823d bc38 debd aacc 803e 6745 643d
00000350: 2735 81be 3189 99be fbb1 b5be fd0a 063e
00000360: 7376 993e b055 a1be b2b9 4bbe c11a 1abd
00000370: 2ac3 61bd 8b4b eb3e 1c6c 5bbe 88ff 623e
00000380: 283e c93e 10f2 0f3f 3257 aebe 9104 d43e
00000390: ad18 7a3e 7ef3 3f3e 0f5f 30be d308 f63e
000003a0: ceac eabd 345f d8be 7c7d 9cbe 505c e7be
000003b0: 76d9 b3bb b6b2 c8bd ac10 5a3d 9982 2dbe
000003c0: ce5d ddbd b735 303d 1268 c43e dbc2 443d
000003d0: a5f9 f53d 5f72 3a3e ded1 9bbe f0bd c0bd
000003e0: 9223 84be 6ab0 ac3d 40b7 753e 1976 483e
000003f0: dc09 283e 34b4 c0be 92bd 14be 86f5 993e
0.24107254 0.3995716 -0.061025728 0.113987036 -0.16089243 -0.178361 -0.023301119 -0.44645777
0.029649941 -0.31280327 -0.38426042 -0.19172284 -0.010234207 -0.117571324 0.20989388 0.40143663
0.038800154 -0.087832145 -0.4685893 -0.47222686 -0.45571053 -0.2953741 0.3955863 -0.40215924
-0.10952622 -0.21818241 -0.18944976 -0.4128691 0.19128975 0.31084433 0.2011271 0.097259946
-0.083571345 0.31160846 0.2729552 -0.37136596 0.33374363 0.32043442 0.29075024 0.39885944
-0.21292752 0.018236075 0.35377857 -0.2077725 0.060969353 0.45073226 -0.26115164 -0.05377979
0.21228203 -0.29341745 -0.019804848 0.10783793 0.30166158 -0.07116798 0.25682962 -0.03762594
0.27549067 -0.1408354 0.10553849 0.11141864 0.43804118 0.34591752 -0.14088996 -0.15825613
-0.21929137 0.1952116 0.19413532 -0.12551916 0.07662638 -0.37238938 -0.23026177 0.27034482
0.17296824 0.24052936 0.017328687 0.27052176 -0.3994879 0.0057163173 0.32560357 -0.1803029
0.14700972 -0.4314095 -0.17611778 -0.09686954 0.2708017 -0.37974983 0.18538797 -0.27600324
-0.020089567 -0.21509872 0.48077437 -0.3101007 0.28275234 0.1054857 -0.29420203 0.533112
-0.36787724 0.19131413 0.018244071 -0.40252164 0.30182046 -0.27720505 0.23900981 0.04280441
-0.37973908 0.14923696 0.19813764 -0.17919998 0.08671891 0.020390678 -0.28044385 0.125005
0.4092222 0.43028507 0.14981139 -0.26837736 0.059426777 0.012206256 0.321755 -0.4142108
-0.18176301 -0.26169088 0.047125466 0.0721967 0.2935151 -0.3984699 -0.18343833 -0.10846713
-0.22971635 -0.3544068 0.40433434 0.17765513 0.010436356 -0.35320666 0.35628703 0.021182308
-0.2416293 0.35951534 0.33656904 -0.03957346 -0.02108255 -0.42184144 0.4121561 0.33353132
-0.3750425 -0.15504263 -0.023288636 0.36671773 0.36676937 -0.11984625 0.27167317 -0.15640214
-0.32097316 0.25949132 -0.0387314 0.3613162 0.37809765 0.385195 0.36120984 -0.042702597
0.24717367 -0.22094202 -0.07269225 -0.016487937 0.0701262 0.39946294 -0.019693576 -0.39988625
-0.33730298 -0.019842986 -0.44357055 0.20907389 -0.03776402 -0.3337893 0.15148717 0.31381685
0.070867196 -0.0153282145 0.031211311 0.06290545 -0.31740272 -0.13060671 -0.36767888 0.36838087
0.36269286 0.19708762 0.18766318 -0.33748183 -0.010522028 -0.34087157 0.113349326 -0.1947637
0.0227969 0.47485968 0.4553775 -0.17998323 -0.056785822 -0.18330157 -0.20346573 -0.3494467
-0.34832686 0.33329237 -0.10357681 -0.35057086 0.14923005 0.11720681 -0.21736172 -0.004082471
0.06370658 -0.10850665 0.25156146 0.05573025 -0.25235865 -0.2998748 -0.3548735 0.13090129
0.29973182 -0.31510687 -0.19895056 -0.03762317 -0.055117764 0.45956072 -0.21427959 0.2216779
0.39305234 0.56228733 -0.340509 0.41409734 0.24423476 0.18745229 -0.17223762 0.48053607
-0.11458741 -0.42260134 -0.30564487 -0.45187616 -0.00548857 -0.097997114 0.053238556 -0.1694435
-0.108089074 0.043019976 0.3836065 0.04803739 0.120105065 0.18207692 -0.30433553 -0.09411228
-0.25808388 0.08432086 0.23995686 0.195763 0.16410011 -0.37637484 -0.1452544 0.30070132

bias f4 [128]
00000000: 640a 923e cb9d 023d 94e1 9abe 53ca 733d
00000010: 76d6 b93e 1a0a 473d c197 543e e8b2 943d
00000020: 8102 20be 9452 5ebe a31a 09be b19f 49be
00000030: a40f 303d b132 a3bd 69a3 e3bc beb0 cd3e
00000040: 9f50 203c 78df 75be f3d5 a33e 3c3c 25bd
00000050: f47d 253e 5a0c a2bd 7c62 933e e012 6dbe
00000060: f53e bd3e 506b c9be 7973 d1bd a8c4 2dbe
00000070: 289c d2be ba26 b83e 3893 c53d 84bf 2ebc
00000080: 513c ce3d 8caf ea3c b578 263e 6947 85be
00000090: 1906 aa3d 050b 5e3e 9c86 acbe 3ae9 0abe
000000a0: 0021 17be 5445 a2be e828 573e bbe0 81b9
000000b0: 35a8 c2be 7457 cebd 1487 dfbd aa9c b83e
000000c0: c054 ba3d e1e0 c63d 3e31 963e 5011 a73e
000000d0: b178 c13e 55b6 823e edde 5bbe 6374 c33e
000000e0: 4a05 97be 0c79 fe3e 6425 42bd 3f3a f9bb
000000f0: 501e 1e3e 3978 c33e fb78 e73d 2317 e33d
00000100: 571d e13e 816a 64bd 6bc2 3b3e 98a0 23be
00000110: b40b 2e3c cdea 0fbe 1fa9 943e ede3 2abe
00000120: fc01 8cbe 03e8 fb3d 04c1 bd3d 4381 613e
00000130: 7a0a 8e3e 1741 82bd 8488 94be 6561 e13e
00000140: 4497 72bc f400 d53e 894f 0c3e b57f d2be
00000150: d5d6 1d3e cf30 48be dd6d 503e 5a45 633d
00000160: 7f6c 483d d718 5c3e 94fa 963d 9c99 d9be
00000170: 1873 cb3d e876 3abe 7826 243c 00c2 6ebe
00000180: d181 d7bd 1aeb d43e 8893 923e 6651 a4be
00000190: 2d12 95bd 7559 e6bd dfc4 083e bab0 00be
000001a0: 6bd0 3d3e 3b0e 78be 00e0 9cbe f7aa 67be
000001b0: f759 883e bd79 3abe 0442 f3be 2506 873e
000001c0: 9203 043e ef9d 7a3e 0ccb 043d e7ba 9d3e
000001d0: 8105 613e 0875 49be a137 b93e 20b2 83bd
000001e0: abf9 0abe 9eb8 c8be db60 d6be ab22 86be
000001f0: d48f c53e 1632 21bc 89bb 153e 39b8 a7bd
0.28523552 0.031888764 -0.30250227 0.059519123 0.36296433 0.048593618 0.20761015 0.07260686
-0.15625955 -0.21711189 -0.13389067 -0.19689824 0.042983666 -0.07968653 -0.027787881 0.40173906
0.009784847 -0.24011028 0.31999168 -0.040340647 0.16161329 -0.07912512 0.28786075 -0.23151731
0.36962095 -0.39339685 -0.10227103 -0.1696955 -0.41134763 0.35967046 0.096472204 -0.010665778
0.10070098 0.02864816 0.16256984 -0.26031044 0.08301944 0.21683891 -0.3369645 -0.13565531
-0.14758682 -0.31693518 0.21011698 -0.00024772235 -0.38018957 -0.10075274 -0.10914436 0.36057025
0.09098196 0.09710861 0.29334444 0.32630396 0.37787393 0.25529733 -0.21471758 0.38174734
-0.29496223 0.49701726 -0.04739894 -0.0076058204 0.15441251 0.3817766 0.11302372 0.11088397
0.43967697 -0.055765633 0.18335883 -0.1597923 0.010622907 -0.14054413 0.2903528 -0.1668851
-0.27345264 0.12300112 0.092653304 0.22021966 0.27742368 -0.06360071 -0.29010403 0.4401962
-0.014806572 0.4160229 0.13702215 -0.41113058 0.15413983 -0.19549869 0.2035441 0.05548606
0.048931595 0.2149385 0.07372013 -0.42500007 0.09934062 -0.18209422 0.010018937 -0.23316193
-0.105228074 0.41585618 0.28628182 -0.32093352 -0.072788574 -0.11247531 0.1335635 -0.12567416
0.18536536 -0.24224178 -0.30639648 -0.22623812 0.26631138 -0.18210502 -0.47511303 0.26371875
0.12891987 0.2447431 0.032420203 0.30806658 0.21974756 -0.1967355 0.36175254 -0.06430459
-0.13571803 -0.39203352 -0.4187077 -0.26198325 0.38586295 -0.009838602 0.1462232 -0.081894346

weight f4 [128, 128]
00000000: c9c2 64bd 486e fb3c 9831 71bc 89b6 b83d
00000010: f9fb a6bc 88ac c53d a938 0bbb e931 be3d
00000020: 8d76 38be 26b8 ac3d 56b6 8c3d 25fa 393b
00000030: 8504 713d e7a5 69bc f8a6 163d 8053 46bd
00000040: 9797 163d 5c8c 9fbd e47a 0a3c 020c e13d
00000050: f7a3 893d 13e4 c93d 7af4 7d3c 7f07 cbbc
00000060: cd0d d93d dc12 91bd 1174 d83c 9cbe 723d
00000070: 28e7 5dbc d748 b93d 455b 93bd 729a 3b3b
00000080: b8ab 8f3d c395 c4bd 2fe7 853d 812a 85bc
00000090: f05f 843c c375 1e3d 8b4e fa3c 3b7a a73d
000000a0: 4f21 7fb9 c1f7 06bd c983 0bbd 3c85 6bbb
000000b0: 3374 503d edff 073c 1334 13bd e940 31be
000000c0: eb00 a4bd 0e79 ab3c 257f 1d3d 1f45 f73c
000000d0: ccb9 1d3d 3725 ed3c 9d10 3a3d f365 803d
000000e0: c2dd 153d 4723 edbc 1887 e7bc 8784 9a3d
000000f0: aa9a f5bc cb3f b93c fd26 ccbd 1613 743d
00000100: aa6e c3bd 130c d53c aaad 94bd 1e53 97bd
00000110: 1839 9d3b a316 9fbd e524 463c 527a c6bb
00000120: afda babd 71f6 c8bd 4bba 8a3d 849b 863d
00000130: 65aa 673b 30e1 39be d8c0 4cbe 4761 0abd
00000140: 6dc3 3f3c 58ab 6cbd 0143 ca3d a5a0 6dbc
00000150: b895 af3d a75c fe3d 2936 0bbc 2abf 4a3a
00000160: 6f44 863d a616 1f3d 57bf f93b ccdf ec3c
00000170: 1a64 1ebd 9ea5 f5bc 8038 e23d c918 9cbd
00000180: 4ece 4a3c e8b2 72bd 54d1 d2bd 5838 343c
00000190: 9d0f 573c ec1f dc3b 978b 12bd 693d 4ebd
000001a0: 4520 293d d21e a43d fb0f 87bd 32db 71bd
000001b0: 582a 8e3d 12d9 ac3d 2c4e 92bb b838 12bd
000001c0: 4912 b6bd 6ec8 b43c 1270 c83d 86fb 103d
000001d0: 39a3 e0be 717e 9c3d b6a2 7f3d 1ff9 dc3d
000001e0: e8a5 583c cf9c 05bd 403d a1ba c211 1dbe
000001f0: ef18 c63d df67 cdbd ecee cfba 7c87 3cbd
00000200: d48d 6f3d 8a35 ff3c be36 173d 1d0c 333d
00000210: 156f 393d 27df 5b3d 8bb6 89bd a3ba b23d
00000220: a320 333d d85c c23d 93b8 823d fc36 39bd
00000230: 1bff b43d e861 c63d 6167 26bc f00e 863d
00000240: e240 633d 6036 af3b 83c0 8dbd 02c3 b2bd
00000250: fbfc 54bc 12e4 333d c23c 50bc b8e5 ccbd
00000260: 0d7c 393d 67a3 a8bd cdcf 0f3c 87a1 01bd
00000270: 883d a6bc 7619 37bc 24d3 acbd a8e5 c13c
00000280: 77b4 9f3d 57f1 8ebc 3310 643d fde4 da3c
00000290: 659c cf3c 735a 283d 8b5e fdbc 1208 3b3d
000002a0: 4c06 5abd 0098 35b9 f5a2 68bd f5a9 04bd
000002b0: c9c1 213d 6f3d 7e3d 71dd 303e b5b3 3dbd
000002c0: b3e1 ad3d 6cf1 06be 1887 8c3d 0be2 f13c
000002d0: 8765 fa3c d1e4 bc3d 33ef 75bc 090d 323d
000002e0: 9481 3bbd 822a 873d e025 d63c 7d48 883b
000002f0: baa1 0dbd ff0b 2a3d febb 64bd f54f 35bd
00000300: 279a 8ebc e154 e93d 8979 9a3d e0b7 b0bc
00000310: b1ee 9dbd 3f52 953d a774 a53d a651 5bbd
00000320: 7e6e 88bd 5359 053d 2a4b 7d3c 1d3b 0dbb
00000330: d8d6 503d 9b4d cebd 9aca 0abb f7d5 313c
00000340: c567 b2bc a74e 49bd a833 20bd 6696 8c3d
00000350: 36fd d0bc 611f 163d a9d1 853d 602c cd3c
00000360: 3a82 9abc 730b 2e3d 9d6a b43d 6020 4c3c
00000370: ea50 e13d 48bc 7cbd f446 0d3e b8bb 54bd
00000380: ffb1 033e 4c1b b4bc 9b7b b9bd 2e59 553d
00000390: bd36 783b ce8d a13d 77f2 bf3d 74d0 a8bd
000003a0: ce89 68bd 73cb c03d 99cd 863d 6022 1dbb
000003b0: cd92 f6bc a0d8 813d c051 dabd 3c06 833c
000003c0: fb5f 02bd 60db aabc b5ef 573c 023a f63c
000003d0: 0330 1bbe 2a94 5a3d f66b 16bd 47f8 fbbc
000003e0: dca7 44bd ec03 86bd b025 ff3c 1799 233d
000003f0: 7b75 febc 7719 cd3d d07e 813d 360c 94bd
-0.055849824 0.030692235 -0.014721297 0.09019191 -0.020383822 0.09652048 -0.002124349 0.09286863
-0.18013974 0.08433561 0.06870715 0.0028377858 0.0588422 -0.014260746 0.036780328 -0.048419476
0.03676566 -0.07790443 0.008452151 0.109886184 0.06720727 0.09857955 0.015500182 -0.024783848
0.105983354 -0.07083675 0.026422532 0.05926381 -0.0135438815 0.09047096 -0.07195143 0.0028625992
0.070151746 -0.09598877 0.065382354 -0.016255619 0.016159028 0.038686525 0.03055503 0.081776105
-0.00024331103 -0.03295112 -0.034061227 -0.0035937568 0.050892066 0.008300764 -0.035938334 -0.17309918
-0.080079876 0.020931747 0.038451333 0.030184327 0.038507268 0.02894841 0.045426 0.06269445
0.036588438 -0.028947486 -0.02826266 0.07544809 -0.029980976 0.022613427 -0.09968374 0.059588514
-0.09542592 0.026006734 -0.07259686 -0.073889 0.004798066 -0.077679895 0.012093757 -0.006057062
-0.09123742 -0.0981263 0.06773814 0.06572631 0.0035349366 -0.18152308 -0.19995439 -0.033784177
0.011704308 -0.057780594 0.09876061 -0.014503633 0.085734785 0.12420016 -0.0084967995 0.0007734174
0.065560214 0.03883996 0.0076216864 0.028915308 -0.038669683 -0.029986199 0.11045933 -0.07621915
0.012378288 -0.05925265 -0.102938324 0.0109997615 0.013126281 0.0067176726 -0.035777654 -0.050351534
0.04129054 0.08013691 -0.06594845 -0.05904693 0.0694167 0.084398404 -0.004464885 -0.035698622
-0.08890206 0.022068229 0.09787001 0.03539612 -0.4387453 0.07641304 0.062411033 0.107897036
0.013223149 -0.032620247 -0.0012301579 -0.15338805 0.096727245 -0.100295775 -0.0015864051 -0.046027645
0.058484867 0.03115346 0.03691744 0.043712724 0.04527195 0.05367961 -0.067242704 0.087270044
0.043732297 0.09490365 0.06382861 -0.045218453 0.0883772 0.09686643 -0.010156483 0.06545818
0.0554818 0.005347058 -0.06921484 -0.08728601 -0.012999768 0.043918677 -0.012709798 -0.10004753
0.04528432 -0.082342915 0.008777571 -0.031648185 -0.020293012 -0.011175504 -0.084387094 0.023669079
0.07798093 -0.017449064 0.05567951 0.026720518 0.02534313 0.041101884 -0.03092887 0.045661993
-0.05322866 -0.0001731813 -0.056796033 -0.032388646 0.03949145 0.062070306 0.17271973 -0.04631396
0.08490314 -0.13178033 0.068617046 0.029526731 0.03056599 0.09223331 -0.015010643 0.043469463
-0.045777872 0.065999046 0.026141107 0.004159032 -0.034578063 0.041515347 -0.055843346 -0.044265706
-0.01740749 0.113931425 0.07542712 -0.021572053 -0.077115424 0.07291078 0.0807889 -0.053544663
-0.066617 0.03255589 0.015459815 -0.0021550127 0.05098614 -0.10073396 -0.002117789 0.010854236
-0.021777997 -0.049147274 -0.039111763 0.06864624 -0.025511365 0.03665102 0.0653413 0.025045574
-0.018860925 0.042491388 0.08809397 0.012458891 0.11001761 -0.061702996 0.13796598 -0.051936835
0.12860869 -0.021985672 -0.09056779 0.052087 0.0037874423 0.07888375 0.093724184 -0.08242884
-0.056772046 0.09413805 0.065821834 -0.0023976788 -0.030099297 0.06340146 -0.10660124 0.015994184
-0.031829815 -0.02085656 0.013179709 0.030056957 -0.15155034 0.053363957 -0.036724053 -0.030758036
-0.048011646 -0.06543717 0.0311459 0.03994092 -0.031061878 0.10014623 0.06323016 -0.072288916

bias f4 [128]
00000000: c56c 01bd dae1 3cbc 3bf9 d9bc 33b5 db3d
00000010: cef7 d0bb 4f4a abbd d72d bfbc 9f3c 5b3d
00000020: 07ab 273d 57ff 233c 517f f23c 82a8 14bd
00000030: b936 80bd 8004 953d bbbe 663d 361b ad3c
00000040: 69b3 50bd bfdc 40bd 8e57 90bd 0e92 75bb
00000050: 0191 22bd 179c 663d 258c a33d 2df9 87bb
00000060: 7306 4cbc 3183 6c3d 8820 043d 8e99 cd3c
00000070: 2ff2 cc3c 99e7 41bd 94ca 90bc 0fa4 44bb
00000080: c4bd a93c d6bf 98bc cb15 95bd 7d66 4abd
00000090: c429 e23c a8fb 2f3d 40dc d7bc 0f05 c6bc
000000a0: 9799 513d b928 50bd 6efb 693d 45c6 aabd
000000b0: a66b 98bd 8c1c 983c 2249 4ebd 9c22 23bd
000000c0: cce8 12bc ff9b 3b3d ec74 923d 8c8b 523b
000000d0: 502f 0f3d 4674 823d b43c a5bc 3c78 293d
000000e0: bceb c23c 2b8d b0bc 1632 fd3c 32d8 3a3d
000000f0: 45f8 1bbd 819f b3bc 280f 8cbd 5bfd a1bc
00000100: 358a 023c d74d 15bd 8074 abbd b9cb 1bbd
00000110: 18de 84bd 57f3 d43d b562 b63d 971c 90bd
00000120: 26a3 fb3c 2ad6 093d 6124 3b3c 1152 423d
00000130: a947 5b3b 0469 29bd 9a1e 7bbd 6489 3e3d
00000140: cdf2 0b3d aab7 9cbd 80c3 6abc e331 2bbd
00000150: 4ef6 f6bc 03f9 4bbd 41cf e7bc 20e9 113d
00000160: bf84 8a3d 5e03 333d d255 0ebd 3e3c b139
00000170: 8776 963d a461 e539 95e0 5b3d 9bed a93d
00000180: 5c0c 9bbc a5f9 a13d 0c45 8dbd 191e 01bd
00000190: 55cd 403d 38ed 3e3d 8fb3 14bd 8240 10bd
000001a0: f296 543d b8fd 203d f905 1eba a919 55bd
000001b0: 1f5a 7fbd 50ac eb3b 7380 343d ed34 bbbb
000001c0: 750d 0cbd 62e2 21bd 08e9 a2bc 395f dc3d
000001d0: 31dd 06bd 6c6b 453d d736 a13c 1993 55bd
000001e0: a846 323d 8fb7 51bd c9fd 8bbd c18b c8bc
000001f0: febb 9fbd 6a91 a3bd ce85 fe3c b2fa 663d
-0.03159787 -0.011528457 -0.0266081 0.107279204 -0.006377197 -0.083637826 -0.023337288 0.05352461
0.04093459 0.010009608 0.029601725 -0.036293514 -0.062604375 0.07276249 0.05633424 0.02113114
-0.05095235 -0.04708552 -0.0704795 -0.0037471089 -0.039689068 0.056301203 0.07985715 -0.004149577
-0.0124527095 0.0577423 0.032257587 0.025097635 0.025017826 -0.04734001 -0.017674722 -0.0030005013
0.02072037 -0.018646162 -0.07279547 -0.049414147 0.027607806 0.042964607 -0.02635014 -0.024172334
0.051171865 -0.050820086 0.057124548 -0.08338598 -0.07442407 0.0185683 -0.050362714 -0.039827928
-0.008966636 0.045803066 0.07151207 0.0032126633 0.03495723 0.06369834 -0.020170547 0.04137443
0.023794048 -0.02155169 0.030907672 0.045616336 -0.038078565 -0.021926643 -0.06838828 -0.01977413
0.007967521 -0.036451187 -0.0837183 -0.038036082 -0.064876735 0.10397976 0.089055456 -0.07036703
0.030717444 0.03365151 0.011422248 0.047441546 0.003345946 -0.041359916 -0.06130848 0.046517745
0.0341671 -0.07652219 -0.014328837 -0.041795623 -0.030146744 -0.049798023 -0.028297069 0.035622716
0.067636006 0.043704383 -0.034749813 0.00033804955 0.07346826 0.00043751032 0.053680975 0.08297273
-0.018926792 0.07908944 -0.06897935 -0.031522844 0.04707082 0.04661295 -0.036304053 -0.03521777
0.051901765 0.039304465 -0.00060281117 -0.052026425 -0.062341806 0.007192172 0.04406781 -0.0057130964
-0.03419252 -0.039522536 -0.019886509 0.1076035 -0.03292579 0.04819815 0.01967947 -0.052142236
0.043524414 -0.051200446 -0.06835515 -0.024480702 -0.077995285 -0.0798672 0.031069662 0.056391425

weight f4 [2, 128]
00000000: 65d7 063d a83c 003d 50e8 d0bc 4c54 4c3d
00000010: 8bbd f7ba f9a9 97bd d3e7 c93d bd8a 7c3d
00000020: 2e7d a43d 5292 81bd d540 203d 2f3a a43a
00000030: b46e 423d ebe3 b73d c358 8f3a 376a 643c
00000040: e02b b23d 85ed 8f3d 3fda bebc 0e18 85be
00000050: e032 8cbd 9fca a43b 25fc 01bd 16a8 653b
00000060: 54f8 063d 02bc 3b3d 7027 febc 92e3 a33c
00000070: c080 c53d af20 9dbb 0483 cbbc e07f a53c
00000080: 8dec 14bc b2d5 c73c d107 bbbf 86f9 7cbd
00000090: c3b6 993d 53a8 eabc ba77 95bb 5fdd 6d3d
000000a0: 9cf6 33bd c6ee 603d 61f8 adbd b006 a0bc
000000b0: 3794 4bbd e905 72bd c048 9bbc 9d68 5e3d
000000c0: e0ff 3cbd 3f11 d33a 64cc 62bc 6b38 d13a
000000d0: 8828 243d 7e63 9d3c d693 b73d c00e 5cbc
000000e0: e349 963d 18d1 24bf 5ae1 f3bd 6e30 aebb
000000f0: ccd9 b23a fd32 f1bc 1277 20bd eaa9 9bb9
00000100: a353 c03c 55e1 d43d 1854 5e3c 0cd5 a3bd
00000110: dd97 cbb9 9235 dc3d 522b f6bc 6f30 1abd
00000120: 0336 bd3d b48d 48bd 58d4 f8bb 6533 903d
00000130: 7012 8abd 9286 e83a ac0a f33c 3ba7 093a
00000140: eca2 083d 2482 fd3c 6527 123c 0fba 65bc
00000150: 468f 00be 8a30 f5bc 58eb ce3c 6a02 81bb
00000160: b019 02bc 574e 03bb 1d20 98bb 32fd 86bb
00000170: 6c3d f3bb 7a9a 5b3d 9541 6ebd 058d d13c
00000180: a545 43bc 3b7d dfbd b2c1 b93b 4035 f7bc
00000190: c377 573d 4525 ee3b 54e7 fdbd a92f 663d
000001a0: 080d af3d d38f 873d a57a e33a a414 b73d
000001b0: 598b 113d daf8 543d 7ef6 88bb e497 69bd
000001c0: 5688 7f3d e72a 3f3d a37e 97bd 757e 113d
000001d0: 83ef bebc 3005 3b3d 6b74 38be 19d3 ac3d
000001e0: d0b7 b3bc c218 03be 673f 9b3d 45b6 a0bd
000001f0: 7b93 30bf cef6 a6bd 386a c13d c750 9bbb
00000200: cd86 9cbb 147c 9f3d fc18 753d 6414 873d
00000210: bf93 133c 9339 093d 8f5f 323d 497b 24bd
00000220: 4bfe 113d f8c2 953d cbb5 9ebd 25e8 df3a
00000230: 1b8a 213b 342d 153d 523c f83c c100 993b
00000240: 0e4a 733d 1bce e53d 8161 ac3d 88a7 313d
00000250: f112 293d e2d6 c5bc be49 f0bb b5f2 123c
00000260: bd56 aa3d 0102 15bd 05bf aebd e169 be3d
00000270: c866 b03d b543 f3bc 4589 2ebd 7392 9e3d
00000280: e9f0 143d 3b23 223c b10e 08bf 2fb0 0e3c
00000290: 95eb 7d3d 44fd a63d 1e5a 1dbd 0f2f 0fb9
000002a0: d872 b53d 6ba3 e7bd 303c 5d3d dae7 84bd
000002b0: 2c70 eabd dd0e 8d3d 2f4b 833d 7ae5 0b3a
000002c0: cf3f ebbc 1145 113b cd5b 8f3d 6662 833c
000002d0: ac6e c13d 0b14 98bc 81f6 473c 9fd5 8a3d
000002e0: e0dd 84bb fa5e 8bbd 3208 21bd 1fcd 403d
000002f0: cc7f 1a3d 8a25 9a3d 92ac 573d 4c80 39bc
00000300: 2c70 523d 1253 7e3d d18f 863d 54c1 81bd
00000310: bae5 65bb 1a1c 943c 66ec 453d ece1 8abc
00000320: 0eca 3cbd f9a5 763d 2295 0c3d a75b f9bc
00000330: 55ed 87bd 6500 833d c506 b0bd ee44 b33b
00000340: c257 4dbd 12f2 163c 28f2 4abd 79e2 1f3c
00000350: 2460 9fbd 690a a93c c897 a43d 2bdd aaba
00000360: b2a2 21bb dfcb 83ba bf17 253f 487c 72bd
00000370: bab2 c5bc 4eb2 4abd 5efd e9bc 3e41 9e3d
00000380: 4476 a7bd ed6c a43d 8dba 78bd 0fa1 90bd
00000390: 129e 243d 2fcb 44bc a835 69bc 4bfb 7ebd
000003a0: 410f febb 6152 a83c 99a0 d3ba 144c 19bd
000003b0: d379 7abd 1366 ae3d 82ab 4fbc a86c a0bd
000003c0: 476b 0c3d 653b 7d3d cd66 ae3d 9567 453d
000003d0: 581f 89bc d9e9 e93c f929 523c ca00 143d
000003e0: f16e 863d ad05 0dbc df7b ac3d 0c4f 31bc
000003f0: d2dd 1abe ea02 55bd ad82 913c 8614 5b3b
0.03292026 0.031307846 -0.0255014 0.04988508 -0.0018901093 -0.074054666 0.0985867 0.06165575
0.08031689 -0.063267365 0.03912433 0.0012529547 0.047468856 0.08979019 0.0010936487 0.013941339
0.08699775 0.07027725 -0.023297427 -0.25994915 -0.06845641 0.005029037 -0.031734604 0.0035042814
0.032951668 0.045833595 -0.031024665 0.020005975 0.09643698 -0.004795156 -0.024842747 0.020202577
-0.009089601 0.02439389 -1.461176 -0.0617614 0.07505562 -0.028644716 -0.0045613917 0.058072444
-0.043936357 0.054915212 -0.0849464 -0.019534439 -0.049701896 -0.059087668 -0.018955588 0.054298986
-0.04614246 0.0016103162 -0.013842676 0.0015962248 0.040077716 0.01921248 0.08963744 -0.013431251
0.073383115 -0.6438155 -0.11908217 -0.005315832 0.0013645231 -0.029443258 -0.039176054 -0.000296905
0.023477381 0.10394541 0.013569854 -0.0799962 -0.00038832324 0.10752405 -0.030049954 -0.037643846
0.092388175 -0.048963264 -0.0075936727 0.07041053 -0.06741798 0.00177403 0.029668175 0.00052510545
0.0333585 0.030945845 0.008920525 -0.014021411 -0.12554654 -0.029930372 0.025258705 -0.0039370554
-0.007940695 -0.0020035708 -0.0046425 -0.0041195387 -0.0074230935 0.053614117 -0.058168013 0.025579939
-0.01191846 -0.10912558 0.0056688422 -0.030176759 0.052604448 0.0072676265 -0.12397638 0.056197796
0.085474074 0.06619229 0.0017355277 0.08939484 0.035533283 0.051995136 -0.004179775 -0.05702962
0.06238588 0.046671774 -0.07397201 0.03552099 -0.023307567 0.045659244 -0.1801316 0.08438701
-0.021938235 -0.12802413 0.075804524 -0.07847265 -0.6897504 -0.08152543 0.09444088 -0.004739854
-0.0047768117 0.07787338 0.05983828 0.06595686 0.009007393 0.033502173 0.043548163 -0.040156636
0.035642903 0.07312578 -0.07749518 0.0017082734 0.0024648968 0.036420062 0.0303022 0.0046692793
0.059396796 0.11220952 0.08417035 0.04337266 0.04127783 -0.024150316 -0.0073330095 0.008968999
0.08317325 -0.036378864 -0.08532528 0.092975385 0.08613354 -0.029695371 -0.04261138 0.07742777
0.036362562 0.009896095 -0.5314742 0.008708998 0.061992247 0.08153775 -0.03841602 -0.00013655073
0.08859795 -0.113104664 0.054012477 -0.06489535 -0.11447176 0.068876006 0.064108245 0.0005336624
-0.02871695 0.002216641 0.069999315 0.016038131 0.09444937 -0.018564245 0.012204767 0.06779026
-0.00405477 -0.06805225 -0.039314456 0.04707062 0.037719533 0.07526691 0.05265481 -0.011322092
0.051376507 0.06209094 0.065703996 -0.063357025 -0.0035079555 0.018079806 0.04832115 -0.016953431
-0.046091132 0.060216878 0.03432191 -0.030439211 -0.06637064 0.063965596 -0.08595041 0.0054708635
-0.05013252 0.0092129875 -0.049547344 0.009758585 -0.07782009 0.020634847 0.080367625 -0.0013035884
-0.0024663624 -0.0010055265 0.6448936 -0.059200555 -0.024133075 -0.04948645 -0.028563198 0.07727288
-0.08176854 0.080285884 -0.060724784 -0.070619695 0.04018981 -0.012011333 -0.014233984 -0.06225137
-0.0077532833 0.020547094 -0.0016145884 -0.03742607 -0.061151337 0.08515563 -0.012675168 -0.078332245
0.034281995 0.06182422 0.085157014 0.048194487 -0.016738579 0.02855389 0.01282739 0.036133565
0.06564129 -0.00860731 0.08422064 -0.010822069 -0.1512368 -0.052004732 0.017762506 0.003342898

bias f4 [2]
00000000: 3b29 96bc 11c9 6cbc
-0.018330207 -0.014452235
