models/mountaincar_2D/checkpoint_cl.10.pth.tar (torch_old, 143897 bytes, 12 tensors)

weight f4 [128, 5]
000000 cb 95 31 3e 61 f9 95 3d a4 f4 db bd b6 a5 76 3e
       0.17342298 0.07322956 -0.10740021 0.24086651
000010 d1 ed c4 be f8 b8 7f be 44 eb 02 3e 24 a3 b2 bd
       -0.3846269 -0.24972904 0.12785059 -0.08722523
000020 b4 8f 81 be 34 f8 89 be ec 99 b0 bf 28 bb 80 be
       -0.2530495 -0.26947176 -1.3796973 -0.2514279
000030 62 14 99 bd f0 d9 96 bd 5b de 68 be fc 15 3a bc
       -0.07474591 -0.07365787 -0.22741072 -0.011357781
000040 cd bf ed bd 9c 27 64 bd bb b4 2a 3e e1 6e 98 3e
       -0.11608849 -0.055701837 0.16670506 0.29772094
000050 b2 a7 af 3d 03 2e 9b be 2d 48 b4 3e c0 94 cd 3c
       0.08576907 -0.30308542 0.35211316 0.025095344
000060 66 45 bb 3e 6f b7 d8 3e ff ce 6f 3e 26 1b 45 3e
       0.36576384 0.4232745 0.23418806 0.19248638
000070 5b af 1c be 34 0e 89 be 06 1e 20 3e 12 60 b6 be
       -0.15301268 -0.2676865 0.15636453 -0.3562017
000080 c7 f8 33 be b9 f2 8e 3e 74 74 85 3e a4 31 c4 be
       -0.1757537 0.27919558 0.2606541 -0.38319123
000090 c3 99 d9 bd 7b d3 bb 3e 03 d9 a8 be 99 4d 89 3e
       -0.10625031 0.36684784 -0.32978067 0.26817015
0000a0 9e 51 d3 be 86 c0 45 3d 4a 13 92 be ba 52 0b be
       -0.41273206 0.048279308 -0.2853034 -0.13605776
0000b0 08 fa 9d 3e bf 14 b6 3d d7 3f 08 be 23 54 7c bd
       0.3085482 0.08890676 -0.13305603 -0.061603677
0000c0 ac 57 9a be dc 6b 6c be 38 51 e4 be 24 51 5d 3e
       -0.30145013 -0.2308802 -0.44593215 0.21612984
0000d0 cd 3c 84 be 0b e6 b2 3e 89 40 66 3e 9f f4 0b 3f
       -0.25827637 0.34941134 0.22485556 0.5467014
0000e0 4e 3e 72 3e 60 bc 37 3e f2 43 c2 3e 87 4c 3e be
       0.2365658 0.17942953 0.37942463 -0.1858388
0000f0 a1 99 e6 3d 9c 03 12 be 41 5b 9c 3e c8 33 45 3e
       0.11259771 -0.1425919 0.3053837 0.19258034
000100 89 bf 4d 3e 89 03 b0 bd c6 f9 a0 3e 44 c6 cd be
       0.20092596 -0.08594424 0.31440562 -0.40190327
000110 f0 83 17 3d cf 79 c2 3d 1e 71 da be 4b 13 48 be
       0.03699106 0.094958894 -0.42664427 -0.1953861
000120 96 80 b0 3e 43 35 56 3e fb 07 d3 be ca eb a4 be
       0.34473103 0.20918755 -0.41217026 -0.32211143
000130 e7 68 78 3e 7a c0 b1 3e c9 51 5e be 06 3a 45 be
       0.24258767 0.3471716 -0.21710886 -0.19260415
000140 2b 05 82 3e 45 e4 cd 3e 4b 47 f5 be 47 7a 97 be
       0.25394568 0.40213218 -0.47905955 -0.29585478
000150 89 69 a3 3e 48 78 b9 be 65 0b 1e be 6c e4 cf 3e
       0.31916454 -0.3622458 -0.15434034 0.4060396
000160 e7 c2 cf 3e 3d e1 33 3d 10 d0 b4 bc 94 a2 cc be
       0.40578386 0.043915976 -0.022071868 -0.39967787
000170 50 ff c6 3c 28 ca 91 be f0 3a 81 bc 27 7c be be
       0.024291664 -0.28474545 -0.015775174 -0.37204096
000180 c3 70 24 3e d0 8a c4 3d 0d 42 0f 3e 90 ec ca be
       0.1605864 0.09596789 0.1399004 -0.39633608
000190 de b4 33 3e a2 d7 08 3d 6a e9 a2 be f9 a6 14 3e
       0.17549464 0.03340877 -0.31818706 0.1451682
0001a0 1c 1c ba be d2 bf cd 3e b8 4e 17 3e 35 1b 99 3d
       -0.3634957 0.4018541 0.14776123 0.074758925
0001b0 f3 09 82 3e 72 57 a9 be 11 fd 0a 3e 18 fa e1 3e
       0.25398216 -0.33074528 0.135731 0.4413612
0001c0 2a dd 6b 3d 8f 98 97 bd 87 13 b1 3e 95 05 08 be
       0.057583965 -0.07402145 0.3458521 -0.1328338
0001d0 cc 03 ab 3d 2e 9b 78 3e 94 36 f1 bd 4d 95 2e 3e
       0.083503336 0.24277946 -0.11777988 0.17049141
0001e0 ae a7 6a be ba 93 b4 3e c0 f4 8e 3e ff f1 d3 3e
       -0.22915527 0.35268956 0.27921104 0.41395566
0001f0 db 27 63 be 6e a9 8b be 40 66 d0 be f7 f8 a5 3e
       -0.22183172 -0.27277702 -0.4070301 0.32416508
000200 dc 00 3a 3e 79 aa 7c be b8 d7 c5 be d9 0b bb 3e
       0.1816439 -0.24674405 -0.38641143 0.36532477
000210 01 4f 3b 3e a0 38 44 3e 11 38 7d 3c 85 13 10 be
       0.18291856 0.19162226 0.015455262 -0.14069946
000220 70 14 bc 3e 87 b4 ce 3e c5 3b da 3e 60 69 56 3d
       0.36734343 0.40372106 0.42623726 0.052346587
000230 d6 9f d4 3e ff ad 2c 3a b8 d0 c0 be 86 87 b2 3e
       0.41528195 0.0006587207 -0.3765924 0.3486902
000240 23 e2 81 3e 0d 02 b1 3e 3c 55 e0 be 97 99 af 3e
       0.2536784 0.34571877 -0.4381503 0.34296867
000250 f5 2b 5e bc ab 4e 4e 3d a3 50 d5 3e 7c fa 77 3e
       -0.013560285 0.050367992 0.41663083 0.24216646
000260 e5 7b dc be 36 30 2f bd de c3 c0 3e 74 29 f9 3d
       -0.43063274 -0.042770587 0.37649435 0.1216611
000270 b9 98 2b 3e 92 16 91 3d 6f 33 8f 3e c4 70 3d be
       0.16757478 0.07084383 0.27968928 -0.18500048
000280 6e 9b 91 3e 57 4c a8 3e 4f 71 55 3e d0 49 04 3e
       0.28438896 0.32870743 0.20844005 0.12918782
000290 eb e6 bc 3e 2f 0b e0 be f1 e4 b9 be dc 63 36 3e
       0.36894926 -0.43758532 -0.3630748 0.17811531
0002a0 70 01 18 be 92 c0 ac 3e da a5 c9 be fa d7 a9 be
       -0.14844298 0.3374067 -0.39384347 -0.3317259
0002b0 10 dc 93 3d 78 b7 05 3d b8 3f ce bd 25 ec 3c 3e
       0.07219708 0.032645673 -0.10070747 0.18449457
0002c0 1a cc 23 be 99 34 b3 3e b1 8c ff bd b5 c8 ce 3e
       -0.15995827 0.35001066 -0.12478007 0.40387502
0002d0 d4 54 10 be 90 8d 39 3e 2e aa 4f be 60 52 9a be
       -0.1409486 0.18120408 -0.20279762 -0.30140972
0002e0 40 55 ce 3b b1 10 d1 3e 98 e7 73 3d c2 20 8c be
       0.0062967837 0.40833047 0.059547037 -0.27368742
0002f0 6f 4e c2 bc e1 67 b0 be 86 0d 88 3e 3f 5d 96 be
       -0.02371904 -0.34454253 0.26572818 -0.29368016
000300 a0 b2 39 bd 14 fb 8c be f0 60 14 be 0b 04 b6 be
       -0.045336366 -0.27535307 -0.14490104 -0.3554996
000310 9b 75 c6 be 05 ba 16 be 9e e0 a8 3e 3c bb d2 be
       -0.387616 -0.14719398 0.3298387 -0.41158473
000320 39 8a 07 3c 9b 9a 76 bd b4 4e 42 be 06 66 13 bd
       0.008272701 -0.060206037 -0.18975335 -0.03598597
000330 1c 80 8a 3e 4d ce ce 3e 1a 5f 62 be c0 77 93 be
       0.27050865 0.4039177 -0.22106591 -0.288023
000340 d8 96 d6 bd 72 6d eb 3c 86 2e 05 be 0a b8 80 3e
       -0.1047799 0.028738711 -0.13006029 0.2514041
000350 7a 90 30 be 69 0a a9 be 72 96 8a 3e ce f6 f3 bd
       -0.17242613 -0.33015755 0.27067906 -0.11912309
000360 e0 a2 4c 3e 0d 27 7f be 82 6f ba 3e c6 7e 0c be
       0.19984007 -0.2491724 0.364132 -0.13720235
000370 39 1c 13 be 1d 5d a4 3e 32 34 2d bd 47 da d9 b9
       -0.14366235 0.3210229 -0.042286105 -0.00041552095
000380 35 b7 c4 bd 89 24 c0 3e 5e c9 60 3c 2f b8 9a be
       -0.096052565 0.37527874 0.013719885 -0.30218646
000390 aa 0f a2 be f7 73 08 3e 6d cb cd 3e d7 20 a9 be
       -0.31652576 0.13325487 0.40194264 -0.33032867
0003a0 a3 85 cb be d8 af d6 3e 18 98 4e be 07 51 d5 be
       -0.39750394 0.41931033 -0.20175207 -0.4166338
0003b0 31 ca 5c 3e b0 0d c4 3d de b4 bb bd 59 50 57 bd
       0.21561505 0.09572923 -0.09165357 -0.05256686
0003c0 43 13 bb be 51 ff 34 3e 2c f2 b1 3e 38 54 9b be
       -0.36538133 0.1767552 0.34755075 -0.3033769
0003d0 58 30 c9 3e 05 4b a0 3e 4f f2 9a 3e b2 a3 6c 3e
       0.39294696 0.31307235 0.30262992 0.2310932
0003e0 ca 53 8e 3e b3 64 8d 3e 17 7d 83 3e fe a0 a5 3d
       0.277983 0.2761589 0.25681373 0.080873474
0003f0 30 a7 4e 3d 34 ef 7c 3e 22 e3 94 be 98 94 d9 bd
       0.05045241 0.24700624 -0.2907954 -0.10624045

bias f4 [128]
000000 8d ff d0 be 17 df 5d be c4 ce 4c 3e 69 d2 02 3e
       -0.4081997 -0.21667133 0.2000075 0.12775578
000010 5a 74 00 be 30 82 ef bd 26 34 19 3e 49 1d 22 3e
       -0.12544385 -0.11694753 0.149613 0.15831484
000020 84 af 7b 3d 67 5b 90 3e 40 0b a6 3e ed c6 e9 be
       0.06144668 0.28194734 0.32430458 -0.4565958
000030 a8 dd d4 bd 07 8d b9 be f1 00 c0 3e 1b 7b 40 be
       -0.1039384 -0.36240408 0.37500718 -0.18796961
000040 66 08 a0 3e 2f 4c ee 3e 15 08 ba be 8a e5 fa 3d
       0.31256407 0.46542498 -0.3633429 0.12250812
000050 de 37 80 be c1 6e d5 be d2 9e 8b be 0a 9b 4e 3e
       -0.25042623 -0.4168606 -0.27269608 0.2017633
000060 d2 56 be be dd ab 97 be 00 64 e1 bc ca 15 9b 3c
       -0.37175614 -0.2962331 -0.027513504 0.018931288
000070 75 8b bb bd 0e 57 a8 3e 2f a9 1c 3e 06 5b 00 3e
       -0.09157459 0.32878917 0.15298913 0.12534723
000080 e3 02 95 bd ec 6a a2 be 26 05 25 be de a2 4c 3e
       -0.07275941 -0.317222 -0.16115245 0.19984004
000090 7c 53 a1 be ae e9 79 3e f7 d8 b1 be e1 b7 9d 3e
       -0.31509006 0.24405548 -0.34735844 0.3080435
0000a0 17 06 cd bd 45 77 45 be c3 27 d6 3e 90 30 ba be
       -0.10010927 -0.19283779 0.4182721 -0.36365175
0000b0 71 a5 bb 3d c9 c6 c1 3e 25 2c cb 3e eb d6 bb 3e
       0.09162415 0.37846974 0.39682117 0.36687407
0000c0 64 5b 0e be 3d 6e bd be c0 d7 ea be ab 91 3f be
       -0.1390205 -0.36998168 -0.4586773 -0.18707912
0000d0 c1 02 8f 3e 0a 96 70 3e fb 56 d8 3e 76 56 9f 3b
       0.2793179 0.23494735 0.4225386 0.004862602
0000e0 42 bc c2 be b2 05 94 be 89 5c 05 be dc e3 d5 be
       -0.38034254 -0.28910595 -0.1302358 -0.41775405
0000f0 72 87 45 3e 38 4e 3f bb 0f 3c 18 3e 0b 08 10 be
       0.1928995 -0.002919091 0.1486666 -0.14065568
000100 33 cc 1b 3e 84 28 72 be 76 48 a8 3d 26 71 3a be
       0.15214615 -0.23648268 0.08216946 -0.18207225
000110 25 a6 4a be fe 6b b5 be 9a 35 47 3e f1 be 9f ba
       -0.19789942 -0.35433954 0.19454041 -0.0012187642
000120 31 a0 15 3e a3 c8 01 3c 98 18 e0 3d 4f da 41 3d
       0.1461189 0.007921371 0.10942191 0.047327336
000130 cf d2 d0 be 5d c4 f0 3e 96 2c 81 be 5a e0 22 be
       -0.40785834 0.47024813 -0.2522933 -0.15905896
000140 c0 39 36 be f0 47 95 be b0 2f 74 bd 25 f9 71 be
       -0.17795467 -0.29156446 -0.05961579 -0.23630197
000150 3f 53 33 3e 4a a3 63 be e4 2e d3 3e 24 8d 82 3e
       0.17512225 -0.22230259 0.41246712 0.25498307
000160 9b 50 12 be ac ae 81 bd bc 35 6a 3e 16 1d ac bd
       -0.14288561 -0.06332144 0.2287206 -0.08403985
000170 fd 5c 65 3e 28 30 51 3e 73 c5 f0 be 05 1c d7 3e
       0.22398753 0.20428526 -0.47025642 0.42013565
000180 4f 19 28 be fd 52 99 3e 9b 44 d7 3e 58 2a 20 3e
       -0.16415904 0.29946128 0.4204453 0.15641153
000190 b0 05 cd 3e 1c 77 d1 3e 4a f6 db bd 4d 2e 9e be
       0.40043402 0.40911186 -0.10740335 -0.308947
0001a0 34 cc 63 be 26 03 e3 bd 79 b0 99 bd e6 11 c5 be
       -0.22245866 -0.11084585 -0.075043626 -0.38490218
0001b0 eb 6c b0 be 62 b7 c1 bd 89 57 14 3e 12 e2 fb bd
       -0.34458098 -0.094588056 0.14486517 -0.12298979
0001c0 e7 32 49 be e4 36 26 be f7 d6 64 3e 1f 9f 83 be
       -0.19648324 -0.16231877 0.22347628 -0.25707337
0001d0 37 3b 85 be 18 6b 1b be be c9 bb be c7 77 cc 3e
       -0.2602174 -0.15177572 -0.36677355 0.39935133
0001e0 7e 7c b0 be 75 15 c2 3e e9 be 41 be 0b a7 3d be
       -0.3446998 0.37906995 -0.18920483 -0.18520753
0001f0 f0 d6 b1 3e 5a c3 e0 3e 0d 2c db bd 29 5a 97 be
       0.34734297 0.4389904 -0.107017614 -0.29560974

weight f4 [128, 128]
000000 0e 4a c9 bd 2c 70 8e bc c4 ec 8f bf 47 f4 c1 bc
       -0.09828578 -0.017387472 -1.124413 -0.02367605
000010 92 ff d5 3c 70 7e e6 bb f2 4b d6 3d 75 22 2f 3d
       0.026122842 -0.0070341155 0.10463704 0.04275747
000020 e5 1d 79 3c 1a f7 81 3d 74 93 5e 3d c3 e6 02 be
       0.015204881 0.06345959 0.05433984 -0.12783341
000030 1a fc 50 bd 17 af 24 bd eb 38 6b bc 75 15 80 bc
       -0.051021673 -0.04020604 -0.014356832 -0.015635232
000040 91 b6 0c 3d fb e7 73 bc 61 57 83 bd ec 4b c2 bd
       0.034353796 -0.014886851 -0.064131506 -0.09487137
000050 85 fd 42 3c f7 b2 39 3b 35 ac a4 bd 36 32 a3 3d
       0.011901264 0.002833543 -0.080406584 0.07968561
000060 7e ed 18 bd eb 9b 99 3d 07 89 af bd d8 9b 9e 3d
       -0.037335865 0.07500442 -0.08571058 0.077445686
000070 82 08 c3 3c fa 45 85 3c 57 72 64 3d 44 55 b4 3d
       0.023807768 0.016268719 0.055773105 0.088053256
000080 1f 91 1b 3c 98 64 36 3c fe 7d 7a 3d 2d 3d 9a 3d
       0.009495049 0.011132382 0.06115531 0.075311996
000090 11 36 91 bd 88 25 cb 3d 1f 56 68 bd 76 e1 90 bc
       -0.070903905 0.09919268 -0.056722756 -0.017685633
0000a0 05 3c 5a 3d 19 0c a9 bb 16 7a 8e 3d 5f 39 20 bd
       0.053279895 -0.005158913 0.0695688 -0.039117213
0000b0 29 3c 4e 3a 17 a9 46 bc d1 6d 45 3d ec 90 24 3d
       0.0007867241 -0.012125275 0.048200432 0.04017727
0000c0 84 e3 52 3d bd 54 4c 3d f6 49 b5 bd 7f 07 5e 3d
       0.051486507 0.0498855 -0.088519976 0.054206368
0000d0 9e 31 c5 3d 44 98 dc 3c 85 75 88 3d bb 63 cf 3b
       0.09628604 0.026928075 0.0666304 0.0063290275
0000e0 43 ab e8 3c b2 05 e8 bc 17 a2 1c 3d d6 dd 4f 3d
       0.028401976 -0.028323028 0.03824052 0.05074867
0000f0 f9 07 8d 3d 24 db d1 3d 4d 0c 9d 3d dd c7 ed 3c
       0.06886286 0.10246876 0.07668362 0.029025966
000100 28 98 ca bd a9 ed ac 3c 3c eb 22 bd 3e ec 66 3d
       -0.09892303 0.021109419 -0.03977512 0.05637764
000110 f6 75 68 bd 00 ee 1f 39 77 1d 12 3d 93 54 7d 3d
       -0.05675312 0.00015252084 0.03567263 0.061848234
000120 26 0c bd 3d 8f bd 3a bc ed 51 83 3d b4 18 49 3c
       0.09230833 -0.011397733 0.064121105 0.012273956
000130 d6 c3 2e 3d 71 e9 41 be 91 08 3f bd 4c 04 28 bd
       0.042667232 -0.18936707 -0.04663903 -0.041019723
000140 58 e6 80 bc 2a 3f 8e bc 3c 3c c9 3c 33 0e b9 3d
       -0.015734836 -0.017364103 0.024564855 0.090359114
000150 7d 41 95 bd 6e c3 70 3c 4b 97 03 bd cc 39 90 bd
       -0.072878815 0.014695032 -0.032126706 -0.07042274
000160 27 5f 33 3a 02 ab 1b 3d 08 75 b6 3c b4 66 4c bd
       0.0006842487 0.038004883 0.022272602 -0.049902633
000170 40 f7 8b 3d 86 a0 00 3d ce 80 28 be 46 12 25 3d
       0.068342686 0.031403087 -0.16455385 0.04030063
000180 33 f0 3e 3d 6d f1 f4 bc 94 1c bb 3c 83 dc c1 3a
       0.04661579 -0.029900277 0.022840776 0.0014790449
000190 ea c7 12 bd 29 51 a5 3d 26 bd 75 3d 00 8a 97 bd
       -0.035835184 0.08072121 0.05999484 -0.07399368
0001a0 c8 c0 01 3d bb e8 f2 3c 89 7e 79 bd 4e f9 04 3d
       0.03167799 0.02965199 -0.06091169 0.032464318
0001b0 15 72 96 3d 5b 12 b6 3d db d5 75 bd 19 ad 2c bd
       0.07345978 0.0889022 -0.0600184 -0.042157266
0001c0 b9 94 37 bd fa 10 87 bd 9f d0 bd bc 10 db 1d be
       -0.044819567 -0.06595035 -0.023170767 -0.15415597
0001d0 1a 8a fe 3b 1d b8 de 3d 79 31 e7 3c 05 8b a0 bd
       0.007767928 0.108749606 0.028221833 -0.07839016
0001e0 b0 62 ab 3d 54 ff 34 bd 97 a4 b1 3d c6 54 91 bc
       0.083684325 -0.044188812 0.08673971 -0.017740618
0001f0 f9 62 dd 3c c7 ea a2 3d 9b e7 b4 be 80 08 46 3c
       0.027024733 0.079549365 -0.3533295 0.0120869875
000200 72 e7 9c 3a 80 1b 02 3c 05 67 ab 3d 58 2c d7 3c
       0.0011970832 0.007941127 0.08369259 0.026266262
000210 ed 8d c8 3c fb 9b a2 bd 44 13 31 bd f8 13 4d 3d
       0.024481738 -0.07939907 -0.043231264 0.05006787
000220 42 c5 5c 3d 48 d2 a7 bd 01 0f 56 bd d3 65 ae bd
       0.053899057 -0.08194405 -0.052260403 -0.08515515
000230 ff 5b 07 3b ba 27 01 3d bb 32 6a bd 2c 49 a1 bd
       0.00206542 0.031532027 -0.057177287 -0.078752846
000240 18 2e 07 3d b9 31 04 bd cc 21 a1 bc 3c 49 84 3c
       0.033002943 -0.03227398 -0.019669436 0.016148202
000250 df 4e 1c 3d 82 ae 42 bd 84 1f 35 3d 91 8d d2 3c
       0.038161155 -0.047529705 0.04421951 0.02570227
000260 95 7d 12 bd 24 e3 a6 bc 02 8d 41 bd 66 b6 be bd
       -0.035764296 -0.020371981 -0.047253616 -0.093121335
000270 a0 e0 d6 3c 89 a9 53 bd 10 a4 8f 3d 54 6a 43 3c
       0.026230156 -0.051675353 0.07013714 0.011927206
000280 8b d2 52 3d dc e1 b3 3c a0 3d a6 bd cb 5f 6f bd
       0.05147032 0.021958284 -0.08117223 -0.058440965
000290 3d 4b 99 3d 08 a6 7d bd 40 03 6b 3c 91 ec 42 bd
       0.07485054 -0.061925918 0.014344037 -0.04758889
0002a0 60 65 6c 3d 9d f1 a9 3d 78 41 71 3c 52 bb 36 3d
       0.057713866 0.08298037 0.014725082 0.044612236
0002b0 23 49 3b 3d 7e 09 3e bd c4 d1 a1 bc 9a f8 a6 bd
       0.045724045 -0.04639577 -0.019753344 -0.08152886
0002c0 73 e1 91 bd 92 31 b9 bd 88 89 84 bd 15 dc 2b bd
       -0.07123079 -0.09042658 -0.064715445 -0.041957933
0002d0 19 6b 35 3d 04 4c b7 3c 2f 95 8e 3d cc 63 06 bd
       0.04429159 0.022375114 0.06962048 -0.032810017
0002e0 50 25 80 3c 31 05 8d 3d 15 34 80 bc f8 46 c0 bc
       0.015642792 0.06885756 -0.015649835 -0.02347134
0002f0 8c 25 1f bd da 97 8c 3d c6 26 00 3d 80 85 ae 3d
       -0.038854167 0.06864901 0.031286977 0.08521557
000300 c9 b7 2b 3d e1 8c 40 bd 61 04 fc bc 4c c0 68 bd
       0.041923318 -0.047009353 -0.030763807 -0.056824014
000310 af 32 8a bd 08 0a 5d bc d6 5e 45 3c af 73 a3 3d
       -0.067479484 -0.013491161 0.012046536 0.07981049
000320 8b d4 98 bc 5f 84 8b 3d c1 c7 4d bd 6b 76 98 3c
       -0.018656036 0.06812357 -0.05023933 0.018611154
000330 e1 9c 95 bd 62 b3 3b bc e1 ff 60 bd 30 ec 2e 3d
       -0.07305313 -0.011456342 -0.054931525 0.042705715
000340 00 0f 93 3c 50 07 2e 3c c8 b6 08 3d 2c 7c c9 3c
       0.017951488 0.010621861 0.03337744 0.024595343
000350 3e c3 f7 bc 20 e7 22 3c 64 63 47 3c f6 33 f6 bc
       -0.030244466 0.0099428 0.012169693 -0.030054074
000360 e2 ee 7e bb d8 ec 2e 3c 21 66 7c bd e5 8a d1 bb
       -0.003889971 0.010676585 -0.061620835 -0.0063947313
000370 2b 65 75 3d 6d ee a0 bd d6 3e 1f 3d 78 61 c3 bc
       0.059910934 -0.07857976 0.038878284 -0.023850188
000380 15 39 3c 3d 59 07 9b bc 66 44 41 3d 5d fc 83 bd
       0.045952875 -0.018924402 0.04718437 -0.06444619
000390 97 92 1e 3d 98 ac 19 3d 5d 31 93 bd 62 54 0b 3d
       0.038714018 0.037518114 -0.0718715 0.03401602
0003a0 71 b1 00 bd 9b 85 f6 3c c0 27 5a 3d e8 53 01 3d
       -0.03141922 0.030093005 0.053260565 0.03157416
0003b0 86 4e 43 3d d8 7b 5d bd fe fe f7 3b 07 68 84 bb
       0.047682308 -0.054073185 0.0075682392 -0.0040407213
0003c0 6f aa 88 3c 91 f0 49 bd b7 80 97 3d bf 65 ce 3c
       0.016682832 -0.049301688 0.07397597 0.025195
0003d0 19 a8 5e bc ff 77 84 3d 57 68 ae 3c b3 04 f2 3c
       -0.013589882 0.064682 0.021289987 0.029543256
0003e0 7f 87 94 bd d4 0f 86 bc 8d 54 a5 bd 5b 8f 39 3d
       -0.07252406 -0.01636497 -0.080727674 0.04530273
0003f0 5a 72 f5 bc 9e 1a d1 b9 20 39 94 bb 20 f6 dc 3b
       -0.029961754 -0.00039883418 -0.0045234114 0.0067432076

bias f4 [128]
000000 81 0c 04 3d f9 1e ad bd 66 40 96 bc 31 fb 50 bd
       0.032238487 -0.08453173 -0.018341254 -0.051020805
000010 92 35 4a 3d 17 f7 88 3d ea 81 8d 3d c3 a6 61 ba
       0.049367495 0.06687754 0.06909545 -0.0008607918
000020 4c bf 65 bd 96 61 92 3d e7 30 e0 bc 55 75 ec ba
       -0.056090638 0.07147519 -0.027367068 -0.0018040339
000030 d2 f9 88 3d 8a 85 3c 3d 13 35 97 3d 06 c9 8a bd
       0.066882744 0.04602579 0.0738317 -0.067766234
000040 a2 d0 0b 3d c1 97 2d bd 23 50 06 3d 72 73 af 3d
       0.034134515 -0.042381052 0.032791268 0.08566941
000050 a5 96 d8 3d 42 a6 36 3d 88 16 a4 bc 55 ab 5b 3c
       0.10575608 0.04459215 -0.020030275 0.013407548
000060 d1 39 0f 3d bc 5f 31 bd c6 0f 91 3d 3c eb c7 3c
       0.034967247 -0.04330419 0.07083087 0.02440416
000070 4a 47 a2 3d 8c 38 ca 3c 7e 4b 83 bd 01 60 c2 3d
       0.079237536 0.024685167 -0.06410883 0.094909675
000080 56 65 42 3d 80 5c bc bc 4e d7 e7 3d fa e1 1d bb
       0.047459923 -0.022993326 0.11320363 -0.0024090991
000090 e9 17 59 3d 93 62 31 bd 76 11 23 bd dc 9f 79 3d
       0.053001318 -0.0433069 -0.039811574 0.06094347
0000a0 c2 d1 c3 bc dd ee ae bc 50 9b ba 3d 6e 5a f2 bc
       -0.023903731 -0.021354133 0.09111655 -0.029584136
0000b0 48 00 ad ba 1a 0a 6a 3d 95 10 8a 3d e8 75 f6 3c
       -0.0013198936 0.05713854 0.06741444 0.030085519
0000c0 a7 6a a8 3d da ee dd 3d 27 46 ac bd d8 66 5e bd
       0.08223467 0.10836573 -0.08411818 -0.0542973
0000d0 0a d7 80 bd 0a 7d 99 3d 8f 1e 62 bd e4 8f 0a bd
       -0.062910154 0.074945524 -0.055204924 -0.03382863
0000e0 21 f6 9a bc f3 72 b3 bd d5 d7 9a bd 8e d4 92 3c
       -0.018916192 -0.08762159 -0.07560698 0.01792362
0000f0 5d d4 7e bd 05 6b 79 3d 67 db c7 3c 4b aa 27 bc
       -0.062214244 0.060893077 0.024396611 -0.010233472
000100 00 ec d2 3c 0e 6e e0 bb c5 f3 99 3d 04 d8 a1 3d
       0.0257473 -0.006849057 0.075171985 0.0790253
000110 11 86 17 3d 40 f3 49 bd de 6d ab bd 04 66 7c 3c
       0.03699309 -0.049304247 -0.08370565 0.015405182
000120 95 93 96 bc 07 fc ba 3d a1 1c 86 3d 7a 4a 25 bd
       -0.01838092 0.09130102 0.06548429 -0.04035423
000130 3c 51 d8 3d 5a fe 80 bd 9a de ae 3c ac 92 b2 3d
       0.10562369 -0.06298514 0.02134638 0.08719382
000140 30 a1 b4 bd df fd 42 bd 52 78 6d 3d a4 e3 64 3c
       -0.088198066 -0.04760539 0.057976075 0.013970289
000150 aa 0d 83 3d 9c 4a b3 bc b4 15 8d bd 12 03 e8 bc
       0.063990906 -0.021886162 -0.06888905 -0.028321777
000160 84 b1 5e 3d df 64 7c 3d d2 23 3c bc ef f5 94 39
       0.05436851 0.061619636 -0.01148315 0.00028411995
000170 96 bd 6c bd e8 e3 87 3d 3d b5 0f 3d 3b 38 a7 3d
       -0.05779799 0.066352665 0.03508495 0.08165022
000180 4e 6b 8d bd 4b 6f 69 bd 0b 94 c8 bd 3b 4c 38 bd
       -0.06905232 -0.056990903 -0.09793862 -0.044994574
000190 47 79 68 bc cf de 85 bd b3 e9 e6 bd e8 8d 38 3c
       -0.014189071 -0.06536638 -0.11275043 0.011264302
0001a0 23 89 a3 bc 8a b3 8f bd 00 57 8a bc 01 41 11 bd
       -0.019962853 -0.07016666 -0.016887188 -0.035462383
0001b0 bf c6 8c bd a8 04 1b 3d ed 77 b1 3c 0f c1 15 3b
       -0.06873845 0.037846237 0.02166363 0.0022850668
0001c0 f5 84 0d 3d 89 cc e5 3c c5 87 4b 3a b3 ff 2a bd
       0.034550626 0.028051632 0.00077640667 -0.04174776
0001d0 77 63 be bc 15 89 99 bd b5 c3 84 bd e7 4f 8b 3d
       -0.023240788 -0.074968494 -0.06482641 0.068023495
0001e0 ae a6 31 3d fb c7 9c bd d7 90 3e bc 3a 0b 29 bd
       0.04337185 -0.07655331 -0.011631212 -0.041270472
0001f0 35 5c 2f bd 1e 8f 82 bd bb a1 2a 3d db 12 6c 3d
       -0.042812545 -0.06374954 0.041658144 0.05763517

weight f4 [2, 128]
000000 67 22 c0 3d 44 e5 4d bc c8 e6 b2 bd 6b 1b 95 bd
       0.09381562 -0.012566868 -0.08735424 -0.0728062
000010 45 12 14 3c 20 ce f9 3b d8 01 8e bd e4 01 59 3d
       0.009037559 0.007623449 -0.069339454 0.05298032
000020 c8 96 ba 3c 35 0d 9c bc 86 0c 05 3d 54 de b8 bd
       0.022776976 -0.019049266 0.032482646 -0.09026781
000030 f2 b5 32 3c 47 20 2d bd 8e d1 a6 3c 05 e8 fb 3d
       0.010907637 -0.04226711 0.020363595 0.123001136
000040 a6 a7 3b 3c 05 06 5f bd d8 d9 27 bb 1f 60 41 be
       0.011453545 -0.0544491 -0.0025612023 -0.18884324
000050 85 cc cb 3d 5d 5b a4 3d 1d 4d 60 bd c1 e3 74 3d
       0.099511184 0.08025239 -0.05476104 0.059787516
000060 36 60 a8 bd 95 76 9b 3d d6 13 79 bd 81 f1 c3 bf
       -0.08221476 0.07590977 -0.060809933 -1.5308076
000070 c9 f2 77 3d 90 c3 ea bb 67 b0 e9 3a c2 d9 b9 bd
       0.060534272 -0.007164426 0.0017829061 -0.09074737
000080 63 45 8a 3d b5 54 19 3d 82 9d 8c 3d 5f c2 ba 3d
       0.06751516 0.0374343 0.0686598 0.091191046
000090 f8 cb a0 bd 1a ab 84 bd 59 12 ac 3d b4 35 57 3d
       -0.07851404 -0.064779475 0.08401937 0.05254145
0000a0 b5 86 bd 3b bc a2 c6 3d b7 c8 86 bc e0 33 19 3b
       0.0057838806 0.09699008 -0.01645313 0.0023376867
0000b0 64 0a 7c 3d e0 81 a0 bd 71 44 9c bb c3 dc ae bc
       0.061533347 -0.07837272 -0.004768901 -0.021345502
0000c0 47 07 a1 3d c1 5c cf 3d 3a 51 89 bc 92 a5 53 bd
       0.07862716 0.10125113 -0.016762365 -0.051671572
0000d0 19 b5 e5 bc 03 a6 10 3d 91 2d c3 3e 60 c7 f0 3b
       -0.028040456 0.03531457 0.38120702 0.007347986
0000e0 12 c3 9a bc 62 fa df bc 70 a3 56 39 c9 4f 1f be
       -0.018891845 -0.027341072 0.00020469516 -0.1555778
0000f0 28 83 9a bd 28 96 04 bd e1 95 eb bd 2e dc 7b 3c
       -0.07544547 -0.032369763 -0.115031965 0.015372319
000100 24 53 9c bb 5d 22 02 3d 5d 6b 9d 3d 67 8d 76 bc
       -0.0047706533 0.031771053 0.076864935 -0.015048361
000110 49 bc 8f 3d 17 7b 7c 3c 40 96 97 bd 35 2b b5 bc
       0.070183344 0.015410206 -0.07401705 -0.02211533
000120 b0 d2 d6 3d c6 de bd 3d 2c 84 f2 bc 8d 20 e1 3d
       0.10489404 0.09271006 -0.02960404 0.10992537
000130 3a 35 12 3d a6 f5 5a 3d f5 fe e6 bc 01 0c f3 bd
       0.035695292 0.053456925 -0.028197745 -0.11867524
000140 b0 13 1f bc e4 85 89 bd fb d9 c2 be 16 a8 bd bd
       -0.009709284 -0.06714991 -0.3805693 -0.092605755
000150 89 82 cf 3d d6 b6 95 bf 25 f6 b0 3d c9 e1 aa bd
       0.101323195 -1.1696422 0.08640698 -0.08343846
000160 32 07 70 3d 74 75 56 3c a1 ab e0 3c 63 21 0f 3d
       0.058600612 0.013089526 0.027425589 0.03494395
000170 07 9f b7 3d ad 02 a6 3a 31 7d 8a 3c 90 fd 8e 3c
       0.08965879 0.0012665592 0.016905399 0.017454892
000180 2d 00 24 3d 15 ca 56 bd 10 c5 d5 ba 82 54 21 3d
       0.04003923 -0.052438814 -0.001630934 0.039387234
000190 5c 50 32 bd 27 3b 77 bc 32 15 cb bf d8 a1 43 bd
       -0.043533668 -0.015089787 -1.5865843 -0.047761768
0001a0 f9 21 df 3d 55 8d ad bd 05 e8 20 bd 15 5a 57 be
       0.10895152 -0.084742226 -0.03928377 -0.21030457
0001b0 ae 5b 27 3d 3f 08 da 3d d8 16 ee bc 76 db cf 3d
       0.040858917 0.10646104 -0.029063627 0.10149281
0001c0 67 a3 40 bc 1e 15 46 3d ca e9 09 be f3 f3 b0 bd
       -0.011757708 0.048359983 -0.1346809 -0.086402796
0001d0 e5 aa c3 bc 00 52 35 bd 2e fc 46 bd 03 2f ea bc
       -0.0238852 -0.044267654 -0.04858034 -0.02858687
0001e0 c1 51 0f be 8b ae d5 3d 01 f1 51 3d 80 46 93 bf
       -0.1399603 0.10433682 0.05125523 -1.150589
0001f0 3e 2f 38 be 0b 9c 91 3d ad f4 bb b9 2a da 88 bc
       -0.17986771 0.07109841 -0.00035849717 -0.016705591
000200 2a 21 3e bd f7 7b 51 bb 36 32 cb bc 84 bd 73 bb
       -0.046418346 -0.0031964758 -0.024804216 -0.0037191818
000210 20 b2 4c 3d bc 9b d0 bc b9 81 72 bd ff 6a 09 bd
       0.04997456 -0.025464885 -0.059205744 -0.033549305
000220 14 32 91 bc ef 35 be bb 12 94 35 be ed 48 92 bd
       -0.017724074 -0.005804769 -0.17732266 -0.07142816
000230 57 63 a2 3d 11 96 b3 3d 9b 8b 78 3d 82 d7 24 bd
       0.07929104 0.08768857 0.060680013 -0.040244587
000240 e1 74 97 3c cc 2c d0 3c 33 87 ee bb c0 e1 cd bd
       0.01848835 0.025411986 -0.0072793006 -0.10052824
000250 89 cf 9d 3b 5f 91 23 bd 09 c9 83 3d 3f 8e d9 bb
       0.004816 -0.03993356 0.06434829 -0.0066392715
000260 b9 c5 7d bd ba b5 7e bc a1 56 8e 3d 95 57 52 bf
       -0.06195614 -0.015546257 0.06950117 -0.8216489
000270 61 30 ab 3d 70 4b 57 3c 89 84 7e 3c e9 4c 96 3d
       0.08358837 0.013140544 0.0155345285 0.07338888
000280 d6 cc b4 bd 0c e5 c0 3d ae 33 a9 3c ac e6 a4 3c
       -0.08828132 0.09418687 0.020654526 0.020129524
000290 13 d7 75 3d 91 04 be 3d 87 51 ac 3d 19 5a 18 bd
       0.060019564 0.09278215 0.084139876 -0.0371953
0002a0 eb 1f 59 3d ae 83 9c 3d 9d 75 a4 3d ec 75 fb 3c
       0.053008955 0.076423034 0.080302455 0.030695878
0002b0 91 b6 2d 3d 53 a8 98 3d 55 d6 44 3d e4 e3 6d 3d
       0.042410437 0.0745398 0.048055965 0.05807866
0002c0 7f 1e 84 3c a5 12 97 b9 00 2d 5c bd 90 c2 ad bd
       0.016127823 -0.00028814856 -0.053753853 -0.084843755
0002d0 fc 66 9d 3d a7 bc 13 3d 72 e6 23 bd f6 fe 5c 3d
       0.07685658 0.036068585 -0.04001469 0.053954087
0002e0 bc ae 7c 3d 20 7c b1 bc fb 5f ae 3d 3c 25 39 3d
       0.061690077 -0.021665633 0.085144006 0.045201525
0002f0 05 55 18 bd 1a 8f e6 bd 40 c6 01 bd 05 a5 2a 3d
       -0.037190456 -0.11257763 -0.031683207 0.04166128
000300 4f 45 24 3c a9 09 4a bd de 7b 7f bd 9a dc 27 3d
       0.01002629 -0.04932562 -0.06237399 0.040981866
000310 13 fb e7 3d 0c ac 88 3c 6b d6 67 3d 35 d3 bf bc
       0.113271855 0.0166836 0.05660097 -0.023416141
000320 95 5d e2 3d 93 d6 08 bb 3b d8 01 bd d8 7d 2f bd
       0.110530056 -0.002087985 -0.031700354 -0.042844623
000330 87 9c 0e 3d 6e 32 40 3d 4d be c5 bc cb 43 4b bd
       0.034817245 0.046923093 -0.024138594 -0.0496252
000340 6a 30 62 3d 79 58 35 bd 21 53 0a 3f 8e 29 ab 3d
       0.055221952 -0.044273827 0.54033095 0.08357535
000350 55 2d 8a 3d 06 2a 90 3d 29 e7 84 3d 59 47 ab bd
       0.06746928 0.07039265 0.06489403 -0.08363218
000360 bb 95 40 3c e7 37 be 3d 68 a3 c6 3c a9 9d 42 3d
       0.0117544485 0.09288006 0.02424784 0.047513638
000370 2b 45 68 bc 9e b5 c2 bd 8b a8 cb 3d 2d 63 ee 3c
       -0.014176647 -0.09507297 0.099442564 0.029100025
000380 06 04 97 3c 20 05 b8 3c 60 e5 2e 3c c4 51 6c bd
       0.018434536 0.022463381 0.010674804 -0.057695165
000390 db 4c cd 3d 10 93 53 3d 96 26 38 bf e7 d7 11 bd
       0.10024425 0.05165392 -0.7193388 -0.03560629
0003a0 a2 87 2d bc 70 47 a0 3c a7 ef 53 bd 44 e3 1a bd
       -0.010591419 0.019565314 -0.051742222 -0.037814394
0003b0 cd ba 2e bd 3b 14 08 bd 2a 3e a0 3d 45 3f d5 3c
       -0.042658616 -0.03322242 0.07824357 0.026031146
0003c0 75 46 08 be d6 9a e3 3c 33 1d 25 3d a0 6b 16 bb
       -0.13308127 0.027783792 0.04031105 -0.0022952333
0003d0 8a a8 39 be dd ca ad 3d 9c a8 a7 bc 21 f3 a8 3d
       -0.18130699 0.08485959 -0.020466141 0.08249498
0003e0 f1 f6 05 bd 74 ed 08 be 92 0e a7 3d 2c 4c ab bc
       -0.032706205 -0.13371831 0.08157076 -0.020910345
0003f0 87 db ef 3c 41 a7 76 bd 70 f3 5e bb 9f 15 2b 3d
       0.029279483 -0.0602181 -0.0034019612 0.041768666

bias f4 [2]
000000 eb bf 9d 3d 87 12 be bc
       0.07702621 -0.023202194

weight f4 [128, 5]
000000 ae 38 81 3e 40 71 cd 3e f6 fd 5b bd 7b 37 08 3e
       0.25238556 0.40125465 -0.053708993 0.13302414
000010 c1 1f 17 be 5f 52 88 bd 07 d1 11 3c 1d 96 e4 be
       -0.14758207 -0.06656336 0.008899934 -0.44645777
000020 ca e9 b6 3b c0 27 a0 be c8 bd c4 be fe 52 44 be
       0.005582069 -0.31280327 -0.38426042 -0.19172284
000030 60 ad 27 bc 3c c9 f0 bd 6c ee 56 3e 41 3c c4 3e
       -0.010234207 -0.117571324 0.20989388 0.3832722
000040 91 74 e0 3c 8a 6a b8 bd c2 f8 e2 be 39 df e4 be
       0.027399333 -0.09004696 -0.44330412 -0.44701555
000050 49 92 dc be 95 38 95 be 05 eb cc 3e d1 e7 cd be
       -0.43080357 -0.2914473 0.40023056 -0.40215924
000060 ff 21 13 be 45 71 5d be 9f ad 40 be 94 63 d3 be
       -0.14368437 -0.2162524 -0.18816231 -0.4128691
000070 10 e5 39 3e b8 05 97 3e da 41 66 3e 90 d0 07 3e
       0.18153787 0.2949655 0.22486058 0.13263154
000080 45 55 b7 bd 76 28 a8 3e 75 f9 92 3e 82 b4 b4 be
       -0.08951811 0.3284337 0.28705946 -0.35293967
000090 66 b8 b8 3e cc df 9f 3e a0 b4 8f 3e 3b bf cf 3e
       0.36078185 0.3122543 0.28067493 0.40575585
0000a0 f1 62 59 be 53 28 63 3c 7b 35 b1 3e 50 c2 54 be
       -0.2122915 0.0138645945 0.34611115 -0.2077725
0000b0 00 bb 79 3d 28 bd ef 3e 2f 31 72 be 32 1a d5 bd
       0.060969353 0.46824002 -0.23651575 -0.10405387
0000c0 9b fd 5b 3e d0 3a 96 be a6 53 88 3c 2e b3 24 3e
       0.21483462 -0.29341745 0.01664145 0.16083977
0000d0 c9 8b a6 3e 85 c0 91 bd bb 6b 90 3e bb 52 1a bd
       0.32528523 -0.07116798 0.28207192 -0.037676554
0000e0 d0 81 8d 3e 28 37 10 be 9a 7b 0f 3e b9 8f d6 3d
       0.27638102 -0.1408354 0.14011994 0.10476632
0000f0 a9 3f db 3e 9f b3 a3 3e cc 77 0f be 3b fe 11 be
       0.42822006 0.31972978 -0.14010543 -0.14257137
000100 3f 1f 6b be 11 37 52 3e b1 71 4a 3e 16 72 17 be
       -0.22961138 0.20528819 0.19769932 -0.14789614
000110 c5 ca c6 3d d2 a9 be be e5 2c 4c be 24 0c 9c 3e
       0.09706644 -0.37238938 -0.19939001 0.30478013
000120 d0 f8 2a 3e d4 01 76 3e c1 ea 2f 3d f6 07 8e 3e
       0.16696477 0.24024135 0.04294849 0.2774045
000130 ee 5f cc be 66 0d 84 3c 9b 55 bd 3e e0 09 4c be
       -0.3991694 0.01611967 0.36979374 -0.19925642
000140 4e 17 05 3e 6b 7f ea be 38 58 34 be 8a 63 c6 bd
       0.12997171 -0.45800337 -0.17611778 -0.09686954
000150 e8 44 91 3e 92 6e c2 be 58 d6 3d 3e 4c 50 8d be
       0.28372884 -0.37974983 0.18538797 -0.27600324
000160 e0 92 a4 bc d7 42 5c be 0b 91 f2 3e 62 5c a5 be
       -0.020089567 -0.21509872 0.47376284 -0.32297045
000170 ab bc 9a 3e 9c d6 fb 3d a5 dd 99 be 3e 54 08 3f
       0.30222067 0.12296793 -0.30051914 0.53253543
000180 af b2 bb be 33 01 34 3e fd a8 37 3d 51 17 ce be
       -0.36659762 0.17578582 0.044838894 -0.40252164
000190 f6 86 9e 3e 4f 9c 83 be 0c 0d 81 3e 91 34 27 3d
       0.30962342 -0.25705191 0.25205266 0.040821616
0001a0 29 6d c2 be 5e 65 19 3e 5e 46 3b 3e 2e 20 3a be
       -0.37973908 0.14980075 0.18288562 -0.18176338
0001b0 bf 5c 0a 3e c7 a0 ad 3c 5d 4e 87 be f6 67 1b 3e
       0.13511942 0.021194829 -0.26426974 0.15176377
0001c0 b1 22 d1 3e 8e 38 d8 3e f1 8d 1e 3e c4 7e 76 be
       0.4084678 0.42230648 0.15483834 -0.24071795
0001d0 f5 fe a5 3d c0 fc 47 3c 84 80 a6 3e 70 13 d4 be
       0.0810527 0.012206256 0.32519925 -0.4142108
0001e0 c0 66 24 be 91 88 73 be 4a a6 44 3d b3 de 83 3d
       -0.16054821 -0.23782565 0.048010148 0.06438961
0001f0 b2 07 9d 3e 3f 04 cc be 42 d7 3b be 04 24 de bd
       0.30669934 -0.3984699 -0.18343833 -0.10846713
000200 c3 3a 6b be cf 74 b5 be a3 08 c8 3e dc 3e 20 3e
       -0.22971635 -0.3544068 0.3906909 0.15648979
000210 09 a1 d4 3b 1b dc c7 be fe e2 bd 3e 14 12 88 3c
       0.0064889234 -0.39035115 0.37087244 0.016610183
000220 4c 78 71 be db c0 bb 3e 41 c7 a5 3e c8 17 22 bd
       -0.23581046 0.36670575 0.3237858 -0.03957346
000230 50 b5 ac bc 9a fb d7 be 20 06 d3 3e 9e c4 aa 3e
       -0.02108255 -0.42184144 0.4121561 0.33353132
000240 92 05 c0 be bf e6 06 be 19 74 fd 3b f3 03 c5 3e
       -0.3750425 -0.1317396 0.007734787 0.38479576
000250 21 fd c3 3e 26 0c 09 be e1 30 86 3e 38 c8 39 be
       0.3827906 -0.1338354 0.26209167 -0.18142784
000260 98 56 a4 be 03 83 a6 3e 72 77 5d bd d0 03 bd 3e
       -0.32097316 0.3252183 -0.05406899 0.3691697
000270 22 b5 c6 3e 44 44 c8 3e 91 7f be 3e 81 e0 8c bd
       0.38810068 0.39114583 0.372067 -0.06878758
000280 d8 6c 78 3e 67 54 7b be 93 2d ac bd 5c cb 0f bc
       0.2426027 -0.24543916 -0.0840713 -0.008776512
000290 3b 92 c7 3d 5f 31 c2 3e 82 93 79 bd 7c 13 bf be
       0.09744688 0.37928292 -0.06093169 -0.37319553
0002a0 48 1c a8 be dc 54 bc bc 4e b3 d5 be c2 58 7e 3e
       -0.32834077 -0.022989683 -0.4173836 0.24838546
0002b0 75 1f 37 bd 6e e6 aa be 02 46 20 3e 44 7a 97 3e
       -0.044707734 -0.3337893 0.15651706 0.2958547
0002c0 61 a4 2d 3d 1e a6 4f 3c d0 25 8d 3d 56 01 77 3d
       0.042393092 0.012673883 0.06891978 0.06030401
0002d0 ea 82 95 be 63 82 b2 bd 68 40 bc be c9 94 bc 3e
       -0.29201442 -0.087162755 -0.36767888 0.36832264
0002e0 5f b7 bc 3e 19 b6 48 3e a8 ea 2b 3e fc a5 b1 be
       0.3685865 0.19600715 0.16788733 -0.3469695
0002f0 2a f1 4b 3d 07 20 ac be 1d 85 d7 3d b4 40 5c be
       0.04979054 -0.33618185 0.10523436 -0.21509057
000300 90 c0 ba 3c 84 66 f3 3e 60 1f e9 3e 86 4d 38 be
       0.0227969 0.4753915 0.4553175 -0.17998323
000310 40 98 68 bd 68 b3 3b be 52 59 50 be ae ea b2 be
       -0.056785822 -0.18330157 -0.20346573 -0.3494467
000320 7c e9 9a be f8 00 c6 3e 2d ce 96 bd 06 7e b3 be
       -0.3025626 0.38672614 -0.07363544 -0.35057086
000330 33 68 3b 3e 20 0a f0 3d 12 94 5e be 40 c6 85 bb
       0.18301468 0.11720681 -0.21736172 -0.004082471
000340 98 78 82 3d bc 38 de bd 19 b0 80 3e 6d 47 48 3d
       0.06370658 -0.10850665 0.25134352 0.048896242
000350 41 51 62 be 47 db 85 be 4a 10 aa be 5c d7 2c 3e
       -0.22101308 -0.26143858 -0.33215553 0.16879028
000360 70 c1 9e 3e 3c f7 bc be 02 f6 3e be 86 10 95 3c
       0.31006956 -0.36907375 -0.18648532 0.018196356
000370 c9 0c 9e bc 8a 5f ff 3e 1c 6c 5b be f5 78 4d 3e
       -0.019293206 0.49877578 -0.21427959 0.20065673
000380 05 7d d3 3e 4a 86 0d 3f b5 7a ba be 56 fc dc 3e
       0.4130632 0.55283034 -0.36421743 0.43161267
000390 dd 25 83 3e a2 06 35 3e 1c 7b 36 be e5 99 ee 3e
       0.25614825 0.17678311 -0.178204 0.46601787
0003a0 51 6a f7 bd 34 5f d8 be 7c 7d 9c be ac 39 e9 be
       -0.12080825 -0.42260134 -0.30564487 -0.45551813
0003b0 09 b7 47 3c 1e 30 c5 bd 5f 30 d4 3c 55 97 5e be
       0.012189635 -0.09628318 0.025901971 -0.21737416
0003c0 27 c8 ba bd 51 99 8b 3d 1d aa c4 3e a7 4b 19 3d
       -0.09120207 0.06816352 0.38411036 0.037425663
0003d0 13 e8 fd 3d 14 8f 27 3e 73 73 a8 be d6 e1 ae bd
       0.1239778 0.16363174 -0.3290058 -0.085391685
0003e0 92 23 84 be bc 12 af 3d 17 7c 85 3e a4 df 4d 3e
       -0.25808388 0.08548495 0.26071236 0.20104843
0003f0 3d 48 34 3e d5 00 c5 be 49 ad 01 be d2 9d 9e 3e
       0.17605682 -0.38477197 -0.1266376 0.30979782

bias f4 [128]
000000 f7 69 9a 3e 37 23 00 3c 94 e1 9a be 48 41 72 3d
       0.3015897 0.007820896 -0.30250227 0.05914429
000010 d2 e7 b9 3e 86 01 f4 3c 85 91 56 3e ad a5 83 3d
       0.36309677 0.029785883 0.20953949 0.064280845
000020 1d dc 27 be cb 57 5a be cc 9a d4 bd 1d 80 44 be
       -0.1639256 -0.21322553 -0.10381088 -0.19189496
000030 d0 cd 2b 3d bf da a4 bd 2d af c3 bc 2d dd cf 3e
       0.041944325 -0.08049535 -0.023887241 0.4059843
000040 02 0d ba 3c 78 df 75 be fd a3 ad 3e b9 34 18 bd
       0.02271128 -0.24011028 0.33914176 -0.037159655
000050 78 d5 2a 3e 71 9f 65 bd 58 5d 8f 3e e7 8c 69 be
       0.16682994 -0.05606026 0.28000903 -0.22807656
000060 38 89 bf 3e 50 6b c9 be 75 b5 b1 bd 13 55 35 be
       0.37409377 -0.39339685 -0.08677188 -0.17708234
000070 28 9c d2 be 17 67 b7 3e 5a c4 dc 3d 85 13 c3 bc
       -0.41134763 0.3582084 0.107796386 -0.023813019
000080 e6 ec 01 3e ae 56 16 3d 43 3c 29 3e 4b 69 75 be
       0.12688026 0.036703758 0.16526894 -0.23965947
000090 bd f4 a4 3d c7 79 71 3e 39 8c ab be 3a e9 0a be
       0.080544926 0.2358161 -0.3350542 -0.13565531
0000a0 f5 fe e6 bd 54 45 a2 be 1c 28 82 3e 96 e1 1e 3d
       -0.11279098 -0.31693518 0.25421226 0.038789354
0000b0 d8 bf be be c2 33 bb bd 9a 44 ec bd 22 8a b0 3e
       -0.3725574 -0.091407314 -0.11536522 0.34480387
0000c0 db 0d ab 3d 4d d2 cb 3d 6a 4e 9e 3e b6 c5 a9 3e
       0.08352252 0.09952221 0.309192 0.33158654
0000d0 4b 25 b8 3e 43 cd 93 3e 10 4f 37 be d0 f6 c6 3e
       0.35965952 0.2886754 -0.17901254 0.38860178
0000e0 4a 05 97 be 20 90 f2 3e 41 84 df bc 68 27 d6 3c
       -0.29496223 0.47375584 -0.027284743 0.026141837
0000f0 6a 9a 00 3e 02 93 c2 3e ca 45 9b 3d 48 44 f3 3d
       0.12558904 0.38002783 0.075816706 0.11878258
000100 79 c7 d7 3e ed 9e 68 bd f8 9d 4f 3e 98 a0 23 be
       0.42144373 -0.05679219 0.20275104 -0.1597923
000110 1a fa 13 3c 7f c0 06 be 2d 25 9e 3e 7f e4 26 be
       0.009031797 -0.13159369 0.30887738 -0.16298102
000120 75 24 76 be 3c 81 ed 3d 10 13 bb 3d da 46 5c 3e
       -0.24037345 0.11596915 0.09134495 0.21511403
000130 33 4c 8d 3e 91 c2 9c bd af da 92 be 66 4e e4 3e
       0.27597198 -0.07654298 -0.28682467 0.44591063
000140 fa 90 c4 3c e0 33 cf 3e e2 94 2f 3e ff be c2 be
       0.023994911 0.40469265 0.17146638 -0.38036343
000150 ab 4a 26 3e 7e 99 4a be 14 63 70 3e 7c 8c c2 3d
       0.16239421 -0.19785115 0.23475295 0.094994515
000160 a5 10 23 3d 6a e5 73 3e 0e 6a d1 3d 9c 99 d9 be
       0.039810795 0.23817983 0.102253065 -0.42500007
000170 16 8b e0 3d f6 3a 3d be 7f 85 9a 39 07 e2 5e be
       0.109640285 -0.18479523 0.0002947263 -0.2176591
000180 8f d9 e4 bd b0 6a d7 3e 4c 16 92 3e 66 51 a4 be
       -0.111743085 0.42073584 0.28532636 -0.32093352
000190 0f 43 9b bd 12 08 d2 bd f7 9c 04 3e d6 8e f5 bd
       -0.0758115 -0.102554455 0.12950502 -0.119901344
0001a0 69 0b 4e 3e cd d9 70 be 88 8f 90 be f7 aa 67 be
       0.2012154 -0.23520584 -0.28234506 -0.22623812
0001b0 a5 62 81 3e e5 2b 1b be f2 7f eb be 4f a0 87 3e
       0.25270572 -0.15153463 -0.45996052 0.26489493
0001c0 49 7f 1c 3e 36 eb 80 3e 57 8a 05 3d c1 e9 95 3e
       0.1528293 0.25179452 0.032602634 0.29279903
0001d0 e1 bf 4b 3e 08 75 49 be 3a 28 b5 3e 46 06 71 bd
       0.19897415 -0.1967355 0.35382253 -0.058843873
0001e0 8f c0 08 be 9e b8 c8 be db 60 d6 be 2f 25 8a be
       -0.13354705 -0.39203352 -0.4187077 -0.26981494
0001f0 bf 63 bf 3e 42 21 73 3b cf 9c 12 3e 70 92 fa bd
       0.37380788 0.003709868 0.1431763 -0.12234962

weight f4 [128, 128]
000000 58 d9 64 bd a2 43 09 3d 98 31 71 bc d4 d7 ab 3d
       -0.055871338 0.033511765 -0.014721297 0.08390775
000010 f5 8d 33 bc 11 02 b1 3d 77 dc 87 bb 33 75 c2 3d
       -0.010959138 0.08642972 -0.0041461545 0.0949501
000020 bc d4 2e be e4 f4 a4 3d 36 66 94 3d 00 db da 3c
       -0.17073339 0.08054522 0.07246058 0.026715755
000030 46 48 6f 3d 4f bf b9 bc 1e 02 39 3d 45 60 58 bd
       0.058418535 -0.02267423 0.045168035 -0.052826185
000040 22 93 8d 3c 5c 8c 9f bd 25 ca cc 3b 07 87 d5 3d
       0.017282072 -0.07790443 0.0062496834 0.10426145
000050 45 34 8c 3d 7f f7 c6 3d 0b 91 93 3c d3 b9 82 bc
       0.06845907 0.09715175 0.018013498 -0.015957749
000060 2f 9e d4 3d dc 12 91 bd 76 15 e9 3c 03 af 8b 3d
       0.103817336 -0.07083675 0.028452616 0.0682049
000070 28 e7 5d bc cd 0c bf 3d 36 76 a2 bd fa c2 9b 3b
       -0.0135438815 0.093286134 -0.07932703 0.0047534676
000080 dc 5c 79 3d 7f a9 b3 bd 6f be 96 3d 97 c0 78 bb
       0.060879573 -0.08772563 0.07360541 -0.003795659
000090 3a d1 f2 3b 37 a3 06 3d 37 4d e2 3b 3b 7a a7 3d
       0.0074101957 0.032870498 0.0069061774 0.081776105
0000a0 8a d4 06 3b c1 f7 06 bd b9 e1 11 bd 43 a7 1c b9
       0.002057346 -0.03295112 -0.035615657 -0.00014939629
0000b0 e7 a5 7c 3d 94 98 7c 3b 63 e2 b3 ba ff e8 09 be
       0.061681654 0.0038543092 -0.0013724085 -0.13467787
0000c0 a6 05 9c bd 92 c2 15 3b e6 4f 1f 3d 04 13 f7 3c
       -0.07618265 0.0022851569 0.038894556 0.030160435
0000d0 2e 49 e6 3c 33 0d f7 3c 99 38 45 3d e0 f0 7e 3d
       0.028111067 0.030157661 0.04814968 0.062241435
0000e0 c2 dd 15 3d 62 32 30 bd b6 bb 3f bc 44 99 92 3d
       0.036588438 -0.0430168 -0.011702469 0.07158139
0000f0 50 c1 07 bd 08 98 be 3c 21 d4 ee bc f8 73 6a 3d
       -0.03314334 0.023265854 -0.029153885 0.057239503
000100 72 2a 89 bd fa a1 b9 3c 53 71 9e bd 1e 53 97 bd
       -0.06697549 0.022660244 -0.07736459 -0.073889
000110 7e 07 ff 3b ea e2 9a bd 3d c2 0b bb e8 3e a1 bc
       0.0077828756 -0.07562812 -0.0021325492 -0.019683316
000120 da 7b 98 bd c8 bb ba bd e2 b2 82 3d 55 bd 94 3d
       -0.07445498 -0.09117848 0.063817754 0.07262675
000130 10 a5 a6 3b 68 b3 09 be 25 79 44 be 24 39 dd bc
       0.005085595 -0.13447344 -0.19186838 -0.027004786
000140 32 54 41 3c 20 e0 6d bd 43 04 c4 3d 58 ae 54 bc
       0.011799859 -0.05807507 0.09571125 -0.01298102
000150 1f 59 b9 3d 48 3c ec 3d 28 40 a9 bc 32 42 05 bc
       0.090502016 0.11534935 -0.020660475 -0.008133458
000160 3f 17 7d 3d 90 b0 33 3d d0 10 eb 3b cc df ec 3c
       0.061789747 0.043869555 0.007173635 0.028915308
000170 a6 2d 15 bd 06 30 e5 bc 01 ef d1 3d a9 73 93 bd
       -0.036420487 -0.027977 0.102506645 -0.07199795
000180 62 03 fb 3b 1a 49 79 bd e9 6e b8 bd 58 38 34 3c
       0.0076603154 -0.06086073 -0.090055294 0.0109997615
000190 d0 6a 85 3c 71 5a b6 3b 3b 6d 1f bd 45 eb 83 bd
       0.016286284 0.0055649807 -0.03892253 -0.064413585
0001a0 70 b5 2f 3d b1 a0 ad 3d f8 22 84 bd 32 db 71 bd
       0.04289764 0.08477915 -0.06451982 -0.05904693
0001b0 ea e4 76 3d 0f 01 ba 3d 18 d9 be 3c 5d 1c 0f bd
       0.060276903 0.09082233 0.023296878 -0.03493916
0001c0 2e ee c3 bd c1 75 e7 3c 67 82 c8 3d 0a ef 20 3d
       -0.095669135 0.028254392 0.09790497 0.039290465
0001d0 92 33 1b be 71 7e 9c 3d f0 2b 83 3d 39 71 e2 3d
       -0.15156391 0.07641304 0.06404865 0.11056752
0001e0 61 81 59 3c cf 9c 05 bd 40 3d a1 ba e8 3f 1f be
       0.013275475 -0.032620247 -0.0012301579 -0.15551722
0001f0 08 fc d1 3d ea 91 c8 bd 4b 08 44 ba 15 fc 54 bd
       0.10253149 -0.09793456 -0.00074780424 -0.051998217
000200 0b 7d 56 3d 14 2c aa 3d be 36 17 3d 8d 8c 11 3d
       0.052365344 0.083091885 0.03691744 0.03553443
000210 23 29 58 3d 5b 1b 3f 3d 11 78 94 bd db 73 a4 3d
       0.052773606 0.046656948 -0.07249463 0.0802991
000220 cd 25 28 3d a9 5d c7 3d d9 c1 7a 3d 3e 4d f5 bc
       0.041051675 0.09734661 0.061220024 -0.029944059
000230 91 dd ab 3d 75 65 c0 3d 31 e2 8a bc 13 08 84 3d
       0.0839187 0.093943514 -0.01695356 0.064468525
000240 a8 da 35 3d 60 36 af 3b 27 43 96 bd 85 50 a9 bd
       0.04439798 0.005347058 -0.07337027 -0.08267311
000250 68 4b 3d bc 63 b1 1e 3d a8 ec 95 bc a5 61 9c bd
       -0.011553623 0.038743388 -0.018301323 -0.07635812
000260 23 90 2d 3d 67 a3 a8 bd a4 7e d7 3b 49 ac a5 bc
       0.042373788 -0.082342915 0.006576376 -0.020223754
000270 88 3d a6 bc 4a e3 78 bc 25 9c b9 bd e8 ed 96 3c
       -0.020293012 -0.015190909 -0.09062985 0.01842399
000280 5c 5a 98 3d d8 01 86 bc 77 52 80 3d bf 09 70 3c
       0.0743911 -0.016358301 0.06265729 0.014650761
000290 3e ac 8a 3c 30 d8 18 3d 2d c0 41 bd 12 08 3b 3d
       0.016927835 0.037315547 -0.047302414 0.045661993
0002a0 54 93 2a bd 00 98 35 b9 b3 64 64 bd e5 e9 fb bc
       -0.04164441 -0.0001731813 -0.055760097 -0.030751178
0002b0 6e 49 2b 3d 4c 87 74 3d 81 39 23 3e d9 6f 35 bd
       0.041818075 0.05969934 0.15939905 -0.04429612
0002c0 3f c9 a8 3d 05 ee 0f be 64 ef 85 3d ee 92 cb 3c
       0.0824151 -0.14055641 0.06539801 0.024850335
0002d0 11 bb af 3c 55 27 b4 3d ce ee 00 bd 30 47 26 3d
       0.021451505 0.087965645 -0.031477742 0.040595233
0002e0 94 81 3b bd ba ca 82 3d 83 07 12 3d e5 7a 4e bb
       -0.045777872 0.06386323 0.035651695 -0.0031506356
0002f0 3c d5 24 bd ac f4 15 3d c4 aa 3b bd ab d3 4c bd
       -0.04024242 0.03661029 -0.04581715 -0.05000655
000300 69 44 1f 3a f6 f6 dc 3d 9e 98 99 3d e0 b7 b0 bc
       0.00060755626 0.107892916 0.074998125 -0.021572053
000310 15 e1 8c bd 56 98 91 3d b0 cb 9f 3d c3 80 7e bd
       -0.068788685 0.07109134 0.07802522 -0.062134515
000320 ff 73 41 bd bc 9a 09 3d fd 08 ba 3c 5b a8 80 bb
       -0.047229763 0.03359483 0.022709364 -0.0039263195
000330 3f dc 35 3d 54 9a 98 bd 35 a6 ac bc 9b 9f 70 3b
       0.044399496 -0.07451311 -0.021075347 0.0036716226
000340 f3 6b d3 bc a2 7b 63 bd 04 cd 24 bd 9a af 7b 3d
       -0.02580831 -0.055537827 -0.04023458 0.061446764
000350 54 89 e3 bc bf 04 1e 3d df 07 61 3d 38 46 90 3c
       -0.027775444 0.038578745 0.054939147 0.017611608
000360 68 cd 74 bc e9 22 35 3d 55 78 b4 3d 60 20 4c 3c
       -0.014941551 0.044222746 0.08812014 0.012458891
000370 02 c4 d9 3d 8f a2 6c bd 8f f2 07 3e 18 fc 2e bd
       0.10633089 -0.057772215 0.13276123 -0.042720884
000380 8e d4 fe 3d da 3d ec bc 3b 80 ba bd 2e 59 55 3d
       0.12442885 -0.028838087 -0.09106489 0.052087
000390 0c 33 38 3c d4 e3 97 3d 97 fc b8 3d 06 31 a1 bd
       0.011242639 0.07416502 0.09032553 -0.078706786
0003a0 c7 1b 55 bd 0a 6b cc 3d 70 02 87 3d 60 22 1d bb
       -0.052028444 0.099813536 0.06592262 -0.0023976788
0003b0 52 34 02 bd 78 27 84 3d ff 6a a7 bd 21 8b 0d 3c
       -0.031788178 0.064528406 -0.08174705 0.008639128
0003c0 1a 37 26 bd 22 59 e2 bb 8e bc 10 3c e7 c1 ac 3c
       -0.040579893 -0.006907598 0.008834017 0.021088554
0003d0 84 e1 06 be 2a 94 5a 3d c5 13 2e bd fc 37 09 bd
       -0.13171965 0.053363957 -0.042499322 -0.033500656
0003e0 a8 a5 18 3c ec 03 86 bd b0 25 ff 3c 53 04 11 3d
       0.009316839 -0.06543717 0.0311459 0.035404515
0003f0 96 15 a7 bc e0 a6 bf 3d 94 08 72 3d a4 3f 82 bd
       -0.020396035 0.09358001 0.059090212 -0.06359795

bias f4 [128]
000000 f7 1e 09 bd fa 2f 8e bc 93 ae de bc d0 11 ce 3d
       -0.033476796 -0.017356861 -0.027182853 0.10061991
000010 d8 80 fb bb 3b a4 a7 bd 1e 6f fe bc 9f 3c 5b 3d
       -0.0076752715 -0.08185621 -0.031058844 0.05352461
000020 86 49 0a 3d 57 ff 23 3c 87 cd e2 3c ee f2 d3 bc
       0.033761524 0.010009608 0.027685894 -0.025872674
000030 b9 36 80 bd 3a 0e 86 3d 59 3a 70 3d ce f0 a4 3c
       -0.062604375 0.06545682 0.058649395 0.020134356
000040 71 de 6f bd 54 27 5a bd ed 85 96 bd 0e 92 75 bb
       -0.058561746 -0.053260162 -0.07349763 -0.0037471089
000050 01 91 22 bd 17 9c 66 3d 25 8c a3 3d ac 6f ac 3b
       -0.039689068 0.056301203 0.07985715 0.0052623358
000060 73 06 4c bc f2 be 68 3d 88 20 04 3d 60 4e a3 3c
       -0.0124527095 0.056822725 0.032257587 0.019934833
000070 ba 54 8b 3c c2 8c f5 bc 94 ca 90 bc 3b 5e 04 bc
       0.017008174 -0.029974345 -0.017674722 -0.008079107
000080 d9 d5 9c 3c e2 88 b4 bc c1 65 64 bd 7d 66 4a bd
       0.01914494 -0.022037927 -0.055761103 -0.049414147
000090 ee 41 a5 3c a8 fb 2f 3d 40 dc d7 bc a9 f4 f0 bc
       0.02017304 0.042964607 -0.02635014 -0.029413538
0000a0 71 6c 4f 3d dd 5f 62 bd 6e fb 69 3d 45 c6 aa bd
       0.050640527 -0.055267204 0.057124548 -0.08338598
0000b0 5f 88 99 bd 8c 1c 98 3c 7f 82 4c bd 8c 77 38 bd
       -0.07496714 0.0185683 -0.04992914 -0.045035884
0000c0 50 e2 c5 bb 46 ad 5c 3d 20 de 91 3d 6e 43 1d 3b
       -0.0060389414 0.053876184 0.07122445 0.002399649
0000d0 69 6b fd 3c 46 74 82 3d 7b 5d dd bc e1 39 29 3d
       0.030935006 0.06369834 -0.027022114 0.041314963
0000e0 bc eb c2 3c b2 a5 8d bc 86 e3 b5 3c 43 61 38 3d
       0.023794048 -0.017290924 0.022203218 0.04501463
0000f0 29 9b 19 bd a8 6d b2 bc 28 0f 8c bd 36 ee 46 bc
       -0.037501488 -0.021780804 -0.06838828 -0.012141755
000100 69 89 32 3b 80 04 36 bd 80 74 ab bd 9a f7 06 bd
       0.0027242547 -0.044437885 -0.0837183 -0.032950975
000110 bb 34 5b bd 10 dd c5 3d a5 3a b5 3d 97 1c 90 bd
       -0.053517085 0.09661305 0.08849076 -0.07036703
000120 46 f3 d5 3c c7 8b 0a 3d 41 b4 23 3c ed 6c 31 3d
       0.026116978 0.03382471 0.009991706 0.04331677
000130 e6 e5 51 ba 38 3a 3e bd 9a 1e 7b bd 87 cf 49 3d
       -0.0008006975 -0.04644224 -0.06130848 0.04927018
000140 b6 12 02 3d 1e 5a 90 bd e6 0b 91 bc 90 b1 18 bd
       0.031756125 -0.070484385 -0.017705869 -0.03727871
000150 ca 2a 1a bd 52 1e 29 bd 43 e5 0b bd 59 9c 15 3d
       -0.037638463 -0.04128868 -0.034154188 0.036526058
000160 bf 84 8a 3d 8b a9 37 3d 30 b6 cf bc 00 27 d7 3a
       0.067636006 0.044839423 -0.025355428 0.0016414821
000170 00 03 92 3d b4 74 19 bb 95 e0 5b 3d 1b c3 9e 3d
       0.071294785 -0.0023415508 0.053680975 0.07752057
000180 5c 0c 9b bc 45 c4 9e 3d 0c 45 8d bd 19 1e 01 bd
       -0.018926792 0.07752279 -0.06897935 -0.031522844
000190 bc 56 35 3d 38 ed 3e 3d a8 40 17 bd 82 40 10 bd
       0.04427217 0.04661295 -0.036926895 -0.03521777
0001a0 30 61 3b 3d b8 fd 20 3d 7e 42 88 3a 8b f4 62 bd
       0.045746982 0.039304465 0.0010395793 -0.055408996
0001b0 f1 86 80 bd 50 ac eb 3b 7e 2c 63 3d ed 34 bb bb
       -0.06275738 0.007192172 0.055462353 -0.0057130964
0001c0 89 99 27 bd 95 d2 3c bd 08 e9 a2 bc 77 c7 d0 3d
       -0.040917907 -0.046099264 -0.019886509 0.10194295
0001d0 31 dd 06 bd 9f ee 43 3d e9 97 34 3c 19 93 55 bd
       -0.03292579 0.04783499 0.011022546 -0.052142236
0001e0 1c 04 39 3d fd 00 49 bd c9 fd 8b bd c1 8b c8 bc
       0.045169935 -0.049073208 -0.06835515 -0.024480702
0001f0 d2 67 80 bd 6a 91 a3 bd 0f d2 d0 3c 5b ab 96 3d
       -0.06269802 -0.0798672 0.025490789 0.07356902
