models/mountaincar_2D/checkpoint_cl.11.pth.tar (torch_old, 143897 bytes, 12 tensors)

weight f4 [128, 5]
0	0x3e349a01	0.17636873
1	0x3d93ee00	0.07223129
2	0xbddbf4a4	-0.10740021
3	0x3e76fff2	0.24121073
4	0xbec4edd1	-0.3846269
5	0xbe7fb8f8	-0.24972904
6	0x3e02eb44	0.12785059
7	0xbdb2a324	-0.08722523
8	0xbe818fb4	-0.2530495
9	0xbe89f834	-0.26947176
10	0xbfb421c0	-1.40728
11	0xbe826c1e	-0.25473112
12	0xbd994d0a	-0.07485397
13	0xbd978168	-0.07397729
14	0xbe68de5b	-0.22741072
15	0xbc728b36	-0.014803698
16	0xbdf04076	-0.11731045
17	0xbd5b7449	-0.053577695
18	0x3e2a0d1b	0.16606562
19	0x3e977899	0.29584196
20	0x3daa4e9a	0.08315773
21	0xbe9bdf0d	-0.30443612
22	0x3eb3fdeb	0.35154662
23	0x3ccd94c0	0.025095344
24	0x3ebaf324	0.36513627
25	0x3ed970b8	0.4246881
26	0x3e6f2848	0.2335521
27	0x3e4228ab	0.18960826
28	0xbe1ca6ef	-0.15298055
29	0xbe899afd	-0.2687606
30	0x3e1db8a8	0.15402472
31	0xbeb7150d	-0.35758248
32	0xbe3af784	-0.18258482
33	0x3e8eb4dc	0.2787236
34	0x3e8532a4	0.26015198
35	0xbec51721	-0.38494208
36	0xbdd812db	-0.105504714
37	0x3ebc3171	0.3675647
38	0xbea8d903	-0.32978067
39	0x3e899af8	0.26876044
40	0xbed3785b	-0.4130276
41	0x3d44a5ee	0.048009805
42	0xbe92134a	-0.2853034
43	0xbe0b52ba	-0.13605776
44	0x3e9e6b4b	0.30941233
45	0x3db6be49	0.08923013
46	0xbe0959b1	-0.13413121
47	0xbd8946b8	-0.06702942
48	0xbe996a91	-0.29964116
49	0xbe6a7a7e	-0.2289829
50	0xbee56f8c	-0.44811666
51	0x3e5d30dc	0.2160067
52	0xbe847979	-0.25873926
53	0x3eb28fc4	0.3487531
54	0x3e66a7af	0.22524904
55	0x3f0cd0b9	0.55005985
56	0x3e6fcecd	0.23418732
57	0x3e36d188	0.17853367
58	0x3ec2456f	0.379436
59	0xbe3d6f65	-0.18499525
60	0x3de4ec27	0.11177855
61	0xbe124fe2	-0.14288285
62	0x3e9a61c9	0.3015273
63	0x3e46cb90	0.1941359
64	0x3e4e2fe7	0.20135461
65	0xbdb00389	-0.08594424
66	0x3ea0f9c6	0.31440562
67	0xbecdc644	-0.40190327
68	0x3d1783f0	0.03699106
69	0x3dc279cf	0.094958894
70	0xbedbe308	-0.4294665
71	0xbe497054	-0.19671756
72	0x3eb075fd	0.34465018
73	0x3e5563a4	0.20838791
74	0xbed307fb	-0.41217026
75	0xbea307c0	-0.3184185
76	0x3e782947	0.24234496
77	0x3eb288a0	0.34869862
78	0xbe5e51c9	-0.21710886
79	0xbe453a06	-0.19260415
80	0x3e823f0a	0.2543872
81	0x3ecd8227	0.4013836
82	0xbef75812	-0.4830938
83	0xbe975164	-0.29554284
84	0x3ea1e0e0	0.31616879
85	0xbeba4f1d	-0.36388484
86	0xbe1ea9af	-0.15494417
87	0x3ecf8d1b	0.40537342
88	0x3ecf75ba	0.40519506
89	0x3d3760d0	0.044770062
90	0xbcb4d010	-0.022071868
91	0xbecca294	-0.39967787
92	0x3cc6ff50	0.024291664
93	0xbe91ca28	-0.28474545
94	0xbc813af0	-0.015775174
95	0xbebf178f	-0.3732266
96	0x3e25e3c2	0.16200164
97	0x3dc3badc	0.09557125
98	0x3e111449	0.14167894
99	0xbecaec90	-0.39633608
100	0x3e3543ce	0.17701647
101	0x3d082425	0.033237595
102	0xbea2e96a	-0.31818706
103	0x3e13d1d8	0.14435518
104	0xbeba1c1c	-0.3634957
105	0x3ecf8498	0.40530849
106	0x3e17b40d	0.14814778
107	0x3d93e0ee	0.07220636
108	0x3e81ecbd	0.2537593
109	0xbea95772	-0.33074528
110	0x3e0c2e6c	0.13689584
111	0x3ee22f96	0.4417693
112	0x3d618bc5	0.055064935
113	0xbd93a56a	-0.072092846
114	0x3eafd0ea	0.34339076
115	0xbe097b75	-0.13426001
116	0x3da77301	0.08176232
117	0x3e76b860	0.24093771
118	0xbdebaa33	-0.11507072
119	0x3e2c5846	0.16830549
120	0xbe6f274e	-0.23354837
121	0x3eb49a59	0.35274008
122	0x3e910f11	0.28331807
123	0x3ed216ef	0.41033122
124	0xbe6327db	-0.22183172
125	0xbe8ba96e	-0.27277702
126	0xbed06640	-0.4070301
127	0x3ea5f8f7	0.32416508
128	0x3e3a00dc	0.1816439
129	0xbe7caa79	-0.24674405
130	0xbec61cdd	-0.38693896
131	0x3ebbce73	0.36680946
132	0x3e3c1ef9	0.1837119
133	0x3e463089	0.19354452
134	0x3c746500	0.014916658
135	0xbe11f34d	-0.14252968
136	0x3ebb1f0f	0.36547133
137	0x3ecd6c31	0.40121606
138	0x3ed93b3e	0.4242801
139	0x3d57104c	0.052505776
140	0x3ed4359b	0.41447148
141	0xba937230	-0.001124924
142	0xbec0d0b8	-0.3765924
143	0x3eb13bf0	0.3461604
144	0x3e812ee7	0.25231096
145	0x3eaf2d29	0.34214142
146	0xbee1b3fa	-0.44082624
147	0x3eab8a20	0.3350382
148	0xbc633d02	-0.013869526
149	0x3d48840d	0.04895406
150	0x3ed59740	0.41716957
151	0x3e778ac7	0.24174033
152	0xbeda0e8c	-0.42589223
153	0xbd3182f0	-0.043337762
154	0x3ebf0078	0.37305045
155	0x3dfc4e94	0.12319675
156	0x3e2adafc	0.16685098
157	0x3d8bef8e	0.06832801
158	0x3e8de127	0.2771084
159	0xbe3c7dbc	-0.18407339
160	0x3e90b8eb	0.2826608
161	0x3ea7c1b8	0.32764983
162	0x3e54d45c	0.20784134
163	0x3e0336c0	0.12813854
164	0x3ebc4e43	0.3677846
165	0xbee00b2f	-0.43758532
166	0xbeb9e4f1	-0.3630748
167	0x3e3663dc	0.17811531
168	0xbe180170	-0.14844298
169	0x3eacc092	0.3374067
170	0xbec9a5da	-0.39384347
171	0xbea9d7fa	-0.3317259
172	0x3d93dc10	0.07219708
173	0x3d05b778	0.032645673
174	0xbdce3fb8	-0.10070747
175	0x3e3a6c8b	0.18205468
176	0xbe25c07a	-0.16186705
177	0x3eb21aa6	0.34785956
178	0xbdff744f	-0.12473356
179	0x3ecde4dd	0.4021367
180	0xbe1054d4	-0.1409486
181	0x3e398d90	0.18120408
182	0xbe4faa2e	-0.20279762
183	0xbe9a5260	-0.30140972
184	0x3bce5540	0.0062967837
185	0x3ed1ed2d	0.41001263
186	0x3d759744	0.05995871
187	0xbe8c67ec	-0.27423036
188	0xbcc7021b	-0.024292996
189	0xbeb077e7	-0.34466478
190	0x3e880d86	0.26572818
191	0xbe965d3f	-0.29368016
192	0xbd39b2a0	-0.045336366
193	0xbe8cfb14	-0.27535307
194	0xbe1460f0	-0.14490104
195	0xbeb76145	-0.35816398
196	0xbec65392	-0.38735634
197	0xbe16205b	-0.1466078
198	0x3ea8cfea	0.32971126
199	0xbed2bb3c	-0.41158473
200	0x3b2090f7	0.0024500468
201	0xbd85a694	-0.06525913
202	0xbe424eb4	-0.18975335
203	0xbd136606	-0.03598597
204	0x3e87b1fb	0.26502976
205	0x3ececcee	0.40390724
206	0xbe62d1d3	-0.22150354
207	0xbe9377c0	-0.288023
208	0xbdd696d8	-0.1047799
209	0x3ce0adf8	0.027426705
210	0xbe06d9e6	-0.13169059
211	0x3e7f2e30	0.24919963
212	0xbe30c07f	-0.17260931
213	0xbea8b067	-0.32947084
214	0x3e89999b	0.26875004
215	0xbdf6a7aa	-0.12043698
216	0x3e4e7240	0.2016077
217	0xbe7f270d	-0.2491724
218	0x3ebae454	0.36502326
219	0xbe0c7ec6	-0.13720235
220	0xbe15c1f7	-0.14624773
221	0x3ea34f0d	0.31896248
222	0xbd2b125a	-0.04176555
223	0xbb234fb9	-0.0024919345
224	0xbdc4656f	-0.095896594
225	0x3ebf45f0	0.37358046
226	0x3c3ca4da	0.011513913
227	0xbe9aafd5	-0.30212274
228	0xbea29e94	-0.3176161
229	0x3e05869f	0.13039635
230	0x3ecd3727	0.4008114
231	0xbea8c203	-0.3296052
232	0xbec93140	-0.39295387
233	0x3ed3a3a1	0.41335776
234	0xbe4e46cf	-0.20144199
235	0xbed55083	-0.41662988
236	0x3e5e4a0e	0.21707937
237	0x3dc56152	0.09637703
238	0xbdb68943	-0.08912899
239	0xbd53a12c	-0.051667377
240	0xbebb399a	-0.36567384
241	0x3e343bea	0.1760098
242	0x3eaec739	0.3413637
243	0xbe9b5438	-0.3033769
244	0x3ec9d719	0.3942192
245	0x3ea13ab8	0.3149011
246	0x3e9b53c8	0.30337358
247	0x3e6d5c9c	0.23179859
248	0x3e8e0eea	0.27745754
249	0x3e8df13a	0.27723104
250	0x3e84e2d8	0.25954318
251	0x3da335c2	0.07969238
252	0x3d4ea730	0.05045241
253	0x3e7ce28d	0.24695797
254	0xbe94e322	-0.2907954
255	0xbdde844f	-0.108650796

bias f4 [128]
0	0xbed0d297	-0.40785667
1	0xbe5ddf17	-0.21667133
2	0x3e4d2677	0.20034204
3	0x3e01a1a4	0.12659317
4	0xbe01a20f	-0.12659477
5	0xbdf2975a	-0.11845274
6	0x3e189da8	0.14903891
7	0x3e22ce88	0.15899098
8	0x3d7f3902	0.062310226
9	0x3e8efab4	0.27925646
10	0x3ea617f8	0.32440162
11	0xbee9a33d	-0.45632353
12	0xbdd60813	-0.10450759
13	0xbeb98d07	-0.36240408
14	0x3ebf954e	0.37418598
15	0xbe3eea87	-0.18644153
16	0x3e9e9990	0.30976534
17	0x3eee6551	0.46561673
18	0xbeba0815	-0.3633429
19	0x3dfe84bb	0.1242766
20	0xbe80a252	-0.2512384
21	0xbed5c4b4	-0.41751635
22	0xbe8c51d1	-0.2740617
23	0x3e4ccc20	0.19999743
24	0xbebdb24e	-0.37050098
25	0xbe97abdd	-0.2962331
26	0xbccf7f67	-0.025329305
27	0x3c8c0d71	0.017096253
28	0xbdbf9d57	-0.09356182
29	0x3ea6e4fb	0.32596573
30	0x3e1b1b62	0.15147164
31	0x3dfd9180	0.123812675
32	0xbd97f2d3	-0.07419362
33	0xbea26aec	-0.317222
34	0xbe250526	-0.16115245
35	0x3e4a6cc7	0.19768058
36	0xbea1537c	-0.31509006
37	0x3e7951f5	0.2434767
38	0xbeb1d8f7	-0.34735844
39	0x3e9da716	0.3079154
40	0xbdd83e8b	-0.10558804
41	0xbe46cf30	-0.19414973
42	0x3ed587cb	0.41705164
43	0xbeb9bbbe	-0.36276048
44	0x3dba0767	0.09083443
45	0x3ec0b675	0.37639204
46	0x3ecad819	0.39617994
47	0x3ebd0705	0.36919418
48	0xbe0d7762	-0.13815072
49	0xbebcfad0	-0.36910105
50	0xbeeade2c	-0.4587263
51	0xbe44898a	-0.19193092
52	0x3e8e399b	0.27778324
53	0x3e703cb4	0.23460656
54	0x3ed80f22	0.42199045
55	0x3a286bd6	0.000642476
56	0xbec41efe	-0.38304895
57	0xbe9405b2	-0.28910595
58	0xbe06bbac	-0.13157529
59	0xbed5e3dc	-0.41775405
60	0x3e412bec	0.18864411
61	0xbb939e8b	-0.004504984
62	0x3e17ebc2	0.14836028
63	0xbe12aec6	-0.14324483
64	0x3e1cf136	0.1532639
65	0xbe743279	-0.23847379
66	0x3da754e9	0.08170492
67	0xbe3a7126	-0.18207225
68	0xbe4aa625	-0.19789942
69	0xbeb56bfe	-0.35433954
70	0x3e47ede9	0.1952435
71	0xbb38ea90	-0.0028215982
72	0x3e111fcf	0.1417229
73	0x3c1161cc	0.008873414
74	0x3dde4880	0.10853672
75	0x3d38daba	0.04513047
76	0xbed0d2cf	-0.40785834
77	0x3ef0ed5a	0.47056085
78	0xbe812c96	-0.2522933
79	0xbe23b1d1	-0.159858
80	0xbe353d26	-0.17699108
81	0xbe96a22e	-0.29420608
82	0xbd742fb0	-0.05961579
83	0xbe7262a3	-0.2367044
84	0x3e34c21b	0.1765217
85	0xbe621f06	-0.22082147
86	0x3ed34ae4	0.41268075
87	0x3e828d24	0.25498307
88	0xbe11d225	-0.1424032
89	0xbd81aeac	-0.06332144
90	0x3e665e06	0.22496805
91	0xbdac6390	-0.084174275
92	0x3e65d854	0.22445804
93	0x3e507866	0.20358428
94	0xbef0f06e	-0.47058433
95	0x3ed643a9	0.41848496
96	0xbe26bfd8	-0.1628412
97	0x3e98ca21	0.29841712
98	0x3ed74bb0	0.42049932
99	0x3e1f5615	0.15560181
100	0x3ecc420a	0.39894134
101	0x3ed13aa1	0.40865043
102	0xbddcbb17	-0.10777872
103	0xbe9d86ca	-0.30766898
104	0xbe63cc34	-0.22245866
105	0xbde69da2	-0.11260535
106	0xbd9a69d1	-0.07539714
107	0xbec511e6	-0.38490218
108	0xbeb06ceb	-0.34458098
109	0xbdc172ca	-0.094457224
110	0x3e123a69	0.14280094
111	0xbdfeda21	-0.124439485
112	0xbe496e98	-0.19671094
113	0xbe238057	-0.15966927
114	0x3e64d275	0.22345908
115	0xbe83135d	-0.2560071
116	0xbe847b1b	-0.25875172
117	0xbe1cc86a	-0.15310827
118	0xbebc8ab2	-0.36824566
119	0x3ecc9801	0.3995972
120	0xbeafe7a6	-0.3435642
121	0x3ec20c95	0.37900224
122	0xbe436215	-0.19080384
123	0xbe3fb8b7	-0.18722807
124	0x3eb10a4f	0.34578177
125	0x3ee11450	0.4396081
126	0xbddca897	-0.107743435
127	0xbe975a29	-0.29560974

weight f4 [128, 128]
0	0xbdcf7b8b	-0.10130986
1	0xbc8e702c	-0.017387472
2	0xbf936eae	-1.1518152
3	0xbcc10325	-0.02356107
4	0x3cd16108	0.025558963
5	0xbbeff12b	-0.0073224506
6	0x3dd79de5	0.10528163
7	0x3d2d3fa2	0.042297013
8	0x3c6e01f1	0.01452683
9	0x3d818d20	0.063257456
10	0x3d5ea17b	0.05435322
11	0xbe00df58	-0.12585199
12	0xbd520c8c	-0.051281497
13	0xbd24af17	-0.04020604
14	0xbc6b9ba6	-0.014380371
15	0xbc795bab	-0.015219609
16	0x3d0e69d0	0.03476888
17	0xbc750b1f	-0.014956265
18	0xbd835761	-0.064131506
19	0xbdc173c7	-0.09445911
20	0x3c2833cc	0.010266256
21	0x3b9fa222	0.0048716227
22	0xbda3d1e0	-0.07999015
23	0x3da2426c	0.07922825
24	0xbd0ca89a	-0.03434048
25	0x3d999beb	0.07500442
26	0xbdb2121d	-0.08694861
27	0x3d9e5451	0.07730926
28	0x3cc75591	0.024332793
29	0x3c86ad83	0.016440159
30	0x3d65de2c	0.056120083
31	0x3db53da2	0.08849646
32	0x3c1ea79a	0.009683514
33	0x3c366498	0.011132382
34	0x3d7a7dfe	0.06115531
35	0x3d99fa28	0.07518417
36	0xbd913611	-0.070903905
37	0x3dcde2c9	0.100530215
38	0xbd68561f	-0.056722756
39	0xbc7fc051	-0.015609817
40	0x3d593ec4	0.053038374
41	0xbb370950	-0.0027929135
42	0x3d8e12ab	0.069371544
43	0xbd1ba895	-0.03800257
44	0x39bfd57f	0.00036589426
45	0xbc410cbd	-0.011782822
46	0x3d48d43a	0.04903052
47	0x3d22a92a	0.03971211
48	0x3d4ef0be	0.05052256
49	0x3d502888	0.050819904
50	0xbdba63d5	-0.09101073
51	0x3d5dd426	0.0541574
52	0x3dc523ed	0.09625993
53	0x3ce42358	0.027848884
54	0x3d887014	0.06662002
55	0x3bc042e8	0.005867351
56	0x3d017032	0.03160114
57	0xbce805b2	-0.028323028
58	0x3d1feb4c	0.039042756
59	0x3d4fddd6	0.05074867
60	0x3d8c5e7a	0.068539575
61	0x3dcbb723	0.0994704
62	0x3d9bfe5e	0.07616876
63	0x3cf7f22e	0.030266847
64	0xbdc8b1fd	-0.097995736
65	0x3c36ab56	0.011149248
66	0xbd1f39a4	-0.03887333
67	0x3d66ec3e	0.05637764
68	0xbd6875f6	-0.05675312
69	0x391fee00	0.00015252084
70	0x3d12d849	0.035850797
71	0x3d800417	0.0625078
72	0x3dbd46b1	0.09241999
73	0xbc406f83	-0.011745336
74	0x3d82ae8e	0.0638095
75	0x3c53f583	0.0129369525
76	0x3d2ec3d6	0.042667232
77	0xbe410594	-0.18849784
78	0xbd3f0891	-0.04663903
79	0xbd22b3ff	-0.03972244
80	0xbc78f041	-0.015194
81	0xbc8e0060	-0.017334163
82	0x3cc93c3c	0.024564855
83	0x3db86cff	0.09005164
84	0xbd96dcdb	-0.073663436
85	0x3c73334b	0.014843772
86	0xbd027436	-0.03184911
87	0xbd9039cc	-0.07042274
88	0x3a76766a	0.00094018003
89	0x3d1bab02	0.038004883
90	0x3cb542cd	0.02212658
91	0xbd49be41	-0.049253706
92	0x3d8b6380	0.068060875
93	0x3d005622	0.031332143
94	0xbe2d4461	-0.16920616
95	0x3d24eb2f	0.04026335
96	0x3d45239c	0.048129663
97	0xbcf89328	-0.030343607
98	0x3cba04ab	0.022707304
99	0x3affe0d2	0.0019521958
100	0xbd11ce36	-0.03559705
101	0x3da535a6	0.08066873
102	0x3d73d0c0	0.05952525
103	0xbd979c8e	-0.07402907
104	0x3d01c0c8	0.03167799
105	0x3cf23ef5	0.029571036
106	0xbd71fc12	-0.059078284
107	0x3d04f94e	0.032464318
108	0x3d967215	0.07345978
109	0x3db653a3	0.08902671
110	0xbd739a54	-0.05947335
111	0xbd2c0d68	-0.042004973
112	0xbd3779f2	-0.04479403
113	0xbd85ee72	-0.065396205
114	0xbcb9311c	-0.022606425
115	0xbe1db89e	-0.15402457
116	0x3c1cb401	0.009564401
117	0x3de03111	0.10946859
118	0x3ce96134	0.028488733
119	0xbda15067	-0.07876664
120	0x3dbc0678	0.09180921
121	0xbd32b01b	-0.04362498
122	0x3db25a69	0.087086506
123	0xbc8792ca	-0.016549487
124	0x3cdc8bb7	0.02692209
125	0x3da4f8a6	0.080552384
126	0xbeb5eb98	-0.35531306
127	0x3c460880	0.0120869875
128	0x3a9ce772	0.0011970832
129	0x3c021b80	0.007941127
130	0x3dab6705	0.08369259
131	0x3cd72c58	0.026266262
132	0x3cc88ded	0.024481738
133	0xbda29bfb	-0.07939907
134	0xbd311344	-0.043231264
135	0x3d4d13f8	0.05006787
136	0x3d5cc542	0.053899057
137	0xbda7d248	-0.08194405
138	0xbd560f01	-0.052260403
139	0xbdae65d3	-0.08515515
140	0x3b075bff	0.00206542
141	0x3d0127ba	0.031532027
142	0xbd6a32bb	-0.057177287
143	0xbda1492c	-0.078752846
144	0x3d072e18	0.033002943
145	0xbd0431b9	-0.03227398
146	0xbca121cc	-0.019669436
147	0x3c84493c	0.016148202
148	0x3d1c4edf	0.038161155
149	0xbd42ae82	-0.047529705
150	0x3d351f84	0.04421951
151	0x3cd28d91	0.02570227
152	0xbd127d95	-0.035764296
153	0xbca6e324	-0.020371981
154	0xbd418d02	-0.047253616
155	0xbdbeb666	-0.093121335
156	0x3cd6e0a0	0.026230156
157	0xbd53a989	-0.051675353
158	0x3d8fa410	0.07013714
159	0x3c436a54	0.011927206
160	0x3d52d28b	0.05147032
161	0x3cb3e1dc	0.021958284
162	0xbda63da0	-0.08117223
163	0xbd6f5fcb	-0.058440965
164	0x3d994b3d	0.07485054
165	0xbd7da608	-0.061925918
166	0x3c6b0340	0.014344037
167	0xbd42ec91	-0.04758889
168	0x3d6c6560	0.057713866
169	0x3da9f19d	0.08298037
170	0x3c714178	0.014725082
171	0x3d36bb52	0.044612236
172	0x3d3b4923	0.045724045
173	0xbd3e097e	-0.04639577
174	0xbca1d1c4	-0.019753344
175	0xbda6f89a	-0.08152886
176	0xbd91e173	-0.07123079
177	0xbdb93192	-0.09042658
178	0xbd848988	-0.064715445
179	0xbd2bdc15	-0.041957933
180	0x3d356b19	0.04429159
181	0x3cb74c04	0.022375114
182	0x3d8e952f	0.06962048
183	0xbd0663cc	-0.032810017
184	0x3c802550	0.015642792
185	0x3d8d0531	0.06885756
186	0xbc803415	-0.015649835
187	0xbcc046f8	-0.02347134
188	0xbd1f258c	-0.038854167
189	0x3d8c97da	0.06864901
190	0x3d0026c6	0.031286977
191	0x3dae8580	0.08521557
192	0x3d2bb7c9	0.041923318
193	0xbd408ce1	-0.047009353
194	0xbcfc0461	-0.030763807
195	0xbd68c04c	-0.056824014
196	0xbd8a32af	-0.067479484
197	0xbc5d0a08	-0.013491161
198	0x3c455ed6	0.012046536
199	0x3da373af	0.07981049
200	0xbc98d48b	-0.018656036
201	0x3d8b845f	0.06812357
202	0xbd4dc7c1	-0.05023933
203	0x3c98766b	0.018611154
204	0xbd959ce1	-0.07305313
205	0xbc3bb362	-0.011456342
206	0xbd60ffe1	-0.054931525
207	0x3d2eec30	0.042705715
208	0x3c930f00	0.017951488
209	0x3c2e0750	0.010621861
210	0x3d08b6c8	0.03337744
211	0x3cc97c2c	0.024595343
212	0xbcf7c33e	-0.030244466
213	0x3c22e720	0.0099428
214	0x3c476364	0.012169693
215	0xbcf633f6	-0.030054074
216	0xbb7eeee2	-0.003889971
217	0x3c2eecd8	0.010676585
218	0xbd7c6621	-0.061620835
219	0xbbd18ae5	-0.0063947313
220	0x3d75652b	0.059910934
221	0xbda0ee6d	-0.07857976
222	0x3d1f3ed6	0.038878284
223	0xbcc36178	-0.023850188
224	0x3d3c3915	0.045952875
225	0xbc9b0759	-0.018924402
226	0x3d414466	0.04718437
227	0xbd83fc5d	-0.06444619
228	0x3d1e9297	0.038714018
229	0x3d19ac98	0.037518114
230	0xbd93315d	-0.0718715
231	0x3d0b5462	0.03401602
232	0xbd00b171	-0.03141922
233	0x3cf6859b	0.030093005
234	0x3d5a27c0	0.053260565
235	0x3d0153e8	0.03157416
236	0x3d434e86	0.047682308
237	0xbd5d7bd8	-0.054073185
238	0x3bf7fefe	0.0075682392
239	0xbb846807	-0.0040407213
240	0x3c88aa6f	0.016682832
241	0xbd49f091	-0.049301688
242	0x3d9780b7	0.07397597
243	0x3cce65bf	0.025195
244	0xbc5ea819	-0.013589882
245	0x3d8477ff	0.064682
246	0x3cae6857	0.021289987
247	0x3cf204b3	0.029543256
248	0xbd94877f	-0.07252406
249	0xbc860fd4	-0.01636497
250	0xbda5548d	-0.080727674
251	0x3d398f5b	0.04530273
252	0xbcf5725a	-0.029961754
253	0xb9d11a9e	-0.00039883418
254	0xbb943920	-0.0045234114
255	0x3bdcf620	0.0067432076

bias f4 [128]
0	0x3d04b6bc	0.03240083
1	0xbdad1ef9	-0.08453173
2	0xbc943cbb	-0.018095365
3	0xbd50fb31	-0.051020805
4	0x3d4a39a0	0.04937136
5	0x3d88f717	0.06687754
6	0x3d8d39ff	0.068958275
7	0xba86c671	-0.0010282529
8	0xbd65bf4c	-0.056090638
9	0x3d8fb386	0.07016663
10	0xbce65ae7	-0.028119517
11	0xbae503e7	-0.0017472476
12	0x3d891956	0.066942856
13	0x3d3c5f00	0.045989037
14	0x3d97b38b	0.07407292
15	0xbd8a8be9	-0.06764967
16	0x3d082b4c	0.033244416
17	0xbd2d97c1	-0.042381052
18	0x3d065023	0.032791268
19	0x3db03dac	0.08605513
20	0x3dd9725c	0.106175154
21	0x3d36a642	0.04459215
22	0xbca624bc	-0.020281188
23	0x3c5e02b1	0.013550446
24	0x3d0cc713	0.03436954
25	0xbd3074ec	-0.043080255
26	0x3d915582	0.070963874
27	0x3cc0d3ec	0.023538552
28	0x3da35f8f	0.07977211
29	0x3cca388c	0.024685167
30	0xbd84c307	-0.06482511
31	0x3dc2121a	0.09476109
32	0x3d3eb99f	0.04656374
33	0xbcb8962c	-0.022532545
34	0x3de8961e	0.113567576
35	0xbb006881	-0.001959354
36	0x3d5917e9	0.053001318
37	0xbd2f9e28	-0.04287544
38	0xbd20ae59	-0.03922877
39	0x3d78c4be	0.060734503
40	0xbcc4654d	-0.023974085
41	0xbca9fb56	-0.02074973
42	0x3dba67d3	0.09101834
43	0xbcf25a6e	-0.029584136
44	0xba6af8bb	-0.00089634553
45	0x3d6a0a1a	0.05713854
46	0x3d8958a2	0.067063585
47	0x3cf3156e	0.029673304
48	0x3da9298d	0.08259878
49	0x3ddec3c8	0.10877186
50	0xbdac4627	-0.08411818
51	0xbd5e66d8	-0.0542973
52	0xbd80ce58	-0.06289357
53	0x3d99ef9d	0.07516406
54	0xbd63203f	-0.055450674
55	0xbd0a8fe4	-0.03382863
56	0xbc9ba669	-0.019000249
57	0xbdb372f3	-0.08762159
58	0xbd9a75a5	-0.0754197
59	0x3c901f27	0.01759298
60	0xbd7ed45d	-0.062214244
61	0x3d7ad1bc	0.061235175
62	0x3cc9aa38	0.0246173
63	0xbc2819af	-0.01026003
64	0x3ccfac89	0.025350826
65	0xbbe06e0e	-0.006849057
66	0x3d9b3591	0.07578576
67	0x3da0b499	0.07846946
68	0x3d189160	0.037248015
69	0xbd4c0b1d	-0.049815286
70	0xbdab6dde	-0.08370565
71	0x3c8285da	0.015932966
72	0xbc8f1e8c	-0.01747062
73	0x3dbbb788	0.09165865
74	0x3d85de4e	0.06536542
75	0xbd242347	-0.040072706
76	0x3dd8bb07	0.10582548
77	0xbd80fe5a	-0.06298514
78	0x3caac201	0.020844461
79	0x3db28b73	0.08718004
80	0xbdb4a130	-0.088198066
81	0xbd42fddf	-0.04760539
82	0x3d693550	0.05693561
83	0x3c61d091	0.013782636
84	0x3d84436d	0.06458173
85	0xbcb7135a	-0.022348095
86	0xbd8d15b4	-0.06888905
87	0xbce80312	-0.028321777
88	0x3d5fcf94	0.05464132
89	0x3d7db153	0.061936688
90	0xbc3c3475	-0.011487116
91	0x3a182429	0.0005803728
92	0xbd6b7022	-0.057479985
93	0x3d87a914	0.06624046
94	0x3d0fa92d	0.035073448
95	0x3da6e121	0.08148409
96	0xbd8d6b4e	-0.06905232
97	0xbd696f4b	-0.056990903
98	0xbdd09035	-0.10183755
99	0xbd384c3b	-0.044994574
100	0xbc6b5d2a	-0.014365474
101	0xbd85848d	-0.06519423
102	0xbde871dc	-0.11349842
103	0x3c390b1b	0.011294152
104	0xbca04995	-0.019566337
105	0xbd8fb38a	-0.07016666
106	0xbc8a5700	-0.016887188
107	0xbd114101	-0.035462383
108	0xbd8cc6bf	-0.06873845
109	0x3d1c334c	0.038134858
110	0x3cb20a4b	0.021733424
111	0x3b35c78d	0.002773735
112	0x3d0e4cde	0.034741275
113	0x3ce80c45	0.028326163
114	0x3a62ea08	0.0008656089
115	0xbd2affb3	-0.04174776
116	0xbcbe46da	-0.023227144
117	0xbd998915	-0.074968494
118	0xbd84c3b5	-0.06482641
119	0x3d8b5207	0.06802755
120	0x3d3337b5	0.0437543
121	0xbd9cdfe8	-0.07659894
122	0xbc36945e	-0.011143772
123	0xbd2b691e	-0.041848294
124	0xbd2e2008	-0.042511016
125	0xbd828f1e	-0.06374954
126	0x3d2327b7	0.039832797
127	0x3d670e87	0.05641034

weight f4 [2, 128]
0	0x3dbe8719	0.093031116
1	0xbc4de544	-0.012566868
2	0xbdb1d33e	-0.086828694
3	0xbd951b6b	-0.0728062
4	0x3c0ee3f6	0.008721342
5	0x3bf9ce20	0.007623449
6	0xbd894a9f	-0.06703686
7	0x3d4ffd2d	0.050778557
8	0x3cba96c8	0.022776976
9	0xbc85a59b	-0.016314318
10	0x3d09818d	0.033570815
11	0xbdb5d530	-0.08878553
12	0x3c343569	0.010999062
13	0xbd28ab0d	-0.04117875
14	0x3ca33e7c	0.019927256
15	0x3df7b83e	0.12095688
16	0x3c19e7d2	0.009393649
17	0xbd5f0605	-0.0544491
18	0xbb27d9d8	-0.0025612023
19	0xbe410f56	-0.18853506
20	0x3dc97a87	0.09837823
21	0x3da45b5d	0.08025239
22	0xbd51f110	-0.051255286
23	0x3d6ff27a	0.058580853
24	0xbd9e72ca	-0.07736738
25	0x3d996986	0.0749083
26	0xbd6b47b1	-0.057441417
27	0xbfcda60a	-1.6066296
28	0x3d7488cc	0.059700772
29	0xbbeac390	-0.007164426
30	0x3a98a394	0.001164543
31	0xbdb6b53d	-0.08921287
32	0x3d816e90	0.06319916
33	0x3d17ca31	0.03705806
34	0x3d8ad7d3	0.067794465
35	0x3db9e432	0.09076728
36	0xbda0cbf8	-0.07851404
37	0xbd822982	-0.06355573
38	0x3dab0abc	0.08351657
39	0x3d51c0db	0.051209312
40	0x3b8f5f65	0.0043753856
41	0x3dc49c86	0.09600167
42	0xbc82da93	-0.015973365
43	0x3b1933e0	0.0023376867
44	0x3d78f84b	0.060783666
45	0xbda081e0	-0.07837272
46	0xbbaec4c4	-0.005333515
47	0xbcab4a0b	-0.02090933
48	0x3d9fb7c0	0.077987194
49	0x3dcd0e6a	0.10012515
50	0xbc89513a	-0.016762365
51	0xbd53a592	-0.051671572
52	0xbcdfd705	-0.027324209
53	0x3d0ec9d2	0.03486044
54	0x3ec3b536	0.3822419
55	0x3bf0c760	0.007347986
56	0xbc946fdd	-0.018119747
57	0xbcdffa62	-0.027341072
58	0xb89acdfc	-7.38166e-05
59	0xbe1b96c5	-0.15194233
60	0xbd9a8328	-0.07544547
61	0xbd208823	-0.03919233
62	0xbdeabd45	-0.114618815
63	0x3c702f00	0.014659643
64	0xbb40cdfb	-0.002941965
65	0x3d02225d	0.031771053
66	0x3d9bc18a	0.07605274
67	0xbc5efca2	-0.013610037
68	0x3d8e7702	0.06956293
69	0x3c62df37	0.013847164
70	0xbd979640	-0.07401705
71	0xbd341d60	-0.043973327
72	0x3dd877ea	0.10569747
73	0x3dbb1f3a	0.09136815
74	0xbce3aead	-0.027793253
75	0x3ddf338a	0.10898502
76	0x3d0fe11e	0.035126798
77	0x3d5af5a6	0.053456925
78	0xbcd8af3b	-0.026450744
79	0xbdf13f8d	-0.117796995
80	0xbc1f13b0	-0.009709284
81	0xbd8985e4	-0.06714991
82	0xbedb8dc3	-0.42881593
83	0xbdb5cef2	-0.08877362
84	0x3dce0ccb	0.10061034
85	0xbfa3fa01	-1.281067
86	0x3db0f625	0.08640698
87	0xbdaae1c9	-0.08343846
88	0x3d6ca018	0.057769865
89	0x3c5539ef	0.013014301
90	0x3cd35db9	0.025801526
91	0x3d0a3b67	0.033748057
92	0x3db63ddc	0.088985175
93	0x3b44fe7b	0.0030058909
94	0x3c8a53fc	0.01688575
95	0x3c8ad72c	0.016948305
96	0x3d24002d	0.04003923
97	0xbd56ca15	-0.052438814
98	0xbab71790	-0.0013968814
99	0x3d215482	0.039387234
100	0xbd2cfabc	-0.042231306
101	0xbc6124d2	-0.013741689
102	0xbfd4fdc0	-1.6639938
103	0xbd3e04fd	-0.046391476
104	0x3ddce84b	0.10786494
105	0xbdad8d55	-0.084742226
106	0xbd20e805	-0.03928377
107	0xbe575a15	-0.21030457
108	0x3d275bae	0.040858917
109	0x3dd7fd14	0.10546318
110	0xbce24b21	-0.027623715
111	0x3dce1ccc	0.10064086
112	0xbcf19a45	-0.029492507
113	0x3d415b5d	0.04720627
114	0xbe0f2f10	-0.13982797
115	0xbdb0f3f3	-0.086402796
116	0xbd057913	-0.03258617
117	0xbd355200	-0.044267654
118	0xbd46fc2e	-0.04858034
119	0xbce44352	-0.027864132
120	0xbe0f26d9	-0.13979663
121	0x3ddb8a11	0.107196935
122	0x3d4ebe02	0.050474174
123	0xbf9cffe3	-1.226559
124	0xbe3839f3	-0.17990856
125	0x3d919c0b	0.07109841
126	0xb95716b9	-0.00020512463
127	0xbc6311d4	-0.013859231
128	0xbd3b5bfe	-0.045742027
129	0xbb517bf7	-0.0031964758
130	0xbccab40c	-0.024744056
131	0xbb73bd84	-0.0037191818
132	0x3d4a8e48	0.049452096
133	0xbcd09bbc	-0.025464885
134	0xbd76c933	-0.060250472
135	0xbd076b6d	-0.033061434
136	0xbc913214	-0.017724074
137	0xbbdd561a	-0.006754649
138	0xbe41ea89	-0.18937124
139	0xbd93eb2d	-0.072225906
140	0x3da22027	0.07916289
141	0x3db29614	0.087200314
142	0x3d776c5e	0.06040608
143	0xbd298ce6	-0.041394137
144	0x3c83f5f0	0.016108483
145	0x3cd02ccc	0.025411986
146	0xbbee8733	-0.0072793006
147	0xbdcdcb7c	-0.10048577
148	0x3b9c3e29	0.0047681523
149	0xbd23915f	-0.03993356
150	0x3d866db8	0.06563896
151	0xbbd2d1f9	-0.006433722
152	0xbd741c40	-0.059597254
153	0xbc7f222d	-0.015572113
154	0x3d8dddf8	0.06927103
155	0xbf5d0aed	-0.86344796
156	0x3dab1ceb	0.08355125
157	0x3c574b70	0.013140544
158	0x3c76eb89	0.015070804
159	0x3d961fc6	0.07330279
160	0xbdb1b4c8	-0.086770594
161	0x3dc041e3	0.09387567
162	0x3ca76795	0.020435134
163	0x3ca7a092	0.020462308
164	0x3d75d713	0.060019564
165	0x3dbf04e5	0.093271054
166	0x3dac6a20	0.08418679
167	0xbd1520e6	-0.036408328
168	0x3d518c91	0.051159445
169	0x3d9c5610	0.076336026
170	0x3da25447	0.07926231
171	0x3cfb75ec	0.030695878
172	0x3d2e2bcf	0.042522248
173	0x3d98a853	0.0745398
174	0x3d3d457a	0.046208836
175	0x3d691753	0.05690701
176	0x3c83e2e0	0.016099393
177	0xb9a5a582	-0.00031594565
178	0xbd5c2d00	-0.053753853
179	0xbdadc290	-0.084843755
180	0x3d9cccc5	0.07656244
181	0x3d13b233	0.036058616
182	0xbd7223e6	-0.059116267
183	0x3d5cfef6	0.053954087
184	0x3d790f49	0.060805593
185	0xbcb17c20	-0.021665633
186	0x3dabbb54	0.083853394
187	0x3d3bf703	0.045889866
188	0xbd185505	-0.037190456
189	0xbde92444	-0.1138387
190	0xbd007299	-0.03135929
191	0x3d28d213	0.041215967
192	0x3c08ef4c	0.008357834
193	0xbd4a09a9	-0.04932562
194	0xbd828a28	-0.063740075
195	0x3d1de23e	0.03854584
196	0x3de88f06	0.113554046
197	0x3c811a94	0.015759744
198	0x3d67d66b	0.05660097
199	0xbd0b3e3f	-0.03399491
200	0x3de75931	0.11296309
201	0xbaf96a2b	-0.0019028833
202	0xbcf96dd0	-0.03044787
203	0xbd2e4582	-0.042546757
204	0x3d0e8d53	0.034802746
205	0x3d40326e	0.046923093
206	0xbcc46797	-0.023975177
207	0xbd4c719b	-0.04991303
208	0x3d62306a	0.055221952
209	0xbd355879	-0.044273827
210	0x3f1c9de6	0.61178434
211	0x3db0f37c	0.08640191
212	0x3d8a6595	0.067576565
213	0x3dd49c4e	0.10381375
214	0x3d84e729	0.06489403
215	0xbdab4759	-0.08363218
216	0x3c422b8f	0.0118512055
217	0x3dbcc410	0.092170835
218	0x3cc0d752	0.023540173
219	0x3d3fa4d1	0.04678804
220	0xbc647d4c	-0.013945889
221	0xbdbd0d15	-0.09231011
222	0x3dccd672	0.1000184
223	0x3ceb2b5c	0.028707199
224	0x3c970406	0.018434536
225	0x3cb80520	0.022463381
226	0x3bdb5e92	0.0066946233
227	0xbd6c51c4	-0.057695165
228	0x3dcc0603	0.09962084
229	0x3d51d750	0.05123073
230	0xbf4122fd	-0.7544401
231	0xbd129205	-0.035783786
232	0xbc2d9398	-0.010594271
233	0x3ca04770	0.019565314
234	0xbd53efa7	-0.051742222
235	0xbd1ae344	-0.037814394
236	0xbd2ebacd	-0.042658616
237	0xbd070fe6	-0.032974146
238	0x3d9f35ab	0.07773908
239	0x3cd75177	0.026283963
240	0xbe0c70a6	-0.13714847
241	0x3ce16907	0.027515901
242	0x3d30405d	0.04303013
243	0xbb166ba0	-0.0022952333
244	0xbe3878f7	-0.18014894
245	0x3dadcadd	0.08485959
246	0xbca7a89c	-0.020466141
247	0x3da6790f	0.08128559
248	0xbd0658a4	-0.032799378
249	0xbe13e7c6	-0.14443883
250	0x3da69b9b	0.08135148
251	0xbc925836	-0.017864328
252	0x3cf2eb8e	0.029653337
253	0xbd76a741	-0.0602181
254	0xbb56b790	-0.003276322
255	0x3d1e2d45	0.03861739

bias f4 [2]
0	0x3d9f3b7a	0.07775016
1	0xbcb8ac42	-0.022543076

weight f4 [128, 5]
0	0x3e80954a	0.251139
1	0x3ecdb7ba	0.40179235
2	0xbd5fd8cc	-0.054650113
3	0x3e0545a7	0.13014852
4	0xbe17b1a9	-0.14813866
5	0xbdae91b8	-0.085238874
6	0xbb1331d2	-0.0022460115
7	0xbee4961d	-0.44645777
8	0x3be1d00e	0.006891257
9	0xbea027c0	-0.31280327
10	0xbec4bdc8	-0.38426042
11	0xbe4452fe	-0.19172284
12	0xbc27ad60	-0.010234207
13	0xbdf0c93c	-0.117571324
14	0x3e56ee6c	0.20989388
15	0x3ec4e423	0.38455305
16	0x3ce0a3a5	0.027421782
17	0xbdb7723e	-0.08957337
18	0xbee498c1	-0.44647792
19	0xbee4df39	-0.44701555
20	0xbeded926	-0.43525046
21	0xbe9570f7	-0.29187748
22	0x3ecc7d13	0.39939174
23	0xbecde7d1	-0.40215924
24	0xbe160f4a	-0.1465427
25	0xbe58d5ad	-0.21175261
26	0xbe3a8d22	-0.182179
27	0xbed36394	-0.4128691
28	0x3e392a2f	0.18082498
29	0x3e992d2c	0.29917276
30	0x3e62cef9	0.22149266
31	0x3e0235b1	0.12715794
32	0xbdb82406	-0.08991246
33	0x3ea37b03	0.31929788
34	0x3e913f74	0.28368723
35	0xbeb59da4	-0.35471833
36	0x3eb6e026	0.35717887
37	0x3e9f6bdf	0.31136987
38	0x3e8fddff	0.28099057
39	0x3ecf33a1	0.40469077
40	0xbe5a66d6	-0.21328291
41	0x3c5e3d81	0.013564468
42	0x3eb17617	0.34660408
43	0xbe54c250	-0.2077725
44	0x3d79bb00	0.060969353
45	0x3eecf941	0.46283916
46	0xbe7cf91b	-0.24704401
47	0xbdb097a7	-0.086226754
48	0x3e54f2e7	0.20795785
49	0xbe963ad0	-0.29341745
50	0x3c3303ac	0.010926168
51	0x3e1e55f9	0.15462483
52	0x3ea3f19d	0.32020274
53	0xbd91c085	-0.07116798
54	0x3e8d931d	0.276513
55	0xbd1f74d6	-0.038929783
56	0x3e8c1afd	0.2736434
57	0xbe103728	-0.1408354
58	0x3e0df237	0.13861929
59	0x3dd9c627	0.10633498
60	0x3edb3c8b	0.42819628
61	0x3ea5c898	0.32379603
62	0xbe0e5df8	-0.13903034
63	0xbe1374c2	-0.14400008
64	0xbe67ac4b	-0.22624318
65	0x3e502273	0.20325641
66	0x3e461e2b	0.19347446
67	0xbe14765f	-0.1449828
68	0x3dbdea89	0.0927325
69	0xbebea9d2	-0.37238938
70	0xbe4bac98	-0.19890058
71	0x3e9b3eda	0.3032139
72	0x3e2a0f24	0.16607338
73	0x3e733c77	0.23753534
74	0x3d3b1593	0.04567487
75	0x3e8d1e9f	0.27562425
76	0xbecc5f2d	-0.39916363
77	0x3c6b66de	0.014367787
78	0x3eb9745e	0.36221594
79	0xbe4a0604	-0.19728857
80	0x3e06efad	0.13177367
81	0xbeea9855	-0.45819345
82	0xbe345838	-0.17611778
83	0xbdc6638a	-0.09686954
84	0x3e90f237	0.28309795
85	0xbec26e92	-0.37974983
86	0x3e3dd658	0.18538797
87	0xbe8d504c	-0.27600324
88	0xbca492e0	-0.020089567
89	0xbe5c42d7	-0.21509872
90	0x3ef276f5	0.47356382
91	0xbea518ef	-0.32245585
92	0x3e9a044b	0.300814
93	0x3df8e80e	0.12153636
94	0xbe99c210	-0.3003087
95	0x3f07bfc2	0.53026974
96	0xbebf1ff1	-0.37329057
97	0x3e33fc19	0.17576636
98	0x3d1a768f	0.037710723
99	0xbece1751	-0.40252164
100	0x3e9d1102	0.30677038
101	0xbe87263b	-0.26396355
102	0x3e7e9b49	0.24863924
103	0x3d242763	0.040076625
104	0xbec26d29	-0.37973908
105	0x3e158798	0.14602506
106	0x3e3bcdc0	0.18340206
107	0xbe382c35	-0.17985614
108	0x3e01264e	0.12612268
109	0x3cc01e34	0.023451902
110	0xbe87e3a4	-0.26540864
111	0x3e17faec	0.14841813
112	0x3ed059d3	0.4069353
113	0x3ed86a43	0.4226857
114	0x3e1e04fa	0.15431586
115	0xbe7cd50a	-0.24690643
116	0x3da5c6a3	0.080945276
117	0x3c47fcc0	0.012206256
118	0x3ea4f170	0.32215452
119	0xbed41370	-0.4142108
120	0xbe273b60	-0.16331244
121	0xbe77369c	-0.24141926
122	0x3d400abf	0.04688525
123	0x3d8423fa	0.064521745
124	0x3e9c28e8	0.3049996
125	0xbecc043f	-0.3984699
126	0xbe3bd742	-0.18343833
127	0xbdde2404	-0.10846713
128	0xbe6b3ac3	-0.22971635
129	0xbeb574cf	-0.3544068
130	0x3ec7e918	0.39045024
131	0x3e1b756d	0.15181513
132	0x3c12827c	0.008942243
133	0xbec16ee8	-0.37779927
134	0x3ebc9ee7	0.36839983
135	0x3cb02115	0.02150015
136	0xbe70f9f6	-0.23532853
137	0x3eb8900f	0.36047408
138	0x3ea98c70	0.33114958
139	0xbd2217c8	-0.03957346
140	0xbcacb550	-0.02108255
141	0xbed7fb9a	-0.42184144
142	0x3ed30620	0.4121561
143	0x3eaac49e	0.33353132
144	0xbec00592	-0.3750425
145	0xbe0bb294	-0.13642341
146	0x3afb77ab	0.0019185444
147	0x3ec30ff0	0.38098097
148	0x3ec0ceb8	0.37657714
149	0xbe076063	-0.13220362
150	0x3e859bb5	0.26095358
151	0xbe38f74d	-0.18063088
152	0xbea45698	-0.32097316
153	0x3ea03b6c	0.31295335
154	0xbd562b20	-0.05228722
155	0x3ebcf054	0.36902106
156	0x3ec72926	0.3889858
157	0x3ec791f4	0.3897854
158	0x3ebdedcb	0.37095484
159	0xbd7bb49d	-0.061451543
160	0x3e7683a5	0.24073656
161	0xbe7a8daa	-0.24468103
162	0xbda7e6d0	-0.08198321
163	0xbc2326cd	-0.009957981
164	0x3dc058a6	0.09391908
165	0x3ec3030b	0.3808826
166	0xbd662389	-0.056186233
167	0xbebf137c	-0.37319553
168	0xbea60c76	-0.32431382
169	0xbcb370c1	-0.021904351
170	0xbed705e1	-0.41996673
171	0x3e7b9e16	0.24572024
172	0xbd367acd	-0.044550706
173	0xbeaae66e	-0.3337893
174	0x3e1f490d	0.1555521
175	0x3e9809bc	0.29694927
176	0x3d37ce0f	0.044874247
177	0x3c40449e	0.01173511
178	0x3d5c3917	0.053765383
179	0x3d7e18a1	0.062035207
180	0xbe96bead	-0.2944235
181	0xbdbc8683	-0.092053436
182	0xbebc4068	-0.36767888
183	0x3eba892e	0.36432785
184	0x3ebbf8d9	0.36713293
185	0x3e467713	0.1938136
186	0x3e2dc493	0.16969518
187	0xbeb09f50	-0.34496546
188	0x3d2694cf	0.04066926
189	0xbeaba3a1	-0.33523276
190	0x3dd5e2df	0.10443663
191	0xbe5b7917	-0.21432911
192	0x3cbac090	0.0227969
193	0x3ef495c6	0.47770518
194	0x3ee89796	0.4542815
195	0xbe384d86	-0.17998323
196	0xbd689840	-0.056785822
197	0xbe3bb368	-0.18330157
198	0xbe505952	-0.20346573
199	0xbeb2eaae	-0.3494467
200	0xbe9aa78f	-0.30205962
201	0x3ec6c8e8	0.38825154
202	0xbda38fa0	-0.07986379
203	0xbeb37e06	-0.35057086
204	0x3e3e2648	0.1856929
205	0x3df00a20	0.11720681
206	0xbe5e9412	-0.21736172
207	0xbb85c640	-0.004082471
208	0x3d827898	0.06370658
209	0xbdde38bc	-0.10850665
210	0x3e7f8745	0.24953945
211	0x3d4e4ec2	0.050368078
212	0xbe643f98	-0.22289884
213	0xbe87b705	-0.2650682
214	0xbeaad5f3	-0.33366355
215	0x3e2922b3	0.16517143
216	0x3e9d3822	0.30706888
217	0xbebb67cc	-0.36602628
218	0xbe448c0a	-0.19194046
219	0x3c77a16c	0.01511417
220	0xbcb7b7ba	-0.022426475
221	0x3efd133c	0.49428737
222	0xbe5b6c1c	-0.21427959
223	0x3e4d374f	0.2004063
224	0x3ed27c4a	0.4111045
225	0x3f0d98d2	0.5531131
226	0xbeb91333	-0.3614746
227	0x3edc661f	0.43046662
228	0x3e834b9a	0.25643617
229	0x3e3695f5	0.17830642
230	0xbe39e0e8	-0.18152201
231	0x3eef10b1	0.46692422
232	0xbdf6637a	-0.120306924
233	0xbed85f34	-0.42260134
234	0xbe9c7d7c	-0.30564487
235	0xbee81d2e	-0.45334762
236	0x3c365bcd	0.011130285
237	0xbdc1f364	-0.09470251
238	0x3ce1e1b7	0.02757345
239	0xbe58d2ce	-0.21174166
240	0xbdbe1ba6	-0.09282617
241	0x3d85e137	0.06537097
242	0x3ec39f6d	0.3820757
243	0x3d1ad82a	0.037803806
244	0x3dfca543	0.12336209
245	0x3e287549	0.1645099
246	0xbea8a255	-0.3293635
247	0xbda716a0	-0.08158612
248	0xbe842392	-0.25808388
249	0x3daee352	0.08539452
250	0x3e843c51	0.25827268
251	0x3e4ccac0	0.19999218
252	0x3e32d676	0.17464623
253	0xbec316bf	-0.3810329
254	0xbe04005a	-0.12890759
255	0x3e9dfebe	0.30858415

bias f4 [128]
0	0x3e99a150	0.30005884
1	0x3c159652	0.009130077
2	0xbe9ae194	-0.30250227
3	0x3d73b212	0.059495993
4	0x3eb96d73	0.36216316
5	0x3d0c3ae0	0.034235835
6	0x3e549e3d	0.20763488
7	0x3d850d97	0.06496733
8	0xbe275adb	-0.16343252
9	0xbe619782	-0.22030452
10	0xbde2624c	-0.11053905
11	0xbe425545	-0.1897784
12	0x3d35bf16	0.044371687
13	0xbda5c245	-0.080936946
14	0xbcaf79d7	-0.021420402
15	0x3ecf396d	0.404735
16	0x3cb4e26c	0.022080623
17	0xbe75df78	-0.24011028
18	0x3eac23d2	0.3362108
19	0xbd279690	-0.040915072
20	0x3e28951a	0.16463128
21	0xbd68fc06	-0.056880973
22	0x3e8fb62f	0.28068683
23	0xbe6caaf3	-0.23112087
24	0x3ebec281	0.3725777
25	0xbec96b50	-0.39339685
26	0xbdb675d5	-0.089091934
27	0xbe324115	-0.1740764
28	0xbed29c28	-0.41134763
29	0x3eb64cd9	0.35605505
30	0x3dd8dd70	0.10589111
31	0xbca49b9e	-0.020093735
32	0x3dfe76d1	0.12425006
33	0x3d1647f2	0.036689706
34	0x3e28b65f	0.16475819
35	0xbe781c01	-0.24229433
36	0x3da4c8f5	0.08046142
37	0x3e70981b	0.23495524
38	0xbeab9ac3	-0.3351651
39	0xbe0ae93a	-0.13565531
40	0xbde2384b	-0.11045893
41	0xbea24554	-0.31693518
42	0x3e80b0c3	0.25134858
43	0x3d1297d6	0.035789333
44	0xbebf1318	-0.37319255
45	0xbdbc645f	-0.09198832
46	0xbdeb3dc4	-0.1148639
47	0x3eb1f58a	0.34757644
48	0x3dabc593	0.08387294
49	0x3dcc2de7	0.09969693
50	0x3e9e0612	0.30864006
51	0x3ea96db6	0.33091515
52	0x3eb7bdbd	0.35886946
53	0x3e921bf8	0.28536963
54	0xbe3ca8c6	-0.18423757
55	0x3ec61b91	0.38692906
56	0xbe97054a	-0.29496223
57	0x3ef455bc	0.4772166
58	0xbcedcbce	-0.029027846
59	0x3cb45ebd	0.022017831
60	0x3e01c85e	0.1267409
61	0x3ec2906c	0.3800081
62	0x3da845fa	0.08216472
63	0x3df605f1	0.12012852
64	0x3ed94f0b	0.42443117
65	0xbd67d6d0	-0.056601346
66	0x3e4c80cc	0.19971007
67	0xbe23a098	-0.1597923
68	0x3c11d0bb	0.008899863
69	0xbe06d2a7	-0.13166295
70	0x3e9d3570	0.30704832
71	0xbe266a96	-0.16251597
72	0xbe7a7ec1	-0.24462415
73	0x3def103c	0.11673018
74	0x3dbc1ca7	0.091851525
75	0x3e5d1c8b	0.2159292
76	0x3e8f43e6	0.2798149
77	0xbd969b97	-0.07353895
78	0xbe9256fb	-0.28581986
79	0x3ee3f9dd	0.44526568
80	0x3ca3c4c2	0.019991282
81	0x3ecfc6ec	0.40581453
82	0x3e2d4c83	0.16923718
83	0xbec53ae4	-0.38521492
84	0x3e242625	0.16030176
85	0xbe4addaf	-0.19811128
86	0x3e6c2d59	0.23064174
87	0x3db8f22f	0.09030568
88	0x3d1e374a	0.038626947
89	0x3e711aea	0.23545423
90	0x3dcbc6d2	0.09950031
91	0xbed9999c	-0.42500007
92	0x3ddeb59b	0.10874482
93	0xbe3e388b	-0.18576257
94	0x3b15d53f	0.00228627
95	0xbe60f06c	-0.21966714
96	0xbde0b368	-0.10971719
97	0x3ed6b47b	0.4193457
98	0x3e929b00	0.2863388
99	0xbea45166	-0.32093352
100	0xbd9a42db	-0.07532283
101	0xbdd2f995	-0.1030151
102	0x3e04c59c	0.12966007
103	0xbdf52277	-0.11969464
104	0x3e4b289d	0.19839711
105	0xbe7178c0	-0.23581219
106	0xbe9151bd	-0.28382674
107	0xbe67aaf7	-0.22623812
108	0x3e825661	0.25456527
109	0xbe2000b3	-0.15625267
110	0xbeec9772	-0.46209294
111	0x3e87fab9	0.26558474
112	0x3e18f836	0.14938435
113	0x3e80e581	0.25175098
114	0x3d03e24a	0.032198228
115	0x3e963e3e	0.29344362
116	0x3e4edb5a	0.20200863
117	0xbe497508	-0.1967355
118	0x3eb56938	0.35431838
119	0xbd74cc04	-0.059764877
120	0xbe05d692	-0.13070133
121	0xbec8b89e	-0.39203352
122	0xbed660db	-0.4187077
123	0xbe88a8c4	-0.26691258
124	0x3ec00023	0.37500104
125	0x39dc2a89	0.0004199336
126	0x3e136e3e	0.14397523
127	0xbdfde966	-0.12398033

weight f4 [128, 128]
0	0xbd673a15	-0.056451876
1	0x3cfb6e48	0.030692235
2	0xbc713198	-0.014721297
3	0x3dac5b21	0.08415819
4	0xbc498b8c	-0.012301337
5	0x3dae23c6	0.08502917
6	0xbb88fe39	-0.0041806963
7	0x3dc0a999	0.09407348
8	0xbe306430	-0.17225718
9	0x3d9fe82b	0.078079544
10	0x3d937645	0.072002925
11	0x3cb6bd09	0.022306936
12	0x3d6ed4fb	0.058308583
13	0xbcc4c8ae	-0.024021473
14	0x3d2edc88	0.042690784
15	0xbd5a5f12	-0.053313322
16	0x3ca474b8	0.020075187
17	0xbd9f8c5c	-0.07790443
18	0x3bb9280e	0.005650527
19	0x3dd5b61a	0.10435124
20	0x3d89e957	0.06733959
21	0x3dc6d6b0	0.09708917
22	0x3c89635e	0.016771015
23	0xbcda874e	-0.026675846
24	0x3dd45cba	0.10369249
25	0xbd9112dc	-0.07083675
26	0x3cef6086	0.02922083
27	0x3d891516	0.06693475
28	0xbc5de728	-0.0135438815
29	0x3dbc304e	0.09188901
30	0xbda2bc7b	-0.07946106
31	0x3b7b65da	0.0038360269
32	0x3d7fc842	0.06244684
33	0xbdb3fa94	-0.08788028
34	0x3d92fb9b	0.07176896
35	0xbbc146ab	-0.005898317
36	0x3beefc87	0.007293287
37	0x3d059cbc	0.032620177
38	0x3c1adcaa	0.0094520245
39	0x3da77a3b	0.081776105
40	0x3934d49a	0.00017245338
41	0xbd06f7c1	-0.03295112
42	0xbd142bef	-0.03617471
43	0xb8e81b12	-0.00011067664
44	0x3d7976db	0.060904365
45	0x3b85b337	0.004080202
46	0xbbdbd1a6	-0.0067083417
47	0xbe10bcf8	-0.14134586
48	0xbd9e1201	-0.07718278
49	0x3baeebf8	0.0053381883
50	0x3d1e27e7	0.038612273
51	0x3cf58f66	0.029975604
52	0x3cdf2e42	0.027243737
53	0x3cf16bfe	0.02947044
54	0x3d402286	0.046907924
55	0x3d7e583f	0.062095877
56	0x3d15ddc2	0.036588438
57	0xbd384ebf	-0.044996973
58	0xbc671fa4	-0.014106665
59	0x3d92d57d	0.07169626
60	0xbd1edc0a	-0.038784064
61	0x3cbd408a	0.023102064
62	0xbd4fe08e	-0.05075126
63	0x3d684367	0.056704905
64	0xbd94a545	-0.07258085
65	0x3cb6cea2	0.022315327
66	0xbd9e5896	-0.0773174
67	0xbd97531e	-0.073889
68	0x3bf25cd1	0.0073963185
69	0xbd9adf31	-0.07562102
70	0xb917f794	-0.00014492712
71	0xbc8aff09	-0.016967313
72	0xbd9c0d8e	-0.07619773
73	0xbdbe2149	-0.092836924
74	0x3d809c5d	0.06279824
75	0x3d91c8b1	0.07118357
76	0x3b7ff5f5	0.0039056514
77	0xbe11a6f6	-0.14223847
78	0xbe45a547	-0.1930133
79	0xbcedf104	-0.02904559
80	0x3c3d3e59	0.011550509
81	0xbd7016cb	-0.058615487
82	0x3dc6336b	0.09677776
83	0xbc64e129	-0.013969698
84	0x3db79d83	0.0896559
85	0x3dea6a11	0.11446012
86	0xbc98fcf5	-0.018675307
87	0xbbcfe983	-0.0063449754
88	0x3d72cd08	0.059277564
89	0x3d2ec417	0.042667475
90	0x3bc7c9cf	0.0060970555
91	0x3cecdfcc	0.028915308
92	0xbd1a0388	-0.037601024
93	0xbcf00fc6	-0.029304396
94	0x3dd2a584	0.10285476
95	0xbd966795	-0.073439755
96	0x3bd8c25f	0.0066149677
97	0xbd7a5498	-0.06111583
98	0xbdbd1dad	-0.09234176
99	0x3c343858	0.0109997615
100	0x3c827010	0.015922576
101	0x3bbed48a	0.0058236765
102	0xbd1ea651	-0.03873283
103	0xbd84c924	-0.06483677
104	0x3d2943d6	0.04132446
105	0x3dac0d88	0.084010184
106	0xbd848140	-0.06469965
107	0xbd71db32	-0.05904693
108	0x3d6ff994	0.058587626
109	0x3db7dc14	0.089775234
110	0x3c8f19b4	0.01746831
111	0xbd126842	-0.03574396
112	0xbdc4fd72	-0.09618653
113	0x3cd381af	0.025818674
114	0x3dc879b3	0.09788837
115	0x3d18af65	0.037276644
116	0xbe2a2b2c	-0.16618031
117	0x3d9c7e71	0.07641304
118	0x3d81c113	0.06335654
119	0x3ddff05e	0.10934518
120	0x3c74f102	0.014950039
121	0xbd059ccf	-0.032620247
122	0xbaa13d40	-0.0012301579
123	0xbe1f91eb	-0.15583007
124	0x3dcdd523	0.10050418
125	0xbdca696c	-0.09883389
126	0xba97e75b	-0.0011589335
127	0xbd644704	-0.05573179
128	0x3d59fd69	0.053220186
129	0x3d89bba2	0.06725241
130	0x3d1736be	0.03691744
131	0x3d1641a0	0.03668368
132	0x3d53eaf3	0.051737737
133	0x3d3b54f7	0.045735326
134	0xbd92cce5	-0.07167987
135	0x3da65b92	0.081229344
136	0x3d2868bb	0.041115504
137	0x3dc4b9ae	0.09605728
138	0x3d7c55c1	0.06160522
139	0xbd054994	-0.032540873
140	0x3dac8afe	0.08424948
141	0x3dbe961b	0.09305974
142	0xbc82d908	-0.01597263
143	0x3d848372	0.06470384
144	0x3d35675e	0.04428803
145	0x3baf3660	0.005347058
146	0xbd95b8ae	-0.073106155
147	0xbda8c426	-0.08240537
148	0xbc409717	-0.011754773
149	0x3d20ccf7	0.03925797
150	0xbc8f7436	-0.017511468
151	0xbda450fa	-0.080232576
152	0x3d2f1eb1	0.04275388
153	0xbda8a367	-0.082342915
154	0x3bf2a51b	0.007404936
155	0xbca7e2a2	-0.02049381
156	0xbca63d88	-0.020293012
157	0xbc6f959e	-0.014623074
158	0xbdb7bb2c	-0.08971247
159	0x3c9d1abe	0.01917779
160	0x3d99aded	0.07503877
161	0xbc86e110	-0.01646474
162	0x3d7dd3f9	0.06196973
163	0x3c90fefc	0.017699711
164	0x3c966e05	0.018363008
165	0x3d1ccaaa	0.038279213
166	0xbd38e619	-0.045141313
167	0x3d3b0812	0.045661993
168	0xbd2e4fae	-0.042556457
169	0xb9359800	-0.0001731813
170	0xbd675dc8	-0.05648592
171	0xbd0016bf	-0.031271692
172	0x3d2a3ba7	0.041560795
173	0x3d742c09	0.059612308
174	0x3e252c54	0.16130191
175	0xbd30e939	-0.04319117
176	0x3da92e17	0.08260744
177	0xbe0fd696	-0.14046702
178	0x3d865310	0.06558812
179	0x3cd07016	0.025444072
180	0x3cbd67ca	0.02312078
181	0x3db4ff5b	0.08837768
182	0xbcf1e4c2	-0.029528026
183	0x3d27a370	0.04092735
184	0xbd3b8194	-0.045777872
185	0x3d77ab20	0.060465932
186	0x3d0de52a	0.034642376
187	0xbb19e183	-0.0023480363
188	0xbd302826	-0.04300704
189	0x3d181db9	0.03713772
190	0xbd43ddd2	-0.047818966
191	0xbd48e4b2	-0.049046226
192	0xbb08edd4	-0.002089371
193	0x3dde9d6a	0.10869868
194	0x3d993950	0.074816346
195	0xbcb0b7e0	-0.021572053
196	0xbd8f3082	-0.06991674
197	0x3d916f6a	0.07101329
198	0x3da1882e	0.07887302
199	0xbd7d15fd	-0.061788548
200	0xbd469b6e	-0.048488073
201	0x3d078076	0.033081494
202	0x3cb1b8b1	0.021694513
203	0xbb742951	-0.0037256072
204	0x3d39f351	0.04539806
205	0xbd9e49d4	-0.07728925
206	0xbc9e907e	-0.019356009
207	0x3b97365d	0.004614635
208	0xbcd1a01d	-0.025589043
209	0xbd5fd9e9	-0.054651175
210	0xbd24bfd8	-0.04022202
211	0x3d7a9817	0.0611802
212	0xbce13f94	-0.027496137
213	0x3d1c4f99	0.038161848
214	0x3d64eef4	0.055891946
215	0x3c9b2f3f	0.018943427
216	0xbc251865	-0.010076617
217	0x3d330f53	0.043715786
218	0x3db46568	0.08808404
219	0x3c4c2060	0.012458891
220	0x3ddac258	0.106815994
221	0xbd6f461e	-0.05841648
222	0x3e08dfd5	0.13366635
223	0xbd3582ea	-0.044314303
224	0x3dfe3426	0.1241229
225	0xbce37d06	-0.027769577
226	0xbdbacb76	-0.09120838
227	0x3d55592e	0.052087
228	0x3c27d019	0.010242485
229	0x3d98e875	0.07466213
230	0x3dba3eb2	0.090939894
231	0xbda68008	-0.08129889
232	0xbd5704e2	-0.05249489
233	0x3dcb9ffc	0.09942624
234	0x3d86ebfe	0.06587981
235	0xbb1d2260	-0.0023976788
236	0xbd0b15fc	-0.033956513
237	0x3d8344cf	0.064096086
238	0xbdaf83e4	-0.08570078
239	0x3c21944a	0.009862015
240	0xbd20b076	-0.039230786
241	0xbc211182	-0.009830834
242	0x3c16d5b9	0.009206229
243	0x3cbce5d7	0.023058815
244	0xbe08090e	-0.13284704
245	0x3d5a942a	0.053363957
246	0xbd2b33f2	-0.041797586
247	0xbd05bb1d	-0.03264915
248	0x3c048ac9	0.00808973
249	0xbd8603ec	-0.06543717
250	0x3cff25b0	0.0311459
251	0x3d0ffb53	0.03515179
252	0xbcafe759	-0.02147262
253	0x3dc0a9a8	0.09407359
254	0x3d748bc6	0.05970361
255	0xbd91cd5d	-0.07119248

bias f4 [128]
0	0xbd0a6ca7	-0.033795025
1	0xbc87f236	-0.016594987
2	0xbcdbced9	-0.026832031
3	0x3dcfe753	0.101515435
4	0xb9697084	-0.00022262527
5	0xbda7cc69	-0.08193285
6	0xbcf58d90	-0.029974729
7	0x3d5b3c9f	0.05352461
8	0x3d0e6778	0.034766644
9	0x3c23ff57	0.010009608
10	0x3ce61ebe	0.02809083
11	0xbcd0d1ee	-0.025490727
12	0xbd8036b9	-0.062604375
13	0x3d8826cb	0.06648024
14	0x3d6f35be	0.058400862
15	0x3ca8e6be	0.020617839
16	0xbd6b8c8e	-0.05750709
17	0xbd55a149	-0.052155767
18	0xbd95c124	-0.07312229
19	0xbb75920e	-0.0037471089
20	0xbd229101	-0.039689068
21	0x3d669c17	0.056301203
22	0x3da38c25	0.07985715
23	0x3bb075a4	0.0053851176
24	0xbc4c0673	-0.0124527095
25	0x3d69c89b	0.057076078
26	0x3d042088	0.032257587
27	0x3ca8e38d	0.020616317
28	0x3c944caf	0.018102972
29	0xbcfaa16b	-0.030594548
30	0xbc90ca94	-0.017674722
31	0xbbf2ee0e	-0.0074136322
32	0x3c9c738c	0.019098066
33	0xbcaf3447	-0.021387232
34	0xbd68c176	-0.056825124
35	0xbd4a667d	-0.049414147
36	0x3cada20d	0.021195436
37	0x3d2ffba8	0.042964607
38	0xbcd7dc40	-0.02635014
39	0xbceaa87b	-0.02864479
40	0x3d509a65	0.050928492
41	0xbd5ee666	-0.054418944
42	0x3d69fb6e	0.057124548
43	0xbdaac645	-0.08338598
44	0xbd9333ea	-0.07187636
45	0x3c981c8c	0.0185683
46	0xbd4ca374	-0.04996057
47	0xbd354304	-0.044253364
48	0xbbc5e250	-0.0060389414
49	0x3d5c3f5b	0.053771358
50	0x3d91dd46	0.07122283
51	0x3b40692a	0.0029359558
52	0x3d011210	0.031511366
53	0x3d827446	0.06369834
54	0xbcd55479	-0.026041256
55	0x3d285ef7	0.04110619
56	0x3cc2ebbc	0.023794048
57	0xbc8f763e	-0.017512437
58	0x3cbd94ab	0.02314218
59	0x3d38a53c	0.045079455
60	0xbd199b52	-0.03750164
61	0xbcb19740	-0.021678567
62	0xbd8c0f28	-0.06838828
63	0xbc51d0d6	-0.012806138
64	0x3b641347	0.003480153
65	0xbd316ebb	-0.04331849
66	0xbdab7480	-0.0837183
67	0xbcfdf9d8	-0.031002924
68	0xbd5b5086	-0.05354359
69	0x3dc7f664	0.09763792
70	0x3db47927	0.088121705
71	0xbd901c97	-0.07036703
72	0x3cdbb91d	0.026821667
73	0x3d0794bb	0.033100825
74	0x3c26e009	0.01018525
75	0x3d340b62	0.043956168
76	0xba3bc811	-0.0007163296
77	0xbd3b6596	-0.045751177
78	0xbd7b1e9a	-0.06130848
79	0x3d3e8964	0.046517745
80	0x3d038c65	0.032116313
81	0xbd8f4f8d	-0.06997595
82	0xbc8f4e92	-0.01749352
83	0xbd14fd0f	-0.036374148
84	0xbd1359f7	-0.03597447
85	0xbd33e2f7	-0.043917622
86	0xbd081d17	-0.033230867
87	0x3d11e920	0.035622716
88	0x3d8a84bf	0.067636006
89	0x3d37a98b	0.044839423
90	0xbce51661	-0.027964773
91	0x3ad72700	0.0016414821
92	0x3d92f4fe	0.07175635
93	0xbac1f51e	-0.0014797782
94	0x3d5be095	0.053680975
95	0x3da03b52	0.078238145
96	0xbc9b0c5c	-0.018926792
97	0x3d9e8f8f	0.077422254
98	0xbd8d450c	-0.06897935
99	0xbd011e19	-0.031522844
100	0x3d327afd	0.043574322
101	0x3d3eed38	0.04661295
102	0xbd18cff1	-0.037307683
103	0xbd104082	-0.03521777
104	0x3d3f1ca2	0.046658166
105	0x3d20fdb8	0.039304465
106	0x3a4f1c9b	0.0007900686
107	0xbd5f5465	-0.054523844
108	0xbd7feb1d	-0.06248008
109	0x3bebac50	0.007192172
110	0x3d41cd84	0.047315136
111	0xbbbb34ed	-0.0057130964
112	0xbd23b8a7	-0.03997102
113	0xbd392a4a	-0.045206346
114	0xbca2e908	-0.019886509
115	0x3dd25bd9	0.10271425
116	0xbd06dd31	-0.03292579
117	0x3d47cdee	0.048780374
118	0x3c45d3a8	0.012074389
119	0xbd559319	-0.052142236
120	0x3d39041c	0.045169935
121	0xbd4d1928	-0.05007282
122	0xbd8bfdc9	-0.06835515
123	0xbcc88bc1	-0.024480702
124	0xbd87803c	-0.06616256
125	0xbda3916a	-0.0798672
126	0x3cd84de7	0.026404334
127	0x3d8cc5ee	0.068736896
