models/mountaincar_2D/checkpoint_att.10.pth.tar (torch_old, 105542 bytes, 8 tensors)

weight f4 [128, 5]
000000 5a 4b 11 bf e0 bd 96 be ec 13 40 bb a1 30 99 3e
       -0.567556 -0.29441738 -0.002930875 0.29919913
000010 eb 87 4a be 07 96 01 bc f6 a2 96 3e c1 42 89 3e
       -0.19778411 -0.007909304 0.29421204 0.26808742
000020 70 11 cf 3e 61 68 69 bd 6b 38 69 be 8a ab 76 3e
       0.4044299 -0.05698431 -0.22775428 0.24088874
000030 c6 4e 88 3e 0c d9 a9 be d4 3f 80 3e fd d7 1e bf
       0.266226 -0.33173406 0.25048697 -0.6204832
000040 92 0e cf be b9 01 50 3e cf 6c 3c 3e 4e 69 78 be
       -0.40440804 0.20313157 0.18400882 -0.2425892
000050 d6 f0 a7 be 80 e4 68 bd d8 45 db be 76 8a 81 be
       -0.3280093 -0.05685854 -0.42826724 -0.2530095
000060 ee 66 48 be 0a 42 f6 3e 36 f9 a6 3e be 26 e9 be
       -0.19570515 0.4809726 0.32612008 -0.4553737
000070 ac e5 2d bd ea 68 f1 3d 4d 78 93 3d 40 b4 ce 3e
       -0.04245536 0.11787589 0.0720068 0.40371895
000080 ca 5c af 3d ae 50 e8 be 47 7e 23 be 59 5d 73 3d
       0.0856262 -0.45374054 -0.1596614 0.059415195
000090 25 8a 5e 3d 1f 3b e2 3d f6 37 0e be 13 e5 f5 3d
       0.054330964 0.11046433 -0.13888535 0.12006583
0000a0 15 13 a8 3e 25 04 3a be fd c8 ad 3e 40 c7 6b bc
       0.32827058 -0.18165644 0.33942404 -0.014390767
0000b0 78 f0 b8 bd be af fe 3e d8 72 ac 3d c4 a4 6c be
       -0.09030241 0.49743456 0.08420342 -0.23109728
0000c0 85 00 b5 3e c7 60 cc bd 88 88 16 3c 7d 73 20 bf
       0.3535196 -0.09979396 0.009187825 -0.6267622
0000d0 aa 28 f5 3b 34 87 02 3e 4d 6e 78 bd c9 ca 07 be
       0.007481654 0.12746888 -0.060652066 -0.1326095
0000e0 3e c8 0e 3e e8 cd 24 bd c9 eb d6 3e 10 dc f2 bc
       0.13943574 -0.04023543 0.41976765 -0.02964595
0000f0 e1 dc fd bc 3d cc ab be 7f f6 d0 be 04 1c b1 be
       -0.030989112 -0.3355426 -0.40813062 -0.34591687
000100 61 54 a8 3e 18 1e 1f 3e 52 5d ec 3e a8 54 d2 be
       0.32876876 0.15538824 0.46164948 -0.41080213
000110 43 6a d0 bd 7d 69 43 be 0a 26 c2 bd 66 76 5e bd
       -0.10176518 -0.1908321 -0.094799116 -0.054312132
000120 6a 6b 8e be 07 1b 96 3e c0 20 12 3e af 27 ea be
       -0.27816325 0.29317495 0.14270306 -0.457334
000130 fd e7 eb 3e d3 c3 9a 3d 4c 88 f1 bd a3 4f d2 3d
       0.4607543 0.07556882 -0.11793575 0.10269096
000140 99 c4 c6 be 9a d1 8c 3e 82 cd b3 be a1 db 01 be
       -0.38821867 0.27503663 -0.35117728 -0.12681438
000150 8b d2 5e 3e e2 81 6c 3e 2b cc 08 be 97 50 01 3d
       0.21760003 0.23096421 -0.13359134 0.031570997
000160 1b e6 de be 87 f5 47 3d 9a 8a 3d be 1a 42 e0 be
       -0.43534932 0.048818137 -0.18509904 -0.4380043
000170 b2 c6 71 be 1a 36 c0 be 94 6b 4b be 52 7f 4e 3e
       -0.23610952 -0.37541276 -0.19865257 0.20165756
000180 62 1f 84 3e dd 41 e7 3d c2 48 d5 3d f3 b4 27 3e
       0.25805193 0.11291859 0.10414268 0.1637762
000190 60 f7 3c be 74 e3 15 3e a4 45 6b 3e d4 c6 a1 bd
       -0.18453741 0.14637548 0.22975785 -0.078992516
0001a0 2a 91 89 be 23 7c 7f be 32 73 88 be 80 52 b3 bb
       -0.26868564 -0.24949698 -0.26650387 -0.0054724813
0001b0 8a 8b 26 be 24 f1 37 3e a9 82 13 3d b4 66 62 be
       -0.16264167 0.17963082 0.03601328 -0.2210949
0001c0 51 c8 5d 3d af 18 1d 3e f8 38 b7 be 64 ed ea 3d
       0.054146115 0.15341447 -0.3578565 0.1147106
0001d0 a6 51 d6 3e 35 95 38 3d d8 ca bf bd bd 20 eb bd
       0.41859168 0.04506417 -0.09364861 -0.11480854
0001e0 5a 43 a9 3d 98 e5 ad be 44 64 e7 3e 66 2f e2 3e
       0.082647994 -0.3396423 0.45193684 0.44176787
0001f0 00 54 13 3c b8 a4 90 3d fa f7 82 3e 2c 49 64 be
       0.008992195 0.070626676 0.25579816 -0.22293538
000200 b7 cd b1 be 3d 51 4e be a0 cd bd be e2 04 3f 3e
       -0.3472726 -0.20148177 -0.37070942 0.18654206
000210 10 5a b0 3d da 87 09 3e 1e 7b 11 be 2f 69 fb 3e
       0.08610928 0.1343073 -0.14207122 0.49103686
000220 d8 1b 22 3e 26 60 30 3e e0 35 d6 3c 8e 9d 21 be
       0.15830934 0.17224178 0.026148736 -0.15782759
000230 12 9f 88 be fe f1 f0 3e 80 44 b4 3e f9 a1 83 3d
       -0.2668386 0.47059625 0.3520851 0.06427378
000240 4c d7 df bd 5d e4 c1 3d 59 03 59 be 05 52 32 be
       -0.109297365 0.09467385 -0.21192683 -0.174141
000250 b1 e1 45 be c2 33 31 be e1 ca 46 be 97 16 60 3e
       -0.19324376 -0.173049 -0.1941333 0.21883617
000260 16 44 cb bd dd 99 6e 3c 0a 92 a8 3d 3a a5 a9 3d
       -0.09925096 0.014563051 0.0823098 0.082834676
000270 3f 63 a5 3e 7e 2d 93 bc 3f 2b a7 be f2 9c cf bd
       0.3230228 -0.017966028 -0.32650182 -0.10137357
000280 11 03 c5 3e c1 d4 8a bd 43 b8 18 3e 86 f1 ae be
       0.38478902 -0.06778861 0.1491404 -0.34168643
000290 61 a1 ae 3d 71 f9 6f be 13 25 fc 3e 70 f7 9b 3e
       0.08526874 -0.23434998 0.49247035 0.30462217
0002a0 37 42 aa 3e 6c d9 82 3e 20 0a eb bc 6f ea 83 be
       0.33253643 0.25556505 -0.028691351 -0.25764796
0002b0 12 1c b1 be 6a 85 6f be 7a aa 30 be bd 45 e1 3e
       -0.34591728 -0.23390737 -0.17252532 0.4399852
0002c0 8f 12 71 be 75 78 bf 3c 0f 17 a5 3e d0 c5 8a bd
       -0.23542236 0.023372868 0.32244155 -0.06776011
0002d0 cc 74 0b 3e b2 3c da be 75 02 ba be f6 c7 3b 3e
       0.13618773 -0.42624432 -0.3633 0.18337998
0002e0 3e dc a1 3e 9a 8d 94 be e3 25 94 be 69 90 fa 3d
       0.31613344 -0.29014283 -0.28935155 0.12234575
0002f0 43 a9 d9 be 24 d9 12 3e a5 56 a8 3e 52 4e 68 3d
       -0.4251195 0.14340645 0.32878605 0.056715317
000300 4b 98 68 be 04 d1 16 be 9b e6 1a 3e e9 5c 37 be
       -0.22714345 -0.1472817 0.15127032 -0.17906536
000310 97 ed 01 bf 22 6e d8 3c b0 77 40 3e 1b db 13 3e
       -0.5075316 0.026419703 0.18795657 0.14439051
000320 0f 38 8e bd aa 0d a8 3e 4a fa 50 be c3 77 bd bd
       -0.06944286 0.32822925 -0.20407978 -0.09251358
000330 27 1f fa 3d 6c 43 b3 3d ca e2 ec be ef 93 2e 3e
       0.12212973 0.08753094 -0.46266776 0.1704862
000340 e5 27 af be e1 83 83 3e 70 88 52 be 84 13 7a 37
       -0.34210125 0.25686553 -0.2055986 1.4905705e-05
000350 c0 a6 c5 3d 3f 70 b0 3e b0 ac 25 be 10 25 2a 3e
       0.09650946 0.34460637 -0.16179156 0.166157
000360 ee 22 a6 3e ea 22 b1 bd 0a e8 c1 be d0 0b 8d be
       0.32448524 -0.086492375 -0.37872344 -0.27548075
000370 fd c6 5e 3e cd 33 8e be cc 09 c3 bd 1a 38 58 3e
       0.21755596 -0.27773896 -0.09523353 0.21115151
000380 a6 08 e1 be 64 b1 b0 be 26 c3 c9 3e 31 86 ef bd
       -0.4395191 -0.34510338 0.394067 -0.11695517
000390 8d c4 e2 bb ea 3e 68 3e f6 82 db 3d 43 8a 03 3f
       -0.0069204033 0.2268025 0.10718338 0.51382846
0003a0 20 b8 7c be fe c0 16 3e e7 22 10 bc d4 d2 a8 be
       -0.24679613 0.14722058 -0.008797384 -0.3297335
0003b0 84 1b 57 3e 30 3b b1 3d d4 8b 97 bd a1 4e 93 be
       0.2100659 0.08653867 -0.07399717 -0.28770927
0003c0 b2 9c 58 3d 93 ae 18 bf 14 6b 38 3e 65 75 78 bd
       0.05288381 -0.5964138 0.18009597 -0.06065883
0003d0 0f 95 f9 3d 18 fa bd 3d 51 13 d2 be e6 d0 96 3e
       0.12186634 0.09276217 -0.41030362 0.29456252
0003e0 4a 10 97 bd 2d 23 c9 be 96 e5 f1 bd 16 91 ee 3b
       -0.07376154 -0.3928465 -0.11811368 0.007280479
0003f0 49 84 66 be a8 8f 91 3e c7 e9 15 3d 87 6e 51 3e
       -0.225114 0.28429914 0.0365999 0.20452319

bias f4 [128]
000000 2f 4b 48 3e 18 eb b0 bd 3a ea 45 be e2 4e 3c 3e
       0.1955993 -0.086385906 -0.19327632 0.18389466
000010 e4 c0 04 be f5 19 8d be 52 f1 8a bc ca 99 1a be
       -0.12964207 -0.27558866 -0.016960774 -0.15097728
000020 dd 50 a0 be c3 40 02 3e bd 2c cd 3e a4 47 6a be
       -0.31311694 0.12720017 0.40073195 -0.22878891
000030 07 f9 89 bd ea fd 4b be 9c b0 84 bd 28 55 8d 3d
       -0.06736951 -0.1992108 -0.06478998 0.06901008
000040 73 e2 b4 3e 24 58 d3 3c ea 28 26 be 7f ef 8a be
       0.35329017 0.025798865 -0.16226545 -0.27135846
000050 f5 06 69 be 68 4e 6e be a0 f5 81 3d b8 f9 a9 bd
       -0.2275656 -0.23272097 0.063456774 -0.08299583
000060 fb 35 8a be 96 6b b8 be 99 d4 7a bd 41 c0 9d be
       -0.2699431 -0.36019582 -0.061237905 -0.3081074
000070 d4 40 d4 be 8f 97 75 3e d1 d9 65 3d f4 5a 05 bd
       -0.4145571 0.23983596 0.05611593 -0.032557443
000080 c3 f7 31 3d 36 d2 12 be d0 15 c5 3d 95 91 ae be
       0.043449175 -0.14338002 0.09623301 -0.34095445
000090 fb cf 0e bd ff 25 26 3e 94 5e 19 3e dc 68 b8 3e
       -0.034866314 0.16225432 0.14977485 0.360175
0000a0 fc c8 bf 3d 33 4e 8a 3e 84 38 ac bd 90 e8 2b bd
       0.093645066 0.27012786 -0.08409217 -0.041969836
0000b0 3a b3 1b be 67 91 07 3e 55 63 b9 be 19 64 59 be
       -0.15205088 0.1323906 -0.36208597 -0.2122959
0000c0 07 2f a2 3e 51 47 8d 3e 8a 54 fe 3d 12 cf 81 be
       0.31676504 0.27593473 0.12418468 -0.25353295
0000d0 43 3e 80 3e 36 41 e2 be 71 ef 72 3e 0f fe af 3c
       0.25047502 -0.44190377 0.23724152 0.02148345
0000e0 bb 31 53 be b3 a5 88 bd 78 ae ea 3d cd 1f 99 be
       -0.2062444 -0.066722296 0.114590585 -0.29907075
0000f0 34 93 26 be 59 68 5a 3e a1 e1 ec bd 88 39 7c 3e
       -0.16267091 0.21328868 -0.11566473 0.24631321
000100 3a 30 be 3e 78 4c cd 3c e8 2b 52 3e 7a 6e 5e 3e
       0.3714617 0.025060877 0.20524561 0.21721831
000110 1a be 88 be d6 5f 1c be 15 5b 59 3d 67 9c 33 bc
       -0.26707536 -0.15270934 0.05306538 -0.010962582
000120 0c 6e 9d 3e 2e e1 46 3e 20 8a 3b be 16 b7 8a 3e
       0.30748022 0.19421837 -0.1831441 0.27092808
000130 89 4b af be 93 82 08 3c 2f 35 4d 3e 8d ac b1 be
       -0.34237316 0.008331913 0.20039819 -0.34701958
000140 2b 53 be be 28 9c 63 bd ce 48 54 be 18 81 1c 3d
       -0.37172827 -0.055568844 -0.20730898 0.03820905
000150 c9 e2 c8 3e 29 48 bc be 3e 13 af be 1a 9f b7 3e
       0.39235523 -0.36773804 -0.34194368 0.35863572
000160 32 24 40 be c7 a4 a7 3d 45 37 6e 3e 8a c3 9c 3d
       -0.18763807 0.08185726 0.23263271 0.076544836
000170 9f 6d e4 be b1 2b b9 3c 67 65 bd 3e cc 63 dd 3e
       -0.44614884 0.022603841 0.36991426 0.432402
000180 87 bd 46 be 1b 76 71 3e 39 5a 75 3e 43 61 d9 be
       -0.19408236 0.2358021 0.23960198 -0.42457017
000190 c7 a7 73 be 45 9d 5a 3e e0 e5 31 3e a9 71 d5 be
       -0.2379447 0.21349056 0.17372847 -0.41688278
0001a0 4b 7a 11 be 33 79 37 be 4c 36 be bd 8b 7f 7c 3e
       -0.14206807 -0.17917328 -0.092877 0.24658029
0001b0 1e 29 d2 be e4 4c a8 be 0b 02 a1 3d 3d e3 81 3e
       -0.41046995 -0.32871163 0.07861718 0.25368682
0001c0 83 d9 0e 3e 79 be 58 3d 9f 0e 24 3e 34 f6 07 3d
       0.13950162 0.052916024 0.16021203 0.033193782
0001d0 da ae 00 be 4b 49 59 be 56 05 9b be 51 e4 8c 3e
       -0.125667 -0.21219365 -0.30277508 0.27517942
0001e0 8a 5c c9 bd a2 95 be bc 68 31 ea 3e e2 b6 7e be
       -0.098321036 -0.02326471 0.4574082 -0.24874452
0001f0 8b a5 98 3e b5 35 5e be b3 c8 bb 3e 49 8b 97 bd
       0.298138 -0.21700175 0.3667656 -0.073996134

weight f4 [128, 128]
000000 c5 80 c5 3a 8b df 45 be c4 d3 cd 3c f7 3c 07 be
       0.0015068284 -0.19323556 0.025125392 -0.1320685
000010 28 fb c6 3c df b0 bc bc f8 21 00 bd a8 0f 0d 3d
       0.024289683 -0.023033557 -0.031282395 0.03443876
000020 71 f5 13 3c d1 40 0e bd 4e a7 42 be 92 d5 33 be
       0.009030686 -0.034729782 -0.19009134 -0.1756194
000030 55 c9 9e 3d a2 e9 26 be c2 82 30 bb e7 8c c8 3d
       0.07753245 -0.16300061 -0.0026933406 0.097925
000040 d9 80 2e 3c 20 fa 8d 3d 79 e6 8c 3d 8f 20 bf 3d
       0.010650837 0.06932473 0.06879897 0.09332382
000050 46 c3 7b 3c d8 4c 34 bc 48 b4 00 bd 4c ff d8 bc
       0.015366381 -0.011004649 -0.03142193 -0.026488923
000060 92 a6 8c be 3b fd 51 bd 30 9a d8 bd b6 44 09 be
       -0.27470833 -0.05126689 -0.10576284 -0.13405117
000070 aa 36 c6 bb 79 f7 85 3d f7 a2 65 3d 32 16 28 bc
       -0.006048997 0.06541342 0.05606362 -0.010259198
000080 51 0e af 3d 41 d0 11 3c e6 c7 61 3d e9 eb a7 bc
       0.085476525 0.008899749 0.05512228 -0.020498233
000090 58 fb 45 bc c6 8e 94 be 0c fb 98 3d f6 8f 9e bd
       -0.012083851 -0.29015177 0.074697584 -0.07742302
0000a0 74 ef 14 3d 49 15 4c 3c 78 d1 ed bd 42 8c 36 be
       0.036361173 0.012456247 -0.116122186 -0.17826942
0000b0 20 22 9f bc db b6 25 3e 3d f6 7e be fa 88 73 bd
       -0.019425452 0.16183035 -0.2489862 -0.059456803
0000c0 9d 06 39 bd 4d 0e df 3b 6e f2 12 3c b1 7a 8a 3d
       -0.045172323 0.0068071247 0.008968933 0.06761683
0000d0 98 15 23 bd 9a db 28 bd 85 58 86 3d d8 eb 9e bd
       -0.039815515 -0.041225053 0.065598525 -0.077598274
0000e0 9c 5e ef 3d cf 09 84 3d 55 a9 80 3d 0a 78 30 3d
       0.11687967 0.06447183 0.062822975 0.04308323
0000f0 e0 65 68 bd c5 8e 71 3d f1 32 6c bc 66 02 82 bc
       -0.05673778 0.058974046 -0.014416442 -0.015870284
000100 b9 a6 96 3d 00 dc 87 bb fe 53 dc bb 0f 8e 45 bf
       0.073560186 -0.004146099 -0.00672388 -0.7716989
000110 d6 97 b4 bd 1a 25 fb bd ca 50 36 bd 4f 9d 1d 3c
       -0.08818023 -0.12262936 -0.04451064 0.009620025
000120 39 77 a7 3d 0b 07 60 3d c9 9f 3c bd 42 c4 c0 3d
       0.08177037 0.054694217 -0.04605082 0.09412433
000130 7e d9 61 bd fa 5a c2 bc a7 1b f5 bc 4d e8 f9 bd
       -0.055139057 -0.023725022 -0.029920412 -0.12202511
000140 fc 63 98 3d 23 30 bd 3c 59 97 eb be 1b dc 9e 3d
       0.074409455 0.023094242 -0.46013907 0.077568255
000150 bb d3 92 3d 18 f5 1f bf 98 ea 07 3d 99 e4 b6 bd
       0.07169291 -0.6248336 0.03318271 -0.0893032
000160 0e 0a 51 3d e8 93 5f be 46 84 fd 3d 5f 40 05 3d
       0.05103498 -0.21833766 0.12378745 0.032532092
000170 54 54 7e bd 02 f7 03 bf 23 26 ef bb 0c 91 78 3d
       -0.06209214 -0.5154878 -0.0072982474 0.060685202
000180 97 28 73 be 10 0d 4b be a3 ed d0 bc 32 98 80 bd
       -0.23745953 -0.19829202 -0.025503939 -0.06279029
000190 fe 2d 1c 3e 65 5d 88 3d 26 eb 13 be c4 4d fb bc
       0.1525192 0.066584386 -0.14445171 -0.03067673
0001a0 35 d9 50 3d 72 68 c0 bd 40 07 bc bb 44 36 2c 3c
       0.050988395 -0.09394921 -0.005738169 0.010510985
0001b0 74 d3 23 bd e3 99 91 3d b3 59 3b bd 20 8c 85 be
       -0.03999658 0.0710943 -0.04573984 -0.2608347
0001c0 fd cd 99 bd e8 18 a4 3a 83 92 70 bd be 6a 2d 3d
       -0.07509992 0.001251963 -0.058733474 0.042338125
0001d0 14 f1 cb 3c 2c 12 a1 3d d1 d3 04 3c 7b a5 6d be
       0.024895228 0.07864794 0.008107142 -0.23207657
0001e0 89 7e ae 3d d6 e6 8f 3d 32 ef 93 3d 88 72 4a be
       0.085202284 0.0702645 0.07223357 -0.19770253
0001f0 fb 1f 89 3d b6 a3 19 bf da 11 95 be 22 02 e8 3c
       0.06695553 -0.6001543 -0.29115182 0.02832133
000200 0a 08 28 3d 14 46 0e be 22 7a 2d 3d ae 6a 45 bd
       0.04102329 -0.1389392 0.042352803 -0.04819744
000210 70 3a de bb 28 3d 93 3d e1 8a cf 3d f0 13 5a 3c
       -0.0067818686 0.07189399 0.10133911 0.0133104175
000220 15 23 97 bd a6 4d 6b bc 10 5a 2c be d0 bc 16 be
       -0.07379738 -0.014361775 -0.16831231 -0.14720464
000230 29 51 6e 3b ed 37 07 3e 12 0d 7a 3d 02 7a 4b 3e
       0.0036364293 0.13204928 0.06104762 0.19870761
000240 37 e6 9e 3c c4 b8 85 3d 64 e5 eb bc 16 86 1b 3e
       0.019396884 0.06529382 -0.028795905 0.15187868
000250 d8 d0 0e be 64 8f 87 bd c5 4f d7 bd 88 d8 69 3e
       -0.13946855 -0.066191465 -0.10513262 0.22836506
000260 96 50 22 be 6c 45 e0 bc 6f 19 82 be 25 03 5c be
       -0.15851054 -0.027376853 -0.2541003 -0.21485575
000270 af ba ee bd 94 b2 62 bd bc 33 e9 3d c4 dd 0f 3e
       -0.11656701 -0.055346087 0.11386821 0.1404944
000280 dd eb c1 3d 5d a4 72 3d 5a 7a 1b 3d 60 b4 c9 bc
       0.094688155 0.05923878 0.03795848 -0.024622142
000290 ee b1 fd bd 07 e0 ee bd b2 3a 7e 3d a0 44 1e be
       -0.12387453 -0.116638236 0.062067695 -0.15455866
0002a0 2b 6c 49 3d 0e b9 aa 3d 5c 13 8b bd 06 35 1c be
       0.049175423 0.08336078 -0.06790802 -0.15254602
0002b0 96 46 56 bd bd d9 6b 3d 73 a7 b7 3d c4 4d 5c bd
       -0.05231341 0.0575807 0.08967485 -0.0537851
0002c0 ca 88 74 bd b5 84 6a be 82 c2 e2 3d 7b 62 6c 3b
       -0.059700765 -0.22902186 0.11072256 0.003606944
0002d0 2f 7a 9c bd 18 d2 64 3c 35 d6 79 3d 31 be d3 bc
       -0.07640492 0.013966106 0.0609953 -0.025847526
0002e0 92 71 4a 3d 69 6c 26 3e 67 9c 77 3c bc 66 a4 3c
       0.049424715 0.16252293 0.015112973 0.020068519
0002f0 58 1a 22 bc a2 7c 91 3d 90 71 22 3e 18 da 6a bc
       -0.009893976 0.0710385 0.15863633 -0.014334224
000300 13 9b b5 3d cf a8 07 be 52 dd 55 3d 62 dd 09 bd
       0.08867469 -0.13247989 0.05221302 -0.033658393
000310 96 32 eb bd cb 4c 25 be 09 eb e6 bd ee d9 ea bd
       -0.11484258 -0.16142575 -0.11275298 -0.11467348
000320 08 e4 cc bc 50 e5 41 3d 7a a4 f9 bd b8 8f bd 3d
       -0.025011078 0.04733783 -0.121895745 0.09255928
000330 d0 34 33 3c cc 75 f3 bd f9 aa fa bd 02 92 a7 bd
       0.010937884 -0.11887702 -0.12239642 -0.08182146
000340 0c b2 bf bd 55 c2 9f bd 6d 19 06 bf 86 14 f5 bc
       -0.093601316 -0.07800738 -0.52382547 -0.029917013
000350 5f 8c 35 bb 7a e1 07 bf ce a7 8b 3d 07 10 ab 3d
       -0.0027702076 -0.53078425 0.068191156 0.08352666
000360 5b c2 9c 3d d4 c9 8c bd 58 10 18 bc e3 cd fb bd
       0.07654258 -0.06874433 -0.00928124 -0.12295129
000370 44 e3 2b bd 0b 67 25 be 76 e1 36 bd 2b 08 dd bd
       -0.041964784 -0.16152589 -0.04464861 -0.107925735
000380 aa 87 96 be 0c 85 8e 3c f4 23 59 be 72 17 b2 bd
       -0.29400378 0.017397426 -0.21205121 -0.08695878
000390 d4 7b 3d 3e f1 6e 7d 3c 98 10 db bc 2a f3 2b be
       0.18504268 0.015468345 -0.026741311 -0.16791978
0003a0 c7 da 6e 3c 5f 1e 20 be cf bc 8c bd 4d c6 84 bc
       0.014578528 -0.15636586 -0.0687195 -0.016207838
0003b0 98 7e 3f bc d0 03 a9 bc 01 e6 27 be ae c1 03 be
       -0.011687897 -0.0206317 -0.16396333 -0.12866852
0003c0 25 a8 8c bd de 92 5f bc 92 42 ae 3d df c3 30 3c
       -0.068680085 -0.013645856 0.08508791 0.010788887
0003d0 97 b2 88 3c ef 2f ed bd 8d c7 4a 3c 2f 2f 51 be
       0.01668672 -0.11581408 0.012376678 -0.20428155
0003e0 be 15 af 3d dd 1e b3 3d 30 fe 96 3c 1b 4f fe bd
       0.08549069 0.08746121 0.018431753 -0.12417432
0003f0 6c 95 b0 3d 79 84 a9 be 44 08 0e be c5 ee 17 be
       0.0862225 -0.3310888 -0.1387034 -0.14837177

bias f4 [128]
000000 68 74 af bb cb 01 6f bd 6c bb 95 bd 58 69 47 bd
       -0.005354453 -0.05835132 -0.073111385 -0.048684448
000010 28 ee 23 3c eb 8f 9f bc 28 74 07 b9 0d 9a 8d bc
       0.010005511 -0.019477805 -0.00012917875 -0.017285371
000020 96 63 d5 3c 01 e5 0a 3d 81 14 b3 bc 84 ae b0 bb
       0.026048463 0.0339098 -0.021860363 -0.0053918976
000030 8c 73 cd 3d 38 6e 65 3d 9a 77 f4 3c e8 13 43 3d
       0.100318044 0.056013316 0.029842187 0.047626406
000040 b0 b5 42 3c 7c 75 6f bd 94 93 07 3d 41 c2 36 bc
       0.011884138 -0.05846165 0.033099726 -0.011154712
000050 6f a3 4f 3d 13 11 00 bd 38 e2 07 39 0f ea 86 3c
       0.05069297 -0.031266283 0.00012958876 0.01646903
000060 38 64 a1 bd 4e 10 0c bd 8c a3 b2 bd ea 8e 4d 3d
       -0.07880443 -0.034195237 -0.087226 0.05018512
000070 07 36 65 bd 96 10 5a bc 84 0d 54 bd 97 f1 b6 bd
       -0.055959728 -0.013309618 -0.051770702 -0.08932798
000080 40 8d e4 bc 32 1f 77 bd 13 f0 ca bd 4f b3 51 bb
       -0.027899384 -0.060332485 -0.09909072 -0.0031997745
000090 a0 56 f4 3c 04 e0 09 bd 96 7b 87 bd ee aa 55 bd
       0.029826462 -0.033660904 -0.06615369 -0.052164964
0000a0 17 25 86 bd 27 56 19 3d c9 f4 3d bc 24 e8 67 3d
       -0.06550043 0.037435677 -0.011594006 0.05661787
0000b0 d7 c2 9a bd 4f a5 b1 3d 91 6a df bd a8 2c 27 bd
       -0.07556694 0.08674108 -0.10908998 -0.040814072
0000c0 27 31 9f bc a5 87 28 bd c0 ca 68 3d c4 d4 80 3d
       -0.019432617 -0.041144986 0.056833982 0.06290582
0000d0 48 69 03 bd e1 91 24 3d f4 8b 44 3d 03 87 0d bd
       -0.032082826 0.040178183 0.047985032 -0.034552585
0000e0 31 46 b2 bc 17 62 f9 3c 13 ef 15 bd 3f 00 a6 bb
       -0.021761985 0.03044228 -0.036604952 -0.0050659473
0000f0 9b 3b a7 3c 41 5e c0 bd 4c 76 13 bd e5 ee 7f 3c
       0.020414164 -0.093929775 -0.03600149 0.015620922
000100 6a 18 bd bd d3 16 da bc c4 8c 83 bd 7d c5 ac 3d
       -0.09233172 -0.026622212 -0.06423333 0.084361054
000110 99 b3 c9 3d 3b b7 0b 3d 19 80 db bd 2c 6d c5 bc
       0.09848709 0.03411029 -0.10717792 -0.024099909
000120 c9 16 9a 3c ab b3 e6 3a 2c c2 f7 bc 27 bf 76 bd
       0.018809693 0.0017601153 -0.030243956 -0.06024089
000130 bd 00 4d 3c f3 95 0b bc b7 cd 0d 3c 38 17 8b bd
       0.012512383 -0.008519637 0.008655003 -0.06791538
000140 90 c8 5e bd 90 bf 33 3c e0 75 ae bb 67 73 6a 3d
       -0.05439049 0.010970965 -0.0053241104 0.057238963
000150 22 81 9e bc 31 54 92 3c cc c4 94 bc 7c 78 de 3b
       -0.019348685 0.017862411 -0.018160246 0.006789265
000160 e3 dd 22 bc 81 99 b6 bb 94 14 7f bd 59 17 86 3d
       -0.009940597 -0.0055724983 -0.062275484 0.06547422
000170 49 24 9b 3d 15 80 23 3d c3 fd b0 3c d6 13 53 3d
       0.0757528 0.03991707 0.021605378 0.05153259
000180 4e 38 23 bb 03 b4 c4 bd 06 cf 13 bd c1 d7 fe bc
       -0.0024905386 -0.09604647 -0.036086105 -0.031108739
000190 cc cb 63 3d 6a 42 55 3d ed d3 a4 bc 90 c0 d2 bc
       0.055614278 0.05206529 -0.020120585 -0.025726587
0001a0 88 c7 83 3c 85 8b a0 bd 0e b1 63 bc 30 ec 00 bb
       0.016086355 -0.07839111 -0.013897194 -0.0019672029
0001b0 91 c4 b2 bd bd 73 05 3d 33 c3 63 bd 68 d1 a8 bd
       -0.08728898 0.03258108 -0.05560608 -0.08243066
0001c0 94 76 03 bd fa 84 d1 3c d5 64 79 bd 27 38 8f 3b
       -0.032095507 0.025576103 -0.060887177 0.0043707076
0001d0 cf 41 94 3d 23 91 92 3c 07 27 22 bd e6 21 45 3d
       0.072391145 0.017891472 -0.039588 0.04812803
0001e0 f6 fc 89 bd fd 21 99 3d 40 08 cb 3d 73 0d c2 3b
       -0.067377016 0.07477186 0.09913683 0.0059220134
0001f0 37 bf 6c bd ae 8b f9 3c 34 30 d9 bc db b2 7d 3b
       -0.057799544 0.030462112 -0.026512243 0.0038711342

weight f4 [64, 128]
000000 7c 13 df bd 89 af 1f 3c b5 d3 9a bd 1b 8e 5d bd
       -0.10892388 0.009746441 -0.07559911 -0.0540906
000010 9a b5 09 be 5f d8 1a 3d d8 7c 1c b9 0c 8a d4 3d
       -0.13448182 0.037804004 -0.00014923827 0.10377893
000020 61 0d da 3b b9 10 88 3c 23 a9 1d be b8 f2 b4 3e
       0.006654427 0.016609536 -0.15396552 0.3534143
000030 aa cc c7 bb a4 9d 57 bd dd 81 7b be d8 c5 79 3c
       -0.006097396 -0.052640572 -0.24561258 0.0152449235
000040 c6 70 be bd d0 a2 6c bd 10 4c 9d bd 1f ee b7 bd
       -0.092988536 -0.057772458 -0.076805234 -0.08980965
000050 a4 7a ad bd 52 a9 7a 3d 7e 9b 0e 3e 18 05 85 bd
       -0.084706575 0.061196633 0.13926503 -0.06495112
000060 50 1c 1d bc 67 01 01 bd 6a c6 41 3d 87 01 15 3d
       -0.00958927 -0.031495478 0.047308363 0.03637841
000070 a6 08 07 bd e9 2d 03 be 07 3d 49 bc d4 fb 72 3d
       -0.032967232 -0.12810482 -0.012282616 0.059322193
000080 ee 2d b1 bd f1 08 d1 3d 8b 31 55 bd d6 f4 87 3e
       -0.086513385 0.102067836 -0.0520492 0.26553982
000090 0f 79 70 bd 29 ba e0 bc 94 2d e0 3c b1 4e e7 3b
       -0.0587092 -0.027432518 0.027365483 0.0070589413
0000a0 78 68 91 bd 45 6f aa 3d 1a 14 c4 bd 7c 99 b3 3d
       -0.07100004 0.08322004 -0.095741466 0.08769509
0000b0 20 80 95 bc bd 6b 3e 3d 16 8e ca bb f3 bd 47 bd
       -0.018249571 0.046489466 -0.0061814887 -0.048765134
0000c0 ae 1d 0e bd 4e 08 cb 3c 83 b9 4d 3d 43 0e 19 bc
       -0.034696274 0.024784233 0.050225746 -0.009341779
0000d0 8b 61 28 bd 3f 2e 8f 3d 3a 65 00 bd 8a 86 de 3d
       -0.04110865 0.069912426 -0.031346537 0.10865505
0000e0 75 bf 0f 3d f5 0c 47 3c 5a 47 f9 bd 8c 3b 93 bd
       0.035094697 0.012149085 -0.12171812 -0.07189092
0000f0 0c 52 c0 bd b5 5c 9c 3d 1b b5 98 3d 52 65 89 bd
       -0.09390649 0.0763487 0.07456418 -0.067087784
000100 76 1d 02 3d c0 b9 9b bc 92 f2 b8 3d 83 39 7d 3c
       0.031766377 -0.019009471 0.090306416 0.015455606
000110 64 4e 53 bd 24 28 40 bd bd 87 12 be 69 80 1a be
       -0.05158843 -0.04691328 -0.14309593 -0.15088047
000120 1b bc c7 bc b6 0e 89 bd 6d 2d cb bc 52 45 af bd
       -0.024381688 -0.06692259 -0.024801934 -0.08558144
000130 e4 c9 5e 3d af 7e 5e 3c 93 b2 de bd 8a 32 1e 3d
       0.054391757 0.013580008 -0.10873904 0.038622417
000140 67 00 35 3e 9c ae 29 be d3 87 a9 3d 44 40 25 be
       0.17675935 -0.16570514 0.082778595 -0.16137797
000150 88 6a 27 3e be a6 a4 bd 27 e2 64 3d a0 8e 4c 3c
       0.16349232 -0.08039616 0.05587974 0.012485176
000160 77 09 14 be 8d 80 6d ba ef cf 26 3d 83 b5 77 be
       -0.14456736 -0.0009059988 0.040725645 -0.24190335
000170 f3 64 9e 3b c6 ed a8 bc f4 9c b2 3d d8 aa d9 bd
       0.0048338114 -0.020621192 0.08721343 -0.10628289
000180 0d 41 4f 3d 56 61 ef bd 1a b1 1e 3d d9 53 64 3e
       0.050599147 -0.11688487 0.038743116 0.2229761
000190 76 91 8f 3d 59 e1 f7 3c 10 25 15 bd 00 91 0b 3d
       0.07010166 0.030258821 -0.0364123 0.03407383
0001a0 b5 4c 95 bc 6f 10 82 3d 2a d1 a7 3b ee f5 f9 3d
       -0.018225053 0.06350791 0.00512137 0.122051105
0001b0 88 bc 22 bc a8 9d 7b bc cc 62 6d bd 8e 72 2e bd
       -0.009932645 -0.015357412 -0.05795555 -0.042589717
0001c0 8f fb f8 3d c4 fd 9b ba cb 15 23 3d 0b 47 85 3e
       0.12157356 -0.001190119 0.039815705 0.26030764
0001d0 06 f7 3c 3d 96 8a e8 bd 58 aa a3 3e 66 17 b7 bc
       0.046134017 -0.11354558 0.319659 -0.022350024
0001e0 9b 28 9b 3d ef d9 6a be 12 34 79 bc 02 df 71 3d
       0.07576104 -0.22934698 -0.015210168 0.059050567
0001f0 5b 9c a3 bd 0c d0 94 3c fa 82 56 3d 2d c9 2d bc
       -0.07988807 0.01816561 0.052371003 -0.010607046
000200 da 3e 0f 3c d2 60 54 bd a2 37 54 3c 0e a5 e9 bd
       0.008743012 -0.051850148 0.012952717 -0.11408435
000210 53 4f 30 bf 7e a0 0a 3d 40 a2 37 3d 2a 7c 44 3d
       -0.6887104 0.033844464 0.044832468 0.047969975
000220 7e 0f d8 bb 8e 33 5b 3d 40 f6 33 3d 83 6b 4b 3e
       -0.0065936437 0.053515963 0.043936014 0.19865231
000230 38 dd af bd 35 cf bd bd 50 58 17 3d 7b 54 b2 bc
       -0.08587116 -0.09268037 0.036949456 -0.021768799
000240 9c ff f8 3d 1d f4 96 3d b4 3e fd 3c 91 17 a6 bb
       0.121581286 0.0737078 0.030913688 -0.0050687273
000250 aa 3a 3d 3d 4c d4 63 be bd d9 11 3e 89 4a be bc
       0.046198525 -0.22248954 0.14243217 -0.0232289
000260 4c 12 06 3d 71 73 ac 3c ee f2 73 bd 39 87 c0 3d
       0.032732293 0.02105114 -0.059557848 0.09400792
000270 c4 8f 2e bd 3b 6d 62 3d 7b aa 20 bc 14 37 32 3e
       -0.042617574 0.05527995 -0.009806271 0.17403823
000280 3d d1 89 3c 8b 80 27 bf 26 e1 b8 3d 80 eb 44 be
       0.016823405 -0.65430516 0.09027319 -0.19230461
000290 ab 22 07 bd 47 70 56 bf 1e 55 a3 bd c7 12 81 bd
       -0.032992046 -0.8376507 -0.07975219 -0.063024096
0002a0 9d 48 9f 3d 1d 8e df 3d b2 4d a6 3d 2f 7d 09 be
       0.07777522 0.10915778 0.08120288 -0.1342666
0002b0 a2 e2 62 bd 34 ee 4a be 8a 09 a1 3d da 92 b6 3d
       -0.055391915 -0.1981743 0.078631476 0.089147285
0002c0 d5 bc c0 3d 83 30 be 3c 4d 20 f5 3c 0a 52 a5 3c
       0.09411017 0.023216492 0.029922629 0.02018072
0002d0 44 fe aa 3d 82 54 87 bc 76 0c f2 3d cd ca ce bd
       0.083492786 -0.016519789 0.11818783 -0.10097275
0002e0 74 dd fb bc e8 fe 5f bd db 50 76 bd a2 37 ab 3a
       -0.030745246 -0.054686457 -0.060135704 0.0013062845
0002f0 ab 40 1a 3e 6c e0 ab bd 9b c3 95 3d fc cd cd bd
       0.15063731 -0.083924145 0.073126994 -0.10049054
000300 de d8 fc 3c 4c 14 f4 bc 31 81 d8 3e 88 5e ee bc
       0.03086513 -0.029794835 0.42286065 -0.02909781
000310 f3 1f 10 bd b9 a3 90 3d 51 72 a8 3c 6d 44 79 bd
       -0.03518672 0.070624776 0.020562323 -0.06085627
000320 48 06 1e be 71 3b 58 38 74 bf 1d be 70 16 63 bc
       -0.15432084 5.1553772e-05 -0.15405065 -0.01386033
000330 2c 9b 1d bd 89 ab bf 3d 2d c5 43 bd 23 58 83 bd
       -0.03847806 0.093588896 -0.047795463 -0.06413295
000340 78 5f 15 3f 8d aa 46 3e 20 eb 02 bd 0a 43 65 bd
       0.583488 0.19400997 -0.031962514 -0.055972137
000350 cf c5 72 be 64 bb fb be 71 63 6d 3c 1a 0e 02 be
       -0.2370827 -0.49166405 0.014489041 -0.12700692
000360 bf 83 db 3d fb b8 83 bd 63 ca f5 bc 60 93 7f 3d
       0.10718488 -0.064317666 -0.030003732 0.062396407
000370 3e 25 c5 3c a0 dc 39 3e 31 29 4a bc 8b 9a d8 3d
       0.02406561 0.18150568 -0.012338922 0.10576352
000380 a5 11 b0 3d 4d e8 d2 bc cd 21 80 be a7 c5 49 bd
       0.085971154 -0.025745535 -0.25025788 -0.04926076
000390 f5 7b 13 3d 01 47 24 be af 72 95 bb 60 0a 02 bc
       0.036006887 -0.16042711 -0.0045607905 -0.007937044
0003a0 b1 44 97 bc 89 52 80 3d 7c 19 89 3d ac 54 bc bd
       -0.018465372 0.06265742 0.06694314 -0.091958374
0003b0 f6 8f 88 bd 1a 5f 73 bc 34 95 30 3b 70 81 35 bc
       -0.06668083 -0.014854217 0.00269444 -0.011078224
0003c0 3c 1a 12 be 3f 46 08 bd d0 2f 59 bd 0e 39 a3 3e
       -0.1426782 -0.033270117 -0.053024113 0.31879467
0003d0 31 90 31 bd 48 41 58 be 6f 69 3d 3e d2 ea 28 be
       -0.043350402 -0.21118653 0.18497251 -0.16495827
0003e0 8c 95 02 3e 23 e3 31 be e7 ac 86 be fe 7b 6c 3d
       0.1275236 -0.17371802 -0.2630379 0.057735436
0003f0 e2 d6 f9 3c 09 33 1a 3d f1 dc 8d 3d 7c f6 29 3c
       0.030497972 0.037646327 0.06926907 0.010373708

bias f4 [64]
000000 bc db da bd b6 09 4c 3c 37 95 80 3d 44 54 b6 bc
       -0.10686442 0.012453487 0.062784605 -0.022256978
000010 4e a7 17 be 48 a4 b9 bc 05 12 0e bd 52 6c 0b bc
       -0.14809915 -0.022661343 -0.034685154 -0.008509712
000020 2b 86 a7 bd 8f 14 68 bb dc b0 0b be 59 31 99 bc
       -0.081798874 -0.0035412645 -0.13641685 -0.018700289
000030 e0 f1 0e be cc dd f4 3c 77 7d 8c bd b6 c0 22 bd
       -0.13959455 0.029890917 -0.06859868 -0.039734565
000040 ac 5d 81 3a 02 53 ae bd 44 d2 56 bd 7a 65 b0 3d
       0.0009869835 -0.08511926 -0.05244662 0.08613105
000050 ec 85 23 3c bc 7e 4f bd 8a 42 8b 3b f4 1f 03 3c
       0.00998066 -0.050657973 0.0042498754 0.008003224
000060 56 4c bb bc 92 dc fc 3d 32 6e bf 3c e9 eb 98 bd
       -0.022863548 0.12346758 0.023367975 -0.07466871
000070 64 b7 ea bd 89 00 9d 3c c5 86 06 3b d9 96 0f 3d
       -0.1146076 0.019165294 0.0020527106 0.03505597
000080 a2 ef 06 be ad a2 5e bd c6 ce ba bc 24 e8 a3 bd
       -0.1317735 -0.05435436 -0.022803675 -0.08003262
000090 4d 99 57 bc c7 4e db bd 2d 63 bd bd 89 21 8b 3d
       -0.013159108 -0.10708385 -0.09247432 0.06793506
0000a0 59 c8 7d 3d 63 c6 9e b9 28 41 8c bd 78 8e ea bd
       0.061958645 -0.00030283918 -0.06848365 -0.11452955
0000b0 f9 1e 4c bd 28 f0 6e bd 23 2b 0a 3d 99 29 a4 3d
       -0.049834225 -0.0583345 0.033732545 0.080157466
0000c0 b5 40 bf 3d 16 dd a5 bc c4 63 c5 3d 90 9f 03 bd
       0.09338514 -0.020247024 0.096381694 -0.032134593
0000d0 d7 41 4b 3c 58 53 67 3d 7e 3b 49 3d 93 f9 03 be
       0.012405834 0.056475967 0.049129 -0.12888174
0000e0 f7 81 c0 3c a9 c8 9e 3d 42 c4 15 3c 3f dd 66 bc
       0.023499472 0.07753117 0.00914103 -0.014090835
0000f0 7c 0c 40 3d 78 04 97 bc b3 85 90 3d ba 97 14 bd
       0.046886906 -0.018434748 0.07056751 -0.03627751

weight f4 [2, 64]
000000 bf 79 8a 3e 94 52 f3 3d 7d 67 4b be a2 03 8f be
       0.2704601 0.11880985 -0.19863696 -0.2793246
000010 9e 48 ad bd 67 fe 38 3d ce 85 64 3e 78 5b 91 bd
       -0.08461116 0.045164492 0.22316667 -0.070975244
000020 bb 06 09 be 7b 8b ba 3e 7a 4a 07 3f 47 cb 52 3e
       -0.13381474 0.3643454 0.5284802 0.20585357
000030 ea a1 32 3f e0 a1 82 3d 2d ea 31 3d 81 4e c1 3d
       0.6977831 0.063785315 0.043436218 0.094388016
000040 18 b1 4a be 00 7f 05 3c 52 af 56 bd f9 73 13 3d
       -0.19794118 0.008147955 -0.052413292 0.035999272
000050 8f 26 97 bd 9f 39 23 3c c9 38 06 3e 15 1b 06 3e
       -0.07380401 0.009962468 0.131076 0.13096268
000060 03 df c8 bd 17 a8 83 3e 9b 20 ca bc e3 c9 99 be
       -0.09808161 0.2571418 -0.02467375 -0.3003684
000070 a8 02 c1 bd 44 31 05 be 8b 47 d6 bd d6 1b 2b 3e
       -0.09424335 -0.13007075 -0.104628645 0.16709837
000080 89 2b e8 bd a6 e5 ab 3d 66 1c 01 3d 34 80 42 3d
       -0.11336429 0.08393411 0.031521223 0.047485545
000090 91 89 d3 bd 66 9a 69 bd 43 1d ab 3d b2 da f9 3d
       -0.10328973 -0.05703201 0.083551906 0.12199916
0000a0 a3 2d 36 be b7 1b 2e bd 3b 06 d7 3d 55 79 f8 bd
       -0.17790847 -0.0425069 0.10499235 -0.12132517
0000b0 f2 0a ba 3d e7 be 35 bd 93 49 67 bd ba 70 c3 3d
       0.09084119 -0.04437151 -0.05646665 0.09542985
0000c0 47 53 ae 3e 48 77 6f bc dd 8a 95 be fe a1 88 3c
       0.3404791 -0.014615841 -0.29207507 0.016678806
0000d0 6e 52 47 bd d9 45 8a be a8 9f 29 3e 21 e6 e0 be
       -0.048662595 -0.27006415 0.1656481 -0.43925574
0000e0 dc bb f7 3d 6c 3c 53 3d ba dd c9 3e e0 a2 99 bd
       0.12096378 0.051571295 0.39426976 -0.07501769
0000f0 a8 fd 88 3e 65 33 13 3e 86 c3 f6 3e a4 4a 60 bd
       0.26756024 0.14375074 0.48196048 -0.054758683
000100 5b 9c 93 be e6 fe 21 be b9 ef 12 3e b9 e1 42 3e
       -0.28830227 -0.15819892 0.1434926 0.19031419
000110 05 7a 85 3e 87 c7 d7 bd 93 c1 5d bd 04 a4 e2 3d
       0.26069656 -0.10536104 -0.054139685 0.1106644
000120 94 20 2d 3d 10 7c 0e bf 05 40 c5 be a9 e0 4f bd
       0.042267397 -0.55658054 -0.38525406 -0.050751362
000130 75 96 4a bf 6b 67 88 be a7 52 67 3b 44 81 e2 bd
       -0.7913583 -0.26641402 0.0035297067 -0.11059812
000140 6c 3c 81 3d 5b e6 19 be 7b bc 99 bd cc 88 28 bd
       0.06310353 -0.1502928 -0.07506653 -0.041146085
000150 ab 55 1a 3d d2 68 92 bd 59 5e e3 bd 1e 77 a0 be
       0.037679356 -0.07148899 -0.1110198 -0.3134088
000160 3b f3 0c 3e a7 52 b6 bd d2 63 2b 3d 6e 21 5c 3e
       0.1376466 -0.089024834 0.041843243 0.21497127
000170 84 99 14 3e 65 41 a6 bd 55 a4 8c 3d d2 36 29 be
       0.14511687 -0.08117942 0.06867281 -0.16524819
000180 a5 6f 65 3e 66 a2 74 bc cd e0 ba bd e5 da c5 3d
       0.2240587 -0.014931297 -0.091249086 0.096608914
000190 7a 3b 0a bd 59 e8 7a 3d b1 b0 78 bd fe fb 6a bd
       -0.033748128 0.06125674 -0.06071538 -0.057369225
0001a0 cd 54 cd 3c ef c5 90 bc 0b 8f b8 bd ca 68 a1 3d
       0.02506485 -0.017672507 -0.09011658 0.07881315
0001b0 ef e5 08 be 61 0b 0b be 9a 7a 6e 3c 0e 4b 5d be
       -0.13368963 -0.1357856 0.014555598 -0.21610662
0001c0 88 18 10 be 1b e4 2c be b2 00 8b 3e ae a6 79 3c
       -0.14071858 -0.1688389 0.27148968 0.015237493
0001d0 3c 15 fa 3b b9 e7 25 3e 40 8f 5b bd b4 88 d9 3e
       0.007631926 0.16201676 -0.05360341 0.4248711
0001e0 1e 9a 66 bd da d7 83 be 6c c9 72 be 4d a4 5b 3d
       -0.05629932 -0.2575062 -0.23709649 0.053623486
0001f0 ce c1 03 be ea bc 27 be 37 7a e4 be 87 c5 d5 bd
       -0.128669 -0.16380659 -0.44624493 -0.10438066

bias f4 [2]
000000 1b 91 78 ba bc 6f d7 3d
       -0.00094820716 0.105193585
