models/mountaincar_2D/checkpoint_att.16.pth.tar (torch_old, 105542 bytes, 8 tensors)

weight f4 [128, 5]
000000 9e e3 44 bf e2 29 96 be fd 77 68 3b 24 b6 8c 3e
       -0.76909816 -0.2932883 0.003547191 0.27482712
000010 eb 87 4a be 41 c0 e7 bb a2 f5 a0 3e 32 76 6b 3e
       -0.19778411 -0.007072479 0.31437403 0.22994307
000020 76 77 c9 3e 82 fd 5b bd 66 39 7b be 10 84 7b 3e
       0.39348954 -0.05370856 -0.24533615 0.24562097
000030 8f 8c 7d 3e 0c d9 a9 be b7 5f 7a 3e 99 68 27 bf
       0.2476065 -0.33173406 0.24450575 -0.6539398
000040 a9 c1 d1 be f1 72 51 3e a1 36 72 3e 4e 69 78 be
       -0.40968063 0.20454003 0.23653652 -0.2425892
000050 d6 f0 a7 be 80 e4 68 bd d8 45 db be 76 8a 81 be
       -0.3280093 -0.05685854 -0.42826724 -0.2530095
000060 ee 66 48 be 14 4b fa 3e 85 e3 a6 3e 38 b4 b9 be
       -0.19570515 0.48885405 0.3259546 -0.36270308
000070 47 31 85 bd 30 44 0a 3e d9 60 b2 3d 1b c3 cd 3e
       -0.065035395 0.13502574 0.087098785 0.40187916
000080 78 5c 9e 3c ae 50 e8 be 53 ba 21 be 39 c1 81 3d
       0.019331202 -0.45374054 -0.15793733 0.063356824
000090 be 1e 38 3d 17 92 09 3e f6 37 0e be 30 79 ce 3d
       0.044951193 0.13434635 -0.13888535 0.100817084
0000a0 65 13 b4 3e 26 f6 43 be fa f9 ab 3e 40 c7 6b bc
       0.35171047 -0.19136867 0.33589154 -0.014390767
0000b0 78 f0 b8 bd 41 02 00 3f 2c ec 7d 3d 35 fa 51 be
       -0.09030241 0.5000344 0.06199281 -0.20505603
0000c0 95 9c a7 3e a4 2e 03 be 55 19 fd 3b 46 d4 27 bf
       0.3273665 -0.1281076 0.007723967 -0.6555828
0000d0 20 a5 d2 3a ac 10 07 3e 27 24 5f bd b2 67 0e be
       0.001607094 0.13189954 -0.054477837 -0.13906744
0000e0 2a 95 07 3e e8 cd 24 bd a4 65 cd 3e 10 dc f2 bc
       0.13240495 -0.04023543 0.40116608 -0.02964595
0000f0 51 99 19 bd e5 67 b3 be 7f f6 d0 be 04 1c b1 be
       -0.03749973 -0.35040203 -0.40813062 -0.34591687
000100 9f 51 a8 3e 52 d3 08 3e 8a da e1 3e a8 54 d2 be
       0.32874772 0.13361862 0.44112045 -0.41080213
000110 61 a5 dd bd 35 40 60 be 8b 44 fa bd 3f b0 7d bd
       -0.10822559 -0.21899493 -0.12220105 -0.06193566
000120 6a 6b 8e be 5b 9e 7a 3e 49 bf 1e 3e 29 f7 ed be
       -0.27816325 0.2447447 0.15502657 -0.4647763
000130 a3 2e f4 3e 1c 0f a6 3d 8a 20 bc bd a2 ef be 3d
       0.4769183 0.08108351 -0.09185894 0.0932305
000140 2b ed d7 be f3 f8 93 3e 2c 24 a9 be e2 9e da bd
       -0.42173132 0.2890087 -0.3303541 -0.10674836
000150 90 67 3b 3e d9 ed 85 3e 58 21 12 be 9f 21 2c 3d
       0.18301225 0.26158026 -0.14270532 0.04202425
000160 1b e6 de be d1 f7 44 3d 9a 8a 3d be 1a 42 e0 be
       -0.43534932 0.0480879 -0.18509904 -0.4380043
000170 b2 c6 71 be 1a 36 c0 be 94 6b 4b be ff e5 5a 3e
       -0.23610952 -0.37541276 -0.19865257 0.21376799
000180 77 77 93 3e 1d a2 d4 3d 1c 5d d6 3d 7e bb 21 3e
       0.28802082 0.10382483 0.10466978 0.15794179
000190 64 9f 5f be f3 95 09 3e 6c 09 55 3e d4 c6 a1 bd
       -0.21838146 0.13436107 0.20804375 -0.078992516
0001a0 2a 91 89 be 23 7c 7f be 32 73 88 be 80 52 b3 bb
       -0.26868564 -0.24949698 -0.26650387 -0.0054724813
0001b0 8a 8b 26 be 24 f1 37 3e 27 44 39 3d 49 89 75 be
       -0.16264167 0.17963082 0.04523101 -0.23978151
0001c0 a1 dd 84 3d 0a fc fd 3d f8 38 b7 be fa 96 f8 3d
       0.06487585 0.12401588 -0.3578565 0.121381715
0001d0 cb d6 dd 3e bf a4 b9 3c 87 b8 a5 bd d6 7c f9 bd
       0.43327937 0.022661565 -0.080918364 -0.12182014
0001e0 1a 34 d5 3d 97 97 b8 be 01 7d e0 3e 3c 2d eb 3e
       0.10410328 -0.36053154 0.4384537 0.4593295
0001f0 00 54 13 3c b8 a4 90 3d fa f7 82 3e 2c 49 64 be
       0.008992195 0.070626676 0.25579816 -0.22293538
000200 b7 cd b1 be 3d 51 4e be 98 9c c4 be f9 68 53 3e
       -0.3472726 -0.20148177 -0.38400722 0.20645513
000210 04 01 c6 3d 41 41 13 3e 1e 7b 11 be f1 5f 02 3f
       0.096681625 0.14380361 -0.14207122 0.50927645
000220 94 b3 1f 3e 80 6d 38 3e 19 d2 ea bc a6 bc 37 be
       0.15595847 0.18010521 -0.028664635 -0.17943057
000230 ac a6 8d be b0 ea f6 3e 3a 2d b2 3e b1 e3 70 3d
       -0.27666223 0.48225927 0.3480013 0.058810893
000240 4c d7 df bd 7b cb c8 3d 08 38 70 be 69 f3 1b be
       -0.109297365 0.09804436 -0.23458874 -0.15229572
000250 d5 b5 63 be ff 8f 27 be 0e d6 63 be aa 00 6c 3e
       -0.22237332 -0.16363524 -0.22249624 0.23047128
000260 61 f6 a6 bd 83 0c 1a 3d 4b 7c 40 3d 1b fc b3 3d
       -0.08152462 0.03760959 0.046993535 0.0878832
000270 07 08 a8 3e 34 94 4a bd 3f 2b a7 be 69 3d ea bd
       0.32818624 -0.049457744 -0.32650182 -0.11437494
000280 56 b8 c2 3e d7 47 00 be 1b 45 e3 3d 7d d8 ab be
       0.38031262 -0.12527405 0.11097165 -0.33563605
000290 e7 38 71 3d 20 72 85 be 0c aa fd 3e be 72 94 3e
       0.058892157 -0.26063633 0.49543798 0.2899379
0002a0 41 7c a9 3e 82 92 72 3e 20 0a eb bc 6f ea 83 be
       0.3310261 0.23688701 -0.028691351 -0.25764796
0002b0 12 1c b1 be 6a 85 6f be 7a aa 30 be a2 98 eb 3e
       -0.34591728 -0.23390737 -0.17252532 0.46014887
0002c0 8d b6 56 be cd ba 35 3d d2 67 b2 3e d0 c5 8a bd
       -0.20968075 0.0443676 0.34844834 -0.06776011
0002d0 d1 3e 07 3e 3b 02 e2 be 75 02 ba be 1e 6e 4b 3e
       0.13207556 -0.44142327 -0.3633 0.19866225
0002e0 e4 ec a3 3e b6 3a 9b be 1e a3 9b be 20 88 fb 3d
       0.3201667 -0.3031823 -0.30397886 0.12281823
0002f0 43 a9 d9 be 0b c6 18 3e f6 de a4 3e 35 f1 39 3d
       -0.4251195 0.14919297 0.32201356 0.04539605
000300 63 dd 47 be 59 b3 2f be 4f 7e a2 3d 24 e5 42 be
       -0.19518046 -0.1715826 0.07934248 -0.19032723
000310 d0 47 08 bf 68 80 c9 3c 0d df 40 3e 0c 7c 0f 3e
       -0.5323458 0.024597362 0.18835087 0.14012164
000320 ab ea e9 bd 05 90 a5 3e 8d 96 40 be fa d5 02 be
       -0.114217125 0.3233644 -0.1880743 -0.12776938
000330 b7 e9 98 3d 6f 37 95 3d 07 01 02 bf 6f 03 12 3e
       0.074664526 0.07285964 -0.5078282 0.14259122
000340 e5 27 af be 29 a4 7f 3e 30 d3 79 be 22 7a 3e bc
       -0.34210125 0.24964966 -0.24396968 -0.011625798
000350 df e3 d9 3d 57 44 a4 3e b0 ac 25 be 4e 43 2f 3e
       0.10639166 0.3208339 -0.16179156 0.17115518
000360 03 41 a4 3e f7 c8 ab bd 26 96 c7 be e1 c9 92 be
       0.3208085 -0.083879404 -0.38981742 -0.28669646
000370 64 c2 57 3e f5 24 92 be cc 09 c3 bd ce 36 5a 3e
       0.21070248 -0.2854382 -0.09523353 0.21309969
000380 a6 08 e1 be 73 11 bc be 05 ce d1 3e 9a c6 ea bd
       -0.4395191 -0.36732063 0.40977493 -0.114636615
000390 c6 3b 2b 39 7e 27 54 3e 33 75 cc 3d 83 8d 03 3f
       0.00016330098 0.2071819 0.099832915 0.51387805
0003a0 20 b8 7c be ba a0 15 3e ef 55 85 bc d4 d2 a8 be
       -0.24679613 0.14612094 -0.016276328 -0.3297335
0003b0 84 1b 57 3e 30 3b b1 3d d4 8b 97 bd a1 4e 93 be
       0.2100659 0.08653867 -0.07399717 -0.28770927
0003c0 84 34 10 3d 0a 1a 23 bf cb 57 1f 3e 58 85 83 bd
       0.035206333 -0.6371161 0.15560834 -0.06421918
0003d0 60 85 f3 3d 30 32 af 3d 79 14 e9 be 87 f4 82 3e
       0.11890674 0.085544944 -0.45523432 0.25577185
0003e0 7a 65 57 bd 2d 23 c9 be 93 0a 2e be ad 84 97 bc
       -0.05258701 -0.3928465 -0.16996221 -0.018495882
0003f0 49 84 66 be 89 60 63 3e c3 ca 52 3c 87 6e 51 3e
       -0.225114 0.22204794 0.012865725 0.20452319

bias f4 [128]
000000 5f 75 4b 3e d1 e2 b7 bd 2f 93 57 be 27 cb 40 3e
       0.19868992 -0.08978809 -0.2105224 0.18827496
000010 e4 c0 04 be 11 bc 86 be f8 a9 2c bd f6 72 28 be
       -0.12964207 -0.26315358 -0.042154282 -0.16450104
000020 e0 1f a2 be 2c e5 ec 3d f1 88 cd 3e 45 55 7d be
       -0.31664944 0.115671486 0.4014354 -0.24739559
000030 7e 05 8a bd 25 d0 60 be d8 1a 80 bd 4e 4c 86 3d
       -0.06739329 -0.21954401 -0.0625512 0.06557523
000040 6e bd b0 3e 71 91 cc 3c ea 28 26 be 33 5a 88 be
       0.34519523 0.024971696 -0.16226545 -0.26631317
000050 cc 42 7f be 68 4e 6e be 32 6e 5d 3d 9b d0 c3 bd
       -0.24927825 -0.23272097 0.05406017 -0.09561273
000060 a4 15 8f be 96 6b b8 be 2b ac 50 bd 95 b4 a2 be
       -0.27946198 -0.36019582 -0.050945442 -0.31778398
000070 31 59 d6 be a6 7f 7c 3e 57 3e 1b 3d 96 75 65 bd
       -0.41864923 0.24658069 0.03790125 -0.05602034
000080 cc 1f 02 bc e1 fd 28 be d0 15 c5 3d 3a 45 a2 be
       -0.007942151 -0.16503097 0.09623301 -0.3169344
000090 c5 c6 04 bd 0c 0c 30 3e 58 5d fa 3d bb dd b4 3e
       -0.032416124 0.17192096 0.12224835 0.35325417
0000a0 50 84 77 3d b7 60 7d 3e dc 56 b5 bd 27 07 5e bd
       0.060428917 0.24743925 -0.08854458 -0.05420604
0000b0 89 b4 19 be 34 56 f4 3d 75 70 bb be 19 64 59 be
       -0.15010275 0.119305044 -0.36609235 -0.2122959
0000c0 28 75 99 3e 35 f2 7f 3e aa ff 92 3d 12 cf 81 be
       0.29972196 0.24994738 0.0717767 -0.25353295
0000d0 57 b1 7d 3e 36 41 e2 be 51 67 5d 3e 10 07 95 3c
       0.24774681 -0.44190377 0.21621443 0.018191844
0000e0 e2 a5 47 be 58 f0 96 bd 9d b4 d8 3d cd 1f 99 be
       -0.19496873 -0.07370061 0.10581324 -0.29907075
0000f0 34 93 26 be ff eb 3f 3e 89 99 e6 bd 5c 24 74 3e
       -0.16267091 0.18742369 -0.11259753 0.23841995
000100 a8 b9 ba 3e bc c9 de 3c 3e 52 59 3e 6a 94 65 3e
       0.3646977 0.027195804 0.21222779 0.22419897
000110 2b e5 89 be 3b 1d 15 be e3 75 60 3d 97 60 96 bc
       -0.26932654 -0.14561932 0.054799926 -0.018356605
000120 44 4a 9a 3e 1e 5d 47 3e 11 75 50 be 5a 56 8d 3e
       0.30134785 0.19469115 -0.20357157 0.27604944
000130 89 4b af be d6 c0 7d 3d 3f ba 14 3e 9b e9 b6 be
       -0.34237316 0.06195148 0.14524172 -0.35725102
000140 b4 33 bd be 18 c5 72 bd 15 17 68 be 18 81 1c 3d
       -0.3695351 -0.059269994 -0.22665055 0.03820905
000150 bb d9 d0 3e 93 f2 bd be 3e 13 af be 02 f4 b3 3e
       0.40791115 -0.37099132 -0.34194368 0.351471
000160 32 24 40 be 1b 67 a6 3d 73 78 44 3e cc f5 a1 3d
       -0.18763807 0.081251346 0.19186573 0.0790821
000170 9f 6d e4 be 90 69 cb 3c c2 da ba 3e d6 67 d0 3e
       -0.44614884 0.02483061 0.36495024 0.4070422
000180 35 ca 43 be 7a 58 6f 3e 1c 47 73 3e 43 61 d9 be
       -0.19120105 0.23373595 0.23757595 -0.42457017
000190 2b ec 7a be 20 25 47 3e 6c a6 3a 3e f3 ed d7 be
       -0.24504153 0.19447756 0.18227547 -0.42173728
0001a0 d7 fe 13 be 6a d8 37 be 4c 36 be bd 2a 7d 7c 3e
       -0.14452682 -0.17953649 -0.092877 0.24657121
0001b0 1e 29 d2 be e4 4c a8 be 44 ec 9c 3d 30 ad 76 3e
       -0.41046995 -0.32871163 0.076622516 0.24089503
0001c0 2f 79 11 3e f0 6d 6c 3d d6 e2 19 3e 60 ec da 3c
       0.14206384 0.057722032 0.15027937 0.02672404
0001d0 91 a1 0e be 3a 75 58 be f3 f6 9f be f6 72 90 3e
       -0.1392882 -0.21138468 -0.31243095 0.28212708
0001e0 97 1f c4 bd 23 df 4e bd 65 42 ec 3e 02 1c 81 be
       -0.09576338 -0.05050577 0.46144405 -0.2521668
0001f0 f4 df 8c 3e 3a a0 63 be b7 a2 bf 3e b6 b8 ad bd
       0.27514613 -0.2222909 0.3742883 -0.084824964

weight f4 [128, 128]
000000 c5 80 c5 3a 90 b5 68 be eb 02 82 bc f7 3c 07 be
       0.0015068284 -0.2272551 -0.015870532 -0.1320685
000010 28 fb c6 3c 75 12 d7 bc 91 e3 c7 bc 33 a8 14 3d
       0.024289683 -0.026253918 -0.024400504 0.03629322
000020 71 f5 13 3c a5 80 17 bd 69 94 72 be 92 d5 33 be
       0.009030686 -0.03698792 -0.23689426 -0.1756194
000030 52 f3 61 3d 6f 26 39 be 97 1b 30 3b 39 ec ae 3d
       0.05516369 -0.18081068 0.0026871914 0.0854115
000040 17 32 11 bb 2c 4a 5d 3d 79 e6 8c 3d f6 b7 b1 3d
       -0.00221551 0.054025814 0.06879897 0.08677666
000050 46 c3 7b 3c d8 4c 34 bc 48 b4 00 bd 10 4e 18 bc
       0.015366381 -0.011004649 -0.03142193 -0.009295955
000060 92 a6 8c be 3b fd 51 bd 30 9a d8 bd e0 97 6c be
       -0.27470833 -0.05126689 -0.10576284 -0.2310481
000070 aa 36 c6 bb 2e fb 39 3c 73 11 26 3d 72 aa 7e bb
       -0.006048997 0.01135139 0.040543985 -0.0038858918
000080 81 6b 98 3d 97 73 71 b9 e6 c7 61 3d e9 eb a7 bc
       0.0744238 -0.00023026612 0.05512228 -0.020498233
000090 39 10 d1 bc 84 c1 b5 be 86 93 87 3d f3 99 cb bd
       -0.02552043 -0.35499203 0.06619935 -0.09941473
0000a0 f0 f9 c6 3c e0 08 2e bb 78 d1 ed bd c1 04 47 be
       0.024289101 -0.0026555583 -0.116122186 -0.19435407
0000b0 20 22 9f bc ab ba 19 3e 24 d2 a0 be fa 88 73 bd
       -0.019425452 0.15012614 -0.31410325 -0.059456803
0000c0 54 bf 89 bd 4d 0e df 3b 4a 6b 89 bc b1 7a 8a 3d
       -0.06725946 0.0068071247 -0.016774792 0.06761683
0000d0 10 5a 50 bd 9a db 28 bd 0f d0 97 3d d8 eb 9e bd
       -0.05086714 -0.041225053 0.07412731 -0.077598274
0000e0 50 1c e3 3d 52 c0 6b 3d 95 0f 01 3d 0a 78 30 3d
       0.110893846 0.057556458 0.031509 0.04308323
0000f0 e0 65 68 bd 82 02 36 3d b7 e8 77 bc fd a2 1a bd
       -0.05673778 0.044435985 -0.015131167 -0.037753094
000100 b0 78 77 3d 00 dc 87 bb 01 a8 f4 bc 21 64 5a bf
       0.06041783 -0.004146099 -0.029865267 -0.85309035
000110 d6 97 b4 bd 1a 25 fb bd 53 f8 10 bd 4f 9d 1d 3c
       -0.08818023 -0.12262936 -0.03539307 0.009620025
000120 51 fa 7e 3d 85 95 10 3d c9 9f 3c bd 27 8e 93 3d
       0.06225044 0.035298843 -0.04605082 0.07204848
000130 7e d9 61 bd fa 5a c2 bc a7 1b f5 bc 4d e8 f9 bd
       -0.055139057 -0.023725022 -0.029920412 -0.12202511
000140 1a b8 83 3d 48 36 d5 3c 59 97 eb be 1b dc 9e 3d
       0.06431599 0.02602686 -0.46013907 0.077568255
000150 29 ee 63 3d 22 b2 34 bf 98 ea 07 3d b6 02 d4 bd
       0.05564705 -0.7058431 0.03318271 -0.103520796
000160 0e 0a 51 3d 2f 41 8f be 7c de ee 3d b0 85 36 3c
       0.05103498 -0.2797942 0.11663529 0.011140272
000170 54 54 7e bd 70 6f 06 bf 63 52 f6 bc 9a 9e 08 3d
       -0.06209214 -0.5251379 -0.030068582 0.03335438
000180 97 28 73 be 3a ed 8b be 1d f0 20 bd 32 98 80 bd
       -0.23745953 -0.27329427 -0.03929149 -0.06279029
000190 72 d4 29 3e 0b f7 66 3d 8b 41 28 be c4 4d fb bc
       0.16584948 0.056387942 -0.16431253 -0.03067673
0001a0 4d ae 3e 3d a9 12 bd bd 40 07 bc bb 0b 49 97 3b
       0.046552945 -0.09232075 -0.005738169 0.0046168617
0001b0 74 d3 23 bd e3 99 91 3d 76 aa c8 bc ac 44 94 be
       -0.03999658 0.0710943 -0.024495345 -0.28958642
0001c0 e9 0a cd bd e8 18 a4 3a 2a 01 97 bd 77 9a 1b 3d
       -0.100118466 0.001251963 -0.07373269 0.037989106
0001d0 db 05 2e bc b6 48 b0 3d b6 5f 44 bb 94 20 96 be
       -0.010621513 0.086076185 -0.0029964275 -0.2932173
0001e0 b2 3e 98 3d 7d 2c 7e 3d 24 86 62 3d 88 72 4a be
       0.07433833 0.062054146 0.055303708 -0.19770253
0001f0 ac e9 5b 3d 05 27 11 bf ed 27 b6 be 68 51 a4 3d
       0.053689644 -0.56700164 -0.35577336 0.080233395
000200 a3 61 98 3c 26 56 5a be c6 84 26 3d fc 16 a5 bd
       0.018601244 -0.21321926 0.040653966 -0.080610245
000210 70 3a de bb a2 e1 a7 3d 99 28 01 3e 9d ad 07 3c
       -0.0067818686 0.08197333 0.12613143 0.008281139
000220 15 23 97 bd 32 a7 3f bc 49 b2 5d be 89 95 60 be
       -0.07379738 -0.011697577 -0.21650042 -0.21932043
000230 26 38 2b 3b 5c 22 84 3d ba 1e b9 3d 14 68 5f 3e
       0.0026125996 0.06451866 0.09039064 0.21817046
000240 68 85 eb 3c 47 cd 72 3d 64 e5 eb bc 29 50 21 3e
       0.028750136 0.0592778 -0.028795905 0.15753235
000250 41 4d 5a be 64 8f 87 bd 6e cd 3d be fd ce 82 3e
       -0.21318533 -0.066191465 -0.18535396 0.25548545
000260 3b 2a 19 be 6c 45 e0 bc 7e da a5 be 62 df 8f be
       -0.14957516 -0.027376853 -0.3239326 -0.28100115
000270 7c 17 49 be eb db d1 bd 3a f0 f7 3d fa d1 29 3e
       -0.19637865 -0.10247024 0.121063665 0.16584006
000280 08 76 ba 3d dc 13 8d 3d 5a 7a 1b 3d ee 00 0d be
       0.09104544 0.068885535 0.03795848 -0.13769886
000290 c4 59 02 be ec 46 05 be f7 f8 8d 3d 93 5a 28 be
       -0.12729555 -0.13015336 0.06932252 -0.16440801
0002a0 17 80 6e 3d bf 20 a5 3d 9e db 0c be 80 0d 5f be
       0.058227625 0.080628864 -0.13755652 -0.21782494
0002b0 96 46 56 bd cb b1 8c 3d 57 44 96 3b c4 4d 5c bd
       -0.05231341 0.06869849 0.0045857835 -0.0537851
0002c0 38 83 99 bd 14 17 9c be be 76 c9 3d 7b 62 6c 3b
       -0.07495731 -0.30486357 0.098371014 0.003606944
0002d0 8b 25 04 be 18 d2 64 3c ae 26 48 3d 97 f3 cd bd
       -0.12904947 0.013966106 0.048865013 -0.10056227
0002e0 56 02 66 3d 82 f9 35 3e 31 5f d9 3c bc 66 a4 3c
       0.05615457 0.17770961 0.026534649 0.020068519
0002f0 58 1a 22 bc 4d 29 b3 3d b4 bb 26 3e c2 a0 be bc
       -0.009893976 0.08748112 0.1628254 -0.023270015
000300 bb 47 bc 3d 65 90 dc bd 47 f3 49 3d 45 6d b9 bc
       0.09193369 -0.107697286 0.049304273 -0.022635112
000310 c4 1b 72 be 57 d8 09 be 7d 11 58 be 5e 5e f4 bd
       -0.23643404 -0.13461433 -0.21100421 -0.119320616
000320 9f ec 8b bc 19 04 42 3d 97 24 35 be d4 96 c7 3d
       -0.017080603 0.04736719 -0.17689739 0.09745565
000330 d0 34 33 3c cc 75 f3 bd a8 c3 2d be ec 8e 08 be
       0.010937884 -0.11887702 -0.16969168 -0.1333577
000340 cf d8 12 be fa d7 e7 bd af 49 1d bf 86 14 f5 bc
       -0.14340518 -0.11320491 -0.6144056 -0.029917013
000350 a3 38 fe 3b 52 1e 1d bf ce a7 8b 3d b3 10 ad 3d
       0.0077582165 -0.6137439 0.068191156 0.08450451
000360 5b c2 9c 3d e9 ae bb bd 12 dd 9a bb 44 8e 01 be
       0.07654258 -0.09164221 -0.0047260607 -0.12651926
000370 44 e3 2b bd 85 2f 67 be d0 91 3f bd 73 d4 0d be
       -0.041964784 -0.22576721 -0.046769917 -0.13850574
000380 aa 87 96 be 60 a1 fa bc e6 3f 8e be 72 17 b2 bd
       -0.29400378 -0.030594528 -0.27783126 -0.08695878
000390 2e dc 5c 3e d4 b1 c1 3c c1 c4 c1 bc c9 f2 8e be
       0.21568367 0.023644365 -0.02365339 -0.27919605
0003a0 7d 56 05 3c 08 f2 37 be cf bc 8c bd 70 2d 9a bc
       0.008138296 -0.17963421 -0.0687195 -0.018820494
0003b0 98 7e 3f bc d0 03 a9 bc e6 e8 12 be ef 3b 2b be
       -0.011687897 -0.0206317 -0.14346656 -0.16722082
0003c0 67 7d c6 bc fc bc a4 bd 0c 16 bd 3d 81 a0 9e 3c
       -0.024229718 -0.080438584 0.09232721 0.019363644
0003d0 79 00 ca bc 94 58 09 be 39 73 54 3c 46 42 66 be
       -0.024658429 -0.13412696 0.012966924 -0.22486219
0003e0 18 2c da 3d 27 be bd 3d f8 24 c1 3c 1b 4f fe bd
       0.106529415 0.09264784 0.023577198 -0.12417432
0003f0 6e 57 be 3d 15 82 86 be 1e 70 24 be 4a aa 6e be
       0.0929402 -0.2627112 -0.16058394 -0.23307148

bias f4 [128]
000000 36 1a 71 bc 2f 39 66 bd 68 48 8a bd 1b 1e 40 bd
       -0.014715722 -0.05620688 -0.06752092 -0.04690371
000010 7d 6e 25 3c a2 26 ac bc 89 67 37 bb c3 1d 06 bd
       0.010097143 -0.021014515 -0.0027985296 -0.032743227
000020 63 6e 0a 3d 0f 73 f0 3c 4c de 0e bd f3 2b a9 bc
       0.03379668 0.02935174 -0.034879968 -0.02065084
000030 0b 10 e1 3d b4 63 69 3d a7 fc 13 3d a9 21 36 3d
       0.10989388 0.05697985 0.03612962 0.044465695
000040 5f 12 8a 3c 00 aa 9d bd 94 93 07 3d 34 28 d2 bb
       0.016854463 -0.076984406 0.033099726 -0.006413484
000050 0b 12 3d 3d 2f 0d 3b bd 73 a1 a8 bc 65 be f4 bb
       0.046159785 -0.04566687 -0.020584797 -0.007468986
000060 38 64 a1 bd cb 32 13 bd 50 e5 b3 bd 8f ad 50 3d
       -0.07880443 -0.03593711 -0.08783972 0.05094677
000070 07 36 65 bd 18 74 6d bc 61 04 4f bd 48 5a b6 bd
       -0.055959728 -0.014493011 -0.050541285 -0.089039385
000080 50 d8 e3 bc 74 e9 9c bd df 82 ad bd 41 86 3d bc
       -0.027813107 -0.07661715 -0.08472227 -0.011567653
000090 a0 56 f4 3c 30 bc 16 bd 23 e1 ab bd 95 32 c1 bd
       0.029826462 -0.036800563 -0.08392551 -0.09433476
0000a0 9c e2 ab bd 4f a7 aa 3c 84 bd 59 bc 0d 7a 72 3d
       -0.08392832 0.020831732 -0.013289813 0.059198428
0000b0 02 f2 a4 bd 6f 47 bc 3d d8 28 e9 bd 50 c8 2b bd
       -0.08053972 0.091933124 -0.113847435 -0.04193908
0000c0 e2 d5 58 bc 89 e1 2c bd 9b f6 65 3d c0 4c 68 3d
       -0.013234587 -0.042207275 0.056143384 0.05671382
0000d0 97 f6 a2 bc 8f 60 1c 3d a6 87 36 3d fc af 13 bd
       -0.019892974 0.038178023 0.04456296 -0.036056504
0000e0 10 71 04 bd 13 70 07 3d 61 76 b2 bc ca 07 1f bc
       -0.032334387 0.033065867 -0.021784963 -0.009706447
0000f0 85 bb 92 3c 41 5e c0 bd 89 46 48 bd 00 76 3b 3c
       0.017911682 -0.093929775 -0.048895393 0.011441708
000100 6a 18 bd bd d3 16 da bc 0f 9e 81 bd fd dc aa 3d
       -0.09233172 -0.026622212 -0.063289754 0.083429314
000110 35 8e 88 3d a6 9f a3 3c 7e f6 d2 bd 58 ba 5f bc
       0.06667749 0.019973587 -0.10300921 -0.013655268
000120 e7 0a ae 3c b6 3a 22 3c 12 f5 da bc 27 bf 76 bd
       0.021245433 0.009901693 -0.026728187 -0.06024089
000130 36 ea a4 3c 07 c3 88 bc 1c d2 30 3c 38 17 8b bd
       0.020131212 -0.016694559 0.0107922815 -0.06791538
000140 b0 61 4e bd 9d 68 51 3c d4 4c e7 bb 60 3a 42 3d
       -0.05038613 0.012781289 -0.007058719 0.047418952
000150 2a 29 b1 bc 53 91 ad 3c 54 5f d4 bc 82 14 76 3b
       -0.021626074 0.02118746 -0.025924362 0.0037548845
000160 8f 4d 29 bc e8 0e f1 bc 17 a8 82 bd b3 61 76 3d
       -0.010333433 -0.029426053 -0.06379717 0.060151767
000170 94 e4 90 3d 33 ad 13 3d df 52 da 3c bc 1a 60 3d
       0.07074848 0.036053848 0.026650844 0.054712996
000180 06 0c 9f bb b8 96 c7 bd 60 c3 0b bd dc 4a 14 bd
       -0.004853728 -0.09745544 -0.03412187 -0.036204204
000190 eb 72 54 3d 51 ae 78 3d 28 c1 f5 bc 90 c0 d2 bc
       0.051867407 0.060713116 -0.02999933 -0.025726587
0001a0 9a ab b0 3c 85 8b a0 bd a5 c9 6c bc ab 5f c3 bc
       0.021566201 -0.07839111 -0.014452373 -0.023849329
0001b0 91 c4 b2 bd bd 73 05 3d 33 c3 63 bd 68 d1 a8 bd
       -0.08728898 0.03258108 -0.05560608 -0.08243066
0001c0 c9 5a dd bc 45 b9 fb 3c 10 4f c5 bd e5 1b 27 bc
       -0.027020829 0.030727992 -0.096342206 -0.010199522
0001d0 cf 41 94 3d 84 55 81 3c af 95 4d bd c5 c4 25 3d
       0.072391145 0.015787847 -0.050191578 0.040470857
0001e0 b3 7e 8d bd 51 4a 91 3d 81 2c bc 3d 77 23 96 3b
       -0.069089316 0.07094253 0.09188176 0.0045818645
0001f0 37 bf 6c bd 62 92 f6 3c 34 30 d9 bc 44 6e 3e 3c
       -0.057799544 0.030099098 -0.026512243 0.011622969

weight f4 [64, 128]
000000 0b 2f 36 be af 61 32 3c da e9 19 be b0 19 8d bd
       -0.17791383 0.010887547 -0.15030614 -0.06889665
000010 35 3f 63 be 93 26 bc 3d ea a7 90 bc 78 c8 a1 3e
       -0.2219208 0.09187045 -0.017658193 0.31598258
000020 be a9 a0 3b 64 86 3a 3d 47 bd 1d be b0 f7 da 3e
       0.0049030473 0.04553832 -0.15404235 0.42767096
000030 b3 da d7 3c 2f fb 49 3d fa e4 b6 be d8 c5 79 3c
       0.026349401 0.049311813 -0.3572157 0.0152449235
000040 40 f0 80 be bc c0 94 bd 10 4c 9d bd 89 9f da bd
       -0.25183296 -0.07263324 -0.076805234 -0.1067496
000050 d1 8c 63 bd 0a 6f 8d 3d 89 36 9e 3e 37 4a 91 bb
       -0.055554215 0.06905945 0.30900982 -0.004433896
000060 50 1c 1d bc 6f ab e7 bc 6a c6 41 3d 54 66 9d 3c
       -0.00958927 -0.028279988 0.047308363 0.019213833
000070 a6 08 07 bd 95 0f ca bd a7 69 e3 bc 95 da 3e 3d
       -0.032967232 -0.09866253 -0.02776034 0.046595175
000080 56 c5 02 be 4d 3d 18 3e 6c 0e 9d bd 1b 4b ba 3e
       -0.1277059 0.14867134 -0.076687664 0.36385426
000090 0f 79 70 bd 88 f7 08 bd 15 1d 27 3d 5e 59 bb 3d
       -0.0587092 -0.03343919 0.04079922 0.09147905
0000a0 dd c4 45 be 9a 0d e9 3d fc 69 da bd 4d df b7 3d
       -0.19313379 0.113795474 -0.10664746 0.08978138
0000b0 3b 82 ec bb 30 ee 82 bc 3d 37 a6 3c 4d bd 47 bd
       -0.007217673 -0.015982717 0.020290012 -0.048764516
0000c0 62 47 87 bd 60 33 62 3d c6 83 3f 3d f1 83 a2 3c
       -0.06605412 0.055224776 0.04675653 0.019838305
0000d0 47 1a fd bd 3f 2e 8f 3d 8c e0 b3 3c 25 59 b4 3d
       -0.12358528 0.069912426 0.021957658 0.088060655
0000e0 40 aa 88 3d 5c 78 85 37 c3 3b 5f be 9e b6 9d bd
       0.066730976 1.5910882e-05 -0.21800141 -0.07700847
0000f0 c1 06 d6 bd b5 5c 9c 3d 19 6b 81 3d 52 65 89 bd
       -0.10450507 0.0763487 0.063192554 -0.067087784
000100 76 1d 02 3d c0 b9 9b bc 64 1e c8 3e af 3e 4b 3d
       0.031766377 -0.019009471 0.39085686 0.049620327
000110 af ee aa bd cc 34 8a bc 9d 79 df bc 07 c1 00 be
       -0.083463065 -0.016870879 -0.02727967 -0.12573634
000120 1b 89 25 3e 0b ff 2b be 7b 15 80 3d 52 45 af bd
       0.16165583 -0.1679651 0.06254097 -0.08558144
000130 38 e3 a7 3d 7e b7 9f 3c d5 fd 75 bc 8a 32 1e 3d
       0.081976354 0.019496676 -0.015014132 0.038622417
000140 98 e0 11 3f 29 22 4a be 24 21 85 3d f4 85 ec bd
       0.5698333 -0.19739594 0.06500462 -0.11548987
000150 0e 77 66 3e 40 e2 fc bc 31 2e de 3d e0 08 d2 3c
       0.22506353 -0.030869603 0.10848654 0.025638998
000160 c7 fd 96 be 3e 94 71 3c 27 19 9c bb dc 90 88 be
       -0.29490492 0.014744816 -0.0047637406 -0.2667302
000170 49 76 b6 3a 69 49 28 bd af f6 ee 3d 23 df 2a be
       0.001392075 -0.041085634 0.11668145 -0.16686682
000180 7f da 77 3d b2 c3 12 be a0 1c fb 3d b8 f2 9a 3e
       0.06051111 -0.14332464 0.12261319 0.30263305
000190 70 aa 00 3d 29 3c 84 3d 66 85 d1 3d 00 91 0b 3d
       0.031412542 0.06456787 0.10230522 0.03407383
0001a0 f8 2d 2c bd 6f 10 82 3d a9 d3 ed bd aa ca 19 3e
       -0.042036027 0.06350791 -0.116126366 0.15018716
0001b0 88 bc 22 bc a8 9d 7b bc cc 62 6d bd 8e 72 2e bd
       -0.009932645 -0.015357412 -0.05795555 -0.042589717
0001c0 a9 c9 18 3e 7d cc 85 3c 4e 3f 8c 3d 2b 11 c5 3e
       0.14920677 0.01633286 0.06848012 0.3848966
0001d0 06 f7 3c 3d 79 44 1b bd 38 ba af 3e 29 67 ff 3c
       0.046134017 -0.037907097 0.3432176 0.03117712
0001e0 91 c2 87 3d ac 7e 8a be 3e d4 37 3e d7 d7 6f 3d
       0.066289075 -0.27049768 0.17952058 0.05855545
0001f0 5b 9c a3 bd 6f 8c a4 3c fa 82 56 3d 94 88 82 3c
       -0.07988807 0.020086495 0.052371003 0.015934266
000200 7a 72 c4 3c 03 a4 44 bd 6c 45 77 3d e9 ad 22 be
       0.023980368 -0.048007976 0.06036894 -0.15886654
000210 06 dc 4f bf ee 7f 27 3d de 43 10 3d 78 63 9a ba
       -0.81195104 0.040893488 0.035220973 -0.0011778912
000220 a9 e9 2d bc 1a d4 e1 3c c6 00 32 3d 2c c2 bd 3e
       -0.010614791 0.027566958 0.04345777 0.37062204
000230 1f d9 d7 bd b7 a1 ca bd 53 9f 27 3d 7b 54 b2 bc
       -0.105394594 -0.09894126 0.040923428 -0.021768799
000240 c2 58 14 3e fc 59 89 3c b4 3e fd 3c 25 4f 90 be
       0.14486983 0.01676654 0.030913688 -0.28185382
000250 a2 04 6d 3d 9a 0e 80 be 1a 42 b8 3d 83 bf 01 bd
       0.057865746 -0.2501114 0.08996983 -0.03167678
000260 4c 12 06 3d c2 3e 0e 3c ee f2 73 bd ba ec d4 3d
       0.032732293 0.008681955 -0.059557848 0.103967145
000270 c4 8f 2e bd 4e 91 46 3c 87 6b 93 bc 56 e3 3f 3e
       -0.042617574 0.012119604 -0.017995609 0.18739066
000280 3f cf 92 3d 07 f7 24 bf 31 c0 eb 3d f2 34 99 be
       0.07168435 -0.64439434 0.11511267 -0.29923207
000290 ab 22 07 bd b5 17 5f bf 3e 13 c6 3c 3a b3 90 bd
       -0.032992046 -0.8714555 0.024179097 -0.07065435
0002a0 fe 14 da 3e 2e d8 7a 3d 99 27 8a 3d 27 5e a2 be
       0.4259414 0.06124132 0.06745834 -0.31712458
0002b0 67 18 3e bd c0 0a 28 be 2a 1e 40 3d f7 92 b6 3d
       -0.04640999 -0.16410351 0.046903767 0.0891475
0002c0 f9 81 a9 3d 9e 5a 12 3d 4d 20 f5 3c 00 85 a9 bc
       0.082767434 0.03573095 0.029922629 -0.020693302
0002d0 dd 27 9e 3d 82 54 87 bc 9f f2 7f 3e 00 76 e0 bd
       0.07722447 -0.016519789 0.24994896 -0.10960007
0002e0 a0 65 21 bd 83 d3 6f bd c1 c0 0d bd a2 37 ab 3a
       -0.039403558 -0.058551323 -0.034607653 0.0013062845
0002f0 40 2e 47 3e 6c e0 ab bd 15 64 42 bc fc cd cd bd
       0.19451237 -0.083924145 -0.011864682 -0.10049054
000300 de d8 fc 3c 4c 14 f4 bc c2 67 fc 3e c3 7f ce bc
       0.03086513 -0.029794835 0.4929791 -0.025207406
000310 c4 51 46 bd 03 07 97 3d 97 4d 8b 3c 7c a5 32 bd
       -0.04841782 0.07374384 0.017004771 -0.04361485
000320 69 75 a6 be 16 56 17 3d b1 73 4b be 70 16 63 bc
       -0.32511452 0.036947332 -0.19868352 -0.01386033
000330 e0 c8 5b bd 5a b9 cf 3d 69 08 b5 3d 23 58 83 bd
       -0.053658366 0.10142775 0.08839495 -0.06413295
000340 8d b8 09 3f 0c b8 7b 3e 9c 17 57 bd aa 39 c4 bd
       0.5379723 0.24581927 -0.05251275 -0.09581311
000350 08 87 9a be de 5c 25 bf 2a 9a 52 bd f9 65 b3 be
       -0.30181146 -0.6459483 -0.051416554 -0.35038736
000360 0f 38 1e 3e 09 b2 81 bd 13 77 10 3d 33 a7 b2 3d
       0.15451072 -0.06332786 0.035269808 0.08723297
000370 79 aa b7 bd 64 06 40 3e 36 e5 a9 bc b8 81 01 3e
       -0.08968062 0.18752438 -0.02073918 0.1264714
000380 80 96 bb 3d d9 9e 72 bd 54 8b 9d be 6d 97 13 bd
       0.09159565 -0.05923352 -0.3077036 -0.036033083
000390 e1 20 e9 3c d2 3d 3a be 04 60 40 bd 60 0a 02 bc
       0.02845806 -0.18187645 -0.046966568 -0.007937044
0003a0 75 b9 05 bd 89 52 80 3d cc ab 1b 3d 80 03 ae bd
       -0.03264757 0.06265742 0.038005635 -0.08496761
0003b0 f6 8f 88 bd 1a 5f 73 bc 34 95 30 3b 70 81 35 bc
       -0.06668083 -0.014854217 0.00269444 -0.011078224
0003c0 5c 54 15 be 35 b9 27 ba 46 bf 3e bd 71 25 f0 3e
       -0.14582962 -0.00063981424 -0.04656913 0.46903566
0003d0 31 90 31 bd cc 1e 0c bf 5a 90 4c 3e 64 7b 6a be
       -0.043350402 -0.5473449 0.19976941 -0.22898632
0003e0 a6 f0 0c 3e 42 6b 3d be 5b 1c 95 be 8c f7 6c 3d
       0.13763675 -0.18497947 -0.29123196 0.057853267
0003f0 e2 d6 f9 3c 88 32 21 3d f1 dc 8d 3d 51 9d 8e 3b
       0.030497972 0.03935483 0.06926907 0.0043522497

bias f4 [64]
000000 0d 47 08 be 5b c4 9b 3a 5f cc 8e 3d 1a 77 9f bc
       -0.13308354 0.001188408 0.069725744 -0.019465972
000010 5d 67 30 be 38 f6 b0 bc 40 97 77 bd f8 11 18 bd
       -0.1722693 -0.021601781 -0.060446978 -0.03712651
000020 6a 95 d3 bd 3c 62 27 bd b0 22 19 be 5e 0c 44 bd
       -0.10331233 -0.040865168 -0.14954638 -0.047863357
000030 b1 02 1d be ea 0c 06 3d 50 45 c2 bd be 1c ab bc
       -0.15333058 0.03272716 -0.094858766 -0.020887729
000040 68 fc a2 3c 43 5d a2 bd 44 d2 56 bd 66 72 a9 3d
       0.019895747 -0.079279445 -0.05244662 0.08273773
000050 25 7e bf bc 40 cc 50 bd 85 9d 98 3c 44 ef 97 3c
       -0.02337558 -0.050976038 0.018629799 0.018546708
000060 6c a3 a9 bb f3 cd 0f 3e 64 ca 3f 3c 7a 3e b7 bd
       -0.005176952 0.14043407 0.0117059685 -0.08947463
000070 f0 bd 0a be 1e b0 02 bd c4 89 b8 bc 64 77 30 bc
       -0.13549018 -0.03190624 -0.02252663 -0.010770652
000080 97 69 08 be 07 f1 a5 bd e7 45 96 bc cd 36 ca bd
       -0.1332153 -0.08102613 -0.018343879 -0.09873734
000090 2c c2 74 3c ef 4c 10 be 61 1c c6 bd 80 22 5f 3d
       0.014938872 -0.14091848 -0.096733816 0.05447626
0000a0 fd 21 4e 3d 47 05 45 bd e3 b8 9c bd 8d 84 07 be
       0.050325383 -0.048100736 -0.07652452 -0.13234158
0000b0 95 98 46 bd 53 18 56 bd 9b b1 01 bd 45 5d ca 3d
       -0.048485357 -0.05226929 -0.03166352 0.09881071
0000c0 0e 4c bd 3d e3 28 16 bc 5c 35 c5 3d ca 2d 09 bd
       0.09243022 -0.009165022 0.09629318 -0.033490933
0000d0 ac e1 a8 bc 45 1a 9a 3d cf 25 1a 3d 1e a8 15 be
       -0.020615421 0.07524542 0.037633713 -0.14614913
0000e0 74 0a 83 3c 14 c3 ba 3d a5 8e 8d 3c 69 a0 51 bd
       0.015996195 0.091192394 0.017279932 -0.05117837
0000f0 5c 83 9f 3d 32 35 55 bd 48 51 61 3d 82 98 1e bd
       0.07788727 -0.052052684 0.055009156 -0.03871966

weight f4 [2, 64]
000000 53 73 da 3e 36 a6 23 3e dd d8 84 be 1c 2a 9a be
       0.4266611 0.15981373 -0.25946704 -0.30110252
000010 25 79 19 be a5 1a 68 3d 30 d3 8a 3e a7 46 c8 bc
       -0.14987619 0.056666035 0.27114248 -0.024447752
000020 c2 7c 3f be 65 dc fc 3e d0 3c 0d 3f a9 31 5c 3e
       -0.18699935 0.49386898 0.5517092 0.21503319
000030 60 a2 4c 3f 4b 1e 74 3d 3a bb f2 3c 75 23 ef 3d
       0.79935265 0.059599202 0.029630292 0.11676685
000040 68 34 3a be 12 ad 41 3d 52 af 56 bd 44 70 9a 3d
       -0.18184054 0.047284193 -0.052413292 0.07540944
000050 1e 61 d0 bd 66 57 94 3b 80 6f 1b 3e b5 80 0d 3e
       -0.10174774 0.0045270203 0.15179253 0.13818629
000060 33 3e c3 bd 67 5d 7a 3e 7e 85 8c 3c 08 e0 ab be
       -0.09533348 0.24449693 0.017153498 -0.3356936
000070 8e 1f 15 be d8 10 fd bd f1 ba b4 bd f0 58 21 3e
       -0.14562818 -0.12356728 -0.08824719 0.15756583
000080 b8 b1 03 be 37 76 28 3e 34 d4 72 3d f3 d9 94 3d
       -0.12860763 0.16451345 0.059284404 0.07268133
000090 33 9d ed bd 69 b0 af bd db 87 cc 3d 68 0e c8 3d
       -0.11602249 -0.085785694 0.0998685 0.09768373
0000a0 77 71 2b be 11 f4 6a bd 71 bd c7 3d 98 38 22 be
       -0.16742502 -0.057361666 0.0975293 -0.15841901
0000b0 29 66 d2 3d ab 86 70 bc c7 b5 96 bd 11 48 b6 3d
       0.10273392 -0.014680545 -0.0735889 0.08900464
0000c0 3d a8 b8 3e 68 36 dc bc 5d 48 a8 be 94 5a ea 3c
       0.36065856 -0.026881412 -0.3286771 0.028607644
0000d0 38 57 cc bc 53 2e 8f be 38 5b 4d 3e 5d 2d f2 be
       -0.024943933 -0.2796503 0.20054328 -0.47300234
0000e0 fa 4c 03 3e 3d c5 4e 3d 14 bf c0 3e 62 81 e9 bc
       0.12822333 0.05048107 0.3764578 -0.028504077
0000f0 ca 52 9e 3e eb 0f 09 3e f0 04 eb 3e a7 12 66 bd
       0.30922538 0.13384978 0.45902205 -0.056170132
000100 f0 95 e3 be d4 fb 4b be ed 39 51 3e ce 2d 59 3e
       -0.4445033 -0.19920284 0.20432253 0.2120888
000110 44 e4 a6 3e f7 55 ef bd 17 22 d1 bd 2e 5a 83 3d
       0.32596028 -0.11686318 -0.1021158 0.06413685
000120 30 7d c3 3d 31 a4 2f bf 0a 25 d1 be a5 79 75 bd
       0.09545362 -0.6860991 -0.4084857 -0.059930462
000130 eb 96 64 bf 4a 42 86 be e2 02 8e 3c 40 2b 08 be
       -0.8929278 -0.2622245 0.017335359 -0.13297749
000140 ec 84 40 3d d0 f9 41 be 7b bc 99 bd c2 fa a4 bd
       0.047001764 -0.18942952 -0.07506653 -0.08055641
000150 7e 65 86 3d 01 47 87 bd 18 e6 06 be 9b 29 a4 be
       0.06562327 -0.0660534 -0.13173711 -0.32062992
000160 8b 22 0a 3e 0a 6d 9c bd 2a dd 87 37 b7 26 80 3e
       0.1348974 -0.07637985 1.6196242e-05 0.25029537
000170 1a 38 49 3e ee 92 b3 bd 3e 2f 56 3d ec 73 1f be
       0.19650307 -0.08768259 0.052291147 -0.15571564
000180 2b 0b 75 3e ea 9b c3 bd a6 bc f3 bd 9a 40 92 3d
       0.23930041 -0.095512226 -0.11901216 0.07141228
000190 b7 25 ac bc 7e 57 b8 3d f9 c2 9d bd 34 63 07 bd
       -0.021014078 0.09001063 -0.07703204 -0.03305359
0001a0 c8 e9 6e 3c 3d a9 38 bb 42 46 a9 bd 65 60 ed 3d
       0.014582105 -0.0028177046 -0.08265354 0.115906514
0001b0 8b 13 15 be 85 72 29 be cf c0 01 3d fa b6 56 be
       -0.14558236 -0.16547592 0.031678017 -0.20968238
0001c0 3a c1 24 be d3 54 20 be 30 be 9d 3e 56 d6 58 3b
       -0.16089335 -0.15657358 0.30809164 0.0033086739
0001d0 c2 c7 83 bc c5 b8 2f 3e f6 3d b5 bd f3 cf ea 3e
       -0.016086463 0.17160328 -0.08849709 0.45861778
0001e0 48 2b 82 bd 5e 49 83 be c0 8b 60 be 88 f9 e8 3b
       -0.063559115 -0.25641912 -0.2192831 0.0071098246
0001f0 38 6c 2e be 73 99 1d be 9f bb d8 be 88 e1 d2 bd
       -0.1703347 -0.15390567 -0.42330644 -0.10296923

bias f4 [2]
000000 37 7c 93 bb 36 b6 de 3d
       -0.0045008915 0.10874598
