models/mountaincar_3D/checkpoint_att.8.pth.tar (torch_old, 105802 bytes, 8 tensors)

weight f4 [128, 5]
0.23062111 0.18483548 -0.26682475 0.08891859 0.19800085 0.5898266 -0.2649856 0.3263826
0.37605375 0.23598665 0.017280012 -0.34683496 -0.14196402 0.17922133 0.2545604 -0.29825878
0.16638176 0.049516935 0.13618909 0.21922521 -0.36960232 -0.4116313 -0.35431027 -0.3693161
-0.25267762 0.121253796 0.029339463 -0.09589117 -0.41732284 -0.34520745 0.100754954 0.19647528
-0.009255672 0.41059157 -0.00070441834 0.042173594 -0.11514005 -0.16019881 -0.10508391 -0.17055973
-0.031808086 -0.5569966 0.24217358 -0.11024434 0.2906366 -0.14453228 -0.31183445 -0.4200314
-0.13210812 0.16268867 -0.43614724 -0.08051055 -0.1204932 -0.43066826 0.38026175 -0.32294878
-0.10643327 0.09067196 0.17275631 -0.153665 -0.41404092 0.25727224 0.14394319 0.17746496
0.026078105 -0.5341822 0.47280112 -0.40833277 0.2207945 0.17294326 -0.40527228 0.39658263
-0.3115936 0.35924155 -0.027062353 -0.1755456 -0.42634183 0.03506371 0.48092404 -0.43948078
0.25765046 0.053773142 0.044615436 0.13438056 -0.29285195 0.25731492 0.49294746 0.18147169
0.40017867 -0.34032494 0.18528366 0.45560554 -0.41498554 -0.22055577 -0.28742263 -0.3344581
0.016452627 0.13471307 0.26711744 0.2203726 0.39780304 0.0428555 -0.1599794 0.24015754
-0.3456333 -0.43310145 -0.019042982 -0.23362215 -0.23588829 -0.25444746 0.3957453 -0.3686188
-0.3965621 -0.19288039 -0.0040939027 -0.9170008 -0.23316874 0.25842988 -0.24251097 -0.44092694
-0.23775741 -0.23993702 0.30198076 -0.19648883 0.29926246 0.13991296 -0.37299314 -0.17612177
-0.38957065 -0.43244466 -0.1786198 -0.2815139 0.1720344 0.2314029 -0.33189148 0.04992184
-0.37745205 -0.19619381 -0.43568456 -0.18221673 0.5243156 -0.2311153 0.051326945 0.10008853
0.29413608 0.056156445 0.41379574 0.2599824 -0.06345227 -0.09087843 -0.35076964 -0.09608078
0.13139218 0.039407432 -0.02077645 0.55837613 0.163989 -0.028434567 -0.17627142 -0.15878028
-0.40135512 -0.18485458 -0.28548464 0.00718689 0.06366426 -0.6153379 0.26226303 0.06412858
0.15510756 -0.29294902 -0.4423445 0.37688866 0.20420492 0.04188739 0.13319342 -0.52494234
0.41626993 -0.08764278 -0.18729363 -0.08051424 0.366256 0.42557922 -0.27917215 -0.29610175
-0.09422338 0.35537624 -0.22952677 -0.07068716 -0.304219 0.24775772 -0.25632012 0.29277718
-0.07260213 0.45456073 -0.30994597 -0.3602326 -0.39674973 0.28561613 -0.26621753 0.3363312
-0.3627674 -0.15930563 -0.10595524 0.029943913 -0.0072126985 -0.4104469 0.4888324 -0.337063
-0.43341944 0.23758551 -0.7465244 0.13711306 0.12632692 -0.15404037 -0.24076405 -0.70313853
-0.47627556 -0.17021647 0.1742344 -0.19017233 -0.043501586 0.33097702 -0.32342523 -0.24870497
-0.07877985 -0.41889098 0.5071229 0.08476748 -0.008021975 -0.23379716 0.48404008 -0.1048596
0.12052407 0.0094136745 0.1555133 -0.44356602 -0.21568505 0.22137645 0.34551618 0.20012672
0.3367676 0.13808139 0.091635935 -0.50368685 -0.4143084 -0.37164485 0.25341937 0.010473626
0.0521754 -0.1710899 0.16501287 -0.4493737 -0.29388088 -0.21004587 0.19424714 -0.08679479
00000000: f127 6c3e 8345 3d3e 419d 88be f31a b63d
00000010: bcc0 4a3e e0fe 163f 31ac 87be 9f1b a73e
00000020: 1e8a c03e 7ca6 713e d08e 8d3c 5a94 b1be
00000030: 045f 11be cc85 373e be55 823e 60b5 98be
00000040: fb5f 2a3e 45d2 4a3d 2775 0b3e 937c 603e
00000050: 843c bdbe 56c1 d2be 2868 b5be 0017 bdbe
00000060: f65e 81be e953 f83d 5059 f03c 9762 c4bd
00000070: 57ab d5be 08bf b0be 9d58 ce3d d130 493e
00000080: 1aa5 17bc 0f39 d23e b7a8 38ba 38be 2c3d
00000090: 8cce ebbd 280b 24be 3c36 d7bd 36a7 2ebe
000000a0: 3249 02bd 5497 0ebf 5afc 773e c9c7 e1bd
000000b0: 52ce 943e 4500 14be c4a8 9fbe 5b0e d7be
000000c0: 5a47 07be dc97 263e b14e dfbe b7e2 a4bd
000000d0: 24c5 f6bd 8d80 dcbe abb1 c23e 8b59 a5be
000000e0: b0f9 d9bd 38b2 b93d 08e7 303e 5c5a 1dbe
000000f0: 2cfd d3be 30b9 833e d865 133e 60b9 353e
00000100: c0a1 d53c 2ac0 08bf fd12 f23e fe10 d1be
00000110: f417 623e 0a18 313e d97f cfbe e10c cb3e
00000120: 3289 9fbe 82ee b73e deb1 ddbc 3ac2 33be
00000130: 7a49 dabe f79e 0f3d ad3b f63e a003 e1be
00000140: c3ea 833e 3a41 5c3d adbe 363d 0f9b 093e
00000150: b1f0 95be c8be 833e 9c63 fc3e b7d3 393e
00000160: 38e4 cc3e 123f aebe 00bb 3d3e 2145 e93e
00000170: fc78 d4be 5fd9 61be 0f29 93be 183e abbe
00000180: a9c7 863c 39f2 093e 9ec3 883e 5ba9 613e
00000190: d7ac cb3e 4089 2f3d a4d1 23be dceb 753e
000001a0: d9f6 b0be 79bf ddbe 0700 9cbc a53a 6fbe
000001b0: b38c 71be f046 82be 219f ca3e 9abb bcbe
000001c0: 300a cbbe 7082 45be 2526 86bb 90c0 6abf
000001d0: c9c3 6ebe ec50 843e cc54 78be 2dc1 e1be
000001e0: ae76 73be 0db2 75be 399d 9a3e 5e34 49be
000001f0: ee38 993e 5845 0f3e f5f8 bebe 4459 34be
00000200: ce75 c7be 6369 ddbe 1ce8 36be 9722 90be
00000210: c929 303e e2f4 6c3e aeed a9be d87a 4c3d
00000220: 6541 c1be 08e7 48be 0c12 dfbe 0697 3abe
00000230: 8c39 063f 7da9 6cbe 343c 523d 37fb cc3d
00000240: 0199 963e 4d04 663d 09dd d33e 6a1c 853e
00000250: 44f3 81bd 781e babd 1498 b3be 00c6 c4bd
00000260: ac8b 063e b069 213d 6033 aabc bdf1 0e3f
00000270: bbec 273e 9cef e8bc 7f80 34be 4c97 22be
00000280: 6b7e cdbe 854a 3dbe 0b2b 92be 0180 eb3b
00000290: 6862 823d c986 1dbf 5747 863e d855 833d
000002a0: 84d4 1e3e 6afd 95be fa7a e2be 8df7 c03e
000002b0: 181b 513e 1d92 2b3d db63 083e 9f62 06bf
000002c0: 5521 d53e 0f7e b3bd e7c9 3fbe a6e4 a4bd
000002d0: e885 bb3e 85e5 d93e a7ef 8ebe a69a 97be
000002e0: 30f8 c0bd e0f3 b53e 1109 6bbe 6ec4 90bd
000002f0: 98c2 9bbe 33b4 7d3e 643c 83be e4e6 953e
00000300: 6db0 94bd 2fbc e83e 3db1 9ebe 6870 b8be
00000310: c822 cbbe 473c 923e aa4d 88be 9a33 ac3e
00000320: a6bc b9be 0421 23be 10ff d8bd f04c f53c
00000330: 8058 ecbb 1926 d2be 3e48 fa3e 8693 acbe
00000340: 27e9 ddbe 9e49 733e 391c 3fbf 5e67 0c3e
00000350: d85b 013e c2bc 1dbe da8a 76be e300 34bf
00000360: 64da f3be 3a4d 2ebe 816a 323e 89bc 42be
00000370: b82e 32bd d275 a93e fe97 a5be 84ac 7ebe
00000380: 5457 a1bd e178 d6be ced2 013f 939a ad3d
00000390: 9a6e 03bc 8668 6fbe 1ad4 f73e a1c0 d6bd
000003a0: 53d5 f63d d03b 1a3c e13e 1f3e 161b e3be
000003b0: 8bdc 5cbe 82b0 623e 7fe7 b03e 05ee 4c3e
000003c0: ce6c ac3e 3565 0d3e 9fab bb3d 9ff1 00bf
000003d0: 3b20 d4be 3c48 bebe 2fc0 813e 9299 2b3c
000003e0: dfb5 553d 3132 2fbe 22f9 283e 4f14 e6be
000003f0: 8e77 96be 4416 57be b9e8 463e 78c1 b1bd

bias f4 [128]
0.02126237 -0.34797853 -0.41761428 -0.0065724235 -0.24023013 0.11885904 -0.17711982 -0.26876462
0.04291306 0.15112947 -0.11514663 -0.3467052 -0.4336533 -0.12973475 -0.23066925 0.2360543
0.14690085 -0.4325497 0.19661775 -0.0086827325 0.14311989 0.49603882 0.13186947 0.14592856
-0.035061296 -0.023988426 0.0261516 0.07531166 -0.07649442 -0.4194522 -0.41594008 -0.13662039
0.3417932 0.021500532 0.0036004302 0.4097096 0.014792301 -0.1846271 0.015891293 0.09043408
-0.31374586 -0.2647344 0.371381 0.4680953 -0.35414445 -0.19760044 -0.19060485 0.15107203
0.18121102 0.24276711 -0.036897764 -0.23893778 0.079119645 0.22647347 0.2602933 0.14051533
-0.09964377 -0.0430726 0.0054746363 -0.03681405 0.3099817 0.49226364 -0.17687392 0.2028278
0.35711813 -0.15820467 -0.32627928 -0.20402385 -0.42281017 0.054637734 -0.32087785 0.048999414
-0.033497505 -0.08569815 0.26854056 -0.13804086 0.0059944154 0.13047272 -0.038652956 -0.3848718
-0.19229472 0.2991942 -0.06731472 0.20070972 -0.26026773 -0.12617242 0.0220357 -0.28426322
0.011038955 0.34980968 -0.26489928 0.19982198 0.066848055 -0.3252459 0.19453715 0.31061834
0.26947924 -0.06850716 0.17570196 -0.24145488 -0.37470955 0.034459047 -0.14261909 -0.14093873
0.2064228 0.19426273 0.059637252 -0.13400847 -0.03667064 -0.17979199 -0.08237014 -0.25176346
0.23220453 -0.13105816 0.121446684 -0.3340604 -0.11354423 -0.24407955 -0.33650327 0.0764771
-0.39286098 0.34811428 0.14253776 0.041108306 -0.36957544 -0.17014694 0.12846869 0.2843955
00000000: 6c2e ae3c 3e2a b2be 8ad1 d5be 7c5d d7bb
00000010: e3fe 75be 5e6c f33d e65e 35be 849b 89be
00000020: 9bc5 2f3d afc1 1a3e ffd1 ebbd 5883 b1be
00000030: ce07 debe 30d9 04be 8f34 6cbe 38b8 713e
00000040: 2d6d 163e 2777 ddbe 2a56 493e 0542 0ebc
00000050: 058e 123e cdf8 fd3e ca08 073e 4c6e 153e
00000060: 6f9c 0fbd 6083 c4bc e13b d63c 003d 9a3d
00000070: 1ba9 9cbd 70c2 d6be 19f6 d4be 37e6 0bbe
00000080: 85ff ae3e e221 b03c 32f5 6b3b 75c5 d13e
00000090: 685b 723c e30e 3dbe 752e 823c 8135 b93d
000000a0: 4ca3 a0be 448b 87be a725 be3e 30aa ef3e
000000b0: 6c52 b5be c557 4abe eb2d 43be a0b2 1a3e
000000c0: 628f 393e f197 783e 1c22 17bd 1bac 74be
000000d0: 7b09 a23d a9e8 673e 2a45 853e 40e3 0f3e
000000e0: 0812 ccbd e56c 30bd 9464 b33b 54ca 16bd
000000f0: ecb5 9e3e fb09 fc3e 701e 35be 17b2 4f3e
00000100: 30d8 b63e 6800 22be 140e a7be a1eb 50be
00000110: 937a d8be d1cb 5f3d 1a4a a4be 9cb3 483d
00000120: ae34 09bd 8382 afbd 267e 893e 955a 0dbe
00000130: cd6c c43b a49a 053e 9052 1ebd eb0d c5be
00000140: e8e8 44be fb2f 993e 4ddc 89bd d986 4d3e
00000150: d041 85be 5833 01be 3684 b43c f38a 91be
00000160: bcdc 343c 411a b33e e1a0 87be 229e 4c3e
00000170: a2e7 883d a186 a6be bf34 473e 5e09 9f3e
00000180: 2ff9 893e 7b4d 8cbd 37eb 333e f33f 77be
00000190: eed9 bfbe ee24 0d3d bd0a 12be 3e52 10be
000001a0: 8060 533e cfec 463e 3146 743d 8439 09be
000001b0: f433 16bd 641b 38be adb1 a8bd 24e7 80be
000001c0: 06c7 6d3e 1c34 06be 0ab9 f83d f709 abbe
000001d0: e189 e8bd fdef 79be 284a acbe 07a0 9c3d
000001e0: 1325 c9be 093c b23e 6bf5 113e 2f61 283d
000001f0: fe38 bdbe 003b 2ebe 4c8d 033e 499c 913e

weight f4 [128, 128]
-0.021620823 0.08609279 0.06328262 -0.14031796 0.0021420643 -0.041244343 0.04347653 -0.009583771
-0.19697502 -0.58815587 -0.5370548 0.009923875 -0.019753806 0.0014366508 -0.6247969 -0.098755166
-0.054534797 0.058049407 0.12832968 -0.18842848 -0.009265835 -0.5762192 -0.22517993 0.21625578
-0.26388267 0.08700251 -0.12178554 0.0034589916 0.029733714 -0.04716266 0.08691836 0.3364879
-0.31172898 -0.43188152 -0.0034693459 -0.0014313926 0.18232559 -0.19608505 -0.0953558 -0.3788218
0.0027403533 0.164926 -0.1417739 -0.09280914 0.08589133 -0.43406126 0.15873882 -0.46908742
0.090845495 -0.049948882 -0.24201638 0.06479251 0.057964116 -0.16884303 -0.35291243 -0.23960027
0.035867482 -0.036943242 -0.19790518 -0.00443353 -0.225416 -0.2918542 -0.08286032 -0.2535259
0.081083775 -0.00053531677 -0.39717054 -0.0022986084 -0.0012500882 0.03993482 0.083412685 -0.13684528
0.091963686 -0.11017973 0.04888229 0.059519965 -0.35972375 -0.03757237 -0.0325837 -0.03832137
0.07696254 0.028012456 0.09563684 -0.07545919 -0.45071882 0.07529136 -0.27004725 0.2515155
-0.13114543 0.0187128 0.63794994 0.04017271 0.099817574 0.4211222 -0.08598275 -0.032566935
-0.06852311 0.09739109 0.012677411 -0.10017939 0.53065026 -0.057529766 -0.0054050554 0.002698157
-0.074166454 -0.31798863 -0.31611118 -0.07539912 -0.31828773 0.07198693 0.08642338 -0.06431177
0.03303463 0.08409692 -0.004665541 0.14471203 0.12514828 -0.005767867 0.25789744 -0.17021987
0.05158756 -0.14082654 -0.39807698 -0.09341047 0.009058439 -0.07257963 0.03071858 0.14866887
-0.06459406 -0.039763488 -0.011283599 0.06043696 0.068748824 0.009023378 0.009294217 0.035962597
-0.030706163 -0.0972409 -0.073041044 -0.063541956 -0.048366394 0.17359623 0.024714377 -0.037734494
-0.071934626 0.036129966 -0.0077001806 -0.008539425 0.06396731 0.03480078 -0.06942642 0.21504252
0.011262528 0.05777698 0.03910662 -0.049192168 0.0016687327 -0.021169307 0.03368491 0.11310057
-0.039481718 0.11443877 0.03185321 0.00037120294 0.021676946 -0.008672827 -0.011156894 -0.029898522
0.016767994 -0.070372134 0.01703224 0.09414558 -0.07467776 0.07437015 -0.08559102 0.021794612
-0.02665551 0.02795458 -0.057439797 0.061524026 0.009138877 -0.020208592 0.095528126 0.111270644
-0.008414552 -0.12041973 -0.031645518 0.105256096 0.0019262332 0.14164796 0.038881637 -0.13503706
0.044053435 0.022434242 0.02932657 0.076073445 -0.052187838 0.052479763 -0.0133662 0.028687296
-0.16845381 0.0947398 -0.049471762 0.012091871 -0.016297584 0.029723132 -0.033712853 0.06917309
0.055867188 -0.04486569 -0.029476538 0.064353 0.1457316 0.05866178 0.05004301 0.06148977
0.044800345 0.0072172 0.112169325 -0.011385161 0.022514254 0.008641721 -0.027178628 -0.11387807
-0.005357016 0.014597992 0.014014122 0.061513398 0.048987187 -0.044500552 0.02389459 -0.021649912
-0.009553853 -0.09902316 0.07095085 -0.0996996 0.24552383 0.015756914 -0.043698672 0.07184831
0.054090858 -0.027427502 0.085799016 0.06193096 -0.064452484 -0.0799342 -0.07574155 0.092382714
0.045620225 0.064272344 0.03173579 0.016758088 0.062283926 0.12836687 -0.013835549 0.017273685
00000000: 271e b1bc 6b51 b03d 519a 813d 83af 0fbe
00000010: e061 0c3b d4ef 28bd 7214 323d 4005 1dbc
00000020: d2b3 49be 6291 16bf 6c7c 09bf c097 223c
00000030: bcd2 a1bc 004e bc3a b1f2 1fbf 2640 cabd
00000040: e15f 5fbd 37c5 6d3d db68 033e 65f3 40be
00000050: bbcf 17bc 1a83 13bf 9195 66be 2872 5d3e
00000060: a11b 87be 5f2e b23d b26a f9bd 40b0 623b
00000070: 1e94 f33c a22d 41bd 4102 b23d 2448 ac3e
00000080: f19a 9fbe 931f ddbe f75d 63bb 919d bbba
00000090: 8fb3 3a3e 85ca 48be e749 c3bd eef4 c1be
000000a0: 8097 333b 5de2 283e 2d2d 11be b812 bebd
000000b0: cbe7 af3d 473d debe 6e8c 223e 3a2c f0be
000000c0: 340d ba3d 3397 4cbd 24d3 77be efb1 843d
000000d0: c86b 6d3d 30e5 2cbe f0b0 b4be c659 75be
000000e0: c8e9 123d cc51 17bd a8a7 4abe 2547 91bb
000000f0: 74d3 66be ea6d 95be acb2 a9bd 26ce 81be
00000100: 400f a63d 8054 0cba f059 cbbe 40a4 16bb
00000110: 00da a3ba b292 233d 45d4 aa3d 2b21 0cbe
00000120: 7557 bc3d e9a5 e1bd cc38 483d 35cb 733d
00000130: b62d b8be 7ce5 19bd 7c76 05bd def6 1cbd
00000140: 899e 9d3d 617a e53c 3fdd c33d 598a 9abd
00000150: 9ec4 e6be 5b32 9a3d a243 8abe a4c6 803e
00000160: fd4a 06be 964b 993c b050 233f 248c 243d
00000170: 286d cc3d 549d d73e b917 b0bd e864 05bd
00000180: d855 8cbd fb74 c73d eab4 4f3c da2a cdbd
00000190: b2d8 073f 55a4 6bbd e41c b1bb 90d3 303b
000001a0: 95e4 97bd 68cf a2be 53d9 a1be db6a 9abd
000001b0: 9cf6 a2be e26d 933d befe b03d e4b5 83bd
000001c0: 524f 073d 023b ac3d 65e1 98bb 642f 143e
000001d0: df26 003e 6000 bdbb 220b 843e 1e4e 2ebe
000001e0: 7a4d 533d d534 10be bfd0 cbbe fd4d bfbd
000001f0: d969 143c a1a4 94bd 88a5 fb3c a73c 183e
00000200: e449 84bd 0adf 22bd d8de 38bc bf8c 773d
00000210: 2fcc 8c3d cad6 133c c646 183c 844d 133d
00000220: 7e8b fbbc 3d26 c7bd 8b96 95bd 4922 82bd
00000230: d71b 46bd 36c3 313e ce75 ca3c 7c8f 1abd
00000240: 7652 93bd 04fd 133d cc51 fcbb f2e8 0bbc
00000250: 4b01 833d 438b 0e3d 702f 8ebd 1b34 5c3e
00000260: 7786 383c 8ea7 6c3d 432e 203d ba7d 49bd
00000270: 61b9 da3a 416b adbc 30f9 093d 46a1 e73d
00000280: 95b7 21bd e05e ea3d 8378 023d 049e c239
00000290: da93 b13c 7918 0ebc 68cb 36bc bfed f4bc
000002a0: 085d 893c 441f 90bd 3287 8b3c 66cf c03d
000002b0: a7f0 98bd 614f 983d 584a afbd 9d8a b23c
000002c0: a85c dabc 0101 e53c fe45 6bbd 9e00 7c3d
000002d0: 3abb 153c 7d8c a5bc 40a4 c33d dde1 e33d
000002e0: 30dd 09bc 9f9e f6bd bb9e 01bd 8290 d73d
000002f0: a979 fc3a 2a0c 113e 5a42 1f3d 2847 0abe
00000300: 6071 343d 04c8 b73c 463e f03c 65cc 9b3d
00000310: eac2 55bd 05f5 563d e8fd 5abc 9f01 eb3c
00000320: 287f 2cbe f106 c23d e7a2 4abd fc1c 463c
00000330: 8382 85bc ed7d f33c 7d16 0abd 9faa 8d3d
00000340: fed4 643d 16c5 37bd c878 f1bc 81cb 833d
00000350: aa3a 153e 5647 703d e6f9 4c3d b2dc 7b3d
00000360: 9180 373d 437e ec3b 08b9 e53d d488 3abc
00000370: d06f b83c 0196 0d3c b7a5 debc e838 e9bd
00000380: e889 afbb 6b2c 6f3c 7d9b 653c 79f5 7b3d
00000390: caa6 483d 3646 36bd 96be c33c 285b b1bc
000003a0: c487 1cbc a8cc cabd ae4e 913d 4e2f ccbd
000003b0: 996a 7b3e a514 813c 61fd 32bd 3525 933d
000003c0: 608e 5d3d a4af e0bc 65b7 af3d 51ab 7d3d
000003d0: aaff 83bd 8bb4 a3bd 631e 9bbd 2633 bd3d
000003e0: 46dc 3a3d 38a1 833d 63fd 013d 4248 893c
000003f0: 6e1d 7f3d 9b72 033e 80ae 62bc 8b81 8d3c

bias f4 [128]
0.012804423 0.00633219 -8.316831e-07 0.037455097 0.039645102 0.08090619 -0.023443948 -0.07758186
-0.028553564 0.008392606 0.055592485 0.13203637 -0.0016065415 -0.07064598 0.028438615 0.07680466
0.04943166 -0.0751694 0.033494633 0.0686582 0.016748004 0.042415548 0.047392152 0.033998653
0.10845374 -0.018587802 0.079078406 0.14768095 0.04800875 -0.025629966 -0.009202171 0.069069125
0.15726475 -0.02355242 -0.072228655 0.050547123 -0.0027934294 -0.11579791 0.037429247 0.080003686
-0.008480989 0.044995964 -0.04741143 0.04166897 -0.032216128 -0.034125593 -0.0110893175 0.020118836
0.023104861 -0.023699215 0.036570683 0.06366235 -0.0059850668 0.07573848 0.1250272 0.0694797
0.019918066 -0.056892984 -0.06180797 0.10337194 -0.03543173 0.031015832 0.034293987 0.041398857
0.022190308 0.044970933 -0.030834774 0.020141594 -0.026833283 -0.0035948209 -0.017172307 -0.074623175
-0.050011896 -0.06687231 0.11206337 -0.041897964 0.06818731 0.021539936 -0.005799263 0.018710108
-0.04683806 -0.029479528 0.039040282 -0.032330938 -0.028895907 -0.04002796 0.069904536 -0.016133793
-0.059704382 0.0047739684 -0.014606974 -0.041092526 -0.03185011 -0.09259139 0.03143798 -0.010189577
-0.05319842 -0.010735264 0.02900875 -0.037802543 -0.101579264 -0.022066215 -0.116168894 -0.03385399
-0.023976441 0.06391554 -0.041901015 -0.022015147 -0.07311667 -0.030798052 0.10507882 -0.06560102
0.055359613 0.030231494 0.08137608 0.106944725 -0.07338107 0.1343346 0.074894965 -0.08643451
-0.04384139 -0.017644696 -0.060692735 -0.008973569 -0.065317 0.06914096 -0.07132718 -0.01949354
00000000: a5c9 513c 427e cf3b d440 5fb5 846a 193d
00000010: e762 223d 25b2 a53d 860d c0bc 3de3 9ebd
00000020: 2ae9 e9bc 2481 093c f2b4 633d 8b34 073e
00000030: 9692 d2ba d7ae 90bd 19f8 e83c c34b 9d3d
00000040: da78 4a3d 6af2 99bd ab31 093d ac9c 8c3d
00000050: 1c33 893c edbb 2d3d 461e 423d 2c42 0b3d
00000060: ff1c de3d 7245 98bc dcf3 a13d ad39 173e
00000070: d3a4 443d eff5 d1bc b4c4 16bc 1d74 8d3d
00000080: 030a 213e 01f1 c0bc 9eec 93bd 800a 4f3d
00000090: f811 37bb 7427 edbd 694f 193d f9d8 a33d
000000a0: d9f3 0abc b04d 383d 7d32 42bd 15ad 2a3d
000000b0: 0ff5 03bd 47c7 0bbd f8af 35bc 42d0 a43c
000000c0: 6846 bd3c db24 c2bc 24cb 153d 6861 823d
000000d0: 611e c4bb c71c 9b3d 2107 003e 5f4b 8e3d
000000e0: 362b a33c 9e08 69bd 5b2a 7dbd abb4 d33d
000000f0: dd20 11bd ea14 fe3c da77 0c3d d991 293d
00000100: 73c8 b53c 7133 383d 3599 fcbc fcff a43c
00000110: 79d1 dbbc 1697 6bbb f0ac 8cbc 09d4 98bd
00000120: 46d9 4cbd 5af4 88bd 7b81 e53d 339d 2bbd
00000130: caa5 8b3d 8574 b03c be07 bebb f145 993c
00000140: 44d9 3fbd 0d7f f1bc b4e8 1f3d 726d 04bd
00000150: 1cb7 ecbc 5cf4 23bd 1c2a 8f3d 042b 84bc
00000160: 958c 74bd f36e 9c3b 1752 6fbc a350 28bd
00000170: 4375 02bd 8ea0 bdbd 1cc5 003d 2ff2 26bc
00000180: 96e6 59bd f6e2 2fbc c2a3 ed3c d7d6 1abd
00000190: ca08 d0bd 35c4 b4bc f5e9 edbd 7baa 0abd
000001a0: 3e6a c4bc 27e6 823d 66a0 2bbd 1c59 b4bc
000001b0: 31be 95bd 324c fcbc 9033 d73d d459 86bd
000001c0: c3c0 623d 0aa8 f73c 81a8 a63d d605 db3d
000001d0: d048 96bd 028f 093e 8862 993d 9404 b1bd
000001e0: 0893 33bd 9c8b 90bc f298 78bd e005 13bc
000001f0: ebc4 85bd c799 8d3d fc13 92bd ebb0 9fbc

weight f4 [64, 128]
0.017795486 0.030713497 -0.008446666 -0.055609208 0.1112599 -0.070427075 0.008111946 0.09283999
-0.025442673 0.062429793 -0.004164734 0.057784382 -0.10879427 -0.07540518 -0.40164322 0.109016955
0.0170378 -0.0011454773 -0.040685743 -0.10825531 -0.19776563 0.05864853 0.12379046 0.20686041
0.15030994 0.039088737 0.073812164 0.09158034 3.4182733e-05 -0.031796906 0.04283581 -0.04493989
-0.026583793 -0.002289676 0.038278632 0.114795536 0.073613234 -0.15165387 0.043923784 0.0010421195
-0.029258758 0.09550738 0.04484541 0.010252338 0.022479786 0.040573757 0.05158592 -0.004766375
-0.34693572 -0.030087521 -0.09528977 0.18007195 0.048476428 0.023064017 0.11584589 0.114643335
-0.15536559 -0.08610707 0.049787894 0.25477824 -0.029111935 0.1634568 0.0038297342 0.034797758
-0.07761816 0.046423852 -0.091726385 -0.055683628 0.06250862 0.06760657 0.039579455 0.07214993
-0.076440066 -0.00725466 0.022451518 0.040146343 0.06717893 -0.3825333 -0.019604225 0.091561206
0.04478045 0.6777213 0.006083339 0.1825308 -0.26138946 -0.16229211 -0.04835543 0.017387424
0.024325497 -0.0116275875 -0.05437036 -0.06112025 0.10290803 -0.0660612 -0.036394153 0.11657428
-0.21929537 -0.043387346 -0.040408675 0.085085824 0.0326005 -0.060766898 0.017648919 -0.062238805
-0.06470203 -0.70111054 -0.0019214526 0.09833232 -0.061247557 0.042375922 0.12545176 -0.009971017
-0.027941829 -0.0054746377 0.07981458 0.08539177 0.084694155 0.020158796 -0.108549446 -0.052798584
-0.10293942 -0.021554215 0.09363409 -0.04478676 -0.062008 0.10688263 -0.029675376 -0.045708835
0.06586551 -0.05200671 0.16980359 0.085354604 0.006958727 -0.15642864 0.060000718 0.1434579
0.19415434 -0.08554618 -0.021815738 -0.18450171 -0.029373875 -0.17446442 -0.22956984 0.070991606
-0.071136095 -0.066021025 0.022991955 0.009176009 0.0760309 0.00011192127 0.078030944 0.008733056
-0.08026958 0.12521975 -0.042320594 -0.16562234 -0.19002958 0.043131523 -0.13892467 -0.17875545
-0.16143744 0.003742768 0.04936049 0.06956449 0.32371858 -0.008412999 -0.061603297 -0.14546746
0.27092817 0.047466125 -0.024553657 0.3364162 0.07544172 -0.058649603 0.07329274 0.037829176
-0.38535783 -0.055400033 0.18609373 0.1891318 -0.033379663 -0.03817659 0.087254874 -0.010567815
0.0595554 0.052428756 -0.07646394 0.06847546 0.00085616764 -0.13107324 0.005523402 0.16196898
0.019731302 -0.096810885 0.007324427 -0.1957111 0.0953403 0.29001176 -0.06499115 0.08212092
0.023955263 -0.035722647 0.09639698 0.014594983 0.09188834 -0.14103606 0.10406385 -0.04073945
-0.049649164 0.16437477 -0.04230557 0.2749381 -0.106662855 -0.32109526 0.042535067 0.14348008
-0.052427717 0.3922259 -0.013807899 0.051049814 0.03351878 0.0984883 -0.036342155 -0.041388117
-0.19987965 -0.3091421 0.002676027 0.082873605 0.085807376 -0.13454024 0.050898608 0.03401411
-0.02606907 -0.296823 0.056470133 0.13962035 -0.010345258 -0.06867742 -0.086077884 -0.28901523
-0.07436233 -0.017600007 0.0065438394 -0.059251126 0.048198514 -0.05995206 -0.03952399 0.0023192936
-0.2820449 -0.21050522 0.17806865 -0.08706606 -0.060266282 0.02539912 0.0528158 0.08538382
00000000: d7c7 913c df9a fb3c e363 0abc 7bc6 63bd
00000010: 3bdc e33d 123c 90bd f8e7 043c e522 be3d
00000020: 276d d0bc 62b6 7f3d 5278 88bb 51af 6c3d
00000030: 88cf debd 086e 9abd 2ea4 cdbe 4844 df3d
00000040: db92 8b3c d723 96ba 18a6 26bd f6b4 ddbd
00000050: 1383 4abe 7139 703d da85 fd3d 37d3 533e
00000060: d9ea 193e 831b 203d d52a 973d 798e bb3d
00000070: 6e5f 0f38 793d 02bd 9a74 2f3d e412 38bd
00000080: 41c6 d9bc 640e 16bb 0eca 1c3d ec19 eb3d
00000090: 89c2 963d 274b 1bbe 6de9 333d ba97 883a
000000a0: 10b0 efbc 6099 c33d d2af 373d 6cf9 273c
000000b0: 8727 b83c ab30 263d c24b 533d 402f 9cbb
000000c0: 8fa1 b1be 1b7a f6bc 4827 c3bd c864 383e
000000d0: 388f 463d c0f0 bc3c 9c40 ed3d 20ca ea3d
000000e0: 2818 1fbe e758 b0bd 64ee 4b3d 4b72 823e
000000f0: 277c eebc 3861 273e 47fc 7a3b 1888 0e3d
00000100: 45f6 9ebd f026 3e3d 0bdb bbbd 8414 64bd
00000110: 8504 803d 5075 8a3d 111e 223d 58c3 933d
00000120: 9c8c 9cbd 80b8 edbb 3fec b73c 7e70 243d
00000130: 1b95 893d 68db c3be 0a99 a0bc 7184 bb3d
00000140: b56b 373d 257f 2d3f bf56 c73b 5be9 3a3e
00000150: d7d4 85be e72f 26be 5810 46bd 1270 8e3c
00000160: 4446 c73c a381 3ebc 74b3 5ebd 3a59 7abd
00000170: 72c1 d23d 184b 87bd 0912 15bd 7fbe ee3d
00000180: f78e 60be eeb6 31bd 9183 25bd 7a41 ae3d
00000190: 1a88 053d b6e6 78bd 7794 903c 1eee 7ebd
000001a0: 7f82 84bd fb7b 33bf 40d9 fbba 7562 c93d
000001b0: b8de 7abd 6092 2d3d 6d76 003e 7a5d 23bc
000001c0: 43e6 e4bc 9764 b3bb d475 a33d e1e1 ae3d
000001d0: 2174 ad3d 0f24 a53c 2c4f debd 5443 58bd
000001e0: e7d1 d2bd 7792 b0bc 3bc3 bf3d 5272 37bd
000001f0: 1afc 7dbd 48e5 da3d c619 f3bc 3039 3bbd
00000200: 7fe4 863d fd04 55bd fee0 2d3e 65ce ae3d
00000210: 0806 e43b d42e 20be 50c3 753d a1e6 123e
00000220: 65d0 463e d632 afbd ebb6 b2bc 04ee 3cbe
00000230: 7ba1 f0bc cda6 32be 5b14 6bbe 0c64 913d
00000240: cdaf 91bd 0836 87bd a059 bc3c f956 163c
00000250: 17b6 9b3d 46b7 ea38 b0ce 9f3d 1715 0f3c
00000260: 6164 a4bd 9b39 003e 5c58 2dbd e798 29be
00000270: 1d97 42be aeaa 303d 4542 0ebe ab0b 37be
00000280: db4f 25be 3a49 753b 3a2e 4a3d d477 8e3d
00000290: 71be a53e add6 09bc bd53 7cbd 6cf5 14be
000002a0: 19b7 8a3e d76b 423d c024 c9bc bf3e ac3e
000002b0: 3081 9a3d 913a 70bd 811a 963d c4f2 1a3d
000002c0: 9f4d c5be 25eb 62bd 5b8f 3e3e c4ab 413e
000002d0: 1db9 08bd 0e5f 1cbd afb2 b23d a124 2dbc
000002e0: 5df0 733d 89bf 563d 2099 9cbd dd3c 8c3d
000002f0: 7070 603a 1038 06be a7fd b43b 32db 253e
00000300: 8aa3 a13c c944 c6bd bf01 f03b 7e68 48be
00000310: c641 c33d 6c7c 943e 141a 85bd 032f a83d
00000320: d43d c43c e951 12bd c86b c53d cc1f 6f3c
00000330: f42f bc3d c26b 10be 6e1f d53d 69de 26bd
00000340: ec5c 4bbd dc51 283e 9b48 2dbd b0c4 8c3e
00000350: 0e72 dabd 9966 a4be 4039 2e3d 71ec 123e
00000360: 72be 56bd d5d1 c83e 873a 62bc 9c19 513d
00000370: fd4a 093d 3cb4 c93d 83db 14bd 9686 29bd
00000380: 40ad 4cbe e047 9ebe 4860 2f3b a3b9 a93d
00000390: c7bb af3d ebc4 09be 0f7b 503d 6152 0b3d
000003a0: cd8e d5bc 2ff9 97be 3a4d 673d a3f8 0e3e
000003b0: 287f 29bc bfa6 8cbd 9a49 b0bd cef9 93be
000003c0: 474b 98bd e42d 90bc b46d d63b 4fb1 72bd
000003d0: ce6b 453d 4b90 75bd e8e3 21bd 4aff 173b
000003e0: 3068 90be ae8e 57be a157 363e b14f b2bd
000003f0: c7d9 76bd d111 d03c 6155 583d b6dd ae3d

bias f4 [64]
0.1212486 -0.05129562 0.047100086 0.048156746 0.00907588 -0.055306133 -0.0051933643 0.030977756
0.03222058 0.027217591 0.0702636 0.031027718 0.0071193203 -0.019777175 -0.04733603 -0.0898529
-0.05707604 -0.0031115273 0.084512286 -0.14984353 -0.16743161 -0.027359154 -0.052233692 0.07291507
0.064064585 0.13980663 0.036737435 -0.001937204 0.028399942 -0.17601857 -0.17548819 -0.09133866
-0.010966908 0.022973392 -0.07401609 -0.08008708 -0.09266115 -0.070741445 0.00090458704 -0.046376523
0.02383983 0.025010677 0.017010396 0.027279846 0.11657393 -0.004576994 0.1278008 -0.06870268
0.045034677 -0.056743886 -0.0027277789 -0.030137472 -0.089974456 -0.06909568 -0.066087276 0.017204668
0.0687202 0.012007601 -0.02939408 0.03426864 0.09354849 0.07755425 -0.018797262 -0.024016129
00000000: 3051 f83d 5b1b 52bd 05ec 403d 0240 453d
00000010: 00b3 143c af88 62bd 192d aabb 10c5 fd3c
00000020: baf9 033d 6df7 de3c 5de6 8f3d d72d fe3c
00000030: 3049 e93b be03 a2bc 6de3 41bd cc04 b8bd
00000040: 91c8 69bd c4ea 4bbb c714 ad3d 9570 19be
00000050: 3173 2bbe 4e20 e0bc fff2 55bd 7f54 953d
00000060: 4b34 833d 7829 0f3e fe79 163d c8e9 fdba
00000070: ffa6 e83c 363e 34be 2db3 33be c30f bbbd
00000080: 8cae 33bc b232 bc3c bf95 97bd b204 a4bd
00000090: 21c5 bdbd e4e0 90bd cf21 6d3a 4ff5 3dbd
000000a0: bf4b c33c 31e3 cc3c 6359 8b3c fc79 df3c
000000b0: 50be ee3d 9cfa 95bb 37de 023e feb3 8cbd
000000c0: 4876 383d 476c 68bd 89c4 32bb dce2 f6bc
000000d0: 8744 b8bd 0982 8dbd c458 87bd cef0 8c3c
000000e0: 2dbd 8c3d 87bb 443c dbcb f0bc 465d 0c3d
000000f0: 5a96 bf3d c3d4 9e3d b7fc 99bc 79bd c4bc

weight f4 [3, 64]
-0.115939535 -0.39265242 -0.89391214 -0.39234942 0.5224923 0.21655002 0.4210502 -1.0498401
-0.025302283 -0.78995806 0.32384753 -0.37754738 0.23173842 0.1932325 0.43881878 0.9505809
0.1189732 0.15969777 0.19539186 -1.0492053 -0.9805657 -0.26103592 -0.97044826 0.2527686
-0.59173363 -0.41853234 -0.9389644 -0.049159717 -0.16388504 0.566838 0.3615073 -0.73816675
-0.038095877 -0.53866297 0.14861132 0.28839138 0.08493627 -0.03869217 0.18915649 -0.33499333
0.29645535 -0.50125045 1.1127051 -0.5297621 0.36889464 -0.93126327 0.16729142 0.44326383
-1.0916988 -0.91645354 0.44729093 0.1615659 -0.06970024 -0.6622398 0.12799658 -0.15466465
-0.9961527 -0.043153528 -0.892998 -0.008526038 0.1870181 -0.4911925 0.86822724 0.7052677
0.109609194 0.07483475 -0.07516815 0.40495026 -0.42849547 -0.4700866 -0.29997346 -0.30226892
0.24562413 0.3970591 0.19456306 0.37670836 -0.69472075 -0.39263785 -0.32861623 -0.77130353
-0.045807812 -0.08356117 0.14921835 -0.40959448 -0.3960834 0.086835645 0.1303684 0.036689553
0.21889521 0.20339885 -0.37973544 0.020012172 0.03880489 -0.3099506 -0.7571447 -0.4734768
-0.06505454 0.13847998 -0.3099298 -0.359042 0.07545781 -0.091184504 -0.32772204 0.4160771
0.12393088 0.42205736 0.6761434 0.10660072 0.17843531 0.20949042 -0.38340914 -0.31337327
-0.3076058 0.098402455 -0.41549775 -0.5815488 -0.11761042 0.1797905 -0.3426652 -0.11456769
-0.017811228 -0.11759793 -0.13505949 -0.19105245 -0.42822522 0.45433018 0.68841505 -0.1050432
-0.13936666 0.024387473 0.09186805 0.13004807 -0.43740797 0.009872624 -0.34872776 0.5370011
-0.13584344 0.11944219 -0.46738294 -0.31685305 0.1536483 0.14889584 0.29308802 0.41619733
-0.10063876 -0.237711 -0.32770368 0.4087252 0.41060394 0.24612427 0.19523968 -0.29227993
0.058182225 0.11287301 0.35778943 -0.09579787 0.25281352 0.19171101 0.68118817 0.31617954
-0.06196693 0.26829597 0.017585892 0.08628369 0.02251337 0.08826647 0.024606777 -0.41234386
-0.5004956 -0.2908647 -0.9896845 0.008795382 -0.3523391 0.10337477 0.1987792 0.4305334
0.5865258 0.6010358 0.17552046 0.21699193 0.03529221 0.021435278 0.18913738 0.26170123
0.12041312 -0.06294236 0.4252018 0.11666812 0.044252653 -0.37514532 -0.783484 -0.606182
00000000: b571 edbd bd09 c9be 6dd7 64bf 06e2 c8be
00000010: 0ec2 053f 4abf 5d3e e493 d73e 2961 86bf
00000020: bc46 cfbc b13a 4abf 58cf a53e e44d c1be
00000030: d64c 6d3e bede 453e dbac e03e 4559 733f
00000040: 39a8 f33d d087 233e ce14 483e 5c4c 86bf
00000050: 5b06 7bbf 80a6 85be 4c6f 78bf e36a 813e
00000060: db7b 17bf df49 d6be f95f 70bf b35b 49bd
00000070: 7bd1 27be 4c1c 113f 7c17 b93e 7ff8 3cbf
00000080: 6c0a 1cbd d1e5 09bf 912d 183e 09a8 933e
00000090: 11f3 ad3d ae7b 1ebd 3db2 413e 3f84 abbe
000000a0: ffc8 973e f351 00bf 1f6d 8e3f 7d9e 07bf
000000b0: c2df bc3e 4567 6ebf 714e 2b3e 7af3 e23e
000000c0: c9bc 8bbf b39c 6abf 5103 e53e 8871 253e
000000d0: 00bf 8ebd 8c88 29bf 8911 033e 6960 1ebe
000000e0: dd03 7fbf c1c1 30bd 849b 64bf ccb0 0bbc
000000f0: ac81 3f3e 957d fbbe 2444 5e3f 6d8c 343f
00000100: c97a e03d f642 993d c2f1 99bd a455 cf3e
00000110: c263 dbbe 31af f0be 1f96 99be fec2 9abe
00000120: e484 7b3e 554b cb3e 8a3b 473e ebdf c03e
00000130: 38d9 31bf d407 c9be 6340 a8be 2674 45bf
00000140: f9a0 3bbd 1e22 abbd b2cc 183e 5eb6 d1be
00000150: 72cb cabe e3d6 b13d 4b7f 053e c947 163d
00000160: 1126 603e ca47 503e af6c c2be 91f0 a33c
00000170: e0f1 1e3d d8b1 9ebe 3cd4 41bf 8d6b f2be
00000180: 513b 85bd b2cd 0d3e 1eaf 9ebe 5ad4 b7be
00000190: a089 9a3d f1be babd 2fcb a7be 0f08 d53e
000001a0: 79cf fd3d e717 d83e bc17 2d3f 7a51 da3d
000001b0: bfb7 363e a884 563e 344e c4be 7672 a0be
000001c0: 827e 9dbe 3a87 c93d 1fbc d4be 62e0 14bf
000001d0: bbdd f0bd 001b 383e d071 afbe 77a2 eabd
000001e0: dae8 91bc 2fd7 f0bd 094d 0abe 41a3 43be
000001f0: 5640 dbbe f79d e83e f83b 303f e420 d7bd
00000200: 22b6 0ebe 3dc8 c73c 5125 bc3d 522b 053e
00000210: f0f3 dfbe c9c0 213c 728c b2be e778 093f
00000220: 8b1a 0bbe 1b9e f43d d14c efbe 903a a2be
00000230: fb55 1d3e 2778 183e a20f 963e d117 d53e
00000240: b21b cebd 836a 73be c7c8 a7be 6e44 d13e
00000250: ae3a d23e 0008 7c3e e9ec 473e b7a5 95be
00000260: 7c50 6e3d f729 e73d 2d30 b73e ac31 c4bd
00000270: c670 813e e44f 443e 5962 2e3f 49e2 a13e
00000280: 09d1 7dbd 175e 893e 4a10 903c 81b5 b03d
00000290: f56d b83c 0dc5 b43d 2794 c93c bc1e d3be
000002a0: 7b20 00bf 38ec 94be f75b 7dbf 821a 103c
000002b0: ca65 b4be 27b6 d33d c68c 4b3e e06e dc3e
000002c0: 8e26 163f 7bdd 193f a3bb 333e 2233 5e3e
000002d0: 908e 103d 0999 af3c 3bad 413e b4fd 853e
000002e0: 279b f63d ede7 80bd 0db4 d93e b2ef ee3d
000002f0: 4542 353d 0c13 c0be 6892 48bf be2e 1bbf

bias f4 [3]
-0.11465798 0.11440367 -0.023098698
00000000: ced1 eabd 794c ea3d 7b39 bdbc
