models/mountaincar_3D/checkpoint_cl.8.pth.tar (torch_old, 215509 bytes, 18 tensors)

weight f4 [128, 5]
00000000: a9ed bcbe b63e adbe 08ed c23e 20a7 d53e
00000010: 0038 f739 59e6 edbe 2aec 5b3b 765f c43e
00000020: 70c4 e6bd 002a 62bb 8823 71bd 78b8 c63d
00000030: 54f0 2f3e 166c 17be b4c9 6e3e 98a7 d8bd
00000040: a94a a8be 42f6 b93d 8cd8 7cbe 3ec5 163d
00000050: 1718 59be 1965 e7be 1f37 bdbe d3d9 373e
00000060: c0df 953e dd6c 033f ea7e 3fbe fcec 2bbe
00000070: fc58 50be ff6e 8f3e ae6f 09bf 0586 d7be
00000080: d0da 853e 5357 633d 7958 c3be 7ccf f33e
00000090: 3919 e13d 4372 9fbd 6abe 1d3e 2fd7 a23e
000000a0: 13f7 b23e 0f46 e8be 14dc b13e 9d1c c13e
000000b0: 4faf cfbe b311 0f3d f7b5 683e 725e aa3e
000000c0: 8026 6cbe eb3a 26be 1edc aebe 9a55 6fbe
000000d0: d4bf cebe 20bf 2c3c 1021 4dbd 461f 963e
000000e0: 1e11 d83e 5627 0f3e 2bcd cf3e c873 ae3e
000000f0: 6ec4 c63e 4b3b f93c 3fba 07bd 7020 d7bb
00000100: 9708 d0bd 1496 09be e84c 8f3e 52bf 26be
00000110: 9499 9bbe 68c8 053e adc4 773d 0882 e2be
00000120: 115b 453e 8c04 f73d 26d3 383e b339 f8bd
00000130: 43a4 b3be 31a8 23be f17b babe 99d5 723e
00000140: 5880 23bf 3911 6e3e 35e9 ad3e 7eb3 033e
00000150: b1a6 85be 8750 073f db61 83be 6e3d 0e3e
00000160: bb9a 933c f61a ac3e fc8f 11bf 815d ae3e
00000170: b552 bc3d 0405 11be fdd4 b93e 9f86 c1bd
00000180: c3be 933b 7f61 823e b1bc 79be c8d8 233d
00000190: c421 c9bd dfa8 cdbe e859 a33d 0ca5 6bbe
000001a0: 00e7 ae3b d5df 4f3e 3641 623e 88d2 36bd
000001b0: 6cdd 44be 5275 873e 9815 12bf 4d08 a4be
000001c0: e4f6 d6be dcb2 d23e d4c4 97bd d507 dabe
000001d0: 1853 8e3e 5496 cbbd 3602 82be 4a8c bdbe
000001e0: a024 53be 4081 153c 6ca6 b0be 7844 123d
000001f0: acae c7bd 2f67 c73e b0e3 b93e 48ce 163e
00000200: 672a 013e 1899 2abc 54e0 f03e ba75 303c
00000210: 163d 16be 2570 d53e 4ef6 833e f674 d4be
00000220: 4ae9 c5be 25bd f03d f01d b13e f174 b9be
00000230: ad4e 963e c89b 163e 8359 7ebe 1c3e 893d
00000240: 07d1 4dbe 2874 1d3e b4ed 7a3e b5d5 72be
00000250: 08fa d0bd 9097 65bd ed95 a13e 84db cc3e
00000260: 64f0 babd 9339 483e c1b1 0abe 0894 243d
00000270: 9778 b53e 3434 ba3d 3570 93be 20ee 873e
00000280: c1af 42bf 6ef7 87be ca09 f43e 1001 d8bc
00000290: f8a9 a03d 3e96 a3be 4e80 3a3d f2b9 3fbe
000002a0: dff7 92bd 6ef9 863e 80d9 0a3b dea9 16be
000002b0: c16f 5abe f03c 453e 187e 35be 0801 ccbe
000002c0: 2c9d f33d 3722 7ebe f785 2dbe afca 00bd
000002d0: eaac 16be 0012 0a3b dc60 723e 4036 8dbe
000002e0: e8e5 913d 6361 3c3e 4517 fa3d 8552 3fbc
000002f0: faad 533e df2a 963e d4a9 b13e 54ec 18bd
00000300: 35de ae3e 24fc f1bd 7985 e6be fff5 9c3c
00000310: 0e28 32be 0f6e 3a3e 4217 20be a29c a7be
00000320: 422f 8dbe 6c89 dcbe 4dec d13e eade 80bd
00000330: 3306 9cbd 5b31 ce3e 4a8a c53e 3a97 3e3e
00000340: 22b8 d6be 9424 d33e 211d 933e f763 fc3d
00000350: 69cb 73bd c08a c4be 57a7 4f3e a39e 5fbf
00000360: a1c1 9bbe 2cd0 8fbe da1f 9b3e 3d66 643e
00000370: 4589 b83e d046 16bc 4645 71be bdb8 23be
00000380: 92b0 c43e 4fb6 dabe 10e0 a0bd 6c0c 683e
00000390: 0f89 4b3e d48b 393e 5f94 dbbc 283a 853d
000003a0: 20a6 80be 6619 59be ba4f 3d3e d860 3e3e
000003b0: 9a6a b1be d261 bbbe f10d c8be d6fd 753e
000003c0: b660 87be fa6d cd3e eb1e 473e 99b5 a83d
000003d0: e652 08be 1458 a63e 437d 663e 8126 b7be
000003e0: bd3f e13e 709f 2d3e 82a0 3abf c58e 6dbe
000003f0: 6e78 a0be d93d d23e 6f48 b7be 5f0e c9bd
-0.3690007 -0.33836907 0.38071465 0.4172907 0.00047153234 -0.46464804 0.0033557513 0.3835408
-0.11267936 -0.0034509897 -0.058871776 0.09703153 0.17181522 -0.14787325 0.23319131 -0.10578841
-0.3286946 0.09080173 -0.24691981 0.0368092 -0.21200596 -0.4519432 -0.36956117 0.17954187
0.2927227 0.5133799 -0.18700758 -0.16789621 -0.20346445 0.2801437 -0.53686035 -0.42094436
0.26143503 0.0555032 -0.38153437 0.47619236 0.10991139 -0.077854656 0.15404668 0.31804797
0.34954128 -0.4536595 0.3473822 0.37717143 -0.40563437 0.03492899 0.22725664 0.3327518
-0.23061562 -0.16233413 -0.3415231 -0.23372498 -0.40380728 0.010543615 -0.05008036 0.29320735
0.4220056 0.13979849 0.40586218 0.3407271 0.3882174 0.03042378 -0.033136602 -0.006565146
-0.101578884 -0.13436157 0.27988362 -0.1628392 -0.30390608 0.1306473 0.0604903 -0.4423983
0.1927302 0.12061414 0.18049297 -0.1212038 -0.3508626 -0.15982129 -0.36422685 0.23714294
-0.6386771 0.23248757 0.33966985 0.1286144 -0.26103738 0.5285725 -0.25660595 0.13890621
0.018018117 0.3361432 -0.5686033 0.34055713 0.091954626 -0.1416207 0.3629531 -0.09449505
0.0045088246 0.2546501 -0.24388386 0.04000166 -0.098208934 -0.401679 0.07976133 -0.23012179
0.005337596 0.20300229 0.22095188 -0.044634372 -0.1922509 0.26456696 -0.570642 -0.32037583
-0.41985238 0.41152084 -0.07410589 -0.425841 0.2779777 -0.09940782 -0.25392312 -0.37021095
-0.2061944 0.009125054 -0.3450197 0.03570983 -0.09750113 0.3894591 0.36306524 0.14727128
0.12613831 -0.010412477 0.4704615 0.010770256 -0.1467174 0.41687122 0.25773853 -0.41495484
-0.38654548 0.117548265 0.34593153 -0.36222032 0.293569 0.14707863 -0.24838834 0.067012995
-0.20099269 0.15376341 0.24504739 -0.23714335 -0.1020394 -0.056052744 0.31559697 0.40011227
-0.09127882 0.19553213 -0.1354437 0.040180236 0.35443565 0.09091988 -0.28796545 0.26548862
-0.7604943 -0.2655596 0.47663718 -0.026367694 0.07844919 -0.31950563 0.045532517 -0.18723276
-0.07176184 0.26362175 0.002118677 -0.14713237 -0.21331693 0.19261527 -0.17723882 -0.39844537
0.118952125 -0.2481774 -0.16945635 -0.031443294 -0.14714399 0.0021067858 0.23669761 -0.27580452
0.07123929 0.18396525 0.122114696 -0.011677389 0.20671836 0.29329583 0.3469988 -0.037334755
0.34153906 -0.1181567 -0.45023707 0.019160269 -0.17398092 0.18206047 -0.15633872 -0.3273669
-0.27575117 -0.43073595 0.41000596 -0.062925175 -0.0761837 0.4027203 0.3858207 0.18612376
-0.41937357 0.41238844 0.2873316 0.12323754 -0.05952016 -0.38387108 0.20278679 -0.87351435
-0.30421165 -0.2808851 0.30297738 0.22304626 0.36042228 -0.009172156 -0.23561582 -0.15988441
0.38415962 -0.42717215 -0.078552365 0.22660989 0.19876502 0.18119746 -0.026804147 0.06505233
-0.25126743 -0.21201095 0.18487445 0.1859163 -0.34651643 -0.36598068 -0.39073136 0.24022612
-0.26440972 0.40122968 0.19445388 0.08237762 -0.13312873 0.32489073 0.22508721 -0.35771564
0.4399394 0.16955352 -0.72901165 -0.23198994 -0.3134188 0.4106281 -0.3579745 -0.09817194

bias f4 [128]
00000000: 6cd6 e0be 8ee3 07be 453d e2be b42a d23e
00000010: 6b68 1e3e 14c5 d9be 3899 a63e 9226 3a3b
00000020: b9c6 b2be 051e 133e 92da bbbe 20e7 3ebe
00000030: 8c5c 583e e365 babe 3929 6f3e 6170 c03e
00000040: 531b 1bbe 18ca 7bbd cbeb 58be b084 693d
00000050: 4293 a4be ba9f fdbe bc85 3ebe d2c9 18be
00000060: c144 9ebe 7ac9 b03e f6d4 0f3e 65c6 8f3e
00000070: 7e94 c43b 75f7 bbbe 2919 c2bc ecbb a93e
00000080: 57c8 b4be 7158 ac3e 6110 4fbe 18f5 183e
00000090: a8cd cabe e9ff 933c f6c8 be3c 3485 cdbd
000000a0: 3660 b23d a2e9 adbe af45 663b 7cb3 cfbd
000000b0: bd6c d03e 9dd3 973d 0754 3bbe b7e4 56bd
000000c0: 2f2a c1be f5b3 a13e 8c72 55be fa19 ae3e
000000d0: e541 a53b 4e12 a33e 686d aabe 8add 49be
000000e0: 880b cf3d 006c c63e ef9e 42be 15f8 8dbd
000000f0: 18da 58be 1611 d43e 1fe4 9b3e 521f 583e
00000100: 20cb 2ebe 709d aabe a533 073e 4108 05be
00000110: dc58 2cbe 8937 453e 84c6 4ebd b661 42bc
00000120: 8323 583e 7712 ef3e aa58 bfbe 3ed8 cf3e
00000130: d3df f23d 7e0d ae3e 58af db3c 52d9 b83e
00000140: 4b8b 9b3e 477a c33d 7f08 983e 0454 c9bd
00000150: df8e 3d3d 5df5 bcbe b671 93be 90b7 90be
00000160: 36f5 b53e bc0b 3b3e fadc dabe f77e b33e
00000170: 5119 39be 421f 993e 53ef 12be 7575 a73e
00000180: ab37 813e 41dc dfbe d1c9 ca3e 36dd 8e3e
00000190: 41f1 2bbe 1914 923d 9450 a1be da28 0a3e
000001a0: a080 18be 7baa 39bd 165f c4be 050b d2be
000001b0: d1ea 3c3e 8a9f 90be 1028 dc3c 8b78 913e
000001c0: be90 c5be 71ee d5be 6bce 69be 1c9f c0be
000001d0: 5fbf 96be 2328 47be b0e5 78be 4349 a6be
000001e0: 034f 26be 2a15 b93e 0183 b23c a628 88be
000001f0: d42a 6e3e 4937 243e ff5f 1c3d c82a 943c
-0.4391359 -0.13270399 -0.4418737 0.41048205 0.1546952 -0.4253317 0.32538772 0.0028404337
-0.34917238 0.1436692 -0.36690193 -0.18642855 0.21129054 -0.36405858 0.23355569 0.37585738
-0.15147142 -0.06147203 -0.21183698 0.057011306 -0.321436 -0.49535924 -0.18605703 -0.14920738
-0.3091183 0.34528714 0.14046082 0.2808105 0.005999147 -0.36712232 -0.023693638 0.33151186
-0.35309097 0.33661225 -0.20221092 0.14937246 -0.39610028 0.018066363 0.023289185 -0.10035172
0.08709757 -0.3396731 0.003513675 -0.10141656 0.4070796 0.07413409 -0.18293773 -0.052464213
-0.37727496 0.3158261 -0.20844477 0.34004194 0.0050432556 0.31849903 -0.33286595 -0.19713417
0.10109621 0.38754272 -0.19005941 -0.069320835 -0.21176946 0.41419286 0.3044748 0.21105698
-0.17069674 -0.3332324 0.13203295 -0.1299143 -0.16830772 0.19259466 -0.050482288 -0.011864116
0.21107297 0.46693775 -0.37372333 0.40594667 0.11859097 0.3399467 0.026817009 0.36103302
0.3037971 0.09544807 0.29693982 -0.09830478 0.04627883 -0.36905947 -0.28797692 -0.28265047
0.35538644 0.18266195 -0.42746717 0.35057804 -0.18076064 0.2990666 -0.14349107 0.327068
0.25237784 -0.43722728 0.396071 0.27903146 -0.1679125 0.071327396 -0.3150679 0.13492146
-0.14892817 -0.0453286 -0.38353795 -0.41024032 0.1844895 -0.2824672 0.026874572 0.2841228
-0.38586992 -0.4178348 -0.22832648 -0.3762139 -0.2944288 -0.19448905 -0.24306369 -0.3247777
-0.16241078 0.3614896 0.021790983 -0.26593512 0.23258525 0.16036715 0.038177487 0.018086806

weight f4 [128, 128]
00000000: 7062 ca3c bb1d 963c 5a4a 303d 11c6 903d
00000010: e2db af3d c906 12bf 7007 943d 2e4b e13c
00000020: 0e07 983e 8bc7 09bd 1c6b 8ebd 44f9 9fbd
00000030: 3ce9 c4bc 0a07 17bd f012 80bd 2bde 2d3d
00000040: 8014 c7bc 6b81 513b 49a4 fe3d 03d9 8d3d
00000050: 266c 1bbd 10e8 02bf e722 f73d cbb7 93bd
00000060: de06 393d 85b4 96bc 320c 94bd af39 1d3d
00000070: 1a79 9dbe 689d 003c 5e90 bc3c 8868 383d
00000080: 6ec3 1d3f 9f92 8c3c 9ab8 2b3d 36eb 0d3e
00000090: 9427 89bc 6439 75bd d3ba 0e3d b314 77bc
000000a0: 8533 df3d c9b5 cc3c db05 2c3b b29d 0a3f
000000b0: 8ce0 cd3b 37c8 5a3e 2e07 a4bd f231 013d
000000c0: 6442 e23d 7fa6 b1bd 5af3 0e3e 92d7 8d3d
000000d0: ce2a 23bd a627 383d fce6 c6bd 654b 803d
000000e0: 35b2 6ebd 281f 09bd 8486 933d 838b d1bd
000000f0: e2e3 923d 0265 bb3d 9dec b13c 1ccc 803d
00000100: 740d 6cbc af07 553e c1cc ed3c 11ad 1a3e
00000110: 8320 b1bd 38d9 1abd d6a7 6a3d fd80 34bd
00000120: 1f24 69bd d37d 223d 1c2c fdbc a0df 493d
00000130: acb1 c7bd 6bdd 9d3d e46d 3c3d 8bf7 b5bd
00000140: 136a 973d 038a 64be daff be3d 6c70 5cbb
00000150: ccf7 08bd a483 af3d 8c76 143d afb5 57bd
00000160: b1c1 c2bc 4c6d 99bd 4961 09bc 4bd6 e03d
00000170: 7507 5e3c a2c8 a83d 00c3 f73c 5aa7 903d
00000180: 68e5 3d3d 96be 7c3d 5dc0 f5bc a283 323e
00000190: 531e 10bd 2238 7fbd d0e0 6ebc 205e bebe
000001a0: b002 bfbd cb36 4f3c d446 86bd 296a ab3d
000001b0: 5d4f ca3d 7cbf 0e3d dd6c 8b3d ab52 3e3c
000001c0: 43fa 8e3d 5714 af3d a0c5 4dbd c807 6bbf
000001d0: 05c2 b33c a489 0a3e 86be 82bc ab49 af3d
000001e0: ab9b 493c 7cf7 76bd b156 1b3d ddb4 55bd
000001f0: dc88 183e 0ff7 6ebd f8c5 993d f925 c33c
00000200: 634d a63d 0c36 9dbd 29b4 a53d 96b3 473d
00000210: 9c9e a8bc d440 16bd 7871 a6bd 09a6 a43d
00000220: e0a4 b1bb efa5 9f3d 2845 283c fd85 9ebd
00000230: 9171 813d 81d6 8a3d d053 a5bc 6f4c 9c3d
00000240: 282c 07bc 5ff6 a23d feac 513d 7464 fc3c
00000250: 3a14 613d a0bd 493b d681 693d 341c 57bd
00000260: f7b7 16bd 2405 97bd 076c 863d 4b32 89bd
00000270: 036a 00bd b25d 603d 0d35 b03d 4922 883d
00000280: 60a1 8b3b 9e11 88bd 78f4 76bc e017 523c
00000290: 68fc 9dbc 38b1 81bd 64c0 95bd 8883 74bd
000002a0: 4965 943d 4dda b1bd 89a6 5fbd a43a 47bd
000002b0: 466a 583d a5d6 56bd f89e 043c 9207 1bbd
000002c0: 349e f53c 58d7 d5bc 925e 743d 265c 703d
000002d0: 0ed8 533d ef26 a63d 802d d03b cbd6 a63d
000002e0: 1d8b 19bd 1686 1f3d c5e7 5abd f0a7 f8bb
000002f0: e4b5 e6bc efe2 9e3d 8735 68bd f003 8abb
00000300: 738b 8fbd 62bc 173d 1ad3 87bd 813e 2ebd
00000310: b765 b13d 2d60 a73d ac6f 9c3c 9267 52bd
00000320: d0cb 5a3c ea2a 3b3d f823 c2bc 0c1d 943c
00000330: 83ac 65bd 43f3 a1bd c1ab 9fbd 58e1 3cbd
00000340: 90fb 81bc cf2c 803d 545c 8ebd 08e1 403c
00000350: babf 5e3d ee83 583d bd1d a23d 00b1 82b9
00000360: 6e46 443d 2e58 7abd f524 63bd 3e82 83bd
00000370: 1fa5 13bd a0fe b4bd e842 38bc 23d3 843d
00000380: 44a0 8cbc 9b0e a13d daa9 41bd 0800 66bd
00000390: 5b47 47bd a84f 163c 8032 2fbb 5069 d63c
000003a0: 2073 13bc acdc 37bd 41dc 11bd c6ba 183d
000003b0: b2e1 a6bd d0f9 91bc 76ed f7bc a8dd fcbc
000003c0: ae4a 273d f2c9 7a3d 2718 9b3d e7e3 ab3d
000003d0: 30a4 00bc a2a5 1f3d 9d98 b1bd 9e05 513d
000003e0: 26b8 edbc cb84 a2bd 2244 40bd deb4 5f3d
000003f0: 214a 803d 38ab 68bc 4a65 3a3d b550 2bbd
0.024705142 0.018324723 0.043039657 0.07069028 0.08586861 -0.57041603 0.07227981 0.027501669
0.29692882 -0.033637565 -0.06954023 -0.078112155 -0.024036996 -0.036871947 -0.06253612 0.042448204
-0.024301767 0.0031968008 0.12433679 0.06926157 -0.037944935 -0.5113535 0.12067204 -0.0721279
0.045172565 -0.018396625 -0.072288886 0.03838509 -0.30756456 0.007850029 0.023018058 0.045021564
0.6162633 0.017159758 0.041924097 0.13859257 -0.016742505 -0.059869185 0.03484614 -0.015080619
0.108984984 0.024989026 0.0026248607 0.54146874 0.0062828716 0.21365438 -0.08009182 0.031541772
0.11047819 -0.08674335 0.13960019 0.069258824 -0.039835744 0.044959687 -0.097120255 0.0626438
-0.05827542 -0.03347698 0.07203391 -0.10231688 0.071723714 0.09150125 0.021719271 0.06288931
-0.014407504 0.20803712 0.029028298 0.15105082 -0.08648779 -0.037804812 0.057288967 -0.044068325
-0.056919213 0.039670777 -0.030904822 0.04928553 -0.09750685 0.07708248 0.046003237 -0.08885106
0.07393279 -0.22318272 0.093261436 -0.0033636345 -0.033439443 0.0857003 0.036245868 -0.0526635
-0.023774 -0.0749155 -0.008385011 0.10978373 0.013551583 0.08241393 0.03024435 0.0706317
0.046361357 0.061705194 -0.029998953 0.17433026 -0.03518517 -0.06230939 -0.014579967 -0.37181187
-0.093266845 0.012647341 -0.06556478 0.08369858 0.098784186 0.034850582 0.068078734 0.011616389
0.069813274 0.085488014 -0.050237298 -0.9180875 0.021943102 0.13529068 -0.01595999 0.08558973
0.012305181 -0.060294613 0.037924472 -0.052174438 0.14895958 -0.058341082 0.07508463 0.023821818
0.08120229 -0.07676324 0.080910034 0.04875525 -0.020583443 -0.03668292 -0.08127111 0.08039481
-0.005421266 0.07795321 0.010270394 -0.077404 0.06320489 0.067791946 -0.020181566 0.07631766
-0.008250274 0.07957148 0.05119037 0.030809619 0.05495093 0.0030783191 0.057008587 -0.05251713
-0.036796536 -0.07374027 0.06563573 -0.06699046 -0.0313511 0.054776855 0.08603869 0.066471644
0.0042611808 -0.06643985 -0.015072934 0.012823075 -0.019285396 -0.0633263 -0.07312086 -0.05969575
0.07245881 -0.08684216 -0.05460218 -0.04863991 0.052835725 -0.052450795 0.008094542 -0.037849016
0.029982664 -0.02610366 0.0596605 0.05868163 0.051719718 0.08112895 0.0063530803 0.08146437
-0.037486184 0.038946234 -0.05344369 -0.007588379 -0.028162904 0.07758128 -0.056691673 -0.004211895
-0.0700902 0.03704489 -0.06632061 -0.042540077 0.08661979 0.08172641 0.019096218 -0.051368304
0.013354257 0.045695223 -0.023698792 0.018080257 -0.056072723 -0.079077266 -0.07796431 -0.046113342
-0.015867025 0.062585466 -0.06951204 0.011772402 0.054382063 0.052860193 0.079158284 -0.00024927408
0.04791873 -0.06111925 -0.055455167 -0.06421326 -0.036046144 -0.08837628 -0.01124642 0.06485584
-0.017166264 0.07864114 -0.047281124 -0.056152374 -0.048652034 0.009174265 -0.0026732981 0.026173264
-0.008999616 -0.044888183 -0.03561044 0.037287496 -0.08148517 -0.017819315 -0.030264597 -0.030867413
0.040842704 0.061227746 0.07572966 0.08393078 -0.007851645 0.03897632 -0.08671687 0.051030748
-0.029018473 -0.079354845 -0.046939977 0.054615848 0.06264139 -0.014200978 0.045506753 -0.041825015

bias f4 [128]
00000000: 29d4 8cbd 3a67 8fbd 7a32 433d a000 0cbb
00000010: 5689 0abd 31e9 bfbd 16b7 463c 1ba4 60bc
00000020: 61db 3cbb 4c68 61bd ec29 903c 8beb 933d
00000030: d5d7 c7bc f78b 59bd af8c 55bd 8ecd fa3c
00000040: a29c 9abd 0699 4fbc 259a b83c d0fb ee3c
00000050: 12f7 8dbd 9d18 223d 7b7d f6bc 434b 803d
00000060: a9d7 5f3d d528 bc3d 9cae 22bd 9204 c13d
00000070: 2cb4 ae3d 10ce e6bc 0e57 56bd a02b abbc
00000080: 0f8b 003d 6fbb 94bd 199f 3b3d 7a42 a2bd
00000090: 59cf 783d 6353 913d 151c 93bd 5d30 123c
000000a0: 37d8 23bd 79f9 073d ab3b bbbb b07e 9d3c
000000b0: b9f7 353c dc50 acbc 00cd 99ba f3dd 44bd
000000c0: 7cc8 103d 509b 533d b0cb 9abb 2396 923c
000000d0: 09a3 d43c f39a b0bd 3e75 713d 7483 3cbd
000000e0: 9030 a03d 24c1 7a3c 844e 9ebc 91ae dabc
000000f0: bd27 8a3d 4e37 5abd 59a0 6b3d f07d 0e3d
00000100: a41c 5a3c beb3 3c3d 0238 98bd eff2 c03c
00000110: 5a36 9b3d 79a3 a63d 317f 7c3c 09c3 f23c
00000120: dfea 243d 4ae6 9ebd 25a9 2cbd 0d86 58bb
00000130: baa1 973d 8b6f 31bd 45c6 a9bd a51b 78bb
00000140: 457c 98bd 2767 aabd a92a 06bd 9f17 dc3c
00000150: f064 0d3d b4fa b7bc 7a4d e93c d05a f2bb
00000160: df2a 0a3d 8c24 2bbb 8830 7d3d e5c7 b03d
00000170: 078f 31bd 7c17 caba d878 8b3d fe65 843d
00000180: a293 b6bc afe7 b33d 617e b0bd b889 a1bc
00000190: f702 853d 020e 123b c9f2 3cbd 78b9 0cbd
000001a0: 7205 653d f8ce cdbc 3add d8bc 01d9 0dbd
000001b0: 8b60 43bd a723 833d 048d 913c 009a 933c
000001c0: c0dd 86bc a507 9fbd 6234 98bd bb2c b13d
000001d0: 89d5 823d 6f9f ebbc 9798 863d 7160 a1bd
000001e0: bd5a 29bd a517 20bd 881d 8dbc 780a ab3d
000001f0: 44db 463d 9c5a 4cbc e06b 2abb 27e1 393d
-0.06876404 -0.07002111 0.04765556 -0.0021362677 -0.03382238 -0.093706496 0.012128612 -0.013711001
-0.0028817283 -0.055031106 0.017598115 0.07222661 -0.024394909 -0.053111997 -0.05213612 0.030615594
-0.075494066 -0.012670761 0.02253444 0.029172808 -0.069318905 0.039574254 -0.03008913 0.06264355
0.05464903 0.091874756 -0.0397173 0.094247 0.08530459 -0.02817443 -0.052329116 -0.020894825
0.031382617 -0.072623126 0.045806024 -0.07922836 0.060744617 0.07095983 -0.071830906 0.0089226635
-0.04000112 0.0331969 -0.0057139 0.019225448 0.011106425 -0.02103465 -0.0011734068 -0.04806323
0.035347447 0.05166179 -0.0047239885 0.017893856 0.025956647 -0.08623304 0.0589497 -0.0460238
0.078217626 0.015304837 -0.019324549 -0.026694568 0.06745861 -0.0532754 0.057525966 0.034788072
0.0133124925 0.046069853 -0.07432558 0.02355334 0.07578726 0.08136649 0.015411184 0.029634016
0.040263053 -0.07758768 -0.042153496 -0.0033038885 0.07403894 -0.043319266 -0.0828977 -0.0037858274
-0.074455775 -0.08320456 -0.032755528 0.026866732 0.03452009 -0.022458412 0.028479327 -0.0073960796
0.03373229 -0.0026114313 0.06181386 0.08631877 -0.043349292 -0.0015418376 0.068101585 0.06464766
-0.022287194 0.087844245 -0.08617855 -0.01971899 0.06494706 0.0022286181 -0.046129975 -0.034356564
0.055913396 -0.025123104 -0.026472677 -0.03463078 -0.047699492 0.064032845 0.017767437 0.018017769
-0.01646316 -0.0776513 -0.07431866 0.0865111 0.06388385 -0.028762547 0.06572073 -0.07879723
-0.0413463 -0.03908505 -0.017225996 0.08351606 0.04854895 -0.012472775 -0.002600424 0.045380738

weight f4 [2, 128]
00000000: a12b eebd bf74 843d 4ce1 8b3b 5640 6bbd
00000010: 04bb 083d b8ff 54bd 1dbd 083b 41da b4bd
00000020: 0ae0 83bd 5dce 9b3d ea82 1abd 25a4 9b3c
00000030: 8bf1 953b 1b59 8cbc f42b 953c 9ab4 93bc
00000040: 5491 ac3c f37b 75bc 8800 583d c6d9 3cbd
00000050: b8a1 8a3c f867 5dbd 853c 56bc bfaa 8b3b
00000060: 1721 013c 093c 843c 1818 62bc 9b7d 273d
00000070: 67fc 283d 466e 303d c3d6 b63c 1e48 b73d
00000080: ee7c 003d 5a11 51bd 57a8 743d 789b 59bd
00000090: adc6 a23d f29d ba3d 1859 12bc ed8a 543c
000000a0: 486f 063d eea5 6c3d d817 89bc 07a9 dbbd
000000b0: c362 9cbd 7c98 fa3c e0ab 283c 8057 a33d
000000c0: 5003 1ebd 405e b2bd d6b1 1abd d0b1 b2bd
000000d0: 30cd 523c ce6a a23c 8fa6 31bd 1d30 583c
000000e0: 78d1 5f3d 430e 723d 54a4 07bd aa8a 653c
000000f0: 70fb a33b 540d be3d 176e 7abd ae40 8ebd
00000100: 5eaa bdba 6a81 2abd b639 403d a7db edbc
00000110: b1b5 b13d c3c8 073d c150 c7bd 0345 0f3d
00000120: ed98 763c cf31 84bc 0dc2 723d e03e 9e3d
00000130: 7e32 ffbd 71e8 91bd a3d9 9f3d 9d9d 973d
00000140: d165 88bd 0b15 9e3d 805e 0bbb f30d 82bd
00000150: 6845 af3d 9d65 6c3a fcbb 8f3d a0f4 4fbb
00000160: c929 1d3d a823 be3c 9c00 933d 1832 46bc
00000170: ec9c 8fbb 4cec 85bd 4df1 8bbd 0b3b b4bc
00000180: a004 a8be 262e 91bc 49cf 41bd 0209 3cbd
00000190: a726 87bc 5ff8 6f3d 0080 95bc 3c94 56bd
000001a0: f4b1 833c c7ff 03bd 2853 333d 8a43 de3c
000001b0: c9cc 583d a0b2 b13c db9b 73bd 57ba bebb
000001c0: 308f 71bc d685 9c3c 71bd 873d 3afd 9e3d
000001d0: 5260 303d 8517 04be f3d8 e8bc fde3 91bc
000001e0: 3b3f 713d cf65 6ebd 017e 613a 5e46 abba
000001f0: 61e0 823c 0533 243d 066d cbbd 2fc3 b23d
00000200: f3ff 193e b7a1 53bd b501 12bd 65c9 8c3d
00000210: 09b7 d0bc 4a83 973d bb90 a33d 85f6 26be
00000220: 8ff7 583c 6523 94bd 2032 17bd edca 0a3d
00000230: 1713 79bd c2a3 71bd d139 3bbd 1415 c03d
00000240: d6ff aebd cccc d7bd 7d2e ed3c 6642 01bd
00000250: e815 06bc 6d08 5f3d 7205 00bd b5bd 52bd
00000260: cab5 00bc e747 aa3d 664b 323d 43ec eb3d
00000270: b6cf ab3c e96c 5cbd 99c2 753d 50e4 27bd
00000280: baf7 a9bd cfd2 94bc de3d c8bd 6c6c f23d
00000290: 2291 bebd 79ae 9a3d b3b4 13bd 00b1 dcbd
000002a0: 1d91 83bd 2fd0 acbd 66d9 e0bd 63fd 62bd
000002b0: 2b63 1cbc 420d a2bd 8909 0dbd f415 bbbc
000002c0: 09ec a5bd 6c5f b0bd 508d c53b db8c cbbc
000002d0: 3789 f43c 50b0 58bd 0b64 c33c 796e d73d
000002e0: 4d13 a93d d933 723d 3d24 d53c 158b 963d
000002f0: 7c84 853d 8b6c 2f3e 7afc 0fbd de79 63bd
00000300: a9b7 b23d 2b5c 7ebd 49f2 37bd 50e2 10be
00000310: a7dd c03c 1b33 253d 61d9 943d 55c0 31bc
00000320: ff4c c4bd 5dc6 ad3d 3fcf 393d 37f5 8b3d
00000330: 5bf3 d83d dbbb 3ebe f820 89bd 5593 953d
00000340: 9a08 743d 4970 a63d b320 543d a685 91bd
00000350: ee91 bfbc c420 0c3d 67e8 94bb c09b cb3b
00000360: b5bc 2a3c 865c c6bd 11cc 78bc dfdf c23d
00000370: 48a8 c9bd f320 01bd 484c d7bc b927 a63d
00000380: a327 333d 7fcb b03d 6555 f9bc 3a45 ab3d
00000390: 0c5d 0cbe 4e8a 183c c421 273d c2c4 ab3d
000003a0: 8ebb 1fbd 5a42 82bd d8ee fcbd 285e 5d3c
000003b0: 6664 7abd 8adb 4e3d d58f 1bbd 7aa5 533d
000003c0: 1aeb 87bd d057 373d 6079 cebb 98ee 8cbc
000003d0: b644 5b3d 49bc 1ebe 0512 b53d 23e7 a93d
000003e0: 002a 9e3c 9aa0 04bc 19bc 69bd e0d5 7b3d
000003f0: cb00 233d dc35 863c 886c b8be 98af 4dbe
-0.11629415 0.0646758 0.004268801 -0.057434402 0.033381477 -0.052001685 0.0020864673 -0.08830691
-0.064392164 0.0760772 -0.037722506 0.018999169 0.0045759133 -0.017132333 0.018209435 -0.018030453
0.021065392 -0.014983165 0.05273488 -0.046106122 0.016922817 -0.05405423 -0.013075952 0.004262298
0.007881424 0.016141908 -0.01379969 0.04089127 0.041256335 0.043073915 0.022319203 0.08949302
0.031369142 -0.05104194 0.059730854 -0.053126782 0.07948051 0.09112157 -0.008932374 0.012972576
0.03282097 0.05777543 -0.016735002 -0.10725599 -0.07636025 0.030590288 0.010294884 0.07975674
-0.038577378 -0.08709383 -0.037767254 -0.08725321 0.012866303 0.019826319 -0.043371733 0.013195065
0.054643124 0.059095632 -0.0331157 0.014010111 0.005004339 0.09279886 -0.061140146 -0.069459304
-0.0014470329 -0.041627325 0.046930037 -0.029035402 0.08677233 0.033150446 -0.097321995 0.034977924
0.015051109 -0.016137032 0.059267092 0.07726836 -0.124608025 -0.07124413 0.07805183 0.07403109
-0.06660045 0.077188574 -0.0021266043 -0.06350317 0.0855816 0.0009017827 0.07018277 -0.0031731501
0.038369928 0.023210362 0.071778506 -0.012096904 -0.00438272 -0.06539211 -0.06833134 -0.02200081
-0.3281603 -0.0177222 -0.047316823 -0.045907028 -0.016497923 0.058586475 -0.018249512 -0.05238746
0.016076066 -0.03222635 0.043780476 0.027131815 0.052929673 0.02169162 -0.059474807 -0.0058205533
-0.014743611 0.019106787 0.0662793 0.07763143 0.04306061 -0.12899597 -0.028423762 -0.017808909
0.058898192 -0.05820256 0.0008601845 -0.0013067236 0.015976133 0.04008772 -0.09932904 0.087286346
0.15039043 -0.051667895 -0.03564616 0.068743505 -0.025477903 0.07398088 0.079865895 -0.16304977
0.013242616 -0.072333135 -0.036913037 0.03388493 -0.06080922 -0.058994062 -0.045709435 0.0937902
-0.085448906 -0.10537109 0.028952831 -0.031557463 -0.008183934 0.054451395 -0.031255193 -0.05145045
-0.007855842 0.083144955 0.043528937 0.11519673 0.020973068 -0.053814802 0.060000036 -0.04098922
-0.08299203 -0.018166928 -0.09777425 0.11837086 -0.09305026 0.07552809 -0.036061 -0.107759476
-0.064241625 -0.08438145 -0.109789655 -0.05541743 -0.009545128 -0.07912685 -0.03443292 -0.022837617
-0.08101661 -0.0861195 0.0060288087 -0.024847439 0.029850585 -0.05290252 0.023851415 0.10519118
0.082556345 0.059131477 0.026018256 0.073507465 0.0651941 0.1713125 -0.03515289 -0.055536143
0.08726437 -0.062099617 -0.044908796 -0.14148831 0.023543192 0.04033194 0.07268024 -0.010849078
-0.09584998 0.084851004 0.04536366 0.068338804 0.10593291 -0.18626349 -0.066957414 0.07303492
0.059578516 0.081268854 0.051788997 -0.071055695 -0.023385014 0.034210935 -0.004544306 0.006213635
0.010420968 -0.09685616 -0.015185372 0.09515356 -0.0984655 -0.031525563 -0.02628149 0.08113045
0.043738972 0.08632564 -0.030436227 0.08362813 -0.1370737 0.009310318 0.040803686 0.08387138
-0.038997225 -0.06360312 -0.12350243 0.013511218 -0.061130904 0.050502338 -0.037978966 0.051671483
-0.06636639 0.04476148 -0.00630109 -0.017203614 0.053532325 -0.15501513 0.088413276 0.08296039
0.019307137 -0.008094931 -0.05706415 0.061483264 0.039795678 0.016383104 -0.36020303 -0.20086515

bias f4 [2]
00000000: 7e3a 383d 14df 6b3d
0.044977657 0.05758579

weight f4 [128, 5]
00000000: c07c 62bd 04fa 3dbe 8056 073b 5066 ad3d
00000010: 3238 bbbe 199f 3dbd 1ca6 9ebd e40b b0bd
00000020: 3043 a1bc c7b4 bb3e 3e0b f13e 5d95 c03e
00000030: 6134 d43e 9735 103e ed7a 67be c88a dbbe
00000040: db92 ed3d 02af 80bc 3c46 c03e d191 97be
00000050: b27c 26be 5789 893e 5ac6 86be 9659 db3d
00000060: 2eb7 593e ddaf a8be ad2f f83e e8df 35be
00000070: bef1 803e d482 58be 41dc 4dbe d1b7 de3e
00000080: f7e2 a73e afeb 5abd 9205 1cbe e4e4 3e3d
00000090: e38f 8fbe ea52 863e 0267 2ebc 5f03 a3bd
000000a0: 5951 5a3e 896e c4be 02e3 35be 9c4b 53be
000000b0: b9e4 0abe a479 37be 2754 acbe 2076 5c3c
000000c0: df5e 69be 8016 2b3e a641 a23d c257 e53d
000000d0: 940b cb3e 3265 c73c f4a4 9abe 97af e7be
000000e0: 3a58 cdbe e792 763e 2fed a4bd 4fa0 87bd
000000f0: 3eea c3be 6c90 0e3e fe15 1dbe cca4 21be
00000100: 0ad8 cabe c80a a23e 91f5 a8be 299a 44be
00000110: 3466 533e 5bf4 d63e 6cad 0abe 505d f13d
00000120: 21a0 bebe 444e 6b3e 9df6 c1be 167f 873e
00000130: c789 743d a0fa 6e3e b51d 103e 00cd 92be
00000140: 3cdf 15bd b6b2 dbbe 3a30 a13d bb7f c8be
00000150: 3f7d 713e 3c28 dabe 3370 64bd 9650 93be
00000160: 0efe c23d 4d4d 9abe 7dbb a3bd 7304 023c
00000170: 91c8 50be 5aa5 92be 09da 9f3e 2083 8f3e
00000180: 3f31 3fbd 3db3 cabd 181a 6c3d 5d90 b5be
00000190: 5743 e0be a4a5 b03e 827a debe d013 2d3e
000001a0: b0d5 503d bb7f e83e 2288 a93e ae53 d1bd
000001b0: 1785 c3be b717 2b3e 77fa b53c 10b2 f53e
000001c0: 1e66 123e ec57 a03e b7e1 63bd 083c 17bd
000001d0: ceb9 023f aaae 1fbe 253a 083e fbb4 86bd
000001e0: 121e 9e3e 0972 7c3d 77df 4cbc 3482 c63e
000001f0: 6763 163b b22e be3e 3328 bdbe 75fe da3e
00000200: 8606 673d 70e0 8a3d 5650 193e 2eba 3c3e
00000210: fcc5 da3e bfc5 953e 4f80 b73e e71b e03e
00000220: 16c9 9c3e 0b74 aabe 63a6 cf3e 0b5e cb3e
00000230: acce b13e a8c1 683e 7c96 f0bd 30d3 103e
00000240: 7940 dcbe 2e21 b43d ca06 d9bd b01b 28be
00000250: eeab 9a3e 34fc c4bd b39f 8cbe 5c5b d53e
00000260: 5961 6abe aeb1 a6be 97a9 d43e f270 6c3d
00000270: 975d ad3b a4ae dabd bec5 343d 43ed bd3d
00000280: 8fd3 d13e cf60 90be 8841 0bbe da7f cdbe
00000290: 65ee e23e 48c3 453e fff3 3abe 04d5 02be
000002a0: 1517 623e 3257 273e 04d5 cd3e 04e6 a4be
000002b0: e418 adbd b03e 71bd b00c 2fbe 417d c43d
000002c0: 425e 433e a9cf 43bd 5c32 4d3e e8ba bb3d
000002d0: a371 a6be 1883 a3be 6f31 b5be 5892 813d
000002e0: 94c9 923e 4ef4 d83e 6913 76bd 853f 6ebe
000002f0: e17b a13e 96c6 6bbe 43ab 27be 987f e3bd
00000300: 3824 c03e 5fde 473e 989c ba3e dc0e 36bd
00000310: 624b 2d3d 1bab 8d3e e0c2 65bc 19f7 6e3e
00000320: 4ef2 283e 604d 573e 0564 c53c a258 31be
00000330: f19b 303e 66e2 993d 93e3 a5be 90bc a4bc
00000340: 6827 b3bd a072 d63e ff61 32b8 3229 e03e
00000350: f2cc b1be d9e6 233e 57ed 533e 8c78 98bd
00000360: 68b8 a73d 5458 e6bd f035 883c 44c1 1b3e
00000370: 089e eb3e cb12 d0be a2b4 81be a51d c83d
00000380: 36f3 e73d f88c a93b 6c6b cdbe 74ef 1b3e
00000390: 948f c33e 3a0c fc3d c437 a2be 1869 853d
000003a0: 2bef c23e c879 463e 2ebe 823e fc50 87be
000003b0: 6476 12be f81a 123e 40e1 9bbb 808a 973e
000003c0: e524 50be 441e 9fbe 13ad dbbe ee60 f7bd
000003d0: 2880 2fbc dfed 98be 97f3 1cbe 60bb c2be
000003e0: e7cc 243e d548 c63e a413 eeba 5438 5abe
000003f0: f122 5abd 1f2c 57be c25b 1b3e ace9 9c3e
-0.055294752 -0.18552405 0.0020650923 0.0846678 -0.3656631 -0.046294305 -0.077465266 -0.08596018
-0.019685358 0.3666136 0.4707889 0.37613955 0.41446212 0.14082943 -0.22605486 -0.4287932
0.11600276 -0.01570845 0.37553585 -0.29603437 -0.16258505 0.26862594 -0.26323205 0.107104465
0.21261284 -0.32946673 0.48473874 -0.17761195 0.25184435 -0.21143657 -0.20103551 0.43499616
0.32790348 -0.05344742 -0.152365 0.046605006 -0.28039464 0.26235133 -0.010644676 -0.07959627
0.21320094 -0.38365582 -0.17762378 -0.20634311 -0.13563813 -0.17917496 -0.33657953 0.013455898
-0.22790097 0.16707802 0.07922678 0.11198379 0.3965727 0.024340246 -0.30203974 -0.45251152
-0.40106374 0.24079476 -0.08053052 -0.06622373 -0.3826465 0.1392228 -0.1534042 -0.15785521
-0.3961795 0.3164885 -0.32999852 -0.19199432 0.20644456 0.41983303 -0.13542718 0.11785376
-0.37231544 0.22979075 -0.37883464 0.26464146 0.059701707 0.23337793 0.14073832 -0.28672028
-0.036589846 -0.42909783 0.078705266 -0.3915995 0.23582934 -0.4260882 -0.055771064 -0.2877242
0.09521113 -0.301371 -0.07994745 0.007935631 -0.2038901 -0.28641778 0.31221035 0.28029728
-0.046677824 -0.09897468 0.057642072 -0.35461703 -0.43801376 0.34501374 -0.4345284 0.16902089
0.05098504 0.4540995 0.33111674 -0.10221039 -0.38187477 0.16708265 0.022214158 0.47987413
0.14296767 0.3131708 -0.05563518 -0.036922485 0.51064765 -0.15593973 0.1330343 -0.06577488
0.30882317 0.06163219 -0.01250445 0.38771212 0.0022947432 0.37145 -0.36944732 0.4277226
0.056402706 0.06781089 0.14972052 0.18430397 0.42729175 0.2925243 0.3584008 0.43771288
0.30622166 -0.3329166 0.4055663 0.39720187 0.3472799 0.22730124 -0.117474526 0.14143062
-0.4301794 0.08795391 -0.10596998 -0.16416812 0.30209297 -0.096184164 -0.2746559 0.41671264
-0.22888698 -0.32557434 0.41535637 0.0577249 0.005290698 -0.10677841 0.044133894 0.0927377
0.4098172 -0.2819886 -0.13599217 -0.40136606 0.44322506 0.19312775 -0.1825714 -0.12776572
0.22079118 0.16341856 0.4020158 -0.32206738 -0.08452013 -0.058897674 -0.17094684 0.09594203
0.19078925 -0.047805462 0.20038742 0.09166509 -0.32508573 -0.31935954 -0.35389277 0.06326741
0.28669417 0.4237389 -0.060077105 -0.23266418 0.31539825 -0.23024973 -0.16373925 -0.11108321
0.37527633 0.19518422 0.36447597 -0.044447765 0.04230822 0.27669606 -0.014023513 0.23336448
0.16498682 0.2102561 0.024095545 -0.17318967 0.17246987 0.07513885 -0.32400188 -0.020109445
-0.087477505 0.41884327 -4.2529773e-05 0.4378143 -0.34726673 0.1600603 0.20696007 -0.074448675
0.081894696 -0.11247316 0.016627282 0.15210444 0.46019006 -0.40639338 -0.25333124 0.09771279
0.11325686 0.0051742755 -0.4012102 0.15228063 0.3819548 0.123070195 -0.3168317 0.06514186
0.38073096 0.19382393 0.2553572 -0.26428974 -0.14302975 0.142681 -0.0047570765 0.29597855
-0.20326574 -0.31077778 -0.42905483 -0.12079035 -0.010711707 -0.2986898 -0.15327297 -0.3803358
0.16093789 0.3872744 -0.0018163812 -0.2131055 -0.05325598 -0.21012925 0.15171722 0.30647027

bias f4 [128]
00000000: c2d3 a2be 3f60 b3bd fa41 923e e757 643e
00000010: 09f5 4e3e 9651 bdbe 8b74 213e 194d cb3e
00000020: bbe1 d03e b209 dfbe 5715 14be e097 983e
00000030: 269b 62be 2755 823e 8b4e 9dbe 3257 79be
00000040: 582c 2f3e 73a0 183d 069a 93be efa5 57be
00000050: ced7 c2be d98f dc3e e7b8 b0be 6407 e6bc
00000060: 9484 be3e d9af c73e b3e6 56be b15a 2bbd
00000070: 0336 6abe f7db aebe 4eb1 8abe 6119 51bd
00000080: d05a c6be f4b1 d9bd 468d 8cbe 2d3b ad3d
00000090: 1b6b 9fbe 4ede bdbe 49db d13d 46a5 5fbe
000000a0: 560e 9b3e cb00 42be 4182 94be e286 96be
000000b0: 9a5c 9f3e 7c4a 8d3e 5af3 d5be 3e28 afbe
000000c0: f97e e03e b847 313e 3738 4b39 b598 f43d
000000d0: a2ed 173e 5dc8 c13e 7052 253d c957 29be
000000e0: 367b 693b a4d3 873e 1f49 2cbe 1e40 833d
000000f0: 675c 18be cc36 693d e2ca 513e bb79 cf3d
00000100: faf2 963e 602f cdbe 6c1b c3be c807 fe3d
00000110: 048b 96bd 21ac 0dbe ee73 a03e a403 b33d
00000120: cc2f 00be dfd8 813e 3096 3e3d 23bc 91be
00000130: 5953 b23e edaf c8be bd4d 2f3e ae75 183e
00000140: 1e7e 173e 00af c3ba 4694 153d f52c 733d
00000150: 875a b5be ae26 d6bd d21f 903e e5b0 283d
00000160: a70a d7be 9862 1fbe 72e4 87be dd2b 0dbe
00000170: 4ce9 3a3e 1871 983e 44c6 343e 6505 86be
00000180: 415b 6f3e 200d c1be 06cc 81bc d48f 91bd
00000190: 0fb6 953e 7929 27be 7c88 ae3e e0a3 9c3e
000001a0: eca0 2d3e ff32 543e 9457 e2be 0479 a43e
000001b0: 9030 403e e4c2 923c cce7 9cbe b810 ae3e
000001c0: bbc9 b63d 470e 66bc 1176 c0be 0506 973e
000001d0: b48d 993e 90ff 283e a43b 083e 4740 1e3e
000001e0: 3444 3abe af32 883e 2bb8 90be bc1d d33e
000001f0: 50e9 43be 356b d2be 0046 543e 5256 81be
-0.31802183 -0.08758592 0.2856596 0.22299157 0.20210661 -0.36976308 0.15767114 0.39707258
0.4079722 -0.43562084 -0.14461266 0.2980337 -0.22129497 0.2545559 -0.30723986 -0.24349669
0.1710676 0.03726239 -0.28828448 -0.21059392 -0.3805527 0.43078497 -0.3451607 -0.028079696
0.37210524 0.3900135 -0.20986442 -0.041834537 -0.22872166 -0.34152195 -0.27088398 -0.051049594
-0.3874116 -0.10629645 -0.27451533 0.084585525 -0.31136402 -0.37083668 0.102469034 -0.2184039
0.30284375 -0.18945615 -0.29005626 -0.29399782 0.31125337 0.2759589 -0.41787225 -0.3421039
0.43846872 0.17312515 0.0001938053 0.11943189 0.14836743 0.37848178 0.04036182 -0.16537394
0.0035626418 0.26528656 -0.16824768 0.06408714 -0.14878999 0.056937024 0.2048755 0.1013064
0.2948225 -0.40075207 -0.3810686 0.12403828 -0.07350734 -0.13835193 0.31338447 0.08740929
-0.12518233 0.25360772 0.04652995 -0.2846385 0.34829214 -0.3919672 0.17119499 0.14888641
0.14794204 -0.0014929473 0.036518358 0.059369046 -0.3542063 -0.10456596 0.28149277 0.041184325
-0.42000315 -0.15564954 -0.26541477 -0.13786264 0.18253058 0.29773784 0.17653757 -0.2617599
0.23374654 -0.37705326 -0.015844356 -0.07107511 0.29240462 -0.16324414 0.34088504 0.30593777
0.16955918 0.20722578 -0.44207442 0.32123578 0.18768525 0.017915197 -0.30645597 0.3399713
0.08925196 -0.01404149 -0.37590078 0.2949678 0.29990923 0.1650374 0.13304001 0.15454207
-0.1819008 0.2660117 -0.2826551 0.41233623 -0.1913197 -0.41097417 0.20729828 -0.2526117

weight f4 [128, 128]
00000000: 5be5 aa3d 8d0e 68bd ea3a 3f3d 1445 943d
00000010: 2ae8 3abb 1303 4ebd 23fc 483d 3aa3 37bd
00000020: fdf2 ac3d 806c 293a 14d2 a33d 7ed2 7dbc
00000030: 4abe eebc e315 babc da8e 553d fde3 a33d
00000040: 7be8 76bd e05f 9abc 0778 8dbc 76bf e0bd
00000050: d0d1 f0bc 63bd 8a3d 24d8 eebd 8ba1 44bd
00000060: 938a 6dbd 8053 3fbd ad29 a73c 419b 103d
00000070: 2041 40bd faab 4a3c 2b95 b8bd 1d53 d7bd
00000080: 14d6 91bd e537 ecbb 4012 2a3c 82e1 dfbc
00000090: cb50 b23d c3f6 b23c a696 82bd 5a3f a6bd
000000a0: 80d3 1f3d d433 0a3e 05c1 79bd 0748 61bd
000000b0: a7cf 933d 0a34 9ebd 318a a43d 2f01 2cbd
000000c0: a381 773d e86e 5bbd 1427 6cbd 29a2 843d
000000d0: 59a5 0f3c e447 b5bd 462e 58bd 46bb f83d
000000e0: 2269 373d 643d 853d f7cd 3b3d b73c 00be
000000f0: 9852 2cbd 2ae7 6d3d e215 88bd d48d 7fbc
00000100: df8f f4bc 296c 1fbd d72d a23d 4019 973d
00000110: 2097 0c3c 4b7f 323d d74c ae3c 9d3a efb9
00000120: 8676 afbd 25fb ea3c a1bb 183d 3ea6 e7bd
00000130: 3a91 babd 70aa 98bc 9d19 0abd df00 88bc
00000140: 48db 5b3d b02f a3bd 0a57 67bb f074 76bc
00000150: 5475 3ebc 5d3e 273d 8530 8a3b cac8 d4bc
00000160: fd88 98bd bf9d 9e3d 84e5 96bc ceaf 053d
00000170: 2271 993c c84d 843d bcb1 2bbd 80ef 083b
00000180: a477 5e3d b521 b2bd 7e25 8f3d df91 93bd
00000190: 5b05 c9bd 515f 213e 544c aebd b6f3 8ebd
000001a0: 8908 cbbc d1de 003c 044b e4bc 74ed 753d
000001b0: 879c 183d 2870 ad3d d7a1 e3bc f721 aabc
000001c0: 5747 d4bc 7a00 6abc bafc 4a3d 5e50 58bd
000001d0: bc55 963d d256 5b3d c1a3 b13c 0f10 3b3d
000001e0: acd5 7d3c 4a09 73bd 7333 9fbd b163 fabb
000001f0: 0c21 153d 70c9 24bd 094e 693d 4064 4e3b
00000200: 34b8 e63c 7882 a13d 684a 6a3c 8b0a 383c
00000210: 8972 eabc a170 05bd 2f8c ae3c 9af1 d33a
00000220: eb44 96bd 522d 123d 0dd5 b13d 8a81 49bd
00000230: 008c 1b3c 0f4d 11bc 62bb 5d3d 672b 343d
00000240: e4ac 3b3d 0585 583d d6f7 333d 16d2 8bbd
00000250: 4e49 683d 660f 19bc 643a 3d3d 37fe 8fbc
00000260: a01c b6bd 7eff ae3c 4b6b 86bd a3a5 6b3d
00000270: 2147 aabc 38d2 2a3d 5664 833d 9ac8 8d3d
00000280: 6b5c 9fbd 907f 483d c163 62bd 0fb0 ef3c
00000290: c829 563c 8c86 38bd 9ecf 37bd 5fe5 3c3d
000002a0: 19f2 5cbd 97eb b33d e1b1 1b3d 96cb f7bc
000002b0: 5281 4bbd 4818 5a3d 1522 b43d 4aee 1bbd
000002c0: 9d83 bcbc 68d3 8b3d 413f b3bd b780 acba
000002d0: ee6c 33bd 2f9b afbd 9a89 773d aaf7 80bd
000002e0: 8f4b 17bd 4f8e 0cbc 82c7 b7bd 4edd f43b
000002f0: 11bb 34bd b5ef 4ebc acab de3c 1179 453d
00000300: d64e 9e3d 880f 803c 2e5f 2e3d 6d25 6f3d
00000310: b231 773d 96c0 7ebd 838f a33d 2cd3 853d
00000320: 4154 0a3c c653 a3bc 0f38 23bd 597c a6bd
00000330: 7b5b b2bd 9e96 783d 7666 d73c 4eda 983d
00000340: e73a 02bd ba90 17bd a0a1 763d 46e8 983a
00000350: 1256 eabc ace5 7cbd c3a0 1cbd 239e 10bc
00000360: 96c3 453d ee3a e93a 65ff 44bd c197 4f3d
00000370: 2c9b 2cbd bdc0 f1bb 54fa 9f3b 16ae 463d
00000380: 8cf4 f9bc 4860 693d 3fa9 a33c edd2 33bd
00000390: 92c1 0dbd 4a41 71bd c0d1 3abd f603 303c
000003a0: b8b8 4b38 7454 babc 30e1 ccbb cc89 6abd
000003b0: 9744 20bd 85da a2bd ef94 55bd 525b 7c3d
000003c0: e8a7 25bd f5c2 503d bb9b 893d f79b 1b3b
000003d0: d40b ea3c 8a22 913d a3dd 06bc 4af6 06bc
000003e0: 7fd7 3d3d a2bc 653d d041 d3bb fc78 843c
000003f0: deda 253d dab3 36bd 04a6 86bc 1508 47bd
0.08344527 -0.0566545 0.046687044 0.07239738 -0.0028519728 -0.0502959 0.04906858 -0.0448334
0.08444784 0.0006463006 0.079990536 -0.01549208 -0.029143471 -0.022715515 0.052138187 0.0800247
-0.060280304 -0.018844545 -0.017269148 -0.10974018 -0.029396921 0.06774404 -0.11662319 -0.048005622
-0.057993483 -0.04671049 0.020405615 0.03530431 -0.046937108 0.012370104 -0.090128265 -0.105138995
-0.0712091 -0.0072088116 0.010380328 -0.02732921 0.08706816 0.02184618 -0.0637639 -0.08117552
0.03902006 0.13496333 -0.060975093 -0.05500033 0.07217341 -0.077247694 0.080341704 -0.041993316
0.060426366 -0.053572565 -0.057654455 0.06476242 0.008767449 -0.08851603 -0.052778505 0.121450946
0.044777997 0.0650585 0.04585072 -0.12523161 -0.042070955 0.058081783 -0.06644799 -0.015597779
-0.02985376 -0.03892151 0.079188995 0.07377863 0.008580953 0.043578427 0.021276874 -0.00045629303
-0.085675284 0.028684208 0.037288312 -0.11311005 -0.09109731 -0.018635958 -0.033715833 -0.016601978
0.05367592 -0.0796808 -0.0035299682 -0.0150425285 -0.011624653 0.04083096 0.0042172098 -0.02597465
-0.074480034 0.077449314 -0.018419988 0.032638364 0.018730704 0.06460148 -0.041917548 0.0020894706
0.054313317 -0.08697835 0.06989573 -0.07205557 -0.098154746 0.15759017 -0.08510652 -0.06980078
-0.024784343 0.007865624 -0.027867801 0.060040906 0.03725865 0.08468658 -0.027787132 -0.020768149
-0.025912924 -0.01428234 0.049557425 -0.05281102 0.07340571 0.053549595 0.02168453 0.04566961
0.015492838 -0.05933503 -0.07773485 -0.0076412787 0.03640847 -0.04023117 0.056959186 0.003149286
0.028164007 0.07886213 0.014299966 0.011232982 -0.028619068 -0.032578114 0.02130708 0.0016170025
-0.07337364 0.035687752 0.08683214 -0.049195804 0.009493828 -0.00886847 0.05413378 0.043986704
0.04581918 0.052861232 0.043937527 -0.0682718 0.056710534 -0.00934205 0.046198264 -0.017577274
-0.088921785 0.021362063 -0.06563433 0.05753101 -0.02078587 0.041704386 0.06415622 0.06923027
-0.07781299 0.048949778 -0.055270914 0.029258756 0.013071485 -0.04505019 -0.044875734 0.046117183
-0.05394182 0.087851696 0.038011435 -0.030248445 -0.049683876 0.053245813 0.08795563 -0.038069047
-0.023011977 0.06827432 -0.08752299 -0.0013160919 -0.043805055 -0.08574521 0.06043396 -0.06297238
-0.036937293 -0.008578851 -0.089736 0.0074726706 -0.044123713 -0.012630393 0.027181469 0.04821116
0.077298805 0.015632406 0.04257124 0.0583853 0.060350128 -0.062195383 0.07986357 0.065344185
0.008442939 -0.019937407 -0.039848384 -0.08129186 -0.08708855 0.060690515 0.026293974 0.07463513
-0.031794455 -0.037003256 0.06021273 0.0011665903 -0.028605495 -0.06174247 -0.03823925 -0.008826765
0.04828223 0.0017794052 -0.048095126 0.050681833 -0.04214017 -0.0073777125 0.0048821364 0.048505865
-0.030512117 0.056976587 0.019978164 -0.043902326 -0.03460843 -0.058900155 -0.04561019 0.010743132
4.8571004e-05 -0.022745349 -0.0062524304 -0.05726032 -0.039127912 -0.079518355 -0.052143987 0.061610527
-0.04044333 0.050967176 0.06719156 0.0023744085 0.028570093 0.07086666 -0.008231553 -0.008237431
0.04634809 0.056088097 -0.0064470544 0.016170971 0.04049193 -0.044605114 -0.016436584 -0.048591692

bias f4 [128]
00000000: e0f9 1a3d 867a 7abc 8dc8 20bd 712d c63a
00000010: 453a e83c 65b6 9fbc e685 05bc 8f5e 0fbd
00000020: f228 593d f659 4f3d a2f6 803d 6b53 a23d
00000030: 556a a8bd d8f7 e1bc 3177 1b3d 1968 ba3d
00000040: d3df 4c3d 6b9d 19bc 3f15 b33d 7c01 5e3d
00000050: d6dd 65bd 8299 443d 3071 81bc cfda 9fbc
00000060: 0ad7 333d f1f0 9e3c cf19 533d 35c9 eb3c
00000070: d3ec 423b 0262 0f3d 8036 faba ea45 ffbb
00000080: 66b9 a13d 11fb 6ebd 40c0 723d e8d2 feba
00000090: 2d0a 26bd ff43 863d 0e57 86bd 435b 8abd
000000a0: 1000 7bbd a884 54bc 3f1a 91bd 3e32 13bd
000000b0: 958f 903d 8dba bebc 05f7 4e3d 119a 613d
000000c0: 0db4 583d bfc2 ac3d 125a ecbc 1015 ebbb
000000d0: 76e9 e63c aeab 88bd caa7 983d b9f0 bc3d
000000e0: 211f 9fbd d167 7fbc 0584 37bd f08c 0cbd
000000f0: 559d 5fbd c145 fcbc 98b5 7bbd 9490 643d
00000100: 70a0 76ba 60f1 81bc 9957 a3bd 6262 da3c
00000110: 5cf6 163c 6b87 a73c 9be4 c93c 77ca 0039
00000120: df47 a53d ce97 98bd d371 2d3d b104 cdbc
00000130: dd0b 5bbd 8c21 bb3b 4c93 333d ca4c 22bd
00000140: 0b1e 913d d1fb 8f3d 8671 2dbd b290 f83c
00000150: d0c0 d43c 0be8 c43d 5eeb 70bd 6df9 1fbd
00000160: e181 06bd c863 59bc 27f7 7c3d bf98 c93c
00000170: c7a9 193d b25a 583d 9946 2cbd d4e9 3a3d
00000180: 2c7f 35bd 4c2c 903d 94b4 953b c225 fdbc
00000190: 865c b0bd 6020 ac3d b5c5 72bd d165 993d
000001a0: 7279 a7ba deb8 3abd dbc0 7ebd 0736 233d
000001b0: 340c b43d e1c6 973c fce3 b43d 1da0 043d
000001c0: 5e90 6abd 777f 163d 157b 54bd 4586 28bd
000001d0: 8fb2 063d 56f9 69bd b267 0cbd c0af 54bc
000001e0: a761 28bd ff56 8b3d 2ff3 ac3c 88ea ff3c
000001f0: 50d8 7b3d 03a2 06bd b440 ae3d 2dba 643d
0.037835956 -0.015288001 -0.03925376 0.0015119744 0.028348098 -0.019496152 -0.0081496 -0.035002287
0.053017564 0.050622903 0.062970415 0.07926067 -0.08223406 -0.027584001 0.037955467 0.09101886
0.050018143 -0.00937591 0.08744287 0.054200634 -0.056119762 0.04799796 -0.015801042 -0.019513516
0.04390625 0.019402 0.051538285 0.028782466 0.002974321 0.035005577 -0.0019089729 -0.007790317
0.0789669 -0.058344904 0.059265375 -0.0019441517 -0.040537048 0.06555938 -0.06559573 -0.06755688
-0.061279356 -0.012971081 -0.07085084 -0.035936587 0.07058636 -0.023282314 0.050528545 0.05507857
0.052906085 0.08435582 -0.028851543 -0.0071741417 0.028187495 -0.0667337 0.07453878 0.09225602
-0.07769609 -0.015588717 -0.044803638 -0.034314096 -0.054593403 -0.03079498 -0.06145248 0.055801943
-0.00094080623 -0.015862167 -0.07975692 0.02665824 0.00921401 0.020450315 0.02464514 0.00012282455
0.08070349 -0.074508294 0.04234488 -0.025026651 -0.05347811 0.005710786 0.043841645 -0.039624013
0.07085808 0.07030452 -0.042344593 0.030342434 0.025970846 0.09614571 -0.058818214 -0.03905623
-0.032838706 -0.013268419 0.06175914 0.024608968 0.037515428 0.05282087 -0.042059515 0.045633152
-0.044310734 0.07039699 0.0045686457 -0.030901793 -0.086113974 0.084046125 -0.05927058 0.07490123
-0.0012777282 -0.04558646 -0.06219564 0.039846446 0.0879139 0.01852745 0.08832547 0.03237926
-0.057266586 0.036742654 -0.051875193 -0.041143674 0.03288513 -0.05712255 -0.03427858 -0.012981355
-0.041108754 0.068037026 0.021112053 0.031239763 0.06148559 -0.03286935 0.08508435 0.055841614

weight f4 [2, 128]
00000000: de54 103a 4cbc ac3d ad20 91bd 46b5 53bc
00000010: 379c 9a3d ad26 8cbd ae02 b2ba df19 b53d
00000020: 3207 abbd 65c0 19bb 0105 f23c a740 b1bd
00000030: 8019 6d3b c827 99bd b370 6b3b 2747 de3d
00000040: 1429 5d3d b96f 923d a97a 603d e101 1dbd
00000050: c15d 8a3b 5e9f 2cbb f9f7 e0ba b646 8e3d
00000060: d554 cb3d 0cc0 51bd bb6e 01be aac3 86bd
00000070: 8b07 d73c 3469 813d c0f6 35bd b7b5 a2bd
00000080: 3bf3 17bc ee0c 3a3d 6d1a 9e3d 6fa0 42be
00000090: 727f a83d 30e2 b4bb cae0 673d d970 bbbc
000000a0: a0e4 08bb 7f25 ac3d 2009 2cbd a11d 10bd
000000b0: af9d 59bd 1ddf 833d 5672 c63d 917c 903d
000000c0: 16c7 5cbd 797b c83c b62d 0fbd 8709 b33d
000000d0: 1875 a13d 82fd 1c3d 16fd 973c 89ed 6fbc
000000e0: 116e 873d 55fe eabc 735e 66bd 8ca0 d43d
000000f0: 3afb 603d a158 e1bc db26 96bb 08e0 cebd
00000100: 2216 9f3b 60d6 efbb 64af 7c3d 3d8d 023c
00000110: 4708 64bc 4296 1abd 226b 453d 6476 25bc
00000120: eb5b c4bc 7a6a 473d 56ab 29bd e52a 953d
00000130: caf8 903d cdac 1b3d 4632 ccbb 54e6 2a3d
00000140: ef3c a5bd 295f 6cbd d440 2e3b 04c0 e0bc
00000150: c1da a83d 80f7 763c 04f3 933d 2018 17bb
00000160: 7371 0cbd 60da 96bb eefb ffbc 9f1e bdbc
00000170: d4f1 f83b 55c4 05bd f1d3 a03d 734d 6dbd
00000180: cea1 ea3b d4b3 cabc 0b5c 693c 8c88 2b3d
00000190: abad 3ebd f258 843c 4230 1dbd 4066 d1bd
000001a0: 6255 8a3d eda3 e03d b0f8 253c c106 22bd
000001b0: f4e8 973d 2a86 8ebc 657a a1bc 8ab0 83bd
000001c0: 4008 e83a 8a66 c13c b467 893c 3a68 e5bc
000001d0: 1523 0e3d c831 88bd 7b20 15bd a0fe ab3d
000001e0: 99b5 4b3d cde9 3bbd e852 61bd 71fd 903d
000001f0: f02d 6b3d fae3 68bd d01c 15bd 5380 b3bc
00000200: c94a d8bc 5db9 a3bd c0e9 4f3c f5b5 323d
00000210: f79f f3bc 01f3 3bbd 307f e3bb b053 8abd
00000220: 0057 d73c 80b0 f9bd 470d 963d 675b b63c
00000230: 0d4a 953d 0c9a 993d 6f76 a53d 722b 0fbd
00000240: 25ba 9f3d fa1f cbbb f2ea c03d ecd2 883b
00000250: 2a02 82bc 84d1 42bc 0e7e 143b 47a5 bf3d
00000260: 5fd1 38bd b25f abbc 853c 583b a047 37bc
00000270: 643e e4bd 23ec ec3c bc0f f63a a5c7 603d
00000280: ea68 88bc 604b 10bb 33f3 24bd 18a2 e43d
00000290: ac2e aebb 40af c2ba d4f1 0bbd c3c7 b53d
000002a0: 404a 8fba d601 afbd ed13 8dbd 2694 8a3c
000002b0: 524f 81bd c047 073d 33d6 a93c ec27 623d
000002c0: 9d20 86bd 0b6c 8ebc b233 543d 1c2c b3bc
000002d0: baa0 6abc 5c6e 0e3d fce2 b43c 3560 783d
000002e0: 39d4 99bd ae33 09bc 32c9 b03d 621d 74bd
000002f0: e006 913d d2e6 6b3d 6fc0 483d 76c7 dc3d
00000300: 10e1 9c3d 28fe 86bc afcb 9e3d 6127 12bd
00000310: f3b8 e1bd 633c a33d aa22 95bd 4e3e a0bc
00000320: ad03 4ebd 3c70 d3bc 01ff 7f3d 94eb 80bc
00000330: 14e5 33bb e065 aa3d e816 903d 1790 75bd
00000340: 3a86 033c 645a 3a3c 54ca 633d a63a 29bd
00000350: d6e4 e8bc 3058 8c3d 822a 2438 f649 00bd
00000360: 6e7d d3bc d4e0 90bd 7147 05bd 0b8f 753d
00000370: cfb8 a83d 7201 ddbc 2e6d 4b3c b0bb 4dbd
00000380: e0ed b1bd 176a bc3d 5cfa a23d 1a83 daba
00000390: e32c ac3d 9655 833c 01d2 8e3d 74c6 dcbd
000003a0: 11c1 05bd 837f f73d 5f74 2a3c 8568 343c
000003b0: 40a8 7b3d e51d b5bc e7c9 2b3d 5b9d 043e
000003c0: 2652 223d 6de5 113d ab9c 403d bb0e 993d
000003d0: 676f 59bc 57f4 88bd 5567 e93c 9ad8 323d
000003e0: f862 8d3d 6396 cb3c 51c3 783d e27f 263d
000003f0: e3e7 c23d 73f4 983b a96e af3d 4273 7a3d
0.000550581 0.08434352 -0.070863105 -0.012921637 0.07549327 -0.06843314 -0.0013581121 0.08842825
-0.08350982 -0.0023460623 0.029543402 -0.086549096 0.003617853 -0.07478291 0.0035925328 0.10853415
0.053994253 0.07150216 0.054804478 -0.03833187 0.004222602 -0.0026340107 -0.0017163745 0.06947081
0.0992829 -0.05120854 -0.12639897 -0.06580289 0.026248714 0.06318894 -0.044424772 -0.079448156
-0.009274299 0.045422487 0.07719884 -0.19006513 0.08227433 -0.0055201277 0.05661086 -0.022880958
-0.0020888224 0.08405589 -0.04200089 -0.035184506 -0.053128894 0.0643904 0.096897766 0.07055009
-0.0539008 0.024472939 -0.034955703 0.087420516 0.07883662 0.0383277 0.018553298 -0.014644035
0.066127904 -0.028685728 -0.056242418 0.103821844 0.05492709 -0.027508082 -0.0045822687 -0.10101324
0.0048549334 -0.0073192567 0.061690703 0.007968244 -0.013917989 -0.037740953 0.048197873 -0.010099027
-0.023969611 0.04868553 -0.041423164 0.07283572 0.07078703 0.038006593 -0.006231579 0.041723564
-0.08068263 -0.05770794 0.0026588934 -0.02743531 0.08244849 0.015073657 0.07224086 -0.002305515
-0.03428788 -0.004603669 -0.03124806 -0.02308589 0.0075971875 -0.03265794 0.078529246 -0.05793519
0.007160402 -0.024743952 0.014243136 0.041878268 -0.04655234 0.016155694 -0.0383761 -0.10224581
0.06754567 0.10968766 0.0101300925 -0.039557222 0.07417479 -0.017397959 -0.019711683 -0.064301565
0.0017702654 0.023608465 0.016773082 -0.0280038 0.034701426 -0.0665012 -0.03640793 0.08398175
0.049733732 -0.045877267 -0.055010706 0.0707959 0.057416856 -0.05685804 -0.03640443 -0.021911776
-0.026402848 -0.079943396 0.012690008 0.04363056 -0.029739363 -0.045886043 -0.006942652 -0.067542434
0.026286602 -0.12191868 0.07326751 0.02226038 0.07289515 0.07500085 0.0807923 -0.034953542
0.07799176 -0.0061988803 0.09419812 0.0041755345 -0.015870173 -0.011890773 0.0022658142 0.09357696
-0.045121547 -0.020919655 0.0032995057 -0.01118651 -0.111447126 0.028921193 0.0018773 0.054877896
-0.01665159 -0.0022017583 -0.040270995 0.111637294 -0.0053156223 -0.0014853254 -0.034166172 0.08875992
-0.0010932162 -0.08545272 -0.06888566 0.016916346 -0.06313957 0.03302741 0.020732021 0.055213854
-0.06549189 -0.017385503 0.051807113 -0.021871619 -0.014320547 0.034773216 0.02208089 0.060638625
-0.075111814 -0.008374138 0.08632125 -0.059598334 0.070813894 0.057593174 0.049011644 0.10780232
0.07660115 -0.016478613 0.07753693 -0.035682086 -0.110216044 0.07970502 -0.07282002 -0.01956096
-0.050296474 -0.025810353 0.06249905 -0.015737332 -0.0027449774 0.08320212 0.07035619 -0.059951868
0.008027608 0.01137409 0.055612877 -0.041315697 -0.02842943 0.06852758 3.9140235e-05 -0.031320535
-0.025816645 -0.070741326 -0.032538835 0.05995087 0.082383744 -0.026978228 0.012416167 -0.05022782
-0.08687949 0.091999225 0.079579085 -0.0016671151 0.08406999 0.016032021 0.06973649 -0.107800394
-0.032654826 0.12084868 0.010403722 0.0110112475 0.061439753 -0.022108981 0.041940596 0.12950651
0.039629124 0.035619188 0.04702441 0.07473513 -0.013271189 -0.06687229 0.028491655 0.0436636
0.069036424 0.024851983 0.060733143 0.040649302 0.09516885 0.0046678125 0.085660286 0.061145075

bias f4 [2]
00000000: 707d 9b3d 014e 03bd
0.07592285 -0.032056812
